dice_ml/utils/sample_trained_models/adult-pytorch.pth (torch_old, 3439 bytes, 4 tensors)

ann_model.0.weight f4 [20, 29]
-0.16415715 -0.46534038 0.054444324 0.14277302 0.05092782 0.21191859 0.06078113 0.01758565
-0.10082503 0.30880716 0.0013687765 -0.34073183 0.44433329 0.09238465 -0.00065528066 -0.036144797
-0.026005454 0.3871542 -0.21748967 0.32756972 0.05326874 0.08300267 0.04588453 0.06692078
-0.16168389 0.11015678 0.162637 -0.1242298 0.28999487 0.30309615 0.23430617 0.14644693
-0.03256443 0.023130275 0.09489046 -0.07828161 0.010497107 -0.5045927 0.42863816 -0.04602897
-0.29854062 0.24123456 0.12520342 0.3580856 -0.72170585 0.3438035 0.1927028 0.2509776
0.2559082 -0.112710744 -0.05083649 -0.061533466 0.49713504 -0.2873283 0.20114821 0.07695668
0.5415205 -0.39877358 -0.19859388 -0.34169173 -0.012538233 0.087490276 0.026726436 0.086746514
0.02563666 -0.018154237 -0.072698355 0.22177464 -0.018913204 -0.23783943 0.32308263 0.076682225
-0.029919343 0.029602995 -0.037736423 0.3329607 -0.13067484 0.26912203 0.021265237 0.018270329
0.03691472 0.046880756 -0.13703728 0.16916068 0.1585527 -0.09609318 0.26807052 0.10299824
0.28151065 -0.015993327 -0.06698474 0.08170793 -0.03821072 -0.025909051 -0.0014717857 0.1165981
-0.096144035 0.07638726 0.14570658 -0.1599895 -0.06598357 -0.05004668 0.14142682 -0.03600836
-0.059467923 -0.018130826 -0.11936215 -0.02179828 0.08352267 -0.01417215 -0.018944392 0.10015826
-0.047865424 -0.0045024394 -0.028787732 -0.0017743265 1.7775442e-36 -4.704023e-20 1.5490691e-25 5.661e-41
-6.4354285e-19 -5.323455e-35 1.050645e-33 3.7292343e-36 3.12974e-40 3.850138e-34 -2.526135e-39 2.045306e-39
2.645471e-39 2.1569175e-24 6.13295e-40 -1.8150231e-09 1.66936e-39 -2.042688e-39 1.33181e-40 -4.9183395e-30
-5.27836e-40 -1.1567944e-25 1.282253e-39 -2.7894582e-28 8.132634e-26 -3.5694878e-33 -4.225875e-10 -1.668481e-39
-4.666607e-11 -0.005046534 -0.010462246 -0.0049814787 -0.0010450986 -0.0052025197 0.00085437787 -0.0043055243
-0.018088443 -0.0003460498 0.02044155 -0.00076491525 0.00018339478 -1.5023102e-06 -0.02467092 -0.0025389655
-0.00989686 -0.00013043522 -0.0023929125 -8.8440254e-05 0.0131368665 -0.0007587206 -0.003691328 -0.006812985
0.002700308 -0.0144969355 -0.008652186 -0.0041146562 0.005804407 -0.016862808 0.1576047 0.41395304
-0.026418913 -0.12677805 0.13048047 -0.08982864 -0.03766689 0.0055195433 0.21783741 -0.17464468
0.13153346 0.26130185 -0.30052522 -0.12181624 -0.0881549 0.22493604 -0.0709675 -0.1102702
-0.03553704 -0.25286233 -0.049130104 0.11803862 -0.027304156 -0.04599457 0.16601008 -0.06670148
0.09851208 -0.040184353 0.0318732 -0.0881214 -0.39530668 0.0849268 0.14897004 -0.015010104
0.1637024 0.03105521 0.043823514 -0.15239331 0.20597789 -0.016282244 -0.17692287 0.26723495
0.13215035 0.11827356 0.000814401 0.091465846 0.050009634 0.026150478 0.23324123 0.07779634
-0.046976514 0.008157932 0.044390097 -0.0313123 0.14726596 0.16035916 0.11501084 0.09450638
-1.2107563 -0.3942193 -0.10670959 0.07282613 0.281596 0.14949939 0.08747261 -0.067946404
0.02869526 0.009888232 -0.027088754 0.08226722 0.7154508 -0.05813011 0.017651262 0.12454963
-0.07610337 0.13068335 0.14327373 0.05080185 0.049315527 -0.14937048 0.010161762 0.32373556
00000000: d018 28be 1841 eebe 0301 5f3d 1733 123e
00000010: b199 503d 3001 593e a2f5 783d c80f 903c
00000020: 5a7d cebd f91b 9e3e 8568 b33a 6774 aebe
00000030: a77f e33e 2a34 bd3d 24c7 2bba 910c 14bd
00000040: 6409 d5bc 1339 c63e 9db5 5ebe 38b7 a73e
00000050: 5330 5a3d 4efd a93d 6bf1 3b3d c30d 893d
00000060: 7690 25be e199 e13d 508a 263e 326c febd
00000070: 357a 943e 6b2f 9b3e f5ed 6f3e 2ff6 153e
00000080: 4862 05bd b47b bd3c ee55 c23d 1c52 a0bd
00000090: 0ffc 2b3c fd2c 01bf 7676 db3e e088 3cbd
000000a0: 51da 98be 3106 773e 5335 003e ff56 b73e
000000b0: b7c1 38bf 0307 b03e e253 453e 2380 803e
000000c0: 6606 833e e4d4 e6bd ec39 50bd 840a 7cbd
000000d0: 7c88 fe3e b21c 93be ccf9 4d3e 779b 9d3d
000000e0: 16a1 0a3f 0d2c ccbe 325c 4bbe 38f2 aebe
000000f0: 296d 4dbc 1a2e b33d 66f1 da3c 28a8 b13d
00000100: f903 d23c 32b8 94bc e0e2 94bd e418 633e
00000110: ddef 9abc 2e8c 73be 166b a53e 920b 9d3d
00000120: 6919 f5bc fb81 f23c 8291 1abd d379 aa3e
00000130: a0cf 05be 5dca 893e 6f34 ae3c a8ab 953c
00000140: e433 173d 0906 403d 8053 0cbe 7538 2d3e
00000150: a45b 223e 80cc c4bd 8a40 893e bef0 d23d
00000160: 2a22 903e 7004 83bc 4c2f 89bd 7d56 a73d
00000170: d882 1cbd 383f d4bc efe8 c0ba fcca ee3d
00000180: 2ae7 c4bd ec70 9c3d 1b34 153e 4ad4 23be
00000190: 6522 87bd bffd 4cbd 31d2 103e 817d 13bd
000001a0: a394 73bd 1987 94bc 2574 f4bd 4e92 b2bc
000001b0: ef0d ab3d 4e32 68bc 4531 9bbc c61f cd3d
000001c0: 890e 44bd 3389 93bb 40d4 ebbc 8590 e8ba
000001d0: 7c37 1704 2624 5e9f f6c3 3f16 ce9d 0000
000001e0: b9f0 3da1 8f85 8d86 7f91 ae08 c49f 9e04
000001f0: 7268 0300 b4e2 ff07 d681 1b80 7b45 1600
00000200: 7fce 1c00 27e2 2618 9ead 0600 7374 f9b0
00000210: 7f2d 1200 2f3e 1680 4173 0100 f582 c78e
00000220: 64bf 0580 4734 0f96 66f6 0d00 8ccd b091
00000230: b15a c915 4e45 9489 e751 e8af 0c2b 1280
00000240: 533d 4dae 655d a5bb d769 2bbc ac3b a3bb
00000250: b1fb 88ba e679 aabb 54f8 5f3a 5b15 8dbb
00000260: 372e 94bc 056e b5b9 0a75 a73c 9884 48ba
00000270: a94d 4039 fca2 c9b5 ab1a cabc c664 26bb
00000280: 7126 22bc 70c5 08b9 69d2 1cbb 0079 b9b8
00000290: 033c 573c e1e4 46ba 35ea 71bb 763f dfbb
000002a0: a7f7 303b 8e84 6dbc e6c1 0dbc 3dd4 86bb
000002b0: e532 be3b df23 8abc 2063 213e a7f1 d33e
000002c0: 7a6c d8bc 1bd2 01be ac9c 053e 14f8 b7bd
000002d0: 9948 1abd 49dd b43b c510 5f3e 0ed6 32be
000002e0: b5b0 063e 5bc9 853e 71de 99be cb7a f9bd
000002f0: 8e8a b4bd a255 663e 6957 91bd 58d5 e1bd
00000300: 4a8f 11bd 2c77 81be a63c 49bd 3bbe f13d
00000310: f7ac dfbc cd64 3cbd 8cfe 293e c99a 88bd
00000320: b4c0 c93d 5998 24bd 798d 023d fe78 b4bd
00000330: a365 cabe 1aee ad3d 9a8b 183e f0ec 75bc
00000340: 9aa1 273e 7f67 fe3c 4980 333d fe0c 1cbe
00000350: deeb 523e 5762 85bc 452b 35be 05d3 883e
00000360: 6c52 073e 6939 f23d 877d 553a 7252 bb3d
00000370: e7d6 4c3d 8739 d63c cad6 6e3e b053 9f3d
00000380: 726a 40bd d9a8 053c 64d2 353d 5441 00bd
00000390: e3cc 163e 3135 243e ce8a eb3d 908c c13d
000003a0: 10fa 9abf 1dd7 c9be 8f8a dabd de25 953d
000003b0: 5a2d 903e 5e16 193e d724 b33d 7c27 8bbd
000003c0: 5212 eb3c 4002 223c 3ce9 ddbc b77b a83d
000003d0: c927 373f d719 6ebd 6199 903c e013 ff3d
000003e0: 15dc 9bbd dbd1 053e 59b6 123e 9a15 503d
000003f0: 14ff 493d 93f4 18be 857d 263c abc0 a53e

ann_model.0.bias f4 [20]
0.006449144 -0.00658176 0.005044549 -0.0030410932 1.924e-41 1.2828722e-05 -0.002788808 0.0026637432
0.009784011 -0.0021371788 0.011532349 -0.001899009 -0.0025593084 0.0026543324 0.0026039665 0.0039836573
0.0048774793 0.0069762324 -0.002315826 -0.002472683
00000000: 5753 d33b ceab d7bb be4c a53b 144d 47bb
00000010: a235 0000 f13a 5737 6fc4 36bb 3292 2e3b
00000020: 1e4d 203c e90f 0cbb 2df2 3c3c 2be8 f8ba
00000030: 12ba 27bb 4ff4 2d3b 4fa7 2a3b 5789 823b
00000040: 43d3 9f3b e198 e43b 1dc5 17bb bd0c 22bb

ann_model.2.weight f4 [2, 20]
0.57883286 1.0200034 0.43319502 -0.19449715 2.420276e-08 -0.0034269432 -0.42289847 0.3314947
1.0622045 -0.06454272 0.80599153 -0.5918096 -0.38069335 0.41358343 0.9982923 0.290763
0.33033147 1.0456966 -0.30263993 -0.49086595 -0.5803594 -1.0154978 -0.3974204 0.18324961
-2.4202764e-08 0.003426953 0.3601085 -0.31577894 -1.0646968 0.08374934 -0.80617976 0.6079242
0.34114048 -0.4116804 -0.995477 -0.29762733 -0.35453713 -1.0488107 0.30531725 0.4715184
00000000: 642e 143f 798f 823f bdcb dd3e 432a 47be
00000010: 6fe6 cf32 9196 60bb 2686 d8be acb9 a93e
00000020: 51f6 873f f92e 84bd 7655 4e3f d580 17bf
00000030: 3dea c2be 35c1 d33e 1690 7f3f e3de 943e
00000040: 3521 a93e 63d9 853f 9ff3 9abe c852 fbbe
00000050: 6f92 14bf d5fb 81bf b07a cbbe c9a5 3b3e
00000060: 71e6 cfb2 bb96 603b 2460 b83e c7ad a1be
00000070: fc47 88bf c684 ab3d cc61 4ebf eca0 1b3f
00000080: f7a9 ae3e c6c7 d2be 95d7 7ebf 9c62 98be
00000090: e485 b5be 6e3f 86bf 8b52 9c3e dc6a f13e

ann_model.2.bias f4 [2]
0.0028129732 -0.00281297
00000000: dc59 383b ce59 38bb
