dice_ml/utils/sample_trained_models/adult-margin-0.369-validity_reg-73.0-epoch-25-ae-gen.pth (torch_old, 35079 bytes, 78 tensors)

encoder_mean.0.weight f4 [20, 30]
0	0xbf110ba9	-0.56658417
1	0xbf2fd897	-0.68689865
2	0xbd0dfc8a	-0.03466467
3	0xbc0877ba	-0.008329326
4	0xbcdebe46	-0.027190339
5	0xbd7bc395	-0.06146582
6	0x3cc6f286	0.024285566
7	0xbb4ec7c2	-0.003155217
8	0xbd3ce360	-0.04611528
9	0xbbc12372	-0.005894118
10	0xbca90423	-0.020631855
11	0x3cdd702f	0.027031032
12	0xbc214def	-0.009845241
13	0x3bb033f8	0.005377289
14	0x3d278235	0.04089566
15	0x3ca4d3ba	0.02012049
16	0x3d228576	0.03967806
17	0x3c9e07c2	0.019290809
18	0x3d07b246	0.033129
19	0x3b6cd506	0.0036137714
20	0xbc0da774	-0.008645881
21	0x3c8f51ce	0.017495062
22	0xbb38a8fa	-0.002817689
23	0xbc8a168c	-0.016856454
24	0xbc28cc5e	-0.010302631
25	0xbddd09c3	-0.107928775
26	0xbdcd5615	-0.100261845
27	0x3c9391df	0.018013893
28	0x3bce94e8	0.006304372
29	0x3db3a7d0	0.08772242
30	0x3f22d645	0.636082
31	0xbe15420d	-0.14575978
32	0xbd5f14af	-0.054463085
33	0xbd9520f0	-0.07281673
34	0xbd901e30	-0.07037008
35	0xbd6313f7	-0.05543896
36	0xbc8bd988	-0.0170715
37	0x3badbfde	0.0053024134
38	0xbc4f5ba4	-0.012656126
39	0xbca3a9f2	-0.019978497
40	0xbd0672bc	-0.032824263
41	0xbd2466f6	-0.040137254
42	0xbd03a6d7	-0.032141533
43	0xbc16ee31	-0.009212063
44	0xbcf9ed78	-0.030508742
45	0xbd183b3a	-0.037165858
46	0xbc914151	-0.01773134
47	0xbd131c44	-0.035915628
48	0xbce86c23	-0.028371876
49	0xbc74ce8f	-0.0149418255
50	0xbce027a2	-0.027362648
51	0xbcbc9bd4	-0.023023523
52	0xbc99968d	-0.018748546
53	0xbc856f7b	-0.01628851
54	0xbd306af9	-0.043070767
55	0x3ddf44fc	0.109018296
56	0x3df5e981	0.12007428
57	0xbd59858a	-0.05310587
58	0xbd6f4360	-0.058413863
59	0xbca7ecbb	-0.020498624
60	0x3f272231	0.65286547
61	0xbc5f6910	-0.013635889
62	0xbd3765ce	-0.044774823
63	0xbd04a21b	-0.03238116
64	0xbd3db2fe	-0.04631328
65	0xbd42ce7d	-0.047560204
66	0xbbc3e9f7	-0.0059788185
67	0x3c3dd137	0.011585525
68	0x3bacbafc	0.0052713137
69	0xbb216ce0	-0.0024631545
70	0x3c2664e6	0.010155892
71	0x3c1e183d	0.009649334
72	0xbbab4c68	-0.005227614
73	0x3ae80fc8	0.0017704898
74	0x3d4ad916	0.049523436
75	0x3d51d9e9	0.051233206
76	0x3d4b9fd7	0.049712982
77	0x3d57f119	0.052720163
78	0x3d30d1b8	0.043168753
79	0x3d6abb76	0.057307683
80	0x3d4ec40c	0.050479934
81	0x3d4c53bc	0.049884543
82	0x3d62bf8b	0.05535845
83	0x3d697e6a	0.057005323
84	0x3d5f784e	0.05455809
85	0xbe18ddb6	-0.14928326
86	0xbe137781	-0.14401056
87	0x3d959d2f	0.07305371
88	0x3d92ff73	0.07177629
89	0x3edbf3c2	0.4295941
90	0x3f28b0f0	0.65894985
91	0x3c173f89	0.009231457
92	0x3d856bd6	0.06514709
93	0x3ce9e5fb	0.028552046
94	0x3d89b7fc	0.06724545
95	0x3d8d2802	0.068923965
96	0x3d3c96e8	0.046042353
97	0x3d613eee	0.054991655
98	0x3d6785fc	0.05652426
99	0x3d4578f8	0.048211068
100	0x3d4f9401	0.050678257
101	0x3d75ab84	0.059978023
102	0x3d088479	0.03332946
103	0x3d0ffbb6	0.03515216
104	0x3d83a21c	0.06427404
105	0x3d866f03	0.065641426
106	0x3d86e468	0.06586534
107	0x3d6d1312	0.057879515
108	0x3d95f3fb	0.07321926
109	0x3d7a19e2	0.06105984
110	0x3d92d8ca	0.071702555
111	0x3d727dac	0.05920188
112	0x3d852696	0.065015
113	0x3d7d214c	0.061799332
114	0x3d5268d0	0.05136949
115	0x3c8ba440	0.017046094
116	0x3ca32dc0	0.019919276
117	0xbc99acf1	-0.018759223
118	0xbca70a70	-0.02039072
119	0x3c81966c	0.015818797
120	0xbde7e95c	-0.11323807
121	0x3c133f51	0.008987264
122	0x3cad92c0	0.02118814
123	0xba79d25b	-0.00095299416
124	0xbd305403	-0.04304887
125	0x3cca5e6f	0.024703233
126	0x3c9cf602	0.019160274
127	0x3cf0b61c	0.029383712
128	0xbb41120c	-0.002946022
129	0x3d222bae	0.039592437
130	0x3b8b350e	0.004248268
131	0x3b91983a	0.0044431956
132	0xbcec89c9	-0.028874295
133	0xbc3dd71b	-0.01158693
134	0x3da54daf	0.080714576
135	0x3d25e60b	0.04050259
136	0x3c89eb55	0.016835848
137	0xbe0ff449	-0.14058031
138	0x3b1915ae	0.002335887
139	0xbd925bc6	-0.07146411
140	0x3b4d51bb	0.0031329233
141	0x3c047909	0.008085498
142	0x3d7c3b61	0.061580066
143	0x3d232212	0.039827414
144	0x3daa25d5	0.08307997
145	0xbcc02aff	-0.023458002
146	0x3bab4f3c	0.0052279513
147	0xbb658e8e	-0.0035027596
148	0x3cbecb54	0.023290314
149	0x3c6e6ad3	0.014551836
150	0xbf09041b	-0.5352189
151	0xbf2607aa	-0.64855444
152	0x3d718990	0.05896908
153	0x3d41b5ea	0.047292627
154	0x3d41d77e	0.04732465
155	0x3cd6b5ff	0.02620983
156	0x3cb619bc	0.022229068
157	0x3d492a2f	0.049112495
158	0xbc6e47e8	-0.014543511
159	0x3c5c1b08	0.013434179
160	0xbd6c4bba	-0.057689406
161	0x3cd884ab	0.026430449
162	0x3b844c6c	0.0040374305
163	0x3b724151	0.00369652
164	0xbd8b1940	-0.067919254
165	0xbaad1f28	-0.0013208138
166	0x3ca021f8	0.019547448
167	0x3bb909af	0.0056469063
168	0xbb7c6010	-0.0038509406
169	0x3cd9798d	0.026547218
170	0x3ca43028	0.020042494
171	0x3b246e9f	0.002509035
172	0x3cfea70d	0.031085515
173	0x3cc5cacd	0.024144555
174	0x3d0ff770	0.035148084
175	0x3d827db2	0.06371631
176	0x3d045671	0.032309
177	0xbd5d349c	-0.05400525
178	0xbd602c45	-0.05472972
179	0x3c32a930	0.010904595
180	0xbe2e292c	-0.17007893
181	0x3c8f93f5	0.017526606
182	0xbc83201b	-0.01600652
183	0xbc8cf978	-0.0172088
184	0x3c9aef22	0.018912856
185	0x3c008955	0.0078452425
186	0xbc89755b	-0.016779592
187	0x3d46ea0f	0.04856306
188	0x3c8408a4	0.016117401
189	0xbcaee589	-0.021349685
190	0xb9fdbc62	-0.00048396277
191	0xbcbfa025	-0.023391793
192	0xbc9bf6f2	-0.019038651
193	0xbd05dce0	-0.032681346
194	0xbcbbb1ae	-0.022911873
195	0x3d18b33b	0.037280302
196	0x3b92ecc9	0.0044837934
197	0xbd1830ae	-0.0371558
198	0xbc538074	-0.012909044
199	0x3b1be66f	0.0023788472
200	0xbcacbe57	-0.021086855
201	0xbb23f6a5	-0.0025018838
202	0x3bc594ce	0.006029702
203	0xbc039094	-0.008030076
204	0x3b31da42	0.0027138148
205	0xbb2569b8	-0.0025240015
206	0x3d21c5c4	0.039495245
207	0xbca9dd1c	-0.020735316
208	0x3d8418e9	0.06450064
209	0xbe5731cf	-0.21015094
210	0x3df47022	0.1193545
211	0x3e02e6e4	0.1278339
212	0xbd0220b7	-0.03176948
213	0x3d6df7e7	0.058097746
214	0xbd1cd95e	-0.038293235
215	0x3d2bec6c	0.041973516
216	0x3cc851b6	0.024453025
217	0xbd0161cb	-0.031587403
218	0x3bd51600	0.0065028667
219	0x3af2a1c0	0.001851134
220	0xbc9059da	-0.01762097
221	0x3d09e084	0.03366138
222	0x3d38d36d	0.045123506
223	0x3b9c16e0	0.004763469
224	0x3d551dff	0.05203056
225	0xbd347118	-0.044053167
226	0xbd0b1164	-0.033952132
227	0xbc9fc24b	-0.019501826
228	0x3c807996	0.015682977
229	0x3d740947	0.05957916
230	0x3d8d3301	0.06894494
231	0xbc84db98	-0.016217992
232	0x3d19f440	0.03758645
233	0xbd5217fc	-0.051292405
234	0x39737190	0.00023216591
235	0x3d3632ef	0.044482168
236	0xbd371044	-0.044693246
237	0xbcc268a5	-0.023731539
238	0x3b69b5f5	0.0035661433
239	0x3d6b493f	0.0574429
240	0x3e894f0c	0.2681812
241	0xbe027881	-0.12741281
242	0xbca576dc	-0.020198278
243	0x3da2cb53	0.07948937
244	0xbcdece01	-0.02719784
245	0xbcc7fe21	-0.02441317
246	0x3a4f5ef5	0.0007910573
247	0xbc42eb7e	-0.011896966
248	0xbd53ce21	-0.05171025
249	0x3c1e6adf	0.009669035
250	0x3d01f8f6	0.03173157
251	0xbba95be2	-0.005168424
252	0x3ca4ccce	0.02011719
253	0x3ce0217c	0.027359717
254	0xbbe5d040	-0.0070133507
255	0x3e1b263c	0.15151304

encoder_mean.0.bias f4 [20]
0	0xb6f6d82d	-7.3565375e-06
1	0xb58818dc	-1.0140025e-06
2	0x391e399b	0.00015089514
3	0x354df548	7.672538e-07
4	0x35346d87	6.721461e-07
5	0x3626724e	2.4802462e-06
6	0x35de7762	1.6575034e-06
7	0xb612a31a	-2.1850633e-06
8	0xb577e52a	-9.234815e-07
9	0xb674214c	-3.6378215e-06
10	0xb737199c	-1.0913613e-05
11	0x365388bd	3.1521042e-06
12	0xb5d8438c	-1.6112913e-06
13	0x368faf38	4.2821302e-06
14	0xb6a712a0	-4.979156e-06
15	0x36c4e508	5.867918e-06
16	0x3383f118	6.1440176e-08
17	0xb7442c36	-1.1692804e-05
18	0x347e375c	2.3675733e-07
19	0xb690076d	-4.292399e-06

encoder_mean.1.weight f4 [20]
0	0x3ef2a0d4	0.47388327
1	0x3f10e9c2	0.56606686
2	0x3f5116ef	0.8167562
3	0x3f132b8f	0.5748834
4	0x3dafffe3	0.085937284
5	0x3ed9ba1f	0.42524812
6	0x3e37ebed	0.17961092
7	0x3d4da267	0.050203707
8	0x3ec65860	0.387393
9	0x3f211a3d	0.6293066
10	0x3f323706	0.6961521
11	0x3f0a27b1	0.53966814
12	0x3e9166e0	0.283988
13	0x3ec4bcd0	0.38425303
14	0x3f20e430	0.62848186
15	0x3ee894b0	0.4542594
16	0x3e2e619f	0.17029427
17	0x3f2591de	0.646757
18	0x3de732b0	0.11288965
19	0x3ece5716	0.40300816

encoder_mean.1.bias f4 [20]
0	0xbed97dcd	-0.4247879
1	0xbf05d970	-0.5228491
2	0x3e16f3e5	0.14741476
3	0xbe17d816	-0.14828524
4	0xbd90bd1c	-0.0706732
5	0xbecf8f7e	-0.40539163
6	0xbd8fa4c2	-0.07013847
7	0x3be7fe7b	0.007079897
8	0xbe5cb35c	-0.21552795
9	0x3e241eeb	0.1602742
10	0xbd24ad01	-0.040204052
11	0xbd87a926	-0.066240594
12	0xbd3a437d	-0.045474518
13	0xbe6a500d	-0.228821
14	0xbcb699f9	-0.022290217
15	0xbf34f64c	-0.7068832
16	0xbe13b7ed	-0.14425631
17	0x3dc6dc23	0.097099565
18	0xbcb8f91c	-0.022579722
19	0xbed3437e	-0.4126243

encoder_mean.1.running_mean f4 [20]
0	0xbedb3bdd	-0.4281911
1	0x3bfb0b68	0.007661272
2	0x3f0685bd	0.5254782
3	0x3ed9aae2	0.42513186
4	0xbd0faac2	-0.035074957
5	0xbe9a00c1	-0.300787
6	0xbe2ccdd5	-0.16875394
7	0x3dc0c596	0.094126865
8	0x3c72032b	0.014771263
9	0x3f73aa29	0.9518152
10	0x3eb010ba	0.3438776
11	0x3f1817c0	0.5941124
12	0xbeadba1e	-0.3393106
13	0x3c910bb1	0.01770577
14	0xbec876d0	-0.39153147
15	0xbe043f1c	-0.129147
16	0xbe85580b	-0.26043734
17	0x3f1a1ecc	0.6020324
18	0xbea6ce75	-0.3257939
19	0xbe86bbc2	-0.26315123

encoder_mean.1.running_var f4 [20]
0	0x3cc5411b	0.024078896
1	0x3c82309c	0.01589232
2	0x3ce0035d	0.027345354
3	0x3c852531	0.016253086
4	0x3c5a692d	0.01333074
5	0x3cb0ae76	0.021567564
6	0x3c84db96	0.016217988
7	0x3c1bfd13	0.009520787
8	0x3d0ea68c	0.0348268
9	0x3d00208b	0.031281035
10	0x3ccc8ad5	0.024968544
11	0x3cda7cc3	0.02667082
12	0x3c3bffa5	0.011474525
13	0x3c87414e	0.016510632
14	0x3c9f250b	0.019426843
15	0x3c7ac99b	0.015306856
16	0x3c901712	0.017589126
17	0x3d01cae8	0.031687647
18	0x3cbf1401	0.023324968
19	0x3ce3e69e	0.027819928

encoder_mean.4.weight f4 [16, 20]
0	0xbdc603d6	-0.096687004
1	0x3e21f713	0.15816908
2	0x3d964a4b	0.07338389
3	0x3e0821dd	0.13294168
4	0x3ccde803	0.025135046
5	0xbd960993	-0.07326045
6	0xbd96e33e	-0.07367562
7	0x3ccab3c2	0.024743918
8	0x3c3c3832	0.011488007
9	0xbe27bfb3	-0.16381721
10	0x3dea37e7	0.11436444
11	0x3d2b6f32	0.04185409
12	0xbc70af0f	-0.014690175
13	0x3e49d57b	0.19710343
14	0xbe5245ba	-0.20534411
15	0x3d197246	0.037462495
16	0xbcd930bb	-0.026512494
17	0x3e6e5133	0.23273163
18	0x3d1f51d5	0.0388964
19	0xbc401b8f	-0.0117253205
20	0x3d42600d	0.047454882
21	0xbdf073e1	-0.11740852
22	0xbde4fdd9	-0.1118123
23	0xbdf0f80e	-0.11766063
24	0x3ca27186	0.019829523
25	0x3dcb51d8	0.0992772
26	0xbd33ccc0	-0.043896437
27	0x3969f51c	0.00022311922
28	0xbd2b3dd8	-0.041807026
29	0xbd79f117	-0.061020937
30	0xbe2e9c3e	-0.17051789
31	0xbe208b17	-0.15678059
32	0x3d22539f	0.03963053
33	0xbe1fecce	-0.15617678
34	0x3d790e10	0.060804427
35	0xbd532113	-0.051545214
36	0xbdde4fe9	-0.108550854
37	0xbdc601ee	-0.09668337
38	0xbe019a3d	-0.12656493
39	0x3dbb3530	0.09141004
40	0x3e8eca10	0.27888536
41	0x3deb5d91	0.11492456
42	0xbd4c6ac0	-0.049906492
43	0xbb0dccfa	-0.0021637068
44	0xbd13200d	-0.035919238
45	0xbd3de2e3	-0.046358954
46	0xbdac9ba2	-0.08428122
47	0x3ca387e8	0.019962266
48	0xbca33e54	-0.019927181
49	0xbd336c63	-0.043804538
50	0x3c21a778	0.009866588
51	0xbddd3af3	-0.10802259
52	0x3c15067c	0.009095784
53	0x3dab767a	0.08372207
54	0x3c8c2660	0.017108142
55	0x3e8e3380	0.27773666
56	0x3ccd93c0	0.025094867
57	0xbdb171d6	-0.086642906
58	0xbd934c96	-0.07192342
59	0xbd2f0911	-0.042733256
60	0xbd2d456e	-0.04230254
61	0x3c55b10b	0.013042699
62	0x3ef5d966	0.48017424
63	0xbdc4ebca	-0.09615286
64	0xbb8eb2bb	-0.0043548024
65	0xbc947e12	-0.018126521
66	0x3d7f2918	0.06229505
67	0xbc561860	-0.013067335
68	0xbc043798	-0.008069895
69	0xbd740859	-0.059578273
70	0xbe277b6b	-0.16355674
71	0xbd5a092e	-0.05323141
72	0x3d79bcec	0.060971186
73	0x3c96f5e5	0.018427799
74	0x3e571303	0.21003346
75	0x3df20066	0.11816482
76	0x3cb82ee1	0.022483291
77	0xbd0f6f9a	-0.03501854
78	0x3d4d86b5	0.050177295
79	0xbd919222	-0.07107951
80	0xbdfd2626	-0.12360792
81	0x3e68a5f5	0.22719558
82	0x3d9c7355	0.07639185
83	0x3dfd4de7	0.12368374
84	0xbcaa33fe	-0.020776745
85	0xbcb836de	-0.0224871
86	0xbdb2a69a	-0.08723183
87	0x3cec9e36	0.028884035
88	0x3d474b6a	0.048655905
89	0x3d75f084	0.060043827
90	0x3e3be3a3	0.18348555
91	0x3dfe88df	0.1242845
92	0xbdeb8010	-0.11499035
93	0x3dcf2c4d	0.101158716
94	0xbe8a7942	-0.27045637
95	0x3eb7c827	0.35894892
96	0xbe0c35cf	-0.13692401
97	0x3d697224	0.05699362
98	0xbd353864	-0.04424323
99	0x3d68ab91	0.056804243
100	0xbda7b682	-0.081891075
101	0x3dbba7e8	0.09162885
102	0xbea483d6	-0.32131833
103	0x3e35dec5	0.17760761
104	0xbc9a05e2	-0.018801633
105	0xbdbe0ad1	-0.09279407
106	0x3c6f6fd4	0.014614064
107	0x3c168812	0.009187715
108	0x3d9e1fea	0.07720931
109	0x3e3efefe	0.1865196
110	0xbe8912db	-0.26772198
111	0x3e19ce44	0.1502009
112	0xbdd11c9b	-0.10210534
113	0x3e19dd69	0.15025868
114	0xbe03e2c5	-0.12879474
115	0x3e4aa530	0.19789577
116	0x3d052150	0.032502472
117	0x3e1cb290	0.15302491
118	0x3d52882d	0.0513994
119	0xbd8ffd10	-0.0703069
120	0xbc32ec34	-0.010920573
121	0xbd97614e	-0.07391606
122	0x3da92843	0.082596324
123	0xbcddc052	-0.027069245
124	0xbca516c0	-0.02015245
125	0xb9163300	-0.00014324114
126	0xbb3ad8ce	-0.0028510573
127	0xbd7a69b8	-0.061135978
128	0x3d949bd6	0.07256286
129	0xbc4665c1	-0.012109221
130	0x3ea30c9d	0.3184556
131	0xbda7bec1	-0.0819068
132	0xbcf333bf	-0.02968776
133	0x3db5c87a	0.088761285
134	0xbde2e4a1	-0.11078764
135	0x3e6c8b05	0.23099907
136	0x3de9c8d7	0.1141526
137	0x3d323e8b	0.043516677
138	0xbcda793a	-0.026669133
139	0x3c421780	0.011846423
140	0x3e5282a0	0.20557642
141	0xbe3a05f7	-0.18166338
142	0xbe59364b	-0.21212117
143	0xbddcc3c3	-0.10779526
144	0x3b9867df	0.0046510543
145	0x3e3ad2fd	0.18244548
146	0xbc736f66	-0.014858102
147	0xbb83a058	-0.004016917
148	0xbd01875d	-0.031623233
149	0xbe391e13	-0.18077879
150	0xbe026e09	-0.12737288
151	0xba0f3532	-0.0005462944
152	0x3d23819b	0.039918523
153	0xbe052531	-0.13002469
154	0x3d3636b2	0.044485755
155	0xbd34382d	-0.043998886
156	0x3d0745f7	0.033025708
157	0xbe4f2922	-0.20230535
158	0x3cb2de4d	0.021834517
159	0x3e4a5a04	0.197609
160	0x3e34ba43	0.17649178
161	0xbe09ed18	-0.1346935
162	0xbe24d1a1	-0.16095592
163	0xbd8beffc	-0.06832883
164	0xbc012249	-0.007881709
165	0x3e41f735	0.18941958
166	0x3d8e1bc2	0.06938888
167	0xbd1b1a0f	-0.03786665
168	0xbcd249c7	-0.025669945
169	0xbe5d9efa	-0.21642676
170	0xbdd48f7a	-0.103789285
171	0x396376b8	0.00021692633
172	0x3cc94c4f	0.02457252
173	0xbe05121d	-0.12995191
174	0x3c2f7e63	0.010711285
175	0xbccbded5	-0.024886528
176	0x3cb99c36	0.022657495
177	0xbe803b70	-0.25045347
178	0xbb014b34	-0.0019728662
179	0x3e3b3029	0.1828009
180	0x3ddb3d15	0.1070501
181	0xbd87981a	-0.06620808
182	0xbe11420d	-0.14185353
183	0xbd3b7871	-0.04576916
184	0xbc2b64ec	-0.010461073
185	0x3e06f298	0.1317848
186	0xbd537f02	-0.051634796
187	0xbb5bfff1	-0.00335693
188	0xbcbba779	-0.022907006
189	0xbe1300f5	-0.14355834
190	0xbd8517b9	-0.06498665
191	0xbe082d6d	-0.13298579
192	0xbb3614dc	-0.002778343
193	0xbdc4b746	-0.09605269
194	0x3dc37b14	0.0954496
195	0xbcc3753b	-0.02385961
196	0xbdc73900	-0.09727669
197	0xbe215ae3	-0.15757327
198	0xbd949e43	-0.072567485
199	0x3e086025	0.13317926
200	0x3da09c18	0.078422725
201	0x3e0d3cb1	0.13792683
202	0xbdbfd6d8	-0.0936715
203	0x3dd15918	0.102220714
204	0xbbe80176	-0.0070802523
205	0x3d439ef2	0.047759004
206	0xbd391e74	-0.045195058
207	0x3b6d03a3	0.0036165498
208	0xb9cea7fe	-0.00039416546
209	0xbe03b8cb	-0.12863462
210	0x3d4f1935	0.05056115
211	0xbe4614db	-0.19343893
212	0x3c88cf4b	0.016700407
213	0x3db89af0	0.09013927
214	0x3c6e76b8	0.014554672
215	0x3e3c5416	0.18391451
216	0xbc9b4218	-0.018952414
217	0xbe366f20	-0.17815828
218	0xbcb1a0c1	-0.021683099
219	0x3d3d96a0	0.046286225
220	0xbe47fcb1	-0.19529988
221	0x3c8e8920	0.01739937
222	0xbddf3fe2	-0.109008566
223	0xbe549213	-0.20758848
224	0xbca58c1f	-0.020208417
225	0xbe40a804	-0.18814093
226	0x3bfa2d2b	0.007634779
227	0xbb35d8d2	-0.0027747643
228	0xbda70129	-0.08154518
229	0xbd75e126	-0.06002917
230	0xbe06cb84	-0.13163573
231	0xbe35293a	-0.17691508
232	0x3dd6a29a	0.104802325
233	0xbc7b88da	-0.015352452
234	0x3daa88a9	0.08326847
235	0x3ce9ca6a	0.028538901
236	0xbc16adc1	-0.0091967
237	0xbd956b99	-0.07295913
238	0xbd3c2ec6	-0.045943044
239	0xbe264575	-0.16237433
240	0x3e466ca0	0.19377375
241	0xbd188a0c	-0.037241027
242	0xbe331735	-0.17489322
243	0xbd3da9fb	-0.046304684
244	0x3bb6f82a	0.0055837827
245	0x3e79f14b	0.24408452
246	0x3d0583c1	0.032596353
247	0xbd2dbd84	-0.042417064
248	0xba9ccb6a	-0.0011962478
249	0xbe643104	-0.22284323
250	0xbd76dcf9	-0.06026933
251	0x3b93f59b	0.0045153624
252	0x3d86d5f2	0.065837756
253	0xbd2c0416	-0.041996084
254	0xbd941cf7	-0.07232087
255	0xbd11568e	-0.035482936

encoder_mean.4.bias f4 [16]
0	0xb6786a86	-3.7016885e-06
1	0xb4da22d8	-4.0631016e-07
2	0xb4d7279a	-4.0075685e-07
3	0xb4ab3cdc	-3.1895513e-07
4	0xb6b4c87c	-5.3877575e-06
5	0xb5c01947	-1.4312471e-06
6	0x3601946c	1.930889e-06
7	0xb60ffe7e	-2.1456794e-06
8	0xb6d09cf4	-6.217155e-06
9	0x3737e7b2	1.0961596e-05
10	0x34829a96	2.4326863e-07
11	0xb6a61198	-4.9492337e-06
12	0xb68ce360	-4.198795e-06
13	0x35841df2	9.843482e-07
14	0x36cfeb5b	6.1964797e-06
15	0xb647f684	-2.9796802e-06

encoder_mean.5.weight f4 [16]
0	0x3ee824c5	0.45340553
1	0x3f0a900b	0.5412604
2	0x3e9afe4b	0.30272135
3	0x3ef89aca	0.48555595
4	0x3f340020	0.7031269
5	0x3ef3a2a7	0.4758503
6	0x3eae217e	0.34009928
7	0x3f322ce0	0.69599724
8	0x3f2eadd5	0.68233997
9	0x3f1c4ea7	0.61057514
10	0x3e8ca548	0.2746985
11	0x3ef6497e	0.48102945
12	0x3f1c3a27	0.61026233
13	0x3ec1168e	0.3771252
14	0x3f1fe5c8	0.62459993
15	0x3efa03d9	0.4883106

encoder_mean.5.bias f4 [16]
0	0x3d9b8b81	0.07594968
1	0xbe2a4a73	-0.16629963
2	0xbe9a841d	-0.3017892
3	0xbea200ba	-0.3164118
4	0x3e44f324	0.19233376
5	0xbe8cf5d5	-0.27531305
6	0xbe875267	-0.26430055
7	0xbeb0f205	-0.34559646
8	0xbec13f2c	-0.3774351
9	0xbe7db248	-0.2477504
10	0xbecb053d	-0.39652434
11	0xbe2b4ac6	-0.16727743
12	0xbec19196	-0.37806386
13	0x3dad9fc9	0.08477742
14	0xbe945da3	-0.2897769
15	0x3d87a916	0.066240475

encoder_mean.5.running_mean f4 [16]
0	0x3d9cbee8	0.076536
1	0xbe48d44f	-0.1961224
2	0xbd855e22	-0.06512095
3	0x3e18fcfc	0.14940256
4	0x3dda9ae4	0.10674074
5	0xbd8d5f47	-0.06902938
6	0x3db940c5	0.09045557
7	0xbe875766	-0.26433867
8	0xbe8024b5	-0.25028005
9	0xbe436105	-0.19079979
10	0xbdc14f44	-0.09438947
11	0xbe45b274	-0.19306356
12	0xbe7960d9	-0.2435335
13	0x3dc233ff	0.09482574
14	0xbe18364c	-0.14864463
15	0x3e18bc5c	0.14915603

encoder_mean.5.running_var f4 [16]
0	0x3da3a168	0.0798977
1	0x3df32785	0.11872772
2	0x3c889202	0.016671184
3	0x3cd7bf23	0.026336258
4	0x3e13721f	0.14399002
5	0x3c876f89	0.016532676
6	0x3d5b53da	0.053546764
7	0x3e4ac36f	0.19801114
8	0x3e2587f4	0.16165143
9	0x3de260ef	0.11053645
10	0x3cf1b0f3	0.029503321
11	0x3dbb0f33	0.091337584
12	0x3df43ae1	0.11925293
13	0x3da5fd90	0.08105004
14	0x3d9f0750	0.077650666
15	0x3e012cb3	0.12614708

encoder_mean.8.weight f4 [14, 16]
0	0x3d85b115	0.06527916
1	0xbe09f4b9	-0.1347226
2	0x3d1f3a92	0.038874216
3	0x3e1b9026	0.15191707
4	0xbec688bb	-0.38776192
5	0x3d562a7f	0.05228662
6	0x3e35a65d	0.17739244
7	0xbdb88b2d	-0.09010921
8	0xbe026149	-0.12732424
9	0xbe04950f	-0.12947486
10	0x3e0a0f1a	0.13482323
11	0xbdc45756	-0.095869705
12	0xbd203791	-0.039115492
13	0x3e6853d5	0.2268823
14	0xbd37306e	-0.04472392
15	0x3e33302a	0.17498842
16	0xbe1e2077	-0.15442072
17	0xbcdbacd7	-0.026815815
18	0x3da3db0c	0.08000764
19	0xbe274f89	-0.16338934
20	0xbdc354bb	-0.095376454
21	0xbc40ab13	-0.011759537
22	0x3d90ec0e	0.07076274
23	0xbe2964cb	-0.16542356
24	0xbe41fc9e	-0.18944022
25	0xbd5e8cc3	-0.05433346
26	0x3d3a997f	0.04555654
27	0xbd089197	-0.03334197
28	0xbea56354	-0.32302344
29	0xbdeb09ba	-0.114764646
30	0xbdd5527d	-0.10416124
31	0xbdd021c3	-0.101626895
32	0x3d62aba4	0.05533947
33	0xbd680b99	-0.056651685
34	0xbdcc337c	-0.09970757
35	0x3e7cddf1	0.24694039
36	0x3e01cad1	0.12675025
37	0x3dac826a	0.08423312
38	0x3dd9ff38	0.10644382
39	0x3cd4c4b4	0.025972702
40	0x3cd9da37	0.02659331
41	0xbd51910c	-0.051163718
42	0xbe13102a	-0.14361635
43	0xbdfebc9b	-0.124383174
44	0x3ca7f259	0.020501303
45	0x3d8daf5e	0.06918214
46	0xbdd7fe6f	-0.10546576
47	0x3d0f60d1	0.03500444
48	0xbc94a358	-0.018144295
49	0xbe238080	-0.15966988
50	0xbdb0cbec	-0.08632645
51	0x3e1cae43	0.1530085
52	0x3ed3c97e	0.41364664
53	0x3de8507a	0.11343475
54	0x3d15f57a	0.036611058
55	0xbe3c3da8	-0.18382895
56	0xbe835e7b	-0.2565802
57	0xbe0c66ed	-0.13711138
58	0xbd9aeba9	-0.0756448
59	0xbe04bf82	-0.1296368
60	0xbe1243c7	-0.14283668
61	0xbb982486	-0.004643026
62	0xbe1f32f0	-0.15546775
63	0xbc8ed043	-0.017433291
64	0xbb2dc976	-0.0026517785
65	0xbd91d431	-0.071205504
66	0xbdfe9415	-0.12430588
67	0x3e48907e	0.1958637
68	0x3d0318a6	0.03200593
69	0x3d4dfd48	0.050290376
70	0x3d7024ee	0.05862897
71	0xbe45ce75	-0.19317038
72	0xbe8f53fa	-0.27993757
73	0xbdc5a165	-0.09649924
74	0xbdcbe0b4	-0.09954968
75	0xbdf0eba7	-0.11763697
76	0xbe2f8f61	-0.17144538
77	0xbc4592fe	-0.012058971
78	0xbe38756a	-0.1801354
79	0xbc491d7b	-0.012275095
80	0xbe0bb44f	-0.13643001
81	0x3de5d579	0.11222357
82	0x3e0cb5d9	0.13741244
83	0xbdd98fde	-0.106231436
84	0xbe0c8d3c	-0.13725752
85	0xbe0fc91b	-0.1404156
86	0xbdd4c987	-0.10390001
87	0x3e4df0d9	0.20111407
88	0x3e4fca0b	0.20291917
89	0x3dcfc7da	0.101455405
90	0x3c9d56af	0.019206373
91	0xbde640e5	-0.112428464
92	0x3eacc3f7	0.3374326
93	0xbddfb94d	-0.10924015
94	0x3e104580	0.14089012
95	0xbc6eef16	-0.01458337
96	0xbe6c1e70	-0.23058486
97	0x3d5ea9f2	0.05436129
98	0x3cf0db3d	0.029401416
99	0x3c42bb5b	0.011885489
100	0xbe14df58	-0.14538324
101	0xbda19fd4	-0.07891813
102	0x3e272b37	0.16325079
103	0xbe314e61	-0.17315055
104	0xbe590673	-0.21193866
105	0xbd6c4075	-0.05767866
106	0x3d75a13b	0.059968214
107	0x3d8530f9	0.065034814
108	0xbe907670	-0.2821536
109	0xbe780074	-0.24218923
110	0xbdc658c7	-0.09684902
111	0xbe455dc4	-0.1927405
112	0xbc064409	-0.008194932
113	0xbe802c5e	-0.2503385
114	0x3ddaf3f7	0.10691064
115	0xbc5952c6	-0.013264364
116	0x3cdf15b9	0.027232038
117	0x3d393404	0.04521562
118	0x3e747123	0.23871283
119	0xbea714cb	-0.3263305
120	0xbe0341b6	-0.12818035
121	0xbe9ba641	-0.3040028
122	0x3de91faf	0.11382996
123	0xbe2f4808	-0.17117321
124	0xbd9e4472	-0.07727899
125	0xbcf2bc48	-0.029630795
126	0x3e3b0dc1	0.18266965
127	0x3d6efe27	0.058347847
128	0x3db85909	0.09001357
129	0xbde7d9a0	-0.113208055
130	0x3e19ac7a	0.15007201
131	0x3dbcc6ed	0.092176296
132	0x3dff193a	0.124559835
133	0x3df4aeb9	0.11947388
134	0x3e27dbf1	0.16392495
135	0xbe55ac0e	-0.20866415
136	0xbe633d05	-0.22191246
137	0xbe3470db	-0.17621176
138	0x3d453108	0.048142463
139	0xbdaf1517	-0.085489444
140	0xbe01bf8a	-0.12670723
141	0xbd820164	-0.063479215
142	0xbe20d0cf	-0.15704654
143	0x3d650bca	0.055919446
144	0x3d67a39b	0.05655251
145	0xbe0e7dad	-0.13915129
146	0x3e3105aa	0.17287317
147	0xbdbf72d6	-0.09348075
148	0x3cd480ce	0.025940325
149	0x3ba272ac	0.0049575176
150	0x3d528bd2	0.051402874
151	0xbe133d2c	-0.14378804
152	0xbe0ff6eb	-0.14059035
153	0xbdfcc9a4	-0.123431474
154	0x3e125c9c	0.1429314
155	0x3cabf8fd	0.02099275
156	0xbe12dfc4	-0.14343172
157	0xbc2ee69c	-0.010675099
158	0x3e42263c	0.18959898
159	0x3c8b79fb	0.017025938
160	0x3dd56801	0.10420228
161	0xbe39e029	-0.18151917
162	0xbc2d9b72	-0.010596143
163	0xbd3740df	-0.0447396
164	0x3e0b1412	0.13581875
165	0x3d1986b1	0.037481967
166	0xbd286bf0	-0.041118562
167	0xbdaddd98	-0.08489531
168	0xbe068e2c	-0.13140172
169	0xbe6a29cf	-0.22867511
170	0xbcfacf9c	-0.030616574
171	0xbe2bd409	-0.16780104
172	0xbd95a549	-0.07306916
173	0x3d89b5e3	0.06724145
174	0xbe3c5ee0	-0.18395567
175	0x3e0e2736	0.13882145
176	0x3de2db5a	0.11076994
177	0xbdf8aebb	-0.12142702
178	0xbd903547	-0.07041412
179	0x3d8ea612	0.06965269
180	0x3db5c9f1	0.08876408
181	0x3cdf3572	0.027247164
182	0xbd7e7bcb	-0.062129777
183	0xbe27a9ae	-0.16373321
184	0xbe40d9a5	-0.18833025
185	0xbe14be5b	-0.1452574
186	0xbdb317a1	-0.08744741
187	0xbda485f1	-0.0803336
188	0xbda5d22e	-0.08096729
189	0x3d97ecdf	0.074182265
190	0xbe1e9724	-0.15487343
191	0x3d099536	0.033589564
192	0x3e17320f	0.1476519
193	0xbe81a6db	-0.25322613
194	0xbd5d3c6a	-0.054012693
195	0x3df91426	0.12162046
196	0xbddcf2b0	-0.107884765
197	0x3de21199	0.11038513
198	0x3d6b055f	0.05737817
199	0xbdc6bf3c	-0.09704444
200	0xbd7b0540	-0.061284304
201	0xbe248bfd	-0.16069026
202	0xbd47d1b5	-0.048783977
203	0xbe4131d1	-0.1886666
204	0xbc1c3617	-0.00953438
205	0x3e037bf6	0.12840256
206	0xbe5c9eb3	-0.21544914
207	0x3e017d87	0.12645541
208	0xbd771efb	-0.06033228
209	0xbe4c5617	-0.19954716
210	0x3e25e0dd	0.1619906
211	0xbd8a9d8f	-0.06768333
212	0xbc01e89e	-0.007928995
213	0xbcf28aaa	-0.029607136
214	0xbd895331	-0.067053206
215	0xbe9e4e04	-0.30918896
216	0xbe8ff16b	-0.28113875
217	0xbe804b4c	-0.25057447
218	0x3e134d33	0.14384918
219	0xbe368026	-0.17822322
220	0xbddda1c7	-0.10821872
221	0xbd33dd79	-0.043912385
222	0xbd8a3cdc	-0.06749889
223	0xbd1ec3b7	-0.038760867

encoder_mean.8.bias f4 [14]
0	0x36581d6a	3.220363e-06
1	0x36f852da	7.400621e-06
2	0x35bb1128	1.3937579e-06
3	0x36998694	4.5754223e-06
4	0x35e4642e	1.701648e-06
5	0x36634b6d	3.386954e-06
6	0xb7b06be8	-2.1031083e-05
7	0xb663e826	-3.3960764e-06
8	0x3600d2db	1.919622e-06
9	0xb5d790f5	-1.6060936e-06
10	0xb520128e	-5.9631645e-07
11	0xb59333f0	-1.0967469e-06
12	0xb615b34b	-2.2307092e-06
13	0xb5dde49b	-1.6532316e-06

encoder_mean.9.weight f4 [14]
0	0x3ef46726	0.47734946
1	0x3efebef3	0.49755058
2	0x3ef318ee	0.47479957
3	0x3f305d29	0.6889215
4	0x3ec32c9d	0.38119975
5	0x3f1cda68	0.6127076
6	0x3f38ef70	0.7224035
7	0x3f13bf7a	0.57714045
8	0x3ee89b6b	0.45431075
9	0x3ebfe623	0.37480268
10	0x3edf8177	0.4365346
11	0x3eca4a5b	0.39509854
12	0x3ee5517c	0.4478873
13	0x3f20b3f3	0.6277458

encoder_mean.9.bias f4 [14]
0	0xbe5e6def	-0.21721624
1	0xbd8755fa	-0.066081956
2	0x39225ad8	0.00015483366
3	0x3ec1085d	0.37701693
4	0x3e4a282e	0.1974189
5	0xbe9c5c9f	-0.30539414
6	0xbe8efe57	-0.2792842
7	0x3d69de1a	0.05709658
8	0x3e4f080f	0.20217918
9	0xbe44b2e8	-0.19208872
10	0x3dd65cb5	0.10466901
11	0x3e35800b	0.17724626
12	0x3d81dc26	0.06340818
13	0xbe1237c2	-0.14279082

encoder_mean.9.running_mean f4 [14]
0	0xbd98e952	-0.07466377
1	0xbe218c98	-0.15776289
2	0x3d82c3a5	0.063849725
3	0x3d5adab9	0.053431246
4	0xbd44e014	-0.04806526
5	0xbd3212da	-0.04347501
6	0xbe528f94	-0.20562583
7	0xbd566dac	-0.052350685
8	0x3b8267ce	0.0039796596
9	0xbcc254fa	-0.02372216
10	0x3c5f0713	0.0136125265
11	0x3a8aae2a	0.0010580469
12	0xbcf3530f	-0.029702691
13	0xbe11d4bb	-0.14241306

encoder_mean.9.running_var f4 [14]
0	0x3c760720	0.015016347
1	0x3d0d0e2a	0.034437336
2	0x3d3742fe	0.044741623
3	0x3e00b2df	0.12568234
4	0x3ce57869	0.028011518
5	0x3daa101d	0.083038546
6	0x3da752fc	0.08170125
7	0x3cf68308	0.030091777
8	0x3d8270bd	0.06369159
9	0x3bb86ce3	0.0056282147
10	0x3d8cf708	0.06883055
11	0x3d2caeb5	0.0421588
12	0x3d21e2b2	0.039522834
13	0x3cbe871c	0.023257785

encoder_mean.12.weight f4 [12, 14]
0	0x3d888f8e	0.06668006
1	0xbd4d6f2e	-0.050154857
2	0x3dcbbd06	0.09948163
3	0xbdca19f6	-0.09868233
4	0x3dd0ed81	0.1020155
5	0xbdf9c942	-0.1219659
6	0xbdcf3339	-0.10117192
7	0x3ea92307	0.33034536
8	0x3d68cbf1	0.05683512
9	0xbb37e549	-0.0028060249
10	0x3dde5421	0.1085589
11	0x3dd070b4	0.101777464
12	0x3dbfc23b	0.093632184
13	0xbe28be93	-0.16478948
14	0x3dae6908	0.08516127
15	0xbe2012d5	-0.15632184
16	0x3de25cdf	0.1105287
17	0xbe0096cb	-0.12557523
18	0x3e14acbe	0.14519021
19	0xbdf0e9c7	-0.117633395
20	0xbe51af5b	-0.20477049
21	0x3e762c91	0.24040438
22	0x3dcc9cf3	0.09990873
23	0x3d9afbc3	0.07567551
24	0x3e00c544	0.12575251
25	0x3dac90ec	0.08426079
26	0x3de2e7c0	0.11079359
27	0x3d353cc6	0.04424741
28	0xbd125ced	-0.035733152
29	0x3d646928	0.055764347
30	0xbc7fbff1	-0.015609727
31	0xbe21c1f9	-0.15796651
32	0x3da75eb4	0.0817236
33	0xbe05beba	-0.13061038
34	0xbe884bc8	-0.26620317
35	0x3e6f15a7	0.23348103
36	0x3e3bbe11	0.18334223
37	0x3d8e430f	0.06946384
38	0x3d9de01a	0.077087596
39	0x3dc81419	0.09769458
40	0x3e0efcf5	0.13963683
41	0x3e75bee9	0.23998608
42	0xbe11070c	-0.14162844
43	0xbe1793a1	-0.1480241
44	0x3e11e93c	0.14249128
45	0xbe0dacda	-0.13835469
46	0xbe65f335	-0.22456057
47	0x3e34e551	0.17665602
48	0xbe03a074	-0.12854177
49	0xbe209347	-0.15681182
50	0xbe478b4b	-0.1948673
51	0xbdec75c9	-0.11545903
52	0xbe3be73f	-0.18349932
53	0xbe609951	-0.21933486
54	0xbdfe0d9f	-0.12404942
55	0xbe492926	-0.19644603
56	0x3d9237cb	0.07139548
57	0xbdd525c2	-0.10407592
58	0x3e555d1e	0.20836303
59	0xbd916c21	-0.07100702
60	0x3d79b1fb	0.06096075
61	0xbddff968	-0.10936242
62	0xbe154288	-0.14576161
63	0x3ca3c794	0.019992627
64	0x3d8960f9	0.06707949
65	0xbdc45a0d	-0.09587488
66	0x3dbeb2c6	0.09311442
67	0x3e2a670e	0.16640875
68	0x3e166007	0.14685069
69	0xbe0c98a9	-0.1373011
70	0xbdf449cd	-0.11928139
71	0x3e402379	0.18763532
72	0xbda334d6	-0.07969062
73	0xbc4d50e3	-0.012531492
74	0x3d40f2bf	0.0471065
75	0xbe2f13cb	-0.17097394
76	0x3ef5d20e	0.48011822
77	0xbcfb081f	-0.03064352
78	0x3c5c3e9a	0.01344266
79	0xbd5ea4e1	-0.05435646
80	0xbdcd5d88	-0.10027605
81	0xbc302ada	-0.010752404
82	0xbd90893c	-0.070574254
83	0x3ca363b1	0.019944998
84	0x3d7307bb	0.059333544
85	0xbe9d1ede	-0.30687612
86	0x3df2cef0	0.118558764
87	0xbc384546	-0.011246985
88	0xbbe2fd65	-0.0069271796
89	0x3e876d8a	0.2645076
90	0xbe8ae928	-0.2713101
91	0xba571c88	-0.00082058506
92	0x3d2c6abe	0.042093985
93	0xbe1b2f40	-0.15154743
94	0x3d1213cf	0.035663422
95	0x3cd43b26	0.02590711
96	0x3db924db	0.09040233
97	0xbe6dbb77	-0.23216043
98	0x3e8b4547	0.27201292
99	0xbd534739	-0.051581595
100	0xbe11d942	-0.14243034
101	0x3ee0560a	0.43815643
102	0xbe11569c	-0.14193195
103	0xbcedf399	-0.02904682
104	0xbc96c801	-0.018405916
105	0xbd1fb18d	-0.038987685
106	0x3dbb642c	0.09149966
107	0x3dd74dce	0.10512887
108	0xbbba5654	-0.0056865606
109	0xbe13b810	-0.14425683
110	0xbe696ce4	-0.22795445
111	0xbd71798e	-0.058953814
112	0xbdb8b901	-0.09019662
113	0xbe660332	-0.22462156
114	0x3dc61605	0.09672169
115	0xbdcb2380	-0.099188805
116	0xbe63cb3d	-0.22245498
117	0x3dc06e0f	0.09395992
118	0xbe98fb29	-0.2987912
119	0xbdfbf2a2	-0.12302138
120	0xbe16ed30	-0.14738917
121	0xbdc8e9a8	-0.098101914
122	0xbdbcac96	-0.09212606
123	0xbe35433a	-0.17701426
124	0xbdb264fc	-0.087106675
125	0xbe953950	-0.29145288
126	0x3e165a4f	0.14682887
127	0x3d9f4b1b	0.07777997
128	0xbe0051cb	-0.12531202
129	0x3f093eeb	0.5361163
130	0xbdb1a21f	-0.086735
131	0x3c604d05	0.013690238
132	0xbd9152fd	-0.07095907
133	0xbe70197b	-0.2344722
134	0xbe476b73	-0.19474582
135	0x3e0b665c	0.13613266
136	0xbe21ad2a	-0.15788713
137	0xbdbc7a83	-0.09203055
138	0xbd5915a2	-0.052999146
139	0x3c215c5f	0.009848683
140	0x3cbf3061	0.023338499
141	0xbe6e209c	-0.23254627
142	0x3df0c47d	0.11756227
143	0xbc4acf5f	-0.012378543
144	0x3d26d64b	0.04073171
145	0x3e9c305d	0.30505648
146	0xbe6bd213	-0.23029356
147	0x3d4dc46e	0.050236158
148	0x3d8cfb36	0.06883852
149	0xbdfc2bf5	-0.12313072
150	0x3d1c74ea	0.038197435
151	0x3d308fa5	0.04310574
152	0x3d0f434c	0.03497629
153	0xbe29a63a	-0.16567317
154	0xbdb384b2	-0.08765544
155	0xbd77eec6	-0.060530446
156	0x3cab3a66	0.02090187
157	0xbde251b0	-0.11050737
158	0xbe09bf0e	-0.13451788
159	0x3dea63a0	0.11444783
160	0xbdc15ffb	-0.09442135
161	0xbe14cfeb	-0.1453244
162	0xbe11138d	-0.14167614
163	0xbe215a03	-0.15756993
164	0xbe540a80	-0.2070713
165	0xbe513794	-0.20431358
166	0xbe5fec5e	-0.2186751
167	0xbd872159	-0.065981574

encoder_mean.12.bias f4 [12]
0	0x35f0f6a4	1.7953175e-06
1	0x34135891	1.3722662e-07
2	0x363d533f	2.821165e-06
3	0x370a83c6	8.256122e-06
4	0x3444ac80	1.8316678e-07
5	0xb794d008	-1.7739847e-05
6	0x37072de6	8.057314e-06
7	0xb598f448	-1.1395978e-06
8	0x35a712b4	1.2447913e-06
9	0xb5e443d5	-1.7007065e-06
10	0xb65890fe	-3.2270905e-06
11	0x3514e4e0	5.5467353e-07

encoder_mean.13.weight f4 [12]
0	0x3f2defa8	0.6794381
1	0x3f248ff5	0.6428216
2	0x3f547ff6	0.8300775
3	0x3f99a031	1.2002012
4	0x3f2e30a6	0.6804298
5	0x3fa4517f	1.2837371
6	0x3f5e8b29	0.8693109
7	0x3f49211b	0.7856614
8	0x3f9ae053	1.2099708
9	0x3f67da8b	0.90567845
10	0x3f61131e	0.87919796
11	0x3f9a8cc9	1.2074214

encoder_mean.13.bias f4 [12]
0	0x3ea11e6d	0.31468526
1	0x3e9e3342	0.30898482
2	0x3f0dab72	0.5533973
3	0xbdddbf44	-0.10827497
4	0x3e898c7a	0.26864988
5	0x3e72185c	0.23642105
6	0x3e69b435	0.2282265
7	0x3e74e41c	0.23915142
8	0xbe2259be	-0.15854546
9	0xbdc0b0b1	-0.09408701
10	0x3ea00e17	0.3126075
11	0xbd843e2a	-0.06457169

encoder_mean.13.running_mean f4 [12]
0	0x3dd41b46	0.103567645
1	0x3de5e643	0.112255596
2	0x3e0d0605	0.13771828
3	0xbebd4efb	-0.3697432
4	0x3da49af8	0.080373704
5	0xbb257b46	-0.0025250479
6	0xbc91bf64	-0.017791457
7	0x3d9c85e2	0.076427236
8	0xbeaddafd	-0.33956137
9	0x3d3957d8	0.04524979
10	0x3ca08e3c	0.019599073
11	0xbea4d8df	-0.3219671

encoder_mean.13.running_var f4 [12]
0	0x3d6f6069	0.058441553
1	0x3d828634	0.063732535
2	0x3d346779	0.04404399
3	0x3e2f921c	0.1714558
4	0x3d80a33b	0.06281134
5	0x3cd440d9	0.025909828
6	0x3d0fe23c	0.035127863
7	0x3d131d34	0.035916522
8	0x3dc9cf8b	0.09854039
9	0x3cd8b021	0.026451172
10	0x3cf70368	0.030152991
11	0x3e2d28a4	0.16910034

encoder_mean.16.weight f4 [10, 12]
0	0x3ec73ce4	0.38913643
1	0x3ee0cbf8	0.43905616
2	0x3dd9ef94	0.10641399
3	0xbe96df09	-0.29467037
4	0x3ec83921	0.39106086
5	0xbed613a1	-0.4181185
6	0x3e7b11a1	0.24518444
7	0x3e7da0b2	0.24768332
8	0xbe709802	-0.23495486
9	0x3f01834c	0.5059097
10	0x3e87116d	0.26380482
11	0xbf0c4836	-0.54797685
12	0x3d7f07c9	0.062263284
13	0xbd712912	-0.05887706
14	0x3d4afa69	0.049555216
15	0x3cc53e27	0.024077488
16	0xbd5ea014	-0.05435188
17	0xbc46d4f1	-0.01213573
18	0x3ca542a3	0.020173376
19	0xbc918d53	-0.017767584
20	0x3c9d123d	0.019173736
21	0x3c995d30	0.018721193
22	0xbd363a70	-0.044489324
23	0x3c42a9ac	0.011881273
24	0x3ca1ba26	0.019742083
25	0xbc6eaf14	-0.014568109
26	0xbd0685de	-0.03284251
27	0xbb97a8c3	-0.0046282723
28	0x3c1ca8ca	0.009561727
29	0x3d178e28	0.037000805
30	0x3c07cf86	0.008289224
31	0xbafa1a52	-0.001908133
32	0xbcca747b	-0.024713745
33	0x3c18a7a6	0.009317314
34	0x3d48201b	0.048858743
35	0xbcb7d77a	-0.022441614
36	0x3e80d5d6	0.25163144
37	0x3e262019	0.16223182
38	0xb9df2098	-0.0004255816
39	0xbe758839	-0.23977746
40	0x3ea57e97	0.32323143
41	0xbf0f2c83	-0.55927294
42	0x3eb58b7d	0.35457984
43	0x3e473518	0.19453847
44	0xbdcaa112	-0.09894003
45	0x3e838331	0.2568603
46	0x3e800688	0.25004983
47	0xbe6b49d0	-0.22977376
48	0x3e65a372	0.2242563
49	0x3ed10f3e	0.4083194
50	0x3edf895a	0.43659478
51	0xbeed8b3a	-0.46395284
52	0x3e33bb5f	0.17551945
53	0xbf1714ae	-0.5901593
54	0xba9d5bfe	-0.0012005565
55	0x3ecab6d8	0.39592624
56	0xbeb6fc1f	-0.35739228
57	0x3ee39002	0.44445807
58	0x3d9e649f	0.07734036
59	0xbf187bb2	-0.59563744
60	0x3ddb7ab7	0.107167654
61	0xbd00a3b8	-0.031406134
62	0xbe016a42	-0.1263819
63	0x3e7c9ecf	0.24669956
64	0x3de26e24	0.11056164
65	0x3d09f820	0.033683896
66	0x3c9b97ae	0.018993225
67	0xbd88af70	-0.06674087
68	0x3db8855f	0.090098135
69	0x3c7045ec	0.014665108
70	0x3c4864f7	0.012231103
71	0x3cc8e0dc	0.024521284
72	0xbd482573	-0.04886384
73	0xba7ca56d	-0.00096376875
74	0x3e0820c8	0.13293755
75	0xbe94762b	-0.28996405
76	0xbd6ad529	-0.05733219
77	0x3d711646	0.058859132
78	0xbe2f90be	-0.17145059
79	0x3d0840dd	0.033264983
80	0xbe860663	-0.26176748
81	0x3cd7fa07	0.02636434
82	0x3d3855e4	0.045003787
83	0xbe4d2cd7	-0.20036636
84	0x3ce2707d	0.02764153
85	0xbda530f7	-0.0806598
86	0xbee6ca92	-0.45076424
87	0x3f387546	0.72053945
88	0x3e5f69d5	0.21817715
89	0xbf3cda07	-0.73770183
90	0x3f4b9abc	0.7953298
91	0xbde451aa	-0.11148389
92	0x3f3fae0d	0.74874955
93	0xbac31acc	-0.0014885305
94	0x3f2c1fc6	0.6723598
95	0x3f020aeb	0.5079791
96	0x3da1de06	0.07903676
97	0xbd9b1795	-0.07572857
98	0x3d06a5f6	0.032873116
99	0x3c0aa0fc	0.008461233
100	0x3d90b0cd	0.07064972
101	0x3cb3883e	0.021915551
102	0xbd722c33	-0.059124183
103	0x3ba85945	0.005137595
104	0x3e060735	0.13088687
105	0x3d15f6fc	0.036612496
106	0xbd09b3b1	-0.033618633
107	0x3ca1e3b3	0.019761896
108	0xbea2e418	-0.31814647
109	0xbe1a4feb	-0.15069549
110	0xbeb280e1	-0.34863952
111	0x3ef7ba31	0.4838424
112	0xbd832e9c	-0.064053744
113	0xbd0ac26e	-0.03387683
114	0xbca27b21	-0.019834103
115	0xbec6a4cd	-0.38797608
116	0x3f1103c1	0.56646353
117	0xbee91ddd	-0.45530596
118	0xbd1c8e19	-0.038221452
119	0x3f26c1fd	0.6513975

encoder_mean.16.bias f4 [10]
0	0xbe3ba65a	-0.18325177
1	0xbc3fa98e	-0.01169814
2	0xbbf0f5ad	-0.0073535056
3	0xbd2229cc	-0.03959064
4	0x3de0af24	0.109709054
5	0xbe0eef7a	-0.1395854
6	0x3e7223a8	0.23646414
7	0xbf1bccc1	-0.60859305
8	0xbda79a6f	-0.08183753
9	0xbc1f3eda	-0.009719575

encoder_var.0.weight f4 [20, 30]
0	0x3a3da7f1	0.0007234803
1	0xba3a4e62	-0.0007107017
2	0x39e004fe	0.0004272833
3	0x3976c652	0.00023534268
4	0x39de07d6	0.00042348978
5	0x38afdcc8	8.385774e-05
6	0xb80329e9	-3.1271866e-05
7	0x39c959c9	0.00038404603
8	0x3931446c	0.00016905525
9	0xb9474b2b	-0.00019006121
10	0x38805450	6.11922e-05
11	0x398d0672	0.00026898418
12	0xba088b0f	-0.00052087096
13	0x39ad8ee7	0.00033103602
14	0x3a5669a2	0.00081791927
15	0x381042f0	3.4394616e-05
16	0xb8ca1d9e	-9.637627e-05
17	0xb9eec460	-0.00045541208
18	0xb8a03cc8	-7.640716e-05
19	0xb9d15b38	-0.0003993155
20	0x3972b744	0.0002314719
21	0x3a5be272	0.000838793
22	0x3a35b110	0.00069309864
23	0xb9630de4	-0.00021653582
24	0x39a54b8c	0.0003152754
25	0xb99f5731	-0.00030391806
26	0x393cd0b8	0.00018006831
27	0x3955f2ec	0.00020403758
28	0xb98d39d2	-0.00026936695
29	0x38a46638	7.839169e-05
30	0x39e585c8	0.00043777958
31	0x3a088f60	0.0005209353
32	0xb8be3dba	-9.0714035e-05
33	0xb8d7947d	-0.00010279657
34	0x385f1211	5.318417e-05
35	0x38ed1168	0.00011304283
36	0xb901dfea	-0.00012385813
37	0x39a97b29	0.00032325953
38	0xb5e0e5e0	-1.6756203e-06
39	0xb99083c3	-0.0002756399
40	0xb98d2bad	-0.00026926157
41	0x38105a22	3.4416218e-05
42	0x39d8a402	0.00041320926
43	0xb94e6ddf	-0.00019686621
44	0x39913e35	0.00027702903
45	0xb9d1f44e	-0.00040045608
46	0x3858f0e2	5.1722753e-05
47	0x39bdf630	0.00036232313
48	0xb7979cc5	-1.8073604e-05
49	0xb9d29da3	-0.0004017177
50	0xb8cb19c3	-9.684593e-05
51	0x39600493	0.00021364009
52	0xb916dc28	-0.0001438713
53	0x3a1ac725	0.00059043086
54	0xb8cb87ea	-9.70511e-05
55	0x39c69888	0.00037879148
56	0xb9989aca	-0.00029107026
57	0xb9f3748c	-0.00046435406
58	0x39f58ccd	0.00046834946
59	0x3a0957a7	0.00052391965
60	0x399787a8	0.00028902036
61	0xb89843b6	-7.260537e-05
62	0xb7a8dbae	-2.0129457e-05
63	0x39c080fa	0.0003671719
64	0xba38bcfd	-0.00070472044
65	0x37aef370	2.0855776e-05
66	0x395e6bdc	0.0002121175
67	0x3972f18f	0.00023168906
68	0x3924cb14	0.00015715911
69	0x3922e545	0.00015534933
70	0xb89cd82f	-7.478927e-05
71	0xb7d68056	-2.5570549e-05
72	0x39d2acb9	0.0004018301
73	0x38d8f9fb	0.00010346245
74	0xb8f6b0ba	-0.00011763112
75	0x39c534f1	0.00037614212
76	0xb9887836	-0.00026029506
77	0x3a187dd0	0.00058170874
78	0x3941b0d6	0.00018471791
79	0xba87972f	-0.0010344739
80	0x392655f8	0.0001586302
81	0xb97dc8cb	-0.00024202761
82	0x393b12de	0.00017840738
83	0x375ebbc7	1.32759515e-05
84	0x38f1882e	0.00011517141
85	0xb95b08c6	-0.00020888736
86	0x39461b5b	0.00018892942
87	0xb9387c33	-0.00017593875
88	0x39486d42	0.00019114188
89	0xb9b0435b	-0.0003361952
90	0x395a052d	0.00020792028
91	0xb9475a3f	-0.00019011738
92	0xb9a16f38	-0.00030791177
93	0x38efacd7	0.00011428602
94	0x380b3a36	3.3194396e-05
95	0x392e84b1	0.00016643365
96	0xb941360d	-0.0001842605
97	0x38a05279	7.644756e-05
98	0x3903ef02	0.00012582171
99	0x3900da99	0.00012288465
100	0x3817c890	3.6187994e-05
101	0x399b2c37	0.00029596846
102	0x38fdee00	0.00012108311
103	0xb9662f58	-0.00021952146
104	0x386fa25f	5.713326e-05
105	0xb90db0f1	-0.00013512724
106	0xb902f2fa	-0.00012488282
107	0x392df006	0.00016587981
108	0x3875349d	5.846155e-05
109	0x3a4c21d8	0.00077870255
110	0x388caa33	6.707422e-05
111	0x38e17856	0.000107512504
112	0x36a4a128	4.906342e-06
113	0x37c02bf7	2.2908656e-05
114	0xba830326	-0.0009995445
115	0x384df332	4.9102302e-05
116	0xb8791906	-5.938953e-05
117	0xb9688f3e	-0.00022178606
118	0x3936e47e	0.00017441993
119	0x3a0d0f65	0.0005381017
120	0xba013d6a	-0.0004930111
121	0xb94d034f	-0.00019551556
122	0xb9167112	-0.00014347237
123	0xb95be4fd	-0.00020970772
124	0xb90ef6ac	-0.00013634068
125	0xb879b583	-5.9535272e-05
126	0x390707c7	0.000128775
127	0x3876290c	5.86892e-05
128	0x37433239	1.1634599e-05
129	0xb982d38a	-0.0002495314
130	0x38ca18e7	9.636749e-05
131	0xb818a3d0	-3.6392186e-05
132	0xb983e45d	-0.0002515641
133	0x388776e3	6.459446e-05
134	0xb926d54f	-0.00015910457
135	0xb83ee633	-4.551392e-05
136	0xb931dee4	-0.00016963069
137	0xb934dd74	-0.00017248635
138	0xb8dd6aed	-0.00010558018
139	0x397e4319	0.00024248323
140	0xb939a981	-0.0001770612
141	0xb981ef16	-0.0002478293
142	0x392ec568	0.00016667473
143	0x38b7638f	8.744664e-05
144	0x37c66cf9	2.3654184e-05
145	0xb82b57ca	-4.0851337e-05
146	0x39a38afe	0.0003119334
147	0x364d2a4c	3.0572e-06
148	0x36a8b474	5.0277977e-06
149	0x398f9364	0.000273849
150	0xb8cb87e9	-9.7051096e-05
151	0xbafa34f6	-0.001908927
152	0x39c07a11	0.0003671204
153	0xba2ec1b9	-0.000666644
154	0x3a270248	0.00063708844
155	0x394ed968	0.00019726681
156	0xb8d43c02	-0.00010120125
157	0x3a1b05c7	0.00059136417
158	0xb7632338	-1.3538454e-05
159	0x3a19c733	0.000586617
160	0x39833494	0.0002502544
161	0x39708288	0.0002293681
162	0x3975ace2	0.00023429425
163	0xb993656e	-0.00028113596
164	0xbacec683	-0.0015775714
165	0x39cdebb8	0.0003927627
166	0xba24f1e5	-0.00062921486
167	0x3accf3d7	0.0015636635
168	0x3952fdd0	0.00020121713
169	0x3a5b6da9	0.00083705276
170	0xba261f9f	-0.00063371094
171	0xb8a4591a	-7.836726e-05
172	0xb8d4d85c	-0.00010149248
173	0xb84d6036	-4.8965412e-05
174	0xb970b9fa	-0.00022957465
175	0xba1d1979	-0.00059928704
176	0x3a1da3e1	0.00060134946
177	0xbb01e9f2	-0.001982328
178	0x3b01f130	0.0019827597
179	0xba52a5b3	-0.00080355554
180	0x38840928	6.295956e-05
181	0x3976370c	0.00023480895
182	0xb9404745	-0.00018337097
183	0x39198273	0.00014639813
184	0xb9045d0d	-0.00012623165
185	0xb87a4556	-5.966922e-05
186	0x37dc6866	2.6274658e-05
187	0xb76e87e3	-1.4217544e-05
188	0x36822f64	3.879819e-06
189	0xb795270e	-1.778037e-05
190	0xb960cbe4	-0.0002143826
191	0xb7b1780d	-2.1155947e-05
192	0x38835f9c	6.2643754e-05
193	0x3817824e	3.612256e-05
194	0xb78f81ee	-1.7107432e-05
195	0x38a3e7c2	7.815614e-05
196	0x3881d375	6.190586e-05
197	0x37b1a59c	2.1177162e-05
198	0x3878788f	5.9240087e-05
199	0xb95d8f08	-0.00021129486
200	0x390f08f0	0.00013640872
201	0x391df061	0.00015062235
202	0x382cad67	4.116949e-05
203	0x394eb141	0.00019711723
204	0xb89d34e7	-7.496197e-05
205	0xb79448e8	-1.7676924e-05
206	0xb825204e	-3.936915e-05
207	0xb7fac760	-2.9895164e-05
208	0x378ba9b0	1.6649108e-05
209	0x38866655	6.408679e-05
210	0xbce29db2	-0.027663086
211	0xbce9e3e6	-0.028551053
212	0x3b859daa	0.004077633
213	0x396cb762	0.0002257503
214	0x3b745bf9	0.0037286265
215	0xbbc1197f	-0.005892932
216	0x3b791d8e	0.0038012
217	0xbb70fad5	-0.0036770601
218	0xbab67cf6	-0.0013922739
219	0xbc31bcbb	-0.0108482195
220	0xb9c0b32b	-0.00036754584
221	0x3b042dc0	0.002016887
222	0x3adcfdda	0.0016860322
223	0x3c4ad70b	0.012380372
224	0xbc0e0674	-0.008668531
225	0x3b63e704	0.0034775147
226	0xbc35267a	-0.011056537
227	0x3c15efd6	0.00915142
228	0x3a61d8f4	0.00086153974
229	0xbc0c13e0	-0.00854966
230	0x398a586b	0.00026387288
231	0x3bba35ce	0.0056826835
232	0x3bbc2760	0.0057419986
233	0xbc218abd	-0.009859738
234	0x3bdb3f55	0.0066908994
235	0xbbfa55ee	-0.007639638
236	0x3bf881f5	0.0075838515
237	0x3c773035	0.015087177
238	0xbc7c43dd	-0.015397039
239	0xbca38dbb	-0.019965043
240	0xbd7ad3eb	-0.061237257
241	0xbcea9f3d	-0.028640384
242	0x3be70918	0.0070506446
243	0xbb5ecc65	-0.003399634
244	0xbaea35db	-0.0017868833
245	0x366fba00	3.5722042e-06
246	0xbb612a89	-0.0034357628
247	0x3bd1dc61	0.006404445
248	0xba2bbe12	-0.0006551455
249	0x3a50e070	0.0007968014
250	0xbb191786	-0.0023359968
251	0x3b312250	0.0027028508
252	0xbbe2a6c3	-0.006916852
253	0xba97852a	-0.0011560072
254	0xbc31337a	-0.010815496
255	0x3beae4ba	0.0071683796

encoder_var.0.bias f4 [20]
0	0x33736d2c	5.6677138e-08
1	0xb416f3f8	-1.4058594e-07
2	0x3312f2c6	3.4214075e-08
3	0x342e690b	1.6243227e-07
4	0x33d5849c	9.942707e-08
5	0xb4069c3f	-1.2536564e-07
6	0xb30996c4	-3.203492e-08
7	0x346c8dc8	2.2030792e-07
8	0xaf627000	-2.059437e-10
9	0x3238e1f4	1.0761585e-08
10	0x34aad2de	3.1818394e-07
11	0x33bfa792	8.9246114e-08
12	0xb400722c	-1.1962464e-07
13	0x32ddb86c	2.5811651e-08
14	0x34653101	2.1345114e-07
15	0xb41f1252	-1.4814694e-07
16	0xb3ad51ed	-8.0708425e-08
17	0x33327728	4.1552227e-08
18	0xaf82c500	-2.378684e-10
19	0x354aea10	7.559147e-07

encoder_var.1.weight f4 [20]
0	0x3a5940ee	0.00082875683
1	0x3ac560d6	0.0015058767
2	0x3aae2bf9	0.0013288251
3	0x37ef17ff	2.8502194e-05
4	0x39b88146	0.0003519153
5	0xbb202aeb	-0.0024439644
6	0x3a1edb93	0.0006059941
7	0x3c39de06	0.011344438
8	0x3d08ff08	0.03344634
9	0x38700fb9	5.7235102e-05
10	0x3c371718	0.01117494
11	0x3d713df0	0.05889696
12	0x3babf017	0.005247127
13	0x3d748a2b	0.05970208
14	0x3a0690af	0.0005133254
15	0x3ce15ccb	0.027510067
16	0x3ccf283f	0.025287746
17	0x3c545854	0.012960512
18	0x3af0fb45	0.0018385431
19	0x3d7cf0dd	0.061753143

encoder_var.1.bias f4 [20]
0	0xbacc2ab8	-0.0015576696
1	0x39f9ce04	0.00047646475
2	0x3a596225	0.0008292518
3	0xba78eafc	-0.00094954646
4	0x3a45fb69	0.00075524166
5	0xbbad4885	-0.005288186
6	0xb9bf8285	-0.00036527604
7	0xbcd960af	-0.02653536
8	0x3bc72ef2	0.0060785944
9	0xbae80809	-0.001770259
10	0x39b6a85f	0.0003483919
11	0x3c8d5512	0.017252479
12	0x3a15ade5	0.0005709811
13	0x3c8d1284	0.017220743
14	0xba3feb98	-0.0007321178
15	0xbb327603	-0.0027230985
16	0x3bb6e6b6	0.005581702
17	0xbc80dae2	-0.015729371
18	0xb9e522f8	-0.00043704337
19	0xbd4bb96e	-0.049737386

encoder_var.1.running_mean f4 [20]
0	0xb8107e07	-3.4449648e-05
1	0xb9f99e1c	-0.00047610782
2	0xb8f329fd	-0.00011594964
3	0x3a4752bf	0.00076035777
4	0xb989dfde	-0.0002629747
5	0x3af38821	0.0018579998
6	0xb92174c4	-0.00015397655
7	0xbce8af19	-0.028403806
8	0xbd349bff	-0.044094082
9	0x392a5f57	0.0001624798
10	0xbc8297d6	-0.015941542
11	0xbd888162	-0.06665303
12	0xbc0f8f80	-0.00876224
13	0xbd36cea1	-0.04463065
14	0x3b04dc71	0.0020272995
15	0xbd136e71	-0.035993997
16	0xbcf1c988	-0.029515043
17	0xbc82035a	-0.015870739
18	0xbadb3b61	-0.001672607
19	0xbc994f13	-0.018714463

encoder_var.1.running_var f4 [20]
0	0x36c24769	5.789964e-06
1	0x363a04d9	2.7718982e-06
2	0x36a9205b	5.040359e-06
3	0x36797ac8	3.717536e-06
4	0x35df2454	1.6625368e-06
5	0x379c5286	1.8635077e-05
6	0x35a44231	1.2238216e-06
7	0x39972319	0.00028827114
8	0x39ce0d17	0.00039301135
9	0x3702950b	7.783306e-06
10	0x38d0cb46	9.9560755e-05
11	0x3a2fcc32	0.00067061477
12	0x37e0baf3	2.6789936e-05
13	0x39cc4a98	0.0003896549
14	0x37274a28	9.9712415e-06
15	0x398a51d7	0.00026382387
16	0x39779e3c	0.00023614703
17	0x3950cc2e	0.00019912489
18	0x369f6616	4.7504536e-06
19	0x3a311889	0.000675567
