dice_ml/utils/sample_trained_models/adult-margin-0.344-validity_reg-76.0-epoch-25-ae-gen.pth (torch_old, 35079 bytes, 78 tensors)

encoder_mean.0.weight f4 [20, 30]
0.69187486 0.056636505 -0.021056417 -0.022300122 -0.030884922 -0.035977688 -0.008306698 0.0077751186
-0.008488559 -0.010038218 -0.007885761 -0.0063211205 0.010324628 0.011617598 0.05533912 0.05940659
0.059272006 0.06767701 0.06967845 -0.026942492 -0.021146135 -0.018240893 -0.026880423 -0.032848127
-0.027786527 -0.008849497 -0.008745979 0.10087884 0.120452195 0.027383396 -0.50657785 -0.0651527
0.034793176 -0.010561836 0.031608555 0.011017561 0.05567259 0.038853697 0.038082838 0.032875694
0.040672977 0.022638623 0.035860047 0.03999038 0.006726046 0.012539197 0.026976392 0.018409869
0.028083798 0.016123038 0.060999855 0.061122216 0.046614006 0.016687976 0.042180683 0.056975253
0.06020907 -0.03399756 -0.036568712 0.13202135 0.60919774 -0.12106543 -0.02857064 0.04055496
-0.023223756 -0.048622422 -0.023871373 -0.044555783 -0.0020722947 -0.035023063 -0.027934626 -0.011943689
-0.044050884 -0.03135239 -0.06183348 -0.035595648 -0.049442355 0.050143003 -0.08718834 -0.00822328
-0.114439666 -0.013110366 -0.0070095006 -0.015850913 -0.018821606 -0.04292717 -0.04453445 0.0025366542
-0.005919846 0.050520454 0.64185977 -0.014890296 0.04942429 -0.03892485 0.07720643 0.07313257
0.034933586 0.018609215 0.028434824 0.037289355 0.04388316 -0.004498319 0.0413483 0.03474019
0.026133567 0.014093756 0.0014021547 0.025625287 -0.00066377956 -0.054111544 0.0520546 -0.061033797
-0.058196858 -0.041177884 -0.048368674 0.09724741 0.08903954 0.06782049 0.05817159 0.05697746
-0.86021537 -0.006438017 0.018731719 0.009093685 0.02390888 0.0360159 -0.04735904 -0.04404387
-0.0677231 -0.047916256 -0.040970493 -0.09976553 -0.04060841 -0.06113173 0.094677456 0.1002468
0.10402174 0.1009151 0.04031509 -0.056626435 -0.03726533 -0.056007165 -0.04834829 -0.06060344
-0.053569615 -0.12103167 -0.13294446 0.009466063 0.01120976 -0.12688725 0.4833172 -0.15859438
-0.0050599826 -0.014405377 -0.0139510855 -0.010864887 0.049519297 -0.00018727419 -0.0017563297 0.03456983
0.07823173 0.039388053 0.11073228 0.030814677 -0.0022209175 -0.014297397 -0.011308621 0.01905261
0.08742646 -0.070688695 0.001976233 -0.016359113 -0.033018045 -0.035315048 -0.031619553 -0.009427539
0.04623516 0.027873334 0.04734623 -0.015200405 -0.73417723 -0.13376518 -0.01740861 2.157758e-07
-0.011029039 0.001125445 0.055803128 0.047940895 0.095424175 0.063232005 0.047521416 0.0820506
0.068865694 0.061684225 0.03603736 0.032148022 0.043536555 0.041242488 0.06269749 -0.0019957456
-0.003513357 -0.0034299544 -0.0030963859 -0.0028826809 -0.0007170525 -0.047362626 -0.04181007 -0.07841999
-0.07693364 -0.17485465 0.6110846 -0.11355345 0.003528594 0.053522576 -0.0060949903 0.03276017
-0.07114259 -0.026030492 -0.010415938 -0.019717814 -0.06392724 0.0053009014 -0.03152168 -0.047713485
0.048206024 0.023446377 0.022669336 0.027750742 0.06133068 0.004408516 0.001060713 -0.006386121
0.0014808497 -0.0077300915 0.01979022 0.011324318 0.0084705 0.042762786 0.06611434 -0.0012200339
0.67423916 0.036133092 0.010641312 -0.023192206 0.023508089 0.014420813 0.033228233 0.020412954
0.031346694 0.00782176 0.030001277 0.042305097 0.027951926 0.022369465 0.025451468 0.03296779
00000000: b61e 313f aefb 673d 827e acbc bfae b6bc
00000010: 6002 fdbc 575d 13bd d118 08bc 6cc6 fe3b
00000020: 9913 0bbc 5777 24bc 4733 01bc 6721 cfbb
00000030: a128 293c bd57 3e3c 46ab 623d 5354 733d
00000040: 34c7 723d 3f9a 8a3d 93b3 8e3d 80b6 dcbc
00000050: a93a adbc ed6d 95bc 5534 dcbc c28b 06bd
00000060: 92a0 e3bc 7bfd 10bc 4b4b 0fbc 9199 ce3d
00000070: a4af f63d 2553 e03c 16af 01bf c76e 85bd
00000080: 4a83 0e3d 8d0b 2dbc f977 013d 0083 343c
00000090: f108 643d 0e25 1f3d c0fc 1b3d aaa8 063d
000000a0: b598 263d a274 b93c fce1 123d f4cc 233d
000000b0: 2a66 dc3b 3471 4d3c 98fd dc3c 4bd0 963c
000000c0: fe0f e63c 7614 843c fcda 793d 4a5b 7a3d
000000d0: 54ee 3e3d 39b5 883c a7c5 2c3d e25e 693d
000000e0: c99d 763d 0741 0bbd 13c9 15bd 9b30 073e
000000f0: 62f4 1b3f 27f1 f7bd fa0c eabc f51c 263d
00000100: bf3f bebc 4e28 47bd e68d c3bc 2080 36bd
00000110: 56cf 07bb 5874 0fbd 28d7 e4bc 76af 43bc
00000120: b36e 34bd 5d6b 00bd 1a45 7dbd becc 11bd
00000130: 1184 4abd c062 4d3d cd8f b2bd f0ba 06bc
00000140: 585f eabd dccc 56bc f4af e5bb c6d9 81bc
00000150: c52f 9abc 66d4 2fbd c169 36bd ff3d 263b
00000160: 44fb c1bb 89ee 4e3d ec50 243f 6ef6 73bc
00000170: 2071 4a3d aa6f 1fbd 681e 9e3d 87c6 953d
00000180: 8516 0f3d 5a72 983c 26f0 e83c b9bc 183d
00000190: d4be 333d a266 93bb d65c 293d bb4b 0e3d
000001a0: 1016 d63c 7fe9 663c 81c8 b73a 1fec d13c
000001b0: 7e01 2eba 11a4 5dbd 3437 553d 93fe 79bd
000001c0: d45f 6ebd 24aa 28bd 3b1e 46bd a629 c73d
000001d0: 5d5a b63d 78e5 8a3d 5545 6e3d 3261 693d
000001e0: 1337 5cbf 00f6 d2bb 4373 993c aefd 143c
000001f0: 8edc c33c 6985 133d 8dfb 41bd 5867 34bd
00000200: 69b2 8abd d643 44bd add0 27bd df51 ccbd
00000210: 0155 26bd 4465 7abd 41e6 c13d 324e cd3d
00000220: 5a09 d53d 93ac ce3d 7021 253d 1ff1 67bd
00000230: 88a3 18bd c567 65bd db08 46bd 503b 78bd
00000240: d06b 5bbd 74df f7bd 9822 08be 8c17 1b3c
00000250: 24a9 373c bbee 01be 5a75 f73e 9166 22be
00000260: 36ce a5bb 8804 6cbc 1893 64bc a402 32bc
00000270: bfd4 4a3d 085f 44b9 a534 e6ba 1899 0d3d
00000280: f537 a03d 5e55 213d 9bc7 e23d 106f fc3c
00000290: d08c 11bb a13f 6abc cb47 39bc 3814 9c3c
000002a0: a50c b33d 3cc5 90bd b083 013b 8c03 86bc
000002b0: ee3d 07bd 83a6 10bd 8183 01bd f775 1abc
000002c0: 1461 3d3d 9e56 e43c 1fee 413d 1f0b 79bc
000002d0: 0af3 3bbf bdf9 08be 809c 8ebc 00b0 6734
000002e0: 24b3 34bc ab83 933a d291 643d ac5d 443d
000002f0: c06d c33d c87f 813d d1a5 423d 250a a83d
00000300: 7509 8d3d 99a8 7c3d e99b 133d a5ad 033d
00000310: 6353 323d e2ed 283d 8b67 803d 0ecb 02bb
00000320: 5940 66bb 16c9 60bb bcec 4abb 5ceb 3cbb
00000330: 94f8 3bba 50ff 41bd 0941 2bbd a99a a0bd
00000340: 628f 9dbd 190d 33be 0a70 1c3f b68e e8bd
00000350: fc3f 673b 7d3a 5b3d 7cb8 c7bb 872f 063d
00000360: 35b3 91bd e63d d5bc 9ca7 2abc 4187 a1bc
00000370: 49ec 82bd 2fb3 ad3b e11c 01bd 376f 43bd
00000380: ae73 453d 9e12 c03c 0bb5 b93c 8655 e33c
00000390: e135 7b3d 5075 903b 9f07 8b3a aa42 d1bb
000003a0: 1219 c23a b54c fdbb 191f a23c a289 393c
000003b0: dac7 0a3c 0828 2f3d f566 873d 8be9 9fba
000003c0: f09a 2c3f 4b00 143d e658 2e3c 95fd bdbc
000003d0: 0994 c03c 4645 6c3c 541a 083d 1139 a73c
000003e0: 6465 003d d726 003c 3dc5 f53c 1c48 2d3d
000003f0: 70fb e43c 2b40 b73c 997f d03c 3c09 073d

encoder_mean.0.bias f4 [20]
3.0410408e-06 5.805334e-07 -8.976754e-07 1.3423472e-05 2.1010878e-06 -1.8092913e-07 -1.9195912e-05 4.38907e-06
6.499994e-06 5.8037094e-06 9.4915285e-06 -6.5210356e-06 2.9576103e-07 4.18689e-06 7.116837e-07 4.3712475e-06
-7.5970806e-06 -1.0550243e-06 4.340812e-08 -4.9871196e-06
00000000: af14 4c36 f4d5 1b35 c9f7 70b5 6035 6137
00000010: 6a00 0d36 6c45 42b4 e806 a1b7 d345 9336
00000020: 861a da36 7cbd c236 ce3d 1f37 45cf dab6
00000030: 16c9 9e34 1c7d 8c36 880a 3f35 bbac 9236
00000040: 6dea feb6 5c9a 8db5 bc6f 3a33 0857 a7b6

encoder_mean.1.weight f4 [20]
0.65663296 0.3116569 0.46573406 0.62851214 0.7215507 0.33618587 0.5850037 0.36309618
0.66256344 0.47233513 0.52675664 0.6617293 0.3974036 0.60687846 0.20415387 0.36973095
0.33762693 0.6518075 0.24596451 0.6369251
00000000: 1919 283f 7e91 9f3e b274 ee3e 2ce6 203f
00000010: 8cb7 383f 8e20 ac3e cdc2 153f bee7 b93e
00000020: c29d 293f e9d5 f13e 86d9 063f 1767 293f
00000030: 7c78 cb3e 635c 1b3f b60d 513e 604d bd3e
00000040: 70dd ac3e dbdc 263f 1fde 7b3e 860d 233f

encoder_mean.1.bias f4 [20]
-0.24043001 -0.023458917 -0.30775592 0.02769758 -0.35930404 -0.20245738 -0.46773425 -0.25432366
-0.10646217 -0.14824384 -0.3156635 -0.11811984 -0.39358044 -0.19095427 -0.07381473 -0.12812951
-0.10414845 -0.13561961 -0.16712719 0.018881636
00000000: 4933 76be ea2c c0bc 2f92 9dbe 09e6 e23c
00000010: b3f6 b7be fd50 4fbe dd7a efbe b636 82be
00000020: d708 dabd 3ccd 17be a59e a1be d1e8 f1bd
00000030: 6083 c9be 8489 43be 2d2c 97bd 6234 03be
00000040: c84b d5bd dedf 0abe 6423 2bbe a9ad 9a3c

encoder_mean.1.running_mean f4 [20]
0.34401205 0.09635584 0.022907404 0.43687728 -0.4444356 0.103797205 -0.40152827 0.19775519
0.10354587 -0.025016135 0.22252429 -0.033585116 -0.010236069 0.52605516 0.07968007 -0.040285002
-0.11014677 -0.16088659 -0.036991227 0.26309696
00000000: 5922 b03e 3656 c53d 4fa8 bb3c 61ae df3e
00000010: 108d e3be a193 d43d 1d95 cdbe 5680 4a3e
00000020: db0f d43d a3ee ccbc 68dd 633e 8c90 09bd
00000030: 2fb5 27bc 8dab 063f 4e2f a33d e301 25bd
00000040: a194 e1bd 74bf 24be 1d84 17bd a5b4 863e

encoder_mean.1.running_var f4 [20]
0.016356794 0.014654118 0.009570443 0.013955093 0.026488237 0.01193577 0.018275162 0.015111564
0.01755261 0.021703484 0.020102292 0.019229319 0.014138438 0.020935355 0.018545544 0.015369219
0.01255121 0.014742666 0.023331806 0.011895484
00000000: affe 853c d317 703c 59cd 1c3c e7a3 643c
00000010: dcfd d83c 3f8e 433c cbb5 953c 7e96 773c
00000020: 7eca 8f3c 81cb b13c 90ad a43c ce86 9d3c
00000030: e8a4 673c 9f80 ab3c d3ec 973c 2dcf 7b3c
00000040: 97a3 4d3c 398b 713c 5822 bf3c 47e5 423c

encoder_mean.4.weight f4 [16, 20]
0.18174922 -0.07679186 -0.045886017 0.015762012 -0.18418753 0.03513188 -0.060172744 0.014928393
0.064990215 -0.12788434 0.10733742 -0.11348883 0.004590327 0.29893476 0.0046297023 0.05717502
-0.04828909 -0.11738937 -0.20445983 0.016726147 0.13087359 -0.03166664 0.031770706 0.17300886
-0.04671155 0.040044315 -0.08896581 0.1247741 0.014075273 -0.0753558 0.19731006 -0.11458581
0.08039341 0.023194678 -0.0093541 0.040339917 -0.041709833 -0.11038928 0.055049136 0.17563917
0.12318183 -0.09076226 0.098917484 0.08090878 -0.13500337 0.065707825 -0.12671128 0.015824702
0.07220856 -0.09079615 0.12520337 -0.1590321 0.116661005 0.14555804 0.0027852715 0.044309568
-0.15989697 -0.18494575 0.01653367 0.13591838 0.14298867 -0.05125419 0.12042077 0.080013566
-0.06335362 0.08805625 -0.051705375 0.15790078 0.10651797 -0.096085615 0.15560094 -0.15638219
0.1303913 0.020860594 -0.025175475 0.116506316 -0.05499462 -0.17555502 0.018094733 0.11719709
-0.0894605 0.0015057055 -0.14258462 -0.11389485 0.18044032 -0.04546499 0.22849108 -0.06795037
-0.13691196 0.10983978 -0.10278371 0.15439649 -0.1410418 0.0027276874 0.00067663786 -0.07772649
0.08057012 0.07896282 0.001844994 -0.096264005 -0.084925264 -0.032183155 0.20034815 0.06238589
0.09870859 0.12569317 0.06960145 0.19815545 -0.07767515 -0.038673703 0.17740382 0.18856078
0.13239682 0.05335459 -0.045767676 0.120643735 -0.025658518 -0.007181456 -0.05486479 -0.038237955
0.006802966 0.043395128 -0.13232145 -0.08924019 0.18304472 -0.041708674 0.3167396 -0.07377859
-0.020282807 -0.0064930506 -0.03304148 0.08449358 -0.059846524 -0.036032632 0.057008844 -0.0766006
0.01960738 0.031492516 -0.01789809 -0.10121009 0.16935933 -0.09268182 0.09627613 0.18901314
-0.19422634 -0.004339314 -0.089546695 0.12303809 0.1999484 -0.14128676 0.15108192 -0.11346739
-0.0089012515 0.06735222 -0.033921316 0.09348141 -0.030090561 -0.12727748 0.08335261 -0.039937686
0.1643703 -0.0799171 0.11064326 0.11034053 -0.13871232 0.11766825 -0.020385344 0.12505545
0.11819361 -0.011452847 0.13635828 -0.037778813 0.16571984 0.094095476 -0.07706756 0.12816933
-0.05808543 -0.13158132 0.030868273 0.06410311 0.031101778 0.103872605 -0.1025012 -0.06436872
-0.0013871354 -0.07166071 0.24936327 -0.052477825 0.09984197 0.1775416 0.018699944 -0.11008969
-0.045262873 0.021955563 0.04799336 -0.062773034 0.12734543 -0.024416868 -0.16778527 -0.059854038
-0.17448844 -0.00032769563 -0.09684381 -0.19288184 0.3028915 -0.008231801 0.17452644 -0.06439118
-0.20327069 0.010147867 -0.06937721 0.11913435 0.012496838 -0.12735441 0.0189519 -0.017256532
0.033911005 -0.0016443403 -0.0025555652 -0.21447271 0.21326227 -0.20005517 0.080489814 0.09376651
-0.020885127 0.04915172 -0.14435336 0.15576434 0.004370441 -0.0960909 0.16512275 -0.13912061
0.092520185 0.0151538085 0.010940779 0.07618134 -0.084786795 -0.15469356 -0.02278421 0.018641887
-0.019020788 -0.047468197 0.10333576 -0.10547175 0.07743485 0.13732034 -0.0049443324 0.16651909
0.15180115 0.016215587 -0.00927153 -0.015817428 0.18937968 -0.014878087 -0.05511509 0.10833908
00000000: 781c 3a3e 0d45 9dbd faf2 3bbd 561f 813c
00000010: a89b 3cbe 72e6 0f3d b277 76bd 3896 743c
00000020: 9719 853d 1df4 02be b9d3 db3d d56c e8bd
00000030: 746a 963b fa0d 993e c2b4 973b 5b30 6a3d
00000040: c8ca 45bd d769 f0bd eb5d 51be 4605 893c
00000050: ba03 063e e1b4 01bd 0022 023d 3c29 313e
00000060: 9c54 3fbd 8205 243d b533 b6bd 9089 ff3d
00000070: f99b 663c 2454 9abd a60b 4a3e f7ab eabd
00000080: 4da5 a43d c402 be3c f041 19bc 783b 253d
00000090: eed7 2abd c613 e2bd 347b 613d c1da 333e
000000a0: c146 fc3d 90e1 b9bd 4095 ca3d 81b3 a53d
000000b0: 533e 0abe d391 863d 9ac0 01be cea2 813c
000000c0: 15e2 933d 55f3 b9bd 5035 003e 50d9 22be
000000d0: f7eb ee3d 2b0d 153e 1a89 363b f37d 353d
000000e0: 08bc 23be 6b62 3dbe 9e71 873c 302e 0b3e
000000f0: 9f6b 123e eaef 51bd 2a9f f63d 27de a33d
00000100: 8bbf 81bd d656 b43d 04c9 53bd beb0 213e
00000110: 1826 da3d 89c8 c4bd da55 1f3e a722 20be
00000120: 4c85 053e d6e3 aa3c cc3c cebc dd9a ee3d
00000130: 0a42 61bd b2c4 33be 683b 943c 0705 f03d
00000140: 1137 b7bd 185b c53a b401 12be b441 e9bd
00000150: 59c5 383e 7f39 3abd 91f9 693e 9029 8bbd
00000160: a632 0cbe aef3 e03d 4480 d2bd 1d1a 1e3e
00000170: 436d 10be 00c3 323b 6660 313a 112f 9fbd
00000180: f201 a53d 42b7 a13d bad3 f13a 1026 c5bd
00000190: 4ced adbd 7cd2 03bd 1128 4d3e 5988 7f3d
000001a0: bb27 ca3d b6b5 003e 348b 8e3d 43e9 4a3e
000001b0: 2614 9fbd 5168 1ebd 59a9 353e 1416 413e
000001c0: 0893 073e 588a 5a3d e376 3bbd 1014 f73d
000001d0: d031 d2bc 6b52 ebbb e7b9 60bd 679f 1cbd
000001e0: 6aeb de3b 17bf 313d 467f 07be 90c3 b6bd
000001f0: 1370 3b3e b7d6 2abd b12b a23e 3b19 97bd
00000200: 2128 a6bc a8c3 d4bb 8156 07bd f80a ad3d
00000210: a121 75bd f496 13bd 1b82 693d c6e0 9cbd
00000220: a89f a03c 4cfe 003d 049f 92bc 3c47 cfbd
00000230: 886c 2d3e f7cf bdbd 6b2c c53d a98c 413e
00000240: 45e3 46be ce30 8ebb 4264 b7bd 65fb fb3d
00000250: 46bf 4c3e 7aad 10be 38b5 1a3e 9761 e8bd
00000260: 8ed6 11bc f6ef 893d 14f1 0abd 2e73 bf3d
00000270: 7b80 f6bc 0755 02be c6b4 aa3d b395 23bd
00000280: b050 283e 94ab a3bd ef98 e23d 37fa e13d
00000290: 9a0a 0ebe 0dfc f03d 2aff a6bc 890e 003e
000002a0: 7e0f f23d b9a4 3bbc 81a1 0b3e f5bd 1abd
000002b0: 76b2 293e 21b5 c03d 99d5 9dbd d23e 033e
000002c0: fdea 6dbd 41bd 06be 76df fc3c 7e48 833d
000002d0: 28c9 fe3c 29bb d43d 26ec d1bd bfd3 83bd
000002e0: 8ad0 b5ba dac2 92bd 1659 7f3e fdf2 56bd
000002f0: f279 cc3d 77cd 353e a030 993c b476 e1bd
00000300: 9065 39bd 27dc b33c af94 443d 268f 80bd
00000310: d766 023e e205 c8bc e7cf 2bbe 8229 75bd
00000320: 19ad 32be 90ce abb9 0c56 c6bd d182 45be
00000330: 9814 9b3e adde 06bc 0fb7 323e 86df 83bd
00000340: 3126 50be 3d43 263c a415 8ebd b6fc f33d
00000350: 8abf 4c3c 3269 02be 0441 9b3c 925d 8dbc
00000360: 44e6 0a3d e886 d7ba 457b 27bb bc9e 5bbe
00000370: 6d61 5a3e 43db 4cbe d8d7 a43d a808 c03d
00000380: 4917 abbc 5053 493d 5ed1 13be b080 1f3e
00000390: eb35 8f3b 4ecb c4bd f015 293e a275 0ebe
000003a0: 397b bd3d ae47 783c f440 333c f604 9c3d
000003b0: b3a4 adbd fd67 1ebe f4a5 babc dfb6 983c
000003c0: 7cd1 9bbc 036e 42bd b3a1 d33d 9301 d8bd
000003d0: 2a96 9e3d b49d 0c3e 1104 a2bb fb83 2a3e
000003e0: c371 1b3e 8dd6 843c 9ee7 17bc 8d93 81bc
000003f0: bfec 413e 38c3 73bc 5cc0 61bd e1e0 dd3d

encoder_mean.4.bias f4 [16]
-1.0300386e-06 -1.1765667e-06 2.6477455e-06 -7.4483594e-08 3.6767116e-07 7.664171e-07 -4.3143286e-06 -3.15506e-06
-5.624211e-07 -6.89358e-06 -3.8660014e-06 -7.387189e-07 -1.0523657e-06 9.545065e-07 7.838974e-07 -3.4652805e-07
00000000: db3f 8ab5 86ea 9db5 ecaf 3136 caf3 9fb3
00000010: 5764 c534 c8bb 4d35 cdc3 90b6 85bb 53b6
00000020: 49f9 16b5 674f e7b6 b3b8 81b6 604c 46b5
00000030: 033f 8db5 981c 8035 056d 5235 740a bab4

encoder_mean.5.weight f4 [16]
0.43576655 0.49485767 0.59070605 0.5640207 0.7300032 0.45003167 0.60170627 0.53955823
0.52616704 0.5179381 0.6497833 0.5317054 0.47972998 0.36574638 0.49119073 0.5551757
00000000: cb1c df3e fc5d fd3e 8338 173f a963 103f
00000010: 7de1 3a3f 8d6a e63e 6c09 1a3f 7d20 0a3f
00000020: e2b2 063f 9797 043f 3358 263f d81d 083f
00000030: 2b9f f53e 1c43 bb3e 5a7d fb3e ff1f 0e3f

encoder_mean.5.bias f4 [16]
0.11733691 0.18034363 0.092161946 0.15147117 -0.08960629 -0.20932806 -0.16319911 0.13889228
0.025863532 -0.29959205 -0.1622453 0.037598625 -0.15010694 0.07331243 0.16979538 -0.24843323
00000000: 554e f03d 00ac 383e 67bf bc3d 421b 1b3e
00000010: 8183 b7bd 185a 56be ab1d 27be c739 0e3e
00000020: c2df d33c 2164 99be a223 26be 0401 1a3d
00000030: a2b5 19be d424 963d d7de 2d3e 4865 7ebe

encoder_mean.5.running_mean f4 [16]
0.0024324525 0.10157251 0.030809648 0.06695849 -0.051633514 0.07752241 -0.03972714 0.060318626
0.11968021 -0.016771063 -0.146476 0.0131371245 0.10343899 -0.054275267 0.037280865 -0.024732992
00000000: c869 1f3b 4005 d03d 8464 fc3c 8821 893d
00000010: aa7d 53bd 12c4 9e3d edb8 22bd aa10 773d
00000020: e61a f53d 7863 89bc cefd 15be 183d 573c
00000030: d2d7 d33d be4f 5ebd d2b3 183d d89c cabc

encoder_mean.5.running_var f4 [16]
0.089003965 0.12937583 0.1552951 0.15905833 0.13503635 0.018603982 0.06290924 0.15467998
0.16973475 0.016607046 0.20938568 0.11457076 0.04419606 0.035365522 0.14433315 0.060511634
00000000: b647 b63d 197b 043e ae05 1f3e 30e0 223e
00000010: f846 0a3e 6167 983c 8fd6 803d 6e64 1e3e
00000020: f2ce 2d3e 800b 883c 3369 563e 13a4 ea3d
00000030: ee06 353d 70db 103d 12cc 133e 0cdb 773d

encoder_mean.8.weight f4 [14, 16]
-0.080760546 -0.2060811 -0.16649544 -0.14562337 0.17032617 0.0274436 0.12989575 -0.10511352
-0.06462895 0.05538447 0.18571208 -0.117517136 -0.059698515 -0.083905816 -0.10708262 0.044290077
-0.15524925 -0.11615814 0.046115607 -0.10992944 0.18442503 -0.055081528 0.18305726 -0.050448377
0.017186424 0.06090482 0.15274493 0.014328918 0.021259777 -0.17444348 -0.16521095 0.15277788
-0.0764385 0.14244042 0.21061882 0.10573091 -0.003813754 0.1920903 -0.022934837 0.16326451
0.11339609 -0.00091038336 0.049284887 0.07718451 0.09228471 -0.075985916 0.036267374 -0.0021290104
-0.2327275 0.01959477 -0.02110531 -0.07310768 0.058239248 0.039213527 0.09919743 -0.051580295
0.044917308 0.20222951 0.0670067 0.057214506 0.06093418 -0.25120223 -0.24946193 0.10849069
0.15857244 -0.029352881 0.14688928 0.04215527 -0.17605549 -0.18979642 -0.10769823 0.13247854
-0.044663087 -0.06477804 -0.20797117 0.023315385 -0.20651679 0.10039269 0.14584093 -0.054615874
0.0419703 0.11202571 0.09129425 0.055117786 -0.28228167 -0.013732381 -0.14441815 0.022934983
0.16185771 -0.011595353 -0.1890498 0.21724474 0.032890413 -0.031739134 0.024719046 -0.10204412
0.018047795 0.12348404 0.16062874 0.05908375 -0.24352956 0.099873714 -0.13800283 0.1449391
-0.026621323 -0.0374933 -0.06415196 0.19242847 0.104011714 0.0072814412 0.08714086 -0.065510206
0.022556117 0.083588935 0.029488115 0.10709767 -0.092995815 0.11177245 -0.16387253 0.06831352
0.19301698 -0.008627037 -0.22163108 0.22658432 0.07463437 0.09437586 0.019121204 -0.00959322
-0.12940238 -0.009715254 0.05458938 -0.10642862 -0.016306587 0.0816856 0.08866311 -0.037535146
0.30868638 0.2008321 0.027478147 -0.037382603 -0.032547753 -0.16759197 -0.094983764 0.18412511
0.17112489 -0.07484553 -0.09852475 0.06987743 -0.09364439 0.21752991 -0.09326013 -0.008424876
0.03990188 -0.01947215 0.083298855 -0.034383245 0.24969079 -0.015954532 0.035884053 -0.059062153
-0.16276939 -0.16069633 -0.15035124 -0.23678929 0.052653324 0.18794346 0.062543705 -0.22206724
0.01400732 0.028525062 0.28485104 -0.019268777 0.01817337 -0.07270994 -0.19178678 0.041835576
-0.062185388 -0.15304083 -0.16002245 -0.14334096 -0.030248746 0.13060375 -0.1268751 -0.13635
0.0337841 -0.24391325 0.0044608437 -0.05472548 0.17551902 -0.022412073 -0.08615993 -0.25521272
0.08918075 0.14680488 0.030496487 0.050897706 -0.18186153 0.07957467 -0.054010745 0.08000292
0.23234384 -0.022972215 -0.10803764 0.0904411 0.15100442 0.06598432 0.096137494 0.05844066
0.04666519 0.08204472 0.05395504 0.11952218 -0.26415363 0.098327264 -0.15191616 0.1137769
0.069487125 -0.0818402 -0.09267483 0.028701507 0.109451964 -0.014022093 0.06940877 -0.12838927
00000000: c965 a5bd ed06 53be c87d 2abe 4b1e 15be
00000010: fc69 2e3e 67d1 e03c 6403 053e c245 d7bd
00000020: 2f5c 84bd d3da 623d 4f2b 3e3e d3ac f0bd
00000030: 6e86 74bd d0d6 abbd 224e dbbd 8369 353d
00000040: a9f9 1ebe 52e4 edbd b8e3 3c3d b022 e1bd
00000050: ead9 3c3e 2b9d 61bd 5d73 3b3e f5a2 4ebd
00000060: 8bca 8c3c 5577 793d 2b69 1c3e d7c3 6a3c
00000070: fc28 ae3c 50a1 32be 0f2d 29be ce71 1c3e
00000080: ca8b 9cbd e7db 113e 76ac 573e 7389 d83d
00000090: 2df0 79bb 52b3 443e d7e1 bbbc d02e 273e
000000a0: 363c e83d cba6 6eba f3de 493d ea12 9e3d
000000b0: c4ff bc3d 819e 9bbd 198d 143d de86 0bbb
000000c0: 1e50 6ebe 3685 a03c 0be5 acbc 7bb9 95bd
000000d0: 478c 6e3d 5d9e 203d 0628 cb3d dc45 53bd
000000e0: 36fb 373d 4115 4f3e cf3a 893d c259 6a3d
000000f0: 1e96 793d 949d 80be f372 7fbe 5e30 de3d
00000100: d060 223e 7475 f0bc 256a 163e 01ab 2c3d
00000110: e447 34be fe59 42be e490 dcbd 74a8 073e
00000120: a4f0 36bd 59aa 84bd 65f6 54be e8ff be3c
00000130: 2379 53be af9a cd3d 5357 153e e5b4 5fbd
00000140: 0de9 2b3d bc6d e53d 7bf8 ba3d 30c3 613d
00000150: 3987 90be c8fd 60bc 5ae2 13be 25e2 bb3c
00000160: 07be 253e 6ffa 3dbc 4596 41be 6875 5e3e
00000170: 19b8 063d e500 02bd 997f ca3c 82fc d0bd
00000180: f8d8 933c 33e5 fc3d dc7b 243e cd01 723d
00000190: d05f 79be 978a cc3d 9d50 0dbe ea6a 143e
000001a0: f614 dabc 9392 19bd 1a62 83bd f80b 453e
000001b0: 1804 d53d 2899 ee3b e876 b23d 372a 86bd
000001c0: 9bc7 b83c ad30 ab3d 0f91 f13c 0656 db3d
000001d0: 9774 bebd f4e8 e43d 33ce 27be f5e7 8b3d
000001e0: 3ea6 453e 6a58 0dbc 42f3 62be b805 683e
000001f0: e8d9 983d 2248 c13d 12a4 9c3c e22c 1dbc
00000200: 0f82 04be bb2c 1fbc 1d99 5f3d 40f7 d9bd
00000210: 6495 85bc c84a a73d 0195 b53d 74be 19bd
00000220: 240c 9e3e eea6 4d3e da19 e13c 801e 19bd
00000230: cb50 05bd 3b9d 2bbe d986 c2bd 4b8b 3c3e
00000240: 5d3b 2f3e 9d48 99bd 58c7 c9bd e61b 8f3d
00000250: a1c8 bfbd 29c0 5e3e 2bff bebd 7e08 0abc
00000260: 2770 233d 0f84 9fbc 9798 aa3d 72d5 0cbd
00000270: f1ae 7f3e 14b3 82bc 28fb 123d 28eb 71bd
00000280: 05ad 26be 948d 24be adf5 19be e478 72be
00000290: 03ab 573d 4074 403e ea16 803d 9865 63be
000002a0: f57e 653c 64ad e93c ffd7 913e 8ed9 9dbc
000002b0: 52e0 943c f3e8 94bd c163 44be c85b 2b3d
000002c0: 1bb6 7ebd bcb6 1cbe eddc 23be f9c7 12be
000002d0: 38cc f7bc fdbc 053e 8ceb 01be 569f 0bbe
000002e0: 3261 0a3d 65c4 79be 452c 923b d327 60bd
000002f0: 42bb 333e 8699 b7bc 9e74 b0bd 3eab 82be
00000300: 66a4 b63d 0554 163e c5d3 f93c 1d7a 503d
00000310: e939 3abe 0bf8 a23d 5f3a 5dbd 92d8 a33d
00000320: 8beb 6d3e 3a30 bcbc d742 ddbd 2f39 b93d
00000330: e7a0 1a3e ca22 873d bce3 c43d 795f 6f3d
00000340: 0024 3f3d 1007 a83d f6ff 5c3d 0bc8 f43d
00000350: 253f 87be ce5f c93d e98f 1bbe dd03 e93d
00000360: 444f 8e3d d69b a7bd 4dcc bdbd 6c1f eb3c
00000370: 5a28 e03d ecbc 65bc 2f26 8e3d 7a78 03be

encoder_mean.8.bias f4 [14]
5.519659e-06 -1.1184917e-06 -7.950464e-07 -2.8618233e-06 1.8199837e-06 -1.1169821e-07 -5.564169e-07 1.3183195e-06
-8.548353e-06 4.0301728e-07 -1.498617e-06 4.1774447e-06 -1.9161449e-07 9.290891e-07
00000000: 8335 b936 151f 96b5 2c6b 55b5 c00d 40b6
00000010: 2a46 f435 bede efb3 ae5c 15b5 1df1 b035
00000020: e66a 0fb7 465e d834 1724 c9b5 fa2b 8c36
00000030: 97be 4db4 8466 7935

encoder_mean.9.weight f4 [14]
0.6616812 0.6808807 0.48862776 0.583846 0.4386706 0.5277984 0.5200979 0.5304617
0.5424627 0.41812795 0.7714313 0.69455177 0.4975158 0.5065448
00000000: f063 293f 334e 2e3f 6b2d fa3e ee76 153f
00000010: 6f99 e03e cc1d 073f 2325 053f 57cc 073f
00000020: d6de 0a3f de14 d63e 867c 453f 25ce 313f
00000030: 64ba fe3e ecac 013f

encoder_mean.9.bias f4 [14]
-0.06999151 -0.07159774 -0.12011525 -0.16559015 0.10381238 0.09705864 0.17266901 0.12828387
-0.0047159377 0.017624568 -0.18325803 -0.25727773 0.108776264 0.1359005
00000000: b557 8fbd d6a1 92bd fcfe f5bd 7790 29be
00000010: 969b d43d aec6 c63d 25d0 303e d95c 033e
00000020: 2788 9abb 6661 903c fea7 3bbe e8b9 83be
00000030: 17c6 de3d 8029 0b3e

encoder_mean.9.running_mean f4 [14]
-0.19190747 -0.08741684 0.21360733 -0.11154791 0.036445238 0.054866258 0.1366022 0.14206474
-0.027879924 0.04607594 -0.2192047 -0.22565046 0.18334317 0.072347865
00000000: 6483 44be 9a07 b3bd e1bb 5a3e 3b73 e4bd
00000010: 9a47 153d 71bb 603d 72e1 0b3e 6b79 113e
00000020: 7064 e4bc 20ba 3c3d 3277 60be ea10 67be
00000030: 50be 3b3e 1e2b 943d

encoder_mean.9.running_var f4 [14]
0.29584545 0.14510745 0.19250146 0.08503079 0.076521896 0.1725455 0.22755176 0.20902543
0.028222796 0.047007658 0.25909308 0.066834114 0.23654889 0.17483756
00000000: 0e79 973e 0c97 143e 1a1f 453e 9f24 ae3d
00000010: 83b7 9c3d c4af 303e 5403 693e c30a 563e
00000020: 7e33 e73c 1a8b 403d d9a7 843e 53e0 883d
00000030: df39 723e 9e08 333e

encoder_mean.12.weight f4 [12, 14]
-0.2962062 -0.19444922 0.04930251 -0.053112976 0.062388305 -0.044147655 0.06977079 0.081580274
0.007850627 0.03253158 -0.22338568 -0.2178058 0.10591734 0.10245574 0.09911952 0.13660301
0.0602829 0.15172018 -0.20980579 -0.09379238 -0.13367225 -0.028540116 0.1561386 0.03235365
0.11167702 -0.09288071 0.034356482 -0.15788603 -0.18561979 -0.09071117 0.17536491 0.0011318095
0.03779698 0.11465795 0.03749405 0.19944817 0.06170719 0.21459895 -0.059456512 -0.096433885
0.07656403 -0.074188255 0.100983255 0.17634849 0.05370478 0.17230982 -0.1709967 -0.030759709
-0.11018123 0.0023373538 0.14038096 0.06323007 0.041842576 -0.16099751 0.016800858 -0.15361762
0.050704908 0.010819057 0.14932367 -0.07904032 -0.14273179 -0.1822347 -0.19012353 -0.15609638
-0.078203544 0.07625813 0.076270975 0.2727637 -0.11814438 -0.1793567 0.025030658 -0.313118
0.14706929 -0.004734027 -0.02826327 0.03013099 0.051875807 -0.033673346 0.30470076 0.108843245
0.18938565 0.056258414 -0.044153526 0.19470476 0.056798965 -0.1278231 0.19425102 -0.21789302
-0.051105987 -0.1608021 -0.1126821 -0.15669152 -0.15903623 0.0021643802 0.023480304 0.38341385
-0.1584618 -0.12811472 -0.22301896 -0.17856398 -0.2739378 -0.09449951 0.098534465 0.09464539
0.031021645 0.011464368 -0.07185004 -0.17464499 -0.25498638 -0.21699199 -0.06765683 0.050577186
-0.18006292 -0.22521147 0.07086822 -0.034635477 -0.011645085 0.17766961 0.07364163 0.18466152
0.08624761 0.20263657 -0.17733186 0.038745195 0.13931282 0.024095232 0.07389522 0.118589945
0.046059094 0.2052778 -0.21795444 -0.14640918 -0.1568122 -0.042391848 0.093273394 0.05100845
0.16134475 -0.05485962 0.010995327 -0.14720887 -0.30805552 -0.1769533 -0.023143679 -0.040132027
0.13388027 0.108559944 0.03587199 -0.042806964 -0.016161798 0.12047248 -0.25048506 -0.15161298
0.1747105 0.07587216 -0.11187332 -0.24094547 -0.113301456 -0.30917367 -0.0028776163 -0.07663638
-0.052973296 -0.10813442 -0.22219251 -0.15715735 -0.25718054 -0.1826824 -0.12447254 -0.06964694
00000000: 57a8 97be b21d 47be 6ef1 493d fe8c 59bd
00000010: e18a 7f3d 2cd4 34bd fde3 8e3d 8f13 a73d
00000020: eb9f 003c d63f 053d 37bf 64be 7c08 5fbe
00000030: 31eb d83d 51d4 d13d 2dff ca3d a9e1 0b3e
00000040: 34eb 763d 895c 1b3e 54d7 56be 3816 c0bd
00000050: 61e1 08be f6cc e9bc cce2 1f3e 4385 043d
00000060: ecb6 e43d 3e38 bebd 62b9 0c3d e0ac 21be
00000070: 1d13 3ebe c7c6 b9bd dc92 333e 3a59 943a
00000080: 02d1 1a3d cad1 ea3d 5c93 193d 243c 4c3e
00000090: aec0 7c3d d4bf 5b3e ac88 73bd 217f c5bd
000000a0: 9acd 9c3d 03f0 97bd 4fd0 ce3d b394 343e
000000b0: 8bf9 5b3d fc71 303e c219 2fbe c9fb fbbc
000000c0: b2a6 e1bd 4a2e 193b 07c0 0f3e c47e 813d
000000d0: 1f63 2b3d 88dc 24be f4a1 893c f04d 1dbe
000000e0: f3af 4f3d 6a42 313c 4ee8 183e e4df a1bd
000000f0: 4828 12be bc9b 3abe beaf 42be bbd7 1fbe
00000100: 2e29 a0bd 392d 9c3d f533 9c3d afa7 8b3e
00000110: aef5 f1bd 48a9 37be 180d cd3c 0151 a0be
00000120: 5599 163e e61f 9bbb 6088 e7bc 44d5 f63c
00000130: ba7b 543d 10ed 09bd bd01 9c3e 35e9 de3d
00000140: 50ee 413e 396f 663d 54da 34bd af60 473e
00000150: 08a6 683d 0fe4 02be bde9 463e 591f 5fbe
00000160: 8354 51bd 4ea9 24be dfc5 e6bd be73 20be
00000170: 65da 22be 46d8 0d3b c459 c03c d24e c43e
00000180: cf43 22be 8130 03be 155f 64be 7ad9 36be
00000190: 9341 8cbe f688 c1bd 70cc c93d 71d5 c13d
000001a0: 1b21 fe3c 0bd5 3b3c 1d26 93bd 23d6 32be
000001b0: 938d 82be 2633 5ebe aa8f 8abd 062a 4f3d
000001c0: 6a62 38be d69d 66be 5b23 913d eedd 0dbd
000001d0: 07cb 3ebc 06ef 353e 6cd1 963d e917 3d3e
000001e0: 96a2 b03d f67f 4f3e 7c96 35be 48b3 1e3d
000001f0: 05a8 0e3e 5d63 c53c 6156 973d 49df f23d
00000200: 76a8 3c3d 5834 523e 732f 5fbe 4aec 15be
00000210: 6193 20be 13a3 2dbd 1f06 bf3d 3dee 503d
00000220: 8f37 253e 7bb4 60bd be25 343c ecbd 16be
00000230: 74b9 9dbe 3f33 35be d097 bdbc 7b61 24bd
00000240: e917 093e ad54 de3d 82ee 123d 5b56 2fbd
00000250: bf65 84bc 47ba f63d 943f 80be 6f40 1bbe
00000260: 4fe7 323e dd62 9b3d d71d e5bd 69ba 76be
00000270: 980a e8bd 034c 9ebe 6496 3cbb 89f3 9cbd
00000280: 87fa 58bd 9475 ddbd 6f86 63be dbed 20be
00000290: 2bad 83be 1811 3bbe 76eb febd 0ea3 8ebd

encoder_mean.12.bias f4 [12]
-1.639407e-06 1.8133814e-08 6.62539e-07 -9.58478e-08 -4.1978547e-07 -5.192132e-06 1.7584114e-06 -2.0861518e-07
5.3028124e-08 1.7420674e-06 7.3651836e-07 -1.7290928e-05
00000000: 9809 dcb5 aec4 9b32 55d9 3135 e3d4 cdb3
00000010: e05e e1b4 1338 aeb6 8e02 ec35 b4ff 5fb4
00000020: 0ac1 6333 fbd0 e935 28b5 4535 fc0b 91b7

encoder_mean.13.weight f4 [12]
0.8505291 0.9666702 0.6869423 0.8860065 1.0423557 0.7953186 1.4758798 1.0164446
0.7738202 1.001839 0.82881415 1.3493558
00000000: 46bc 593f b377 773f 73db 2f3f 52d1 623f
00000010: e96b 853f 009a 4b3f a1e9 bc3f db1a 823f
00000020: 1519 463f 433c 803f 2a2d 543f b1b7 ac3f

encoder_mean.13.bias f4 [12]
0.20805262 0.13063699 0.19964409 0.2156149 0.18554845 0.30140615 0.015895706 0.03392455
0.1914734 0.10362343 0.18359625 -0.2602661
00000000: bf0b 553e b4c5 053e 806f 4c3e 27ca 5c3e
00000010: 6a00 3e3e e851 9a3e b637 823c 78f4 0a3d
00000020: 9a11 443e 8538 d43d a800 3c3e 9941 85be

encoder_mean.13.running_mean f4 [12]
-0.06789151 -0.01588575 0.07975668 0.014081623 -0.16563374 0.13077278 -0.19207135 -0.18290515
0.06882383 -0.044452254 -0.04550354 -0.3730603
00000000: b40a 8bbd d522 82bc 7857 a33d 9cb6 663c
00000010: e49b 29be 4de9 053e 5aae 44be 7d4b 3bbe
00000020: 82f3 8c3d 9113 36bd ec61 3abd c201 bfbe

encoder_mean.13.running_var f4 [12]
0.12027704 0.109449886 0.13536565 0.073037095 0.1449936 0.05047023 0.08260704 0.062917955
0.20311956 0.1378023 0.1395256 0.1286579
00000000: cf53 f63d 4327 e03d 4b9d 0a3e 7994 953d
00000010: 3479 143e dfb9 4e3d e12d a93d 21db 803d
00000020: 93fe 4f3e 0c1c 0d3e cddf 0e3e e6be 033e

encoder_mean.16.weight f4 [10, 12]
0.048719876 -0.13980927 -0.03513049 -0.07305767 -0.036372814 0.014137878 0.1891278 -0.021385804
-0.08033137 -0.11464307 0.12150301 0.2119253 0.048505694 0.035933077 0.036850587 -0.023215484
0.0030982676 0.046083525 0.059543595 -0.033286214 -0.018160505 -0.052810203 -0.07700618 -0.032135375
-0.015230933 0.005755589 -0.036775816 0.0016252025 0.017124806 0.009368314 0.055402704 -0.10463034
0.04993675 -0.07440758 0.0316253 -0.045102924 0.04760456 0.082892284 0.046268657 -0.094344094
-0.047500115 0.18718344 0.31470248 -0.17649491 0.1440411 0.0029303231 -0.19276276 -0.478257
-0.4882897 0.20714208 -0.2463868 0.16483691 0.7836667 0.08708162 1.0186484 -0.5317826
-0.2811875 0.3121141 -0.48587334 0.043219004 0.36902782 -0.3491593 0.37253532 -0.06748415
-0.51095515 0.24917619 -0.3881648 0.051636532 0.42560393 -0.37587285 0.40268072 -0.42845875
-0.081532784 -0.044955797 0.14341298 -0.078319535 0.03225761 0.27481154 0.2586008 -0.38607314
0.13434707 0.069559075 -0.11249753 -0.2952887 0.084667824 -0.030274663 0.25476295 0.03912623
-0.27137956 0.2685941 -0.14636533 -0.14378671 0.255343 -0.047099017 0.12901637 -0.58696955
0.12450252 -0.4220776 -0.28693885 -0.46852696 0.011440564 -0.51639646 0.4838535 0.59562045
-0.16619967 -0.45161223 0.11839985 0.9005009 0.1840628 -0.61661726 0.15512879 -0.6743404
-0.18356873 -0.05926975 0.407187 0.38154656 0.19426724 -0.54875726 0.1753842 0.5117324
00000000: 7e8e 473d 292a 0fbe fde4 0fbd 429f 95bd
00000010: a9fb 14bd 8fa2 673c b8aa 413e 4831 afbc
00000020: c684 a4bd fcc9 eabd 92d6 f83d f202 593e
00000030: e8ad 463d 902e 133d a4f0 163d 662e bebc
00000040: 4e0c 4b3b 14c2 3c3d fce3 733d 2057 08bd
00000050: 57c5 94bc 834f 58bd 6bb5 9dbd 62a0 03bd
00000060: 2a8b 79bc 6199 bc3b 3da2 16bd bf04 d53a
00000070: 5249 8c3c 8f7d 193c f2ed 623d 6f48 d6bd
00000080: 7a8a 4c3d 0063 98bd 8889 013d d8bd 38bd
00000090: 00fd 423d 6ec3 a93d 3484 3d3d 7a37 c1bd
000000a0: 7b8f 42bd 04ad 3f3e af20 a13e 15bb 34be
000000b0: 837f 133e aa0a 403b 9a63 45be 1ade f4be
000000c0: 1c01 fabe 0e1d 543e d24c 7cbe 02cb 283e
000000d0: 619e 483f d957 b23d 1263 823f e822 08bf
000000e0: cff7 8fbe 6bcd 9f3e 64c4 f8be 6906 313d
000000f0: 37f1 bc3e 02c5 b2be f3bc be3e 2135 8abd
00000100: f5cd 02bf 0b28 7f3e 89bd c6be d480 533d
00000110: c2e8 d93e 6872 c0be 2b2c ce3e f25e dbbe
00000120: a9fa a6bd 9223 38bd dada 123e fe65 a0bd
00000130: 8e20 043d 19b4 8c3e 5367 843e 61ab c5be
00000140: 4792 093e fd74 8e3d 1b65 e6bd 1530 97be
00000150: 5366 ad3d 9202 f8bc 4a70 823e d342 203d
00000160: 43f2 8abe 2a85 893e cbe0 15be d33c 13be
00000170: 51bc 823e e6ea 40bd de1c 043e a343 16bf
00000180: 2dfb fe3d 8e1a d8be a6e9 92be c4e2 efbe
00000190: 3471 3b3c 8f32 04bf a5bb f73e 957a 183f
000001a0: 3f30 2abe b839 e7be 9f7b f23d 3a87 663f
000001b0: f57a 3c3e a1da 1dbf 15da 1e3e 93a1 2cbf
000001c0: 71f9 3bbe d6c4 72bd d17a d03e 125a c33e
000001d0: feed 463e 5b7b 0cbf ea97 333e e500 033f

encoder_mean.16.bias f4 [10]
-0.04420312 -0.0024200184 0.03527143 0.023527157 -0.4841756 0.2712684 0.017602162 0.14868762
-0.049175948 0.0715252
00000000: 550e 35bd 2c99 1ebb c678 103d 06bc c03c
00000010: dde5 f7be b1e3 8a3e 6932 903c 9141 183e
00000020: b86c 49bd ce7b 923d

encoder_var.0.weight f4 [20, 30]
-0.009651854 -0.00014119079 -0.0007518614 -0.0018216246 -0.0017993671 0.0041858964 0.0010439153 0.00093431276
0.0013042309 0.00042420885 0.0014087455 -0.00011987008 -0.004015504 -0.0014798564 0.0009633505 0.0011499069
-0.0015376174 -7.354814e-05 -0.0003531617 0.0021006737 -0.0017030147 0.0019811594 -0.00090237136 -0.0014576116
-0.00044320835 -0.006600753 0.0065920833 -0.002549057 0.002379835 -0.006252335 -0.0010251128 -0.00032573604
0.0016128821 -0.0005416232 0.0007789054 4.218609e-05 -0.0010542057 0.0009569165 0.0004845122 -0.0005276301
-0.00042854753 0.00056639273 -0.002733299 -0.0017931748 -0.004414712 0.0021110016 0.0014271076 -0.0008730623
-0.0005206206 0.00040123198 -0.00039729316 0.0017563767 -0.0007255596 0.0009606369 -0.0001591504 -0.00080142193
0.00081897515 0.0018477174 -0.0016639372 -0.006637282 0.00077641965 0.00047218575 -1.7774031e-05 -0.0005179596
0.0005929402 -0.00043238458 -0.00010420549 -0.00046808287 -0.00014085426 5.1119885e-05 -0.00016823891 0.00010687213
0.00067691284 -7.319816e-05 0.0009545657 -0.00030734553 7.896289e-06 -0.00059203117 -0.00036201745 6.100534e-05
-0.00058836496 0.00022291712 -5.4572396e-05 0.00023524836 0.00057689706 0.00032540053 -0.00032806644 0.0008960159
-0.0008771527 0.0011074615 0.00017223458 8.0086684e-05 0.0007356012 -0.00023957304 -0.00013779978 0.00044677465
0.0011456097 -4.0942745e-05 5.2968608e-05 0.00064709235 6.140091e-05 0.00013011144 0.0005662209 0.0021768007
-2.352449e-05 -0.0022997276 0.00029078216 -0.002035493 -2.6943188e-05 0.0005618092 -0.0002712886 -0.0002882637
0.00011281066 -8.545068e-05 -0.0005124952 0.00012905453 -0.00013501683 -0.0009606731 0.0008046121 -0.0007894711
-0.05970142 -0.040356956 -0.0016236006 -0.00031844992 0.0041663563 -0.0056535513 -0.0067452155 -0.0076309624
0.002889529 0.0033464197 -0.0053372793 -0.005934233 0.012538907 0.0020122363 -0.005497612 0.00012783974
-0.00791014 0.00979773 0.002530448 -0.0028539975 0.0017407414 -0.0025630689 0.004091594 0.00010180959
0.0003996432 -0.00083143776 0.000835367 -1.7548504e-05 1.5972182e-05 -0.00076239527 0.013850507 0.0059419964
-0.0016298052 -0.0022865795 0.00520927 -0.0020194552 -0.0027009596 -0.011689038 -0.00083777704 0.0010084198
-0.00061172346 -0.0007419777 0.012797162 0.0016209322 0.002971322 0.0065678866 0.0052929693 -0.007600662
-0.0036745868 0.00574582 -0.002349377 -0.0074112434 0.001696011 -0.0028341785 -0.002350272 0.009375223
-0.0093092555 0.0012873986 -0.0012868744 0.008216784 -0.014008851 -0.022983301 -0.0065922374 0.011357268
-0.00083035306 -0.0048384387 -0.0048846044 0.0005766728 0.0020273663 -0.0024415764 -0.0038763683 -0.0030487974
-1.5146856e-05 0.0020271128 -0.01111741 -0.00044660823 -0.0064962697 0.0056567336 0.019050602 -9.411965e-05
0.012246434 0.0007235301 -0.002505636 -0.0046901926 -0.00820292 -0.0010373108 0.0010099048 0.0009975517
-0.0009955962 -0.011232039 -0.0123897195 -0.005212191 -0.0010221321 0.0036980922 -0.00454519 0.0024530971
-0.0015524082 0.0044258568 0.001265744 0.00016188993 0.0030939842 0.00035227285 -0.0024880513 -0.0013790625
-0.0068059615 0.0019373054 0.00045951657 0.0010480263 0.00091187895 -0.0018342171 0.0038000273 0.0028124214
-0.0011612033 -0.00092320424 -0.0017695668 -0.003078694 0.003118759 -0.00086475804 0.0008646676 -0.007838741
0.02056114 0.009261464 0.0010888019 -0.0035939638 0.0013697657 0.004215313 -0.00233754 -0.0030870924
-0.0007048211 0.000809859 0.0014718453 -7.3376985e-05 0.008001092 -0.003964298 0.008002365 -0.001398557
00000000: cf22 1ebc 9d0c 14b9 9018 45ba 94c3 eeba
00000010: bed8 ebba d829 893b fcd3 883a abec 743a
00000020: baf2 aa3a 5968 de39 a8a5 b83a c262 fbb8
00000030: 7d94 83bb bef7 c1ba 5c89 7c3a 79b8 963a
00000040: e189 c9ba db3d 9ab8 9028 b9b9 75ab 093b
00000050: b137 dfba 57d6 013b 1e8d 6cba 540d bfba
00000060: 6b5e e8b9 214b d8bb 6702 d83b 140e 27bb
00000070: 01f7 1b3b 63e0 ccbb 145d 86ba 8dc7 aab9
00000080: 5867 d33a b8fb 0dba 752f 4c3a f8f0 3038
00000090: 462d 8aba 94d9 7a3a 2006 fe39 a850 0aba
000000a0: adae e0b9 f979 143a 2621 33bb f608 ebba
000000b0: 4aa9 90bb bb58 0a3b c90d bb3a 38de 64ba
000000c0: 427a 08ba 725c d239 c94b d0b9 3936 e63a
000000d0: 7b33 3eba 40d3 7b3a 9ce1 26b9 8416 52ba
000000e0: 7eb0 563a 1c2f f23a 7818 daba 8f7d d9bb
000000f0: a488 4b3a b38f f739 7119 95b7 aec7 07ba
00000100: 8b6f 1b3a adb1 e2b9 e588 dab8 0569 f5b9
00000110: 47b2 13b9 8f69 5638 4a69 30b9 8a20 e038
00000120: da72 313a f781 99b8 d23b 7a3a 3823 a1b9
00000130: 4e7a 0437 8a32 1bba 29cd bdb9 fcdf 7f38
00000140: 813c 1aba dcbe 6939 aae4 64b8 00ad 7639
00000150: e83a 173a 859a aa39 5500 acb9 9ce2 6a3a
00000160: b9f0 65ba 3e28 913a de99 3439 36f4 a738
00000170: 5cd5 403a e635 7bb9 597e 10b9 143d ea39
00000180: 4828 963a f0b9 2bb8 9c2a 5e38 a2a1 293a
00000190: 5dc4 8038 866e 0839 716e 143a a8a8 0e3b
000001a0: 7556 c5b7 07b7 16bb 1f74 9839 e865 05bb
000001b0: 0e04 e2b7 6146 133a bd3b 8eb9 1922 97b9
000001c0: c394 ec38 fc33 b3b8 f858 06ba d052 0739
000001d0: 4e93 0db9 aed5 7bba 9bec 523a 82f4 4eba
000001e0: 7a89 74bd 564d 25bd ffce d4ba a0f5 a6b9
000001f0: ee85 883b 6d41 b9bb f806 ddbb 270d fabb
00000200: 415e 3d3b 9b4f 5b3b 58e4 aebb f473 c2bb
00000210: fd6f 4d3c b9df 033b 5025 b4bb b80c 0639
00000220: 8899 01bc a886 203c dfd5 253b 220a 3bbb
00000230: 9729 e43a 29f9 27bb c712 863b 9c82 d538
00000240: 3487 d139 d8f4 59ba 88fc 5a3a 2035 93b7
00000250: 00fc 8537 7bdb 47ba 3ded 623c 14b5 c23b
00000260: 309f d5ba 70da 15bb 86b2 aa3b d658 04bb
00000270: 9502 31bb 6183 3fbc 449e 5bba f42c 843a
00000280: 115c 20ba 4881 42ba 30ab 513c 7675 d43a
00000290: 83ba 423b 6d37 d73b a570 ad3b f90e f9bb
000002a0: 56d1 70bb 6e47 bc3b 01f8 19bb 04da f2bb
000002b0: b04c de3a a0bd 39bb 0507 1abb 899a 193c
000002c0: d985 18bc eebd a83a 57ac a8ba b19f 063c
000002d0: 6185 65bc 7a47 bcbc b203 d8bb d613 3a3c
000002e0: 0dac 59ba c48b 9ebb 080f a0bb db2b 173a
000002f0: 90dd 043b db02 20bb ab0a 7ebb 55ce 47bb
00000300: 401f 7eb7 4fd9 043b cc25 36bc be26 eab9
00000310: a9de d4bb 1f5c b93b 0210 9c3c 1a62 c5b8
00000320: 44a5 483c 48ab 3d3a 9935 24bb 30b0 99bb
00000330: 8a65 06bc 60f6 87ba c85e 843a 48c0 823a
00000340: aa7e 82ba 9606 38bc 40fe 4abc 07cb aabb
00000350: 10f9 85ba b15b 723b d1ef 94bb 24c4 203b
00000360: 2d7a cbba c706 913b 52e7 a53a ffc0 2939
00000370: 71c4 4a3b 43b1 b839 930e 23bb a9c1 b4ba
00000380: 8b04 dfbb 2fed fd3a 45eb f039 ed5d 893a
00000390: 290b 6f3a 1d6a f0ba e109 793b 9a50 383b
000003a0: 8433 98ba 3003 72ba cff0 e7ba eac3 49bb
000003b0: 1864 4c3b eeb0 62ba dcaa 623a 106e 00bc
000003c0: d66f a83c 65bd 173c 21b6 8e3a b588 6bbb
000003d0: b689 b33a 9c20 8a3b 6a31 19bb d150 4abb
000003e0: bec3 38ba b84c 543a efea c03a f8e1 99b8
000003f0: 0317 033c f1e6 81bb 5a1c 033c c94f b7ba

encoder_var.0.bias f4 [20]
2.39295e-07 1.5335974e-08 -8.847469e-08 6.63547e-08 5.3265876e-07 -1.3857382e-07 1.2378257e-07 2.95402e-07
1.8590585e-07 3.7509005e-07 2.1491854e-07 -1.1344433e-07 -1.6473988e-08 9.386605e-09 -5.077463e-07 -3.6879237e-07
3.136305e-08 -8.14839e-08 4.06638e-08 -4.8784116e-08
00000000: 7478 8034 2abc 8332 7aff bdb3 e27e 8e33
00000010: 08fc 0e35 e2ca 14b4 18e9 0434 be97 9e34
00000020: 699d 4734 fc5f c934 5cc4 6634 ae9e f3b3
00000030: af82 8db2 ba42 2132 0f4c 08b5 70fe c5b4
00000040: 0ab4 0633 3ffc aeb3 52a6 2e33 b486 51b3

encoder_var.1.weight f4 [20]
0.0072077163 0.0070395954 0.00210868 0.0007160608 0.041966893 0.010129725 0.023889912 0.00786292
0.018071173 0.008758051 0.06150122 0.0307983 0.0048430157 0.011267392 0.053238485 0.0038152104
0.0015344346 0.0039840643 0.0013418949 0.016410766
00000000: b52e ec3b 68ac e63b c831 0a3b 07b6 3b3a
00000010: 7ae5 2b3d 25f7 253c c7b4 c33c 7ad3 003c
00000020: ff09 943c ee7d 0f3c b4e8 7b3d b74c fc3c
00000030: 29b2 9e3b de9a 383c 9910 5a3d 9c08 7a3b
00000040: 151f c93a c18c 823b 85e2 af3a df6f 863c

encoder_var.1.bias f4 [20]
-0.00508458 -0.0027912632 -0.00075330504 0.001614834 -0.010666938 -0.0023396881 0.0126254205 0.002892742
0.010498236 -0.0020466705 -0.03111184 -0.0009841713 0.0040184516 0.0061270096 0.027007075 0.0030307667
0.00054153573 0.0015812762 3.972293e-05 0.006580146
00000000: 8c9c a6bb a0ed 36bb 7279 45ba d6a8 d33a
00000010: 61c4 2ebc 7455 19bb dada 4e3c 2894 3d3b
00000020: cb00 2c3c 6f21 06bb 42de febc 4fff 80ba
00000030: 37ad 833b 15c5 c83b f13d dd3c d49f 463b
00000040: d9f5 0d3a d342 cf3a 2c9c 2638 449e d73b

encoder_var.1.running_mean f4 [20]
-0.0057089212 -0.008657234 0.00137974 -0.0019983356 -0.015899977 0.015576819 -0.027667023 -0.013571989
0.021888237 -0.008176383 -0.030955212 -0.03809435 0.00010758699 0.012473534 -0.038453344 0.0042263283
-0.00063068024 0.0043588304 0.0008196491 0.020134306
00000000: e711 bbbb 12d7 0dbc 64d8 b43a 82f6 02bb
00000010: ab40 82bc ea35 7f3c f4a5 e2bc 0c5d 5ebc
00000020: f64e b33c 3cf6 05bc c995 fdbc d208 1cbd
00000030: 53a0 e138 cb5d 4c3c 4181 1dbd 037d 8a3b
00000040: 3c54 25ba 85d4 8e3b b8dd 563a b3f0 a43c

encoder_var.1.running_var f4 [20]
4.4095985e-05 4.9071637e-05 4.0442205e-06 9.388547e-06 0.00032601287 0.00016343441 0.00017974414 5.424495e-05
8.5972526e-05 6.442871e-05 0.00049848447 0.00020276738 2.2276783e-05 5.2593747e-05 0.00041842635 7.989265e-06
7.3260776e-06 8.315548e-06 2.3052078e-06 6.5180415e-05
00000000: b4f3 3838 45d2 4d38 97b3 8736 8183 1d37
00000010: b5ec aa39 975f 2b39 b379 3c39 1285 6338
00000020: 264c b438 e61d 8738 baac 023a f49d 5439
00000030: 07df ba37 1b98 5c38 3c60 db39 a209 0637
00000040: 87d2 f536 0283 0b37 2bb3 1a36 78b1 8838

encoder_var.4.weight f4 [16, 20]
-0.0042826314 -0.0033607262 0.000679184 -0.00017404865 -0.0002969115 0.0029892153 -0.008582956 -0.004162075
0.009464309 -0.0041870796 -0.0011828619 -0.0051250784 8.467637e-05 0.004731737 -0.00970833 0.0017644233
-0.00017295133 0.0017772783 -9.456137e-05 0.007420615 -0.000989905 -0.0023567728 7.492026e-05 -0.0005788655
0.023148809 0.00041553826 0.006591325 -0.0007153945 0.000605052 -0.0022363435 0.028286474 0.009751594
0.0024753301 -0.00088403444 0.019287629 -0.00086289365 -0.00038287113 -0.0005079979 0.00016893519 4.042973e-05
-0.0006857547 0.00035119287 0.0004151806 -0.00024347033 -0.0022797575 0.0004430013 -0.0018762564 -0.0010058361
0.0034570233 -0.00011614026 -0.004577538 -0.00080481195 6.167797e-05 0.0021741253 -0.0045663225 0.0003179833
0.00038325865 0.00070249074 -2.2036025e-05 0.003148495 0.0017799158 0.0021688933 -0.0004527127 0.0004791033
0.014935173 0.0011641942 0.008429096 0.0027081012 -0.008358269 0.00095709873 0.019343045 0.010143973
0.0019521825 -0.0029930142 0.023422364 -0.001468891 -5.993106e-05 -0.0011484169 -0.000336556 -0.0058752047
0.00047882422 3.7829435e-05 -0.00023296745 2.1788754e-05 0.0025349236 -0.0006568935 0.0023154658 0.0006010612
-0.0013008232 0.00026116046 0.0030335244 0.0018189544 0.00040165245 -0.0006103945 0.0052149976 -0.00034704618
-2.0197685e-06 -0.00031303748 3.3702684e-06 -0.0010370086 0.0028238995 0.0016325429 -0.000616412 0.00072458934
0.021744082 -0.0036676857 0.010576765 0.0032887175 -0.007818511 0.0024141006 0.02797267 0.01463596
0.0019130383 -0.0033249995 0.024602998 -0.0023070811 0.00032398896 -0.0023245683 0.0001282774 -0.006832243
0.0004819617 -7.4193304e-06 -0.00033083846 1.1928676e-05 0.004847029 -0.00044702683 0.0031622509 0.00081266544
-0.0026124474 3.1671356e-05 0.00793405 0.0020204848 0.0004926786 -0.0007893935 0.009060799 -0.0003226728
-0.00013338678 -0.00056620344 -8.4674495e-05 -0.0017137354 0.002341436 0.0017566244 -0.00035315508 0.00022983496
0.0162356 0.00225674 0.009158785 0.0025020514 -0.0070064375 0.0019023211 0.020315113 0.010075076
0.001983988 -0.0026198518 0.021895586 -0.0013899867 -0.0001481161 -0.001387153 -0.00033940675 -0.006048113
0.0020408896 0.00021488074 0.00045107506 0.00089188863 0.026466316 -0.0015428647 0.011852725 0.00052375277
-0.0065481695 0.0019634464 0.022208707 0.013329325 0.0037006692 -0.0018737842 0.028475234 -0.0017609715
0.0010216923 -0.0016774924 0.00038470063 -0.0044048284 -0.00011269625 0.0007425868 0.000110909285 -0.00026812524
-0.0031299454 0.0002637784 -0.0023527578 -0.0001054202 0.0023257884 -0.00025874272 -0.0024683734 -0.0025679923
-0.0005458983 0.0013338431 -0.003102568 0.00015233569 -8.3433006e-05 0.000410664 1.665609e-05 0.0017921622
-0.0017073619 -0.0015874039 0.00047898505 -0.00015664546 -0.0021312365 0.00067780155 -0.007151546 -0.0014457819
0.005891744 -0.0022880773 -0.0017989405 -0.0023945246 -0.00044261463 0.003750438 -0.0068584126 0.0017331649
-3.1468575e-05 0.0011498162 -6.362924e-05 0.0043649706 7.383251e-06 5.5008877e-06 -0.00014535451 2.2706938e-05
0.00041241336 3.014323e-05 -0.00011339376 0.00017038679 1.1540129e-05 0.0001551857 0.00022136891 -8.480116e-05
-1.0132488e-05 0.00010791955 0.00036398397 7.8910096e-05 1.41889e-05 5.6788307e-05 -2.7393384e-05 3.1082178e-05
-1.7665208e-05 3.329449e-05 5.7971727e-05 7.7917335e-05 -2.336411e-05 3.0413043e-05 -0.00012599904 3.4752215e-05
6.2240295e-05 -0.00014584625 9.132258e-05 9.566858e-05 5.1211322e-05 -0.0001091224 7.63309e-05 -5.951888e-05
00000000: 5155 8cbb a13f 5cbb 440b 323a d480 36b9
00000010: c9aa 9bb9 b6e6 433b 879f 0cbc 0462 88bb
00000020: 3010 1b3c c533 89bb 420a 9bba 46f0 a7bb
00000030: 4894 b138 b00c 9b3b b00f 1fbc 3944 e73a
00000040: 455a 35b9 90f3 e83a 404f c6b8 a128 f33b
00000050: b3bf 81ba 1674 1abb 821e 9d38 02bf 17ba
00000060: 92a2 bd3c 9adc d939 0bfc d73b 5089 3bba
00000070: 5a9c 1e3a 9e8f 12bb 09b9 e73c 26c5 1f3c
00000080: 2639 223b 8cbe 67ba 1701 9e3c d033 62ba
00000090: 18bc c8b9 292b 05ba 3224 3139 1893 2938
000000a0: 38c4 33ba 4f20 b839 99ac d939 124c 7fb9
000000b0: fc67 15bb a142 e839 b8ec f5ba 42d6 83ba
000000c0: 3a8f 623b 5490 f3b8 2cff 95bb 04fa 52ba
000000d0: 1c59 8138 c57b 0e3b 17a1 95bb ffb6 a639
000000e0: 1bf0 c839 5b27 383a 01da b8b7 fb56 4e3b
000000f0: 104c e93a fe23 0e3b 125a edb9 2830 fb39
00000100: a8b2 743c e097 983a 311a 0a3c 667a 313b
00000110: 1ff1 08bc cfe5 7a3a 4e75 9e3c e832 263c
00000120: 60e0 ff3a 7226 44bb 42e0 bf3c ce87 c0ba
00000130: 7c5e 7bb8 7a86 96ba c873 b0b9 ca84 c0bb
00000140: b30a fb39 0cab 1e38 b948 74b9 fec6 b637
00000150: f620 263b 6033 2cba 12bf 173b 8990 1d3a
00000160: 6280 aaba 5dec 8839 18ce 463b fb69 ee3a
00000170: e194 d239 e202 20ba 92e2 aa3b c0f3 b5b9
00000180: 5c8b 07b6 2e1f a4b9 c52c 6236 3cec 87ba
00000190: 2c11 393b 0dfb d53a b696 21ba 5ef2 3d3a
000001a0: a520 b23c 8e5d 70bb 2b4a 2d3c 8687 573b
000001b0: 3619 00bc e335 1e3b f126 e53c aacb 6f3c
000001c0: eabe fa3a 3ce8 59bb 3a8c c93c 6632 17bb
000001d0: 10dd a939 c957 18bb 3482 0639 02e1 dfbb
000001e0: ceaf fc39 90f3 f8b6 6374 adb9 4621 4837
000001f0: d4d3 9e3b ed5e eab9 c43d 4f3b 0e09 553a
00000200: 9835 2bbb dcd6 0438 d1fd 013c 1c6a 043b
00000210: 1a27 013a 4def 4eba bf73 143c 692c a9b9
00000220: bedd 0bb9 456d 14ba 4693 b1b8 6b9f e0ba
00000230: c772 193b 893e e63a ac27 b9b9 daff 7039
00000240: 8500 853c d0e5 133b bb0e 163c 75f9 233b
00000250: 4296 e5bb 4e57 f93a e16b a63c ee11 253c
00000260: cc05 023b d2b1 2bbb 5f5e b33c 3730 b6ba
00000270: 9d4f 1bb9 22d1 b5ba 67f2 b1b9 402f c6bb
00000280: 72c0 053b 9c51 6139 457e ec39 a2cd 693a
00000290: e3cf d83c f339 caba ef31 423c 744c 093a
000002a0: 0792 d6bb 2aad 003b 09ef b53c 3e63 5a3c
000002b0: ed86 723b c499 f5ba e544 e93c 66d0 e6ba
000002c0: 4eea 853a 4edf dbba a5b1 c939 6156 90bb
000002d0: 5757 ecb8 28aa 423a f897 e838 2993 8cb9
000002e0: c51f 4dbb bd4b 8a39 ba30 1abb 0a15 ddb8
000002f0: 416c 183b dca7 87b9 6fc4 21bb c34b 28bb
00000300: 9d1a 0fba 59d4 ae3a 7454 4bbb 4dbc 1f39
00000310: c1f8 aeb8 644e d739 aeb8 8b37 fce6 ea3a
00000320: 8fc9 dfba 7010 d0ba 4920 fb39 3241 24b9
00000330: 37ac 0bbb 7eae 313a 8457 eabb 6480 bdba
00000340: 880f c13b 91f3 15bb 6dca ebba 75ed 1cbb
00000350: bb0e e8b9 e9c9 753b 89bc e0bb 5d2b e33a
00000360: 20fd 03b8 6eb5 963a b070 85b8 0708 8f3b
00000370: a5bd f736 4494 b836 4e6a 18b9 c77a be37
00000380: 2f39 d839 18dc fc37 d0cd edb8 dba9 3239
00000390: 7a9c 4137 58b9 2239 441f 6839 47d7 b1b8
000003a0: b4fe 29b7 de52 e238 1ad5 be39 897c a538
000003b0: dd0c 6e37 fb2f 6e38 d8ca e5b7 3c5e 0238
000003c0: bf2f 94b7 b0a5 0b38 ab26 7338 8d67 a338
000003d0: 0bfe c3b7 831f ff37 9c1e 04b9 e8c2 1138
000003e0: 0187 8238 4eee 18b9 7084 bf38 aea1 c838
000003f0: bdcb 5638 a4d8 e4b8 d713 a038 e9a3 79b8

encoder_var.4.bias f4 [16]
1.477459e-07 -3.191285e-07 -8.620091e-09 8.486444e-08 -1.3831176e-08 -3.8006046e-08 1.3231319e-07 -1.4770318e-07
-8.1916335e-07 3.7443198e-07 3.3901387e-07 -1.9754134e-07 1.11091694e-07 -1.2084402e-07 3.014712e-08 -3.3371514e-08
00000000: 15a4 1e34 b054 abb4 9017 14b2 b83e b633
00000010: 289e 6db2 173c 23b3 f911 0e34 5798 1eb4
00000020: 7ae4 5bb5 8a05 c934 b601 b634 c01b 54b4
00000030: 4e91 ee33 5ac1 01b4 1c7b 0133 5e54 0fb3

encoder_var.5.weight f4 [16]
0.025622372 0.044372328 0.01675078 0.03850341 0.009613806 0.04965866 0.016125714 0.040923562
0.052589256 0.014278575 0.020972371 0.0024851894 0.00062601245 0.035739634 0.031777497 0.0008069037
00000000: 02e6 d13c c2bf 353d ef38 893c c0b5 1d3d
00000010: 3a83 1d3c e166 4b3d 131a 843c 779f 273d
00000020: d567 573d aff0 693c 40ce ab3c 8fde 223b
00000030: fc1a 243a b963 123d 1f29 023d 6486 533a

encoder_var.5.bias f4 [16]
0.0032533426 -0.0062744194 0.0046454985 0.015039671 0.0016273394 0.031609062 0.008701811 0.013904104
0.02573115 0.0066165067 0.01172697 -3.2979857e-05 0.00016275368 0.008099312 0.0013737692 -1.6188835e-05
00000000: 0836 553b a599 cdbb 4439 983b f468 763c
00000010: 734c d53a 8178 013d 0a92 0e3c 0ace 633c
00000020: 22ca d23c 48cf d83b 7a22 403c da53 0ab8
00000030: dca8 2a39 fab2 043c 0c10 b43a 42cd 87b7
