dice_ml/utils/sample_trained_models/adult-margin-0.165-validity_reg-42.0-epoch-25-base-gen.pth (torch_old, 34921 bytes, 78 tensors)

encoder_mean.0.weight f4 [20, 30]
-0.15636307 0.034443352 -0.003848643 0.011167303 0.016824009 -0.023522066 0.0017049155 -0.037880108
0.0066503217 0.018476335 0.004255006 -0.008990876 0.058726594 0.032357365 -0.009097795 -0.030839108
-0.017513137 0.036302216 0.011973866 0.018572964 0.012784051 -0.043414067 0.004666641 -0.00018975837
0.0016396869 0.0020306746 -0.0021502841 -0.020682305 -0.0046129436 0.043730173 0.10412534 -0.9018767
0.011787812 0.018083235 -0.0074310205 -0.022312306 0.040870678 0.007365541 0.025308745 0.01848829
0.014719644 -0.047365528 0.037953123 0.008882793 0.024654306 0.034630336 0.036504358 0.03653871
0.036289994 0.0071011726 0.0057342085 0.014057258 -0.0051701926 0.007906845 0.0054160496 0.011809348
0.0086055 -0.017077895 -0.01880601 0.2186988 0.27412876 -0.05472252 0.033583734 0.022219954
0.005474302 0.04801645 -0.015543134 -0.009671994 0.049522217 0.028026503 0.07133511 0.017584797
0.016875312 0.02969361 0.041838825 0.025092348 0.012215054 -0.10867616 0.06844895 0.021298597
0.0015689572 0.031993434 -0.021557722 0.036933444 0.03770787 0.028542498 -0.012967172 0.065258704
0.0876425 -0.14653899 0.053286072 -0.04251333 -0.005904822 -0.018649777 0.02601168 -0.00045193476
0.025620073 -0.012972767 0.00040227047 0.025662286 -0.0015892951 -0.012878787 0.027736487 -0.016655656
-0.011879001 -0.017481495 -0.005906676 0.10974334 -0.017340288 0.0022582426 -0.014230834 -0.013383437
0.006890541 0.037101585 -0.012156316 0.005065099 0.00097755 -0.007966595 -0.021404687 -0.006926852
0.2073622 -0.21074212 -0.028332368 0.026771529 0.011997728 0.033209637 0.017456347 0.0021952852
-0.011501046 0.0360818 -0.009748607 -0.025615577 -0.049463566 0.06660328 0.047770135 0.028883016
-0.0067780055 -0.018534394 0.007786907 0.009935442 0.026676267 -0.03332927 0.047600795 0.004069801
0.013069041 0.0007149165 0.004427016 -0.0050058425 -0.03642135 0.025313247 0.6537454 0.022671929
0.013485648 -0.009892939 -0.018200543 -0.024517747 -0.020154528 0.014349926 0.0011065749 0.0062473333
0.00065985357 -0.056154717 0.011209853 -0.022056192 0.060269434 0.053274773 0.01319026 0.0082227625
0.03318939 0.024513125 -0.002731497 0.009437447 0.021982878 0.021318201 0.009959819 -0.027848182
-0.0448679 -0.026409784 -0.031378027 0.036578547 0.9915828 -0.021860523 0.0058389856 -0.0070088143
0.013941637 0.010124649 0.05058133 0.065982364 0.04528441 0.050966475 0.0629888 0.061812654
0.06284071 0.063375354 0.012102131 0.010032396 0.0054936227 0.0063672727 0.019298801 0.053786233
0.057700455 0.052299548 0.049410783 0.05328786 0.051273145 -0.08346964 -0.07432828 0.102783374
0.11059386 0.08068363 0.7260941 -0.36173454 -0.06389522 -0.0009839872 -0.06459035 -0.06324812
0.0679067 0.07945636 0.07118417 0.05797741 0.059783436 0.0866165 0.0667538 0.07738577
0.020828286 0.018736241 0.035088055 0.022168517 0.015085025 0.013574351 -0.04059045 0.0168752
0.006034309 0.013522382 0.0059637707 0.15729538 0.15090092 0.05602631 0.07786008 0.04518205
-0.26802415 -0.7501353 0.0049095238 -0.10261845 0.008886997 0.019944232 0.025760828 0.0013726926
0.029493557 -0.017379574 0.045783225 0.042430244 0.015294729 0.0046507544 0.0075490754 0.01712267
00000000: a41d 20be 7914 0d3d 8439 7cbb 10f7 363c
00000010: 81d2 893c 59b1 c0bc 7977 df3a 2c28 1bbd
00000020: f1ea d93b af5b 973c 946d 8b3b 784e 13bc
00000030: 4c8b 703d 2889 043d eb0e 15bc 4ca2 fcbc
00000040: b677 8fbc a2b1 143d 092e 443c 5426 983c
00000050: 3274 513c f3d2 31bd 9fea 983b e0f9 46b9
00000060: c3ea d63a 1115 053b c8eb 0cbb f06d a9bc
00000070: 2d28 97bb 691e 333d ab3f d53d 64e1 66bf
00000080: ab21 413c 4b23 943c eb7f f3bb 4cc8 b6bc
00000090: 0368 273d a35a f13b 4954 cf3c c174 973c
000000a0: a92a 713c 5b02 42bd bc74 1b3d 2289 113c
000000b0: d4f7 c93c 8ad8 0d3d 9885 153d 9da9 153d
000000c0: d1a4 143d f4b0 e83b 07e6 bb3b 6a50 663c
000000d0: b86a a9bb b68b 013c 1e79 b13b ff7b 413c
000000e0: 15fe 0c3c f1e6 8bbc 100f 9abc 94f2 5f3e
000000f0: 9b5a 8c3e b924 60bd 198f 093d 9f06 b63c
00000100: c661 b33b e6ac 443d a1a8 7ebc 4877 1ebc
00000110: cfd7 4a3d d697 e53c 2418 923d fe0d 903c
00000120: 183e 8a3c 0340 f33c 305f 2b3d 788e cd3c
00000130: a621 483c 9b91 debd f72e 8c3d 657a ae3c
00000140: 78a5 cd3a 8c0b 033d d299 b0bc 8647 173d
00000150: 9173 1a3d f5d1 e93c 4374 54bc 5ba6 853d
00000160: e97d b33d 510e 16be 7f42 5a3d 7522 2ebd
00000170: 3d7d c1bb 6bc7 98bc 7216 d53c a8f1 ecb9
00000180: 30e1 d13c bb8b 54bc d4e7 d239 b739 d23c
00000190: e54f d0ba 8c01 53bc a137 e33c 7171 88bc
000001a0: 24a0 42bc 5a35 8fbc ca8c c1bb 1ec1 e03d
000001b0: 380d 8ebc 06ff 133b 7228 69bc 3446 5bbc
000001c0: 0cca e13b d5f7 173d 492b 47bc 21f9 a53b
000001d0: 2321 803a 5286 02bc e258 afbc a5fa e2bb
000001e0: c256 543e c8cc 57be 4819 e8bc f74f db3c
000001f0: 1e92 443c d406 083d 9d00 8f3c c6de 0f3b
00000200: e26e 3cbc 82ca 133d 9fb8 1fbc c2d7 d1bc
00000210: 4f9a 4abd 4d67 883d 9eaa 433d 139c ec3c
00000220: 081a debb 71d5 97bc 4f29 ff3b 44c8 223c
00000230: 3088 da3c 4684 08bd 0df9 423d f75b 853b
00000240: 881f 563c 3c69 3b3a 8010 913b 0d08 a4bb
00000250: 8e2e 15bd ba5d cf3c dc5b 273f 7bba b93c
00000260: e8f2 5c3c fe15 22bc 4e19 95bc 71d9 c8bc
00000270: 1c1b a5bc f41b 6b3c 7e0a 913a 6eb6 cc3b
00000280: 06fa 2c3a 7d02 66bd 88a9 373c 30af b4bc
00000290: 15dd 763d a636 5a3d f61b 583c c4b8 063c
000002a0: 99f1 073d c0cf c83c ea02 33bb 869f 1a3c
000002b0: 7015 b43c 82a3 ae3c 822e 233c df21 e4bc
000002c0: 67c7 37bd 5559 d8bc 3f86 00bd 63d3 153d
000002d0: 5fd8 7d3f d714 b3bc f654 bf3b 32aa e5bb
000002e0: 776b 643c dbe1 253c 5e2e 4f3d c321 873d
000002f0: 257c 393d 39c2 503d 4600 813d 442f 7d3d
00000300: a1b2 803d f0ca 813d 0448 463c eb5e 243c
00000310: d903 b43b 8ea4 d03b 8518 9e3c f44e 5c3d
00000320: 5057 6c3d 0d38 563d f662 4a3d 5f44 5a3d
00000330: ca03 523d 21f2 aabd 6d39 98bd 1780 d23d
00000340: 097f e23d 763d a53d 4ee1 393f 4535 b9be
00000350: 7fdb 82bd 22f9 80ba f247 84bd 3b88 81bd
00000360: ab12 8b3d 04ba a23d 02c9 913d b879 6d3d
00000370: 7adf 743d fe63 b13d 37b6 883d 6e7c 9e3d
00000380: 15a0 aa3c bf7c 993c 7eb8 0f3d c09a b53c
00000390: 2e27 773c f466 5e3c 2c42 26bd dc3d 8a3c
000003a0: 74bb c53b fb8c 5d3c bc6b c33b 0a12 213e
000003b0: c585 1a3e d87b 653d 1b75 9f3d d010 393d
000003c0: 763a 89be de08 40bf 12e0 a03b 9f29 d2bd
000003d0: c49a 113c 1662 a33c 5f08 d33c eceb b33a
000003e0: 799c f13c 9c5f 8ebc 3187 3b3d 56cb 2d3d
000003f0: be96 7a3c 5b65 983b 3c5e f73b d744 8c3c

encoder_mean.0.bias f4 [20]
-5.6734314e-07 1.8090748e-06 -3.725536e-07 3.334134e-07 4.6098685e-07 5.310618e-07 2.0628904e-06 -8.112797e-06
3.3597005e-06 2.445583e-08 -3.2318253e-06 7.87521e-06 6.6273003e-07 -3.989428e-06 5.2908617e-06 3.1951208e-06
-5.786876e-06 -2.8092488e-06 2.1696233e-06 2.4221447e-07
00000000: 864b 18b5 56cf f235 6003 c8b4 fdff b234
00000010: 8d7d f734 4a8e 0e35 3070 0a36 331c 08b7
00000020: 3777 6136 f012 d232 56e2 58b6 c51f 0437
00000030: 76e6 3135 eddc 85b6 2888 b136 c26b 5636
00000040: e32c c2b6 8786 3cb6 d899 1136 b409 8234

encoder_mean.1.weight f4 [20]
0.09379062 0.41785017 0.10294014 0.091084704 0.118087344 0.34342772 0.6052744 0.52122444
0.45270082 0.3804038 0.48278663 0.4648004 0.46080118 0.3399228 0.40943593 0.33993983
0.21436623 0.22105943 0.23763612 0.29019094
00000000: 4c15 c03d 75f0 d53e 48d2 d23d 9e8a ba3d
00000010: c7d7 f13d c2d5 af3e 43f3 1a3f f76e 053f
00000020: 67c8 e73e 49c4 c23e cf2f f73e 51fa ed3e
00000030: 22ee eb3e 5c0a ae3e 96a1 d13e 980c ae3e
00000040: d282 5b3e 675d 623e e256 733e e893 943e

encoder_mean.1.bias f4 [20]
0.00063454197 -0.20259176 -0.039746806 -0.04879159 -0.059384473 0.14256251 0.502685 0.26615706
-0.2997922 -0.25544515 -0.32483882 0.2628043 -0.26903486 0.16394685 -0.32768455 0.12877892
0.18519408 -0.085349 -0.06479292 -0.34175915
00000000: 6457 263a 3774 4fbe 8ccd 22bd b1d9 47bd
00000010: 223d 73bd e8fb 113e f7af 003f bd45 883e
00000020: 5d7e 99be b5c9 82be 4651 a6be 498e 863e
00000030: f0be 89be afe1 273e 45c6 a7be 9fde 033e
00000040: 84a3 3d3e 75cb aebd 27b2 84bd 0efb aebe

encoder_mean.1.running_mean f4 [20]
0.04074272 -0.07617227 0.029830648 0.05076843 0.053975478 0.16082504 0.48540866 0.3622547
-0.28381872 -0.23414274 -0.40046534 0.5288252 -0.330764 0.67563635 -0.36095184 0.09954075
0.20245376 -0.1016643 -0.17795503 -0.23544414
00000000: d7e1 263d 3500 9cbd 675f f43c 8ff2 4f3d
00000010: 6415 5d3d 52af 243e 7c87 f83e 7379 b93e
00000020: b050 91be 1dc3 6fbe cb09 cdbe 1761 073f
00000030: e659 a9be 81f6 2c3f aece b8be 05dc cb3d
00000040: 0a50 4f3e 5f35 d0bd d839 36be 4518 71be

encoder_mean.1.running_var f4 [20]
0.006066908 0.024536984 0.019279972 0.0054263785 0.0062608863 0.020444842 0.033608735 0.019724626
0.018623376 0.014042319 0.015671106 0.031129763 0.024260687 0.014184831 0.019683756 0.019725934
0.015950887 0.011130864 0.01132167 0.011633205
00000000: eacc c63b c901 c93c 08f1 9d3c c3cf b13b
00000010: 1f28 cd3b f17b a73c 50a9 093d 8a95 a13c
00000020: 0d90 983c c111 663c b160 803c d803 ff3c
00000030: 59be c63c 7e67 683c d43f a13c 4898 a13c
00000040: 6fab 823c 3a5e 363c 877e 393c 3399 3e3c

encoder_mean.4.weight f4 [16, 20]
0.0012256277 0.007981576 0.06137768 0.0072497646 0.0420437 0.116908945 0.009530922 0.061584853
0.0058802273 0.048054844 -0.00023029209 0.083464906 -0.038379688 0.14219381 -0.040824898 0.12760152
0.09704495 -0.026786335 -0.065771475 0.07203623 0.023797017 0.07542325 0.043300513 0.0024910779
-0.043529354 -0.07853032 -0.18318549 -0.06511243 0.10777184 0.11169498 0.11670343 -0.23331694
0.087497704 -0.12546971 0.100757465 -0.15116034 -0.14081736 0.046901044 0.043246716 0.004222837
-0.013580204 0.04588041 0.011904532 0.021574758 0.0256008 0.107252985 0.016772088 0.15529107
-0.008428207 -0.03230728 -0.01821471 0.10368438 -0.080218635 0.14817958 -0.08911912 0.16365822
0.10266044 -0.028938016 -0.10086843 0.046571266 0.05374116 0.04953328 0.035534106 -0.009249643
-0.031113291 -0.09647374 -0.13022487 -0.083882734 0.07088393 0.10324991 0.13591322 -0.19804281
0.06934612 -0.13835213 0.119929545 -0.15353553 -0.09410845 0.025187641 0.08056222 0.027264258
-0.007545314 0.2579974 0.041174106 -0.0037955681 0.07205923 0.13543339 -0.048832472 -0.022653518
-0.108499944 0.03268264 -0.16090587 -0.051339425 -0.20182568 0.15217349 -0.015840009 0.051029146
0.114307895 -0.066231176 0.036209665 0.28993475 -0.034062497 0.20887037 -0.07276242 0.048909537
0.008459074 -0.10703654 -0.011588154 -0.060434546 0.1463393 0.11979154 0.1557824 -0.089013904
0.0969518 -0.005052884 0.09954405 -0.03863065 -0.010857111 0.13980116 -0.06579774 0.009653234
0.062118668 0.067534976 0.035303753 0.0029810525 -0.034868382 -0.07257261 -0.2311932 -0.036912244
0.11853149 0.10512664 0.15610905 -0.18042524 0.085667685 -0.10633406 0.1362858 -0.13791104
-0.14750554 0.06368939 0.0818155 0.0191669 0.028172068 0.020050365 0.011513834 -0.016723428
-0.060093366 -0.13650404 -0.09080997 -0.1899934 0.12592678 0.016060378 0.010441719 -0.18533991
0.050122228 -0.12448574 0.080396846 -0.13678762 -0.11362109 -0.00288807 0.07702998 -0.03596272
-0.023690538 -0.12350355 0.016558494 -0.015444631 0.03648939 0.1559284 -0.04075343 0.07495859
-0.037120953 0.0012309597 -0.045794755 0.09949504 -0.09418695 0.15162614 -0.035756014 0.086762294
0.08403125 -0.08241552 -0.08660774 -0.025885778 -0.017798347 -0.1118705 0.06031371 -0.05588123
-0.013088261 0.032761574 -0.030378774 0.24415883 -0.067655444 -0.04253137 -0.098035745 -0.026431749
-0.14453465 0.057978068 -0.0057127057 0.0655034 0.037473805 -0.05624155 0.023788434 0.018849574
0.0048117745 -0.022322472 -0.007616625 -0.03652721 -0.01391384 -0.060801115 0.42907768 -0.060761724
-0.046218522 -0.033777844 -0.00840919 -0.015849017 -0.049480148 -0.039703608 0.016957961 -0.0009575086
-0.05101058 -0.012481506 0.06596742 0.0061983177 0.020036582 0.0459737 -0.0012803776 0.006420986
-0.0147995325 -0.10097004 -0.101618476 -0.20995411 0.09413052 0.071857244 0.075142965 -0.17178646
0.088089645 -0.10721715 0.12911081 -0.14880662 -0.09591341 0.06692112 0.071004264 -0.058787797
-0.019673852 0.1201401 0.06606652 -0.00031000815 0.024794713 0.0658738 -0.15324654 0.003476877
-0.00593987 0.055229373 -0.017912475 0.3317698 -0.06532185 0.04011205 -0.034950968 0.02518955
00000000: 3ea5 a03a 28c5 023c 2a67 7b3d 6f8f ed3b
00000010: 0436 2c3d f56d ef3d 9627 1c3c 6640 7c3d
00000020: ecae c03b 28d5 443d 907a 71b9 a6ef aa3d
00000030: 0534 1dbd 419b 113e 0238 27bd f9a9 023e
00000040: 81bf c63d 046f dbbc 32b3 86bd bb87 933d
00000050: f6f1 c23c 8177 9a3d e15b 313d 5a41 233b
00000060: d64b 32bd 81d4 a0bd fa94 3bbe aa59 85bd
00000070: 7cb7 dc3d 56c0 e43d 3502 ef3d a3ea 6ebe
00000080: ff31 b33d 227b 00be ee59 ce3d c7c9 1abe
00000090: 6d32 10be 4f1b 403d 7823 313d b95f 8a3b
000000a0: 817f 5ebc 19ed 3b3d 3a0b 433c 8cbd b03c
000000b0: c5b8 d13c 74a7 db3d 9e65 893c 9f04 1f3e
000000c0: 7616 0abc a354 04bd 0437 95bc 7a58 d43d
000000d0: ab49 a4bd 63bc 173e 1684 b6bd 0596 273e
000000e0: a33f d23d 6b0f edbc 1c94 cebd 83c1 3e3d
000000f0: b11f 5c3d 69e3 4a3d 368c 113d d18b 17bc
00000100: 4de1 febc 0694 c5bd ab59 05be b6ca abbd
00000110: 982b 913d b074 d33d d62c 0b3e bccb 4abe
00000120: 5705 8e3d 2eac 0dbe 9f9d f53d 6b38 1dbe
00000130: eebb c0bd 5056 ce3c cefd a43d 4b59 df3c
00000140: ae3e f7bb 3c18 843e 2ea6 283d 11bf 78bb
00000150: ca93 933d 0daf 0a3e 8f04 48bd df93 b9bc
00000160: 3835 debd 3bde 053d 82c4 24be 4a49 52bd
00000170: 64ab 4ebe 5ed3 1b3e e8c2 81bc f003 513d
00000180: 421a ea3d 36a4 87bd 9650 143d 5472 943e
00000190: 1e85 0bbd 1de2 553e 7704 95bd 5e55 483d
000001a0: ee97 0a3c f935 dbbd 3edc 3dbc 378a 77bd
000001b0: f8d9 153e 4455 f53d 6c85 1f3e ec4c b6bd
000001c0: aa8e c63d aa92 a5bb c0dd cb3d 2c3b 1ebd
000001d0: 06e2 31bc 0928 0f3e f7c0 86bd 9928 1e3c
000001e0: 2570 7e3d c74f 8a3d ab9a 103d c35d 433b
000001f0: 26d2 0ebd f3a0 94bd e9bd 6cbe 4b31 17bd
00000200: a3c0 f23d a34c d73d 0ddb 1f3e 65c1 38be
00000210: 8a72 af3d acc5 d9bd 818e 0b3e 8d38 0dbe
00000220: b10b 17be 956f 823d e38e a73d e703 9d3c
00000230: 1cc9 e63c aa40 a43c 85a4 3c3c 92ff 88bc
00000240: 7624 76bd b7c7 0bbe 94fa b9bd a18d 42be
00000250: f3f2 003e 0e91 833c be13 2b3c bfc9 3dbe
00000260: f74c 4d3d 61f2 febd 1aa7 a43d 0e12 0cbe
00000270: 2db2 e8bd c645 3dbb e5c1 9d3d a54d 13bd
00000280: a912 c2bc 6eef fcbd aea5 873c 7a0b 7dbc
00000290: e675 153d b2ab 1f3e 12ed 26bd e483 993d
000002a0: 240c 18bd 2758 a13a 4893 3bbd 0ec4 cb3d
000002b0: 16e5 c0bd e243 1b3e e674 12bd 6eb0 b13d
000002c0: 9318 ac3d 78c9 a8bd 665f b1bd 690e d4bc
000002d0: d7cd 91bc 5c1c e5bd 820b 773d b7e3 64bd
000002e0: 2570 56bc 0031 063d e8dc f8bc c604 7a3e
000002f0: f08e 8abd 6035 2ebd f7c6 c8bd 6587 d8bc
00000300: e400 14be 697a 6d3d a631 bbbb a626 863d
00000310: 227e 193d 8a5d 66bd f6df c23c 6c6a 9a3c
00000320: 17ac 9d3b 9edd b6bc e294 f9bb 8e9d 15bd
00000330: e0f6 63bc 970a 79bd 12b0 db3e 49e1 78bd
00000340: a24f 3dbd a35a 0abd b3c6 09bc ccd5 81bc
00000350: b2ab 4abd 40a0 22bd 6ceb 8a3c 5001 7bba
00000360: 78f0 50bd 3b7f 4cbc ed19 873d 421b cb3b
00000370: c223 a43c eb4e 3c3d 58d2 a7ba 2267 d23b
00000380: bd79 72bc 61c9 cebd 591d d0bd 36fe 56be
00000390: 81c7 c03d e429 933d 8ee4 993d cae8 2fbe
000003a0: 5868 b43d aa94 dbbd a035 043e c360 18be
000003b0: 406e c4bd f10d 893d af6a 913d 79cb 70bd
000003c0: 0f2b a1bc 030c f63d e24d 873d 9788 a2b9
000003d0: 481e cb3c d8e8 863d a9ec 1cbe 51dc 633b
000003e0: 3ea3 c2bb 3238 623d 2fbd 92bc bbdd a93e
000003f0: 76c7 85bd 884c 243d bf28 0fbd 515a ce3c

encoder_mean.4.bias f4 [16]
5.3263143e-08 2.143393e-06 7.90008e-06 4.0513014e-06 -1.3481624e-06 8.2188683e-07 -5.3166805e-06 1.4559006e-06
-7.5019483e-07 4.1947815e-06 1.5650428e-06 2.9947414e-06 -9.006564e-07 -3.371236e-07 -2.445669e-06 -7.565195e-07
00000000: 72c3 6433 36d7 0f36 968a 0437 6af0 8736
00000010: 82f2 b4b5 a29f 5c35 f065 b2b6 5d68 c335
00000020: ff60 49b5 e6c0 8c36 760e d235 44f9 4836
00000030: a3c4 71b5 eafd b4b4 4620 24b6 a013 4bb5

encoder_mean.5.weight f4 [16]
0.2670095 0.53251976 0.33708546 0.5099205 0.3247244 0.36443153 0.48635328 0.5389938
0.28674263 0.32670972 0.36984473 0.5054639 0.2936865 0.38841456 0.53162056 0.41640976
00000000: 78b5 883e 3753 083f 7796 ac3e 268a 023f
00000010: 4742 a63e c596 ba3e 4c03 f93e 7ffb 093f
00000020: eecf 923e 7f46 a73e 4a5c bd3e 1566 013f
00000030: 145e 963e 46de c63e 4918 083f a933 d53e

encoder_mean.5.bias f4 [16]
0.11400339 -0.285248 0.15855075 -0.22865136 -0.24855155 -0.084851645 -0.26799023 -0.22781283
0.055004686 -0.1953991 -0.18635534 -0.18318045 0.0032459449 -0.12770733 -0.041086607 -0.23710933
00000000: 9c7a e93d 070c 92be 215b 223e 9523 6abe
00000010: 4c84 7ebe b3c6 adbd 0436 89be c447 69be
00000020: 984c 613d b416 48be efd3 3ebe a893 3bbe
00000030: ebb9 543b b6c5 02be 6e4a 28bd cacc 72be

encoder_mean.5.running_mean f4 [16]
0.15790325 -0.26303992 0.19950083 -0.23966771 0.056099743 -0.02613941 -0.250603 -0.27005818
0.11419494 0.07566529 0.16243096 -0.25180477 0.09251145 0.08678583 0.15644702 -0.121880546
00000000: 64b1 213e 2bad 86be f249 4c3e 746b 75be
00000010: d8c8 653d 5122 d6bc 094f 80be 1145 8abe
00000020: 09df e93d 67f6 9a3d 4d54 263e 8eec 80be
00000030: a576 bd3d c5bc b13d a633 203e 829c f9bd

encoder_mean.5.running_var f4 [16]
0.04645647 0.15307397 0.08503882 0.13266474 0.020771537 0.03173814 0.15403298 0.13788484
0.04576598 0.030363476 0.037168097 0.14485657 0.025485087 0.030390615 0.053852875 0.07202074
00000000: 2449 3e3d 6cbf 1c3e d528 ae3d 44d9 073e
00000010: 1229 aa3c daff 013d d2ba 1d3e af31 0d3e
00000020: 1c75 3b3d d3bc f83c 933d 183d 4855 143e
00000030: 1ac6 d03c bdf5 f83c d594 5c3d 9c7f 933d

encoder_mean.8.weight f4 [14, 16]
0.061122347 -0.04672268 0.099432155 -0.059425365 0.04950459 -0.052817263 -0.046539873 -0.11253612
0.10399582 0.04139332 0.06671907 -0.10667982 0.08118366 -0.015600684 0.14124623 -0.0063887276
-0.14065006 0.13536662 -0.107484885 0.12956037 -0.023470156 0.04882331 0.15747201 0.0662164
-0.033637222 -0.005821893 -0.029332511 0.080925636 -0.10259804 0.064197436 -0.118850864 0.09573002
-0.13739747 0.12662044 -0.1565948 0.10064728 -0.030422308 0.041680414 0.11417278 0.10638163
-0.07792305 -0.019398263 -0.03235441 0.09592299 -0.09347835 0.02614799 -0.13075598 0.047549322
0.08401606 -0.03766064 0.083938174 -0.013039429 0.033754703 -0.044402927 -0.015985979 -0.031007756
0.14149067 0.09045155 0.12776335 -0.06106793 0.15743317 -0.03795598 0.09342041 0.0048564654
-0.03549564 0.08187727 -0.041790765 0.08253431 0.02264547 0.16263041 0.075028434 -0.031784493
0.21345541 0.02266944 0.22773288 0.020443797 -0.13398151 0.34688926 -0.209681 0.14992048
0.025463529 -0.20652336 0.018541407 -0.30909556 -0.14457251 0.06836175 -0.12199459 -0.23798157
-0.027084526 -0.18638454 -0.15518205 -0.23146282 -0.053635027 0.017294183 0.017790169 -0.001492284
0.03571573 0.029417265 0.035478055 -0.013680726 0.24163258 -0.23146854 -0.0033637707 0.03300078
-0.062975116 -0.004004008 -0.1596612 -0.01273559 0.20305206 0.10096616 0.30603144 -0.05204748
0.085371435 -0.063910194 0.101344384 -0.09195354 -0.08868305 0.0001101864 -0.01982607 -0.13349758
0.10848225 0.05372075 0.06433829 -0.1637477 0.09123909 -0.120524846 0.10310134 0.012158744
-0.13212003 0.11345008 -0.14801216 0.13690498 -0.022844153 0.068047464 0.16462263 0.09079898
-0.052761808 -0.021505179 -0.009068029 0.08393077 -0.097205125 0.017265037 -0.13416441 0.043759897
-0.01677807 -0.32561487 -0.017112652 -0.21695304 -0.12058364 0.059776153 -0.35442236 -0.11074021
-0.045769684 -0.16877404 -0.12338283 -0.12666187 -0.056231137 0.07191486 -0.06041008 -0.0635002
-0.053181555 0.16389722 -0.16331445 0.06983824 0.03590763 0.1227044 0.11403441 0.036415044
-0.0767575 -0.050769407 -0.04087334 0.042743742 -0.0806564 0.06145243 -0.081777185 0.20214568
-0.19134752 -0.08963906 -0.13655765 -0.039200284 0.09563122 -0.17750639 -0.14554945 0.0037867692
-0.19808848 0.11117091 0.010844588 0.0036370484 -0.08149209 -0.044659797 -0.1297517 -0.21429642
0.013918925 -0.036151297 0.034911662 -0.017095566 0.20008819 -0.07758287 -0.020553568 -0.047363237
0.009796031 0.16394177 0.16969934 -0.047076665 0.09073056 0.04262547 0.07435367 -0.045815904
0.06585841 -0.09469272 0.021287553 -0.064481325 0.14013577 -0.05891072 -0.047693413 -0.06210272
0.04761762 0.16196229 0.14981407 -0.041786537 0.12493701 -0.015533521 0.09662993 -0.03944923
00000000: 6d5b 7a3d 4860 3fbd 16a3 cb3d 0368 73bd
00000010: 53c5 4a3d ea56 58bd 98a0 3ebd 5679 e6bd
00000020: c3fb d43d 0b8c 293d 02a4 883d f37a dabd
00000030: 9e43 a63d 039a 7fbc daa2 103e 8858 d1bb
00000040: 9206 10be 8c9d 0a3e 0921 dcbd 79ab 043e
00000050: 7c44 c0bc f3fa 473d 5840 213e 779c 873d
00000060: 2fc7 09bd 94c5 bebb bc4a f0bc 57bc a53d
00000070: ec1e d2bd f279 833d 1568 f3bd 1a0e c43d
00000080: ecb1 0cbe caa8 013e 635a 20be 2920 ce3d
00000090: 3438 f9bc 15b9 2a3d 6bd3 e93d 9dde d93d
000000a0: 1f96 9fbd 1be9 9ebc 0f86 04bd 4673 c43d
000000b0: 9471 bfbd 4f34 d63c e5e4 05be 14c3 423d
000000c0: 9d10 ac3d 0b42 1abd c7e7 ab3d 54a3 55bc
000000d0: 5f42 0a3d d8df 35bd 07f5 82bc fa03 febc
000000e0: eee2 103e aa3e b93d 65d4 023e 5e22 7abd
000000f0: 2936 213e bb77 1bbd 3353 bf3d fc22 9f3b
00000100: e063 11bd 45af a73d cb2c 2bbd c007 a93d
00000110: fe82 b93c 9688 263e 82a8 993d 7530 02bd
00000120: 0e94 5a3e 43b5 b93c cf32 693e c079 a73c
00000130: 7332 09be 789b b13e 9eb6 56be c184 193e
00000140: e498 d03c dc7a 53be 26e4 973c c641 9ebe
00000150: d10a 14be 3f01 8c3d 4dd8 f9bd 71b1 73be
00000160: 5ee0 ddbc 97db 3ebe 0be8 1ebe 9704 6dbe
00000170: 67b0 5bbd 88ac 8d3c b0bc 913c be98 c3ba
00000180: a84a 123d 7afc f03c 7051 113d 2025 60bc
00000190: 886e 773e 1706 6dbe b572 5cbb d32b 073d
000001a0: 19f9 80bd 0e34 83bb 3a7e 23be f0a8 50bc
000001b0: e1ec 4f3e 59c7 ce3d 27b0 9c3e bd2f 55bd
000001c0: 38d7 ae3d 59e3 82bd a58d cf3d 2352 bcbd
000001d0: 759f b5bd e013 e738 486a a2bc 97b3 08be
000001e0: f12b de3d 4a0a 5c3d cbc3 833d 7aad 27be
000001f0: 8fdb ba3d bbd5 f6bd cc26 d33d 7835 473c
00000200: 794a 07be 8458 e83d 8090 17be d230 0c3e
00000210: a923 bbbc 785c 8b3d d692 283e d1f4 b93d
00000220: c41c 58bd a12b b0bc 1292 14bc e5e3 ab3d
00000230: 7b13 c7bd 686f 8d3c 6562 09be 943d 333d
00000240: 2a72 89bc feb6 a6be d52f 8cbc f028 5ebe
00000250: 8ef4 f6bd d7d7 743d d976 b5be c3cb e2bd
00000260: fe78 3bbd 1ad3 2cbe 23b0 fcbd a6b3 01be
00000270: 9f52 66bd 1948 933d 8f70 77bd 650c 82bd
00000280: e7d4 59bd acd4 273e e73b 27be 5a07 8f3d
00000290: e113 133d 724c fb3d df8a e93d f127 153d
000002a0: 0933 9dbd 95f3 4fbd ce6a 27bd 1014 2f3d
000002b0: 2f2f a5bd 8bb5 7b3d cc7a a7bd 47ff 4e3e
000002c0: 9bf0 43be af94 b7bd c5d5 0bbe 7a90 20bd
000002d0: 4dda c33d 3cc4 35be ea0a 15be 722b 783b
000002e0: b5d7 4abe 93ad e33d 80ad 313c 8c5b 6e3b
000002f0: 53e5 a6bd 31ed 36bd a1dd 04be 8570 5bbe
00000300: 340c 643c 6213 14bd 88ff 0e3d 000c 8cbc
00000310: ebe3 4c3e c5e3 9ebd f55f a8bc f4ff 41bd
00000320: 887f 203c 5ae0 273e aac5 2d3e 76d3 40bd
00000330: f2d0 b93d 0b98 2e3d bd46 983d 75a9 3bbd
00000340: c6e0 863d 42ee c1bd 3c63 ae3c c90e 84bd
00000350: c07f 0f3e 5e4c 71bd 2b5a 43bd 6c5f 7ebd
00000360: b20a 433d 71d9 253e dc68 193e 5c28 2bbd
00000370: fade ff3d 4f80 7ebc eae5 c53d 8495 21bd

encoder_mean.8.bias f4 [14]
-5.2325813e-06 -1.1083982e-06 3.3311967e-06 7.635292e-07 -3.3664065e-07 2.5108502e-06 1.2598977e-07 7.734562e-07
1.3822454e-06 -1.18094995e-05 2.2499994e-06 -5.6874374e-06 -2.4240767e-06 5.14708e-06
00000000: 8893 afb6 46c4 94b5 868d 5f36 54f5 4c35
00000010: 8abb b4b4 1480 2836 ce47 0734 819f 4f35
00000020: 9785 b935 6a21 46b7 b2fe 1636 b7d6 beb6
00000030: 52ad 22b6 15b5 ac36

encoder_mean.9.weight f4 [14]
0.30038664 0.33265066 0.342782 0.2824442 0.39921087 0.44440705 0.35665882 0.32534015
0.33803764 0.56631875 0.36780432 0.6450556 0.28552797 0.29805958
00000000: 47cc 993e 3051 aa3e 1f81 af3e 879c 903e
00000010: 5e65 cc3e 5289 e33e fc9b b63e fc92 a63e
00000020: 4513 ad3e 44fa 103f d950 bc3e 5d22 253f
00000030: b930 923e 449b 983e

encoder_mean.9.bias f4 [14]
0.11150946 -0.018398035 -0.04566389 0.1436614 0.13009733 -0.12093061 -0.24170098 0.099587284
-0.03515471 -0.14092794 -0.029342283 -0.29578814 0.09018197 0.08003724
00000000: 125f e43d 7ab7 96bc 0f0a 3bbd f91b 133e
00000010: 3c38 053e 78aa f7bd 7680 77be 6bf4 cb3d
00000020: 63fe 0fbd 6a4f 10be 3a5f f0bc 8b71 97be
00000030: 53b1 b83d 91ea a33d

encoder_mean.9.running_mean f4 [14]
0.05372183 -0.02910317 -0.05439137 0.08583465 0.046524666 -0.11332081 0.08538715 0.035562735
-0.045282714 -0.13411906 -0.023709629 -0.16838068 0.05223605 0.043411486
00000000: 6c0b 5c3d c569 eebc 7cc9 5ebd 14ca af3d
00000010: a690 3e3d be14 e8bd 75df ae3d 3baa 113d
00000020: 5e7a 39bd 8256 09be b23a c2bc fc6b 2cbe
00000030: 78f5 553d 3ed0 313d

encoder_mean.9.running_var f4 [14]
0.034945223 0.041821156 0.04964253 0.036259145 0.024925515 0.020103062 0.031165477 0.029701974
0.049565595 0.02462313 0.043640766 0.037893143 0.030075872 0.03325558
00000000: b922 0f3d a94c 2b3d f755 4b3d 7884 143d
00000010: 9830 cc3c 2daf a43c be4e ff3c 8e51 f33c
00000020: 4b05 4b3d 72b6 c93c a9c0 323d d735 1b3d
00000030: ad61 f63c 0137 083d

encoder_mean.12.weight f4 [12, 14]
-0.1806431 0.0973758 0.08483699 -0.13970162 0.009803949 -0.1513219 0.064283706 -0.16969347
0.11366706 -0.19717045 0.08529447 -0.140889 -0.09186919 -0.07398415 -0.026538879 -0.12779707
-0.11420051 -0.044913143 -0.06929657 0.14670084 -0.11570574 -0.033865176 -0.13333422 0.1728135
-0.1469297 -0.38664275 -0.064886406 -0.06386787 0.03105447 -0.15434043 -0.17703246 0.0038015447
-0.075882904 0.12743515 -0.13441327 0.07468885 -0.17450112 -0.14753686 -0.120143875 -0.34615785
-0.043883257 -0.0052397097 -0.17168507 0.09755225 0.084041186 -0.14840274 -0.009471986 -0.1504506
0.08086529 -0.16893956 0.06390381 -0.17710392 0.10505347 -0.20744629 -0.09418157 -0.10033172
0.04713171 -0.19293289 -0.20537709 0.06555411 0.02645773 -0.056948494 -0.013959399 0.05558077
-0.19385539 -0.15087324 -0.16736013 -0.036882665 0.07321215 0.097264215 -0.09306554 -0.07700741
-0.04645183 -0.12590915 -0.08052474 0.022398872 0.07831794 -0.07341186 -0.08150966 0.120856665
-0.11957532 0.21701342 -0.14470358 -0.14486788 0.0641897 -0.15023188 -0.11449133 -0.06373844
0.34000343 -0.18350345 0.2226736 0.020648085 -0.08952963 -0.17477104 -0.1516039 -0.029031157
0.0057887775 0.048693564 -0.13422556 -0.057083283 -0.024573585 -0.13292465 -0.03591233 -0.00338405
0.102174185 -0.104540095 -0.0032817295 -0.11184433 -0.12871166 0.2526707 -0.1476045 -0.13914067
-0.1799728 0.07342913 0.061823312 -0.15129799 0.03406816 -0.15087473 0.06494792 -0.17899406
0.09711297 -0.20271234 0.044959903 -0.15828536 -0.106318004 -0.12882216 -0.10207586 -0.07281073
-0.03621558 -0.1302689 -0.05888479 0.030635066 0.10859707 -0.0971 -0.054194167 0.059944414
-0.1056407 0.25733435 -0.12338051 -0.13472684 -0.118633926 0.053987004 0.063108385 -0.12050396
-0.019033624 -0.23848887 0.07691192 -0.13342473 0.10323466 -0.20344107 0.09704464 -0.26496273
-0.05761722 -0.06684553 0.0825819 0.044377558 -0.03872613 0.1476181 0.18677433 -0.14939141
0.17997925 0.018209428 -0.030936666 -0.11489477 0.039734308 -0.08317133 0.20945391 0.09168662
00000000: 81fa 38be f76c c73d 04bf ad3d f10d 0fbe
00000010: bea0 203c 21f4 1abe 2da7 833d 20c4 2dbe
00000020: 47ca e83d 0de7 49be deae ae3d 3545 10be
00000030: ea25 bcbd 0185 97bd 1068 d9bc 3cdd 02be
00000040: f5e1 e9bd d8f6 37bd 5ceb 8dbd bf38 163e
00000050: 22f7 ecbd 36b6 0abd c488 08be 06f6 303e
00000060: bd74 16be 0af6 c5be 2ae3 84bd 28cd 82bd
00000070: f265 fe3c 6b0b 1ebe ff47 35be 5623 793b
00000080: 7f68 9bbd 5c7e 023e a2a3 09be 78f6 983d
00000090: 6cb0 32be e713 17be fe0d f6bd 9a3b b1be
000000a0: eebe 33bd dfb1 abbb 36ce 2fbe 79c9 c73d
000000b0: c91d ac3d e3f6 17be 6430 1bbc b90f 1abe
000000c0: b39c a53d 7efe 2cbe 00e0 823d bb5a 35be
000000d0: 4626 d73d cd6c 54be 44e2 c0bd b87a cdbd
000000e0: 2e0d 413d 3390 45be 5f4e 52be 3c41 863d
000000f0: e2bd d83c d342 69bd f7b5 64bc a9a8 633d
00000100: 0782 46be 847e 1abe 7460 2bbe 4712 17bd
00000110: 40f0 953d 7632 c73d 2599 bebd 10b6 9dbd
00000120: 4644 3ebd 54ee 00be 28ea a4bd d77d b73c
00000130: 2865 a03d f558 96bd 89ee a6bd b383 f73d
00000140: e8e3 f4bd c438 5e3e 2d2d 14be 3f58 14be
00000150: e475 833d 63d6 19be 6e7a eabd 4d89 82bd
00000160: ee14 ae3e 54e8 3bbe 8c04 643e 2c26 a93c
00000170: 505b b7bd 2ef7 32be 0e3e 1bbe c0d2 edbc
00000180: c9af bd3b e772 473d 6d72 09be 29d0 69bd
00000190: 8b4e c9bc 661d 08be cf18 13bd f0c6 5dbb
000001a0: b340 d13d 1e19 d6bd 4912 57bb a40e e5bd
000001b0: fdcc 03be 0e5e 813e a225 17be e47a 0ebe
000001c0: ca4a 38be 0362 963d 713a 7d3d dced 1abe
000001d0: 0e8b 0b3d e87e 1abe 6a03 853d 384a 37be
000001e0: 2ae3 c63d d393 4fbe e027 383d 8f15 22be
000001f0: 41bd d9bd f5e9 03be 260d d1bd cb1d 95bd
00000200: ca56 14bd 3665 05be 2d31 71bd 64f6 fa3c
00000210: 2468 de3d 5ddc c6bd b4fa 5dbd 4688 753d
00000220: 275a d8bd 54c1 833e ecae fcbd d5f5 09be
00000230: 58f6 f2bd 7a21 5d3d f83e 813d c8ca f6bd
00000240: 67ec 9bbc 6d36 74be ff83 9d3d 7ea0 08be
00000250: b26c d33d db52 50be 57bf c63d 32a9 87be
00000260: 0900 6cbd 4fe6 88bd b320 a93d 3ec5 353d
00000270: 4a9f 1ebd 3329 173e c541 3f3e 10fa 18be
00000280: 7b4c 383e f02b 953c e46e fdbc f34d ebbd
00000290: 71c0 223d bb55 aabd 167b 563e 32c6 bb3d

encoder_mean.12.bias f4 [12]
2.6530276e-07 2.58468e-07 -8.7720815e-07 1.1609109e-05 -8.534934e-07 3.409383e-07 -3.891724e-06 1.6049804e-06
-1.7653868e-07 1.2415351e-06 5.283594e-07 1.2487311e-06
00000000: ef6e 8e34 92c3 8a34 4979 6bb5 bec4 4237
00000010: 9f1b 65b5 340a b734 a895 82b6 b56a d735
00000020: 958e 3db4 d2a2 a635 95d4 0d35 139a a735

encoder_mean.13.weight f4 [12]
0.8271088 1.0498856 0.95978713 0.8697204 0.85470134 1.0534668 0.87414575 1.0378854
0.8452717 1.0686225 0.813698 0.78003126
00000000: 67bd 533f a762 863f 9cb4 753f ffa5 5e3f
00000010: b5cd 5a3f 00d8 863f 04c8 5f3f 6ed9 843f
00000020: ba63 583f 9fc8 883f 834e 503f 21b0 473f

encoder_mean.13.bias f4 [12]
0.14225014 0.13930565 0.17250983 0.075962946 0.18983115 0.14502187 0.18847187 0.09398446
0.11495575 0.10680643 0.048508365 0.28174677
00000000: 05aa 113e 24a6 0e3e 6ba6 303e 7692 9b3d
00000010: 1963 423e 9d80 143e c5fe 403e ed7a c03d
00000020: ec6d eb3d 54bd da3d b5b0 463d 1d41 903e

encoder_mean.13.running_mean f4 [12]
-0.117534846 -0.11091508 -0.11605174 -0.12933262 -0.053140707 -0.10003109 -0.0022392303 -0.11578214
-0.135353 -0.09678405 -0.12066913 0.092515536
00000000: 1cb6 f0bd 7227 e3bd 89ac edbd c56f 04be
00000010: 12aa 59bd 1add ccbd 0dc0 12bb 301f edbd
00000020: fa99 0abe b736 c6bd 6021 f7bd c978 bd3d

encoder_mean.13.running_var f4 [12]
0.042844217 0.022619471 0.026039133 0.03944913 0.034831483 0.032275766 0.022434143 0.026026538
0.0441586 0.030208144 0.025760215 0.051836263
00000000: 6b7d 2f3d 784c b93c 0550 d53c 6995 213d
00000010: 75ab 0e3d 9833 043d cfc7 b73c 9b35 d53c
00000020: a6df 343d 1277 f73c 1607 d33c 4352 543d

encoder_mean.16.weight f4 [10, 12]
-0.011861391 0.5582159 0.2658392 -0.016345255 -0.15335114 0.21462294 -0.35744113 0.14410904
-0.012749063 0.20836605 -0.019741332 -0.35837755 0.028264895 0.035964996 0.021057695 -0.008557753
0.03321605 -0.045782067 -0.034368016 -0.059327364 -0.0033240654 -0.059607442 0.03002598 -0.07156557
-0.015912512 -0.05013797 -0.02822875 0.0025377867 -0.0001983695 0.013468638 0.012559897 0.0040739123
-0.017008746 0.014092691 -0.0094874995 0.034501176 -0.03125626 0.00947247 -0.063767985 0.0007658011
-0.01217656 0.09703735 0.07184656 0.07164636 -0.024306918 0.075504884 -0.023018785 0.059078567
-0.6122092 0.33320954 0.59717953 -0.6273442 0.5556892 -0.016627105 -0.043240096 -0.1920173
-0.6412624 -0.058332983 -0.61718833 0.25780684 -0.4336637 0.8217347 0.592176 -0.469547
0.0075338418 0.55837095 -0.58741593 0.25505152 -0.39371186 0.53584856 -0.44779128 -0.37864307
-0.014974436 -0.027612349 -0.00040212096 -0.0047624107 0.015558712 0.0048023304 -0.0040321006 0.026631141
-0.01090406 0.0065427045 -0.002335602 0.021163613 0.19544822 0.15257607 -0.3688375 0.20886023
-0.58595175 0.8121055 -0.4947247 0.92079496 0.22137195 0.8438827 0.08249158 -0.44545928
0.002297422 0.010028462 0.019238317 -0.008678357 -0.0089383535 -0.021268727 -0.011896924 0.02125868
0.015348852 -0.02445719 -0.0046426794 0.0030919272 0.0059837233 0.00810022 -0.0042559314 -0.010768364
-0.000734317 -0.011210212 -0.00952034 0.013040858 -0.011727633 0.0106440615 0.012993617 -0.009598564
00000000: 4856 42bc 3de7 0e3f 131c 883e 7ce6 85bc
00000010: 1508 1dbe 1ec6 5b3e 8602 b7be 5291 133e
00000020: 72e1 50bc e95d 553e 93b8 a1bc 437d b7be
00000030: c88b e73c 0850 133d 3081 ac3c d135 0cbc
00000040: 8e0d 083d fa85 3bbd 7ac5 0cbd 4001 73bd
00000050: 90d8 59bb ef26 74bd 0bf9 f53c f890 92bd
00000060: f55a 82bc 795d 4dbd fb3f e7bc ff50 263b
00000070: 6801 50b9 90ab 5c3c 07c8 4d3c 747e 853b
00000080: ed55 8bbc 08e5 663c 7571 1bbc 1b51 0d3d
00000090: 9006 00bd 6b32 1b3c ca98 82bd 0bc0 483a
000000a0: 3280 47bc 85bb c63d 4a24 933d 54bb 923d
000000b0: 4d1f c7bc 4ea2 9a3d e491 bcbc 5efc 713d
000000c0: beb9 1cbf 719a aa3e c2e0 183f a199 20bf
000000d0: a641 0e3f 9135 88bc 871c 31bd 2fa0 44be
000000e0: c629 24bf 91ee 6ebd 0e00 1ebf 42ff 833e
000000f0: 2b09 debe 355d 523f d998 173f 7768 f0be
00000100: 72de f63b 66f1 0e3f e460 16bf 1d96 823e
00000110: 9a94 c9be 5f2d 093f e644 e5be 81dd c1be
00000120: 5657 75bc 4b33 e2bc c3d3 d2b9 ff0d 9cbb
00000130: f8e9 7e3c de5c 9d3b b61f 84bb 8d29 da3c
00000140: f1a6 32bc 2f64 d63b e610 19bb 505f ad3c
00000150: 9423 483e e73c 1c3e 45d8 bcbe 75df 553e
00000160: ef00 16bf 25e6 4f3f 8e4c fdbe 38b9 6b3f
00000170: 54af 623e b208 583f 58f1 a83d 3d13 e4be
00000180: 5890 163b 6b4e 243c ad99 9d3c ab2f 0ebc
00000190: 2c72 12bc c13b aebc 51eb 42bc af26 ae3c
000001a0: c079 7b3c 725a c8bc 9e21 98bb eea1 4a3b
000001b0: 1c13 c43b c9b6 043c 5775 8bbb cb6d 30bc
000001c0: 2e7f 40ba 09ab 37bc 33fb 1bbc 53a9 553c
000001d0: 4225 40bc 6e64 2e3c 2ee3 543c 4c43 1dbc

encoder_mean.16.bias f4 [10]
-0.28879645 0.062636435 0.013217677 -0.10758752 0.2994353 -0.29147956 -0.0051414594 -0.7693044
0.0059926054 0.0042158025
00000000: 21dd 93be 8847 803d f58e 583c d856 dcbd
00000010: 954f 993e cf3c 95be b079 a8bb 22f1 44bf
00000020: 9e5d c43b b724 8a3b

encoder_var.0.weight f4 [20, 30]
-1.433721e-05 -1.3827056e-05 6.6372186e-06 -5.0002636e-06 -3.0358465e-06 -1.1584337e-05 -1.380866e-06 -3.6095387e-06
2.0031662e-06 3.1021477e-06 -2.452785e-06 3.8035087e-06 -7.858396e-06 -6.866426e-06 -1.2575791e-05 1.7238441e-06
-6.245637e-07 2.975537e-07 -5.606558e-06 1.2853657e-06 -4.213874e-06 1.5272983e-06 -1.1487916e-05 -5.4331063e-06
5.7935877e-06 -7.4073855e-06 7.739933e-06 -5.4563234e-06 5.3827544e-06 -1.1304567e-05 2.5243862e-06 3.4686243e-06
1.6026654e-06 3.1711716e-06 -6.1293213e-06 -5.351113e-06 3.595683e-06 5.8116443e-06 6.1662405e-08 -3.453626e-06
2.3453974e-06 7.0394833e-07 -4.379617e-06 -6.65017e-06 -7.238259e-06 6.373231e-06 -2.6552104e-06 -1.7959128e-06
-2.4016636e-06 -1.5837979e-06 -5.6601124e-07 1.9294043e-06 -8.173443e-06 1.016758e-06 5.341671e-06 -2.959206e-06
2.6008518e-06 -3.1565528e-06 3.3106332e-06 -5.721732e-06 -0.0030033924 -0.0032588914 -0.0008621415 0.0003837849
6.7247674e-05 0.0003566056 0.0022613036 0.00077444833 0.001630627 -0.0028928781 -0.0011913009 -0.00064738776
-0.00297635 -0.00046736354 -0.0014958257 0.0026232027 0.0003028102 -0.0010599653 0.00012689547 -8.513349e-05
0.0003635286 0.0005303048 -2.9384424e-05 -0.0012336205 0.0005707696 -2.9415958e-05 2.9708333e-05 0.00022566628
-0.00022419952 -0.0071134125 -0.00080928527 -0.0004450208 -0.000112998736 -6.467573e-05 0.00020809764 0.00012957896
0.0007925201 -0.00054939586 0.00036984473 -0.0010454828 2.1495158e-05 -0.00019417854 -0.000958223 0.0005290876
-0.0007649435 0.0012967269 -0.00016456845 -0.0004941791 -0.0003042837 -0.00020439457 -3.3972286e-05 0.0007943817
1.6758244e-05 -0.00060718786 -5.240885e-05 0.00012203392 -0.00012188658 6.7785695e-05 -6.297955e-05 -0.004338276
0.005864052 0.00076272665 -0.00035365953 0.0004174574 -0.0002331978 -0.0004547457 -0.00085704 0.00079549174
-0.00034061604 -0.0001699185 0.00039289444 0.00038149708 0.0010739884 -2.3702138e-05 0.0014182469 -0.00073365885
0.00077463733 -0.0011946384 0.00077692536 -0.00072214677 0.00040787645 0.00039023827 0.00041280047 -0.00047135405
0.00040775278 -0.0007693112 0.0007560683 0.0003383233 -0.00033918698 0.004232783 -2.1472556e-06 3.7077575e-06
4.3288615e-06 3.6262784e-06 4.053226e-06 -2.0575762e-06 4.339631e-06 1.8414408e-06 -4.725664e-06 -1.2524777e-06
-1.5839577e-06 2.222556e-06 5.154709e-07 5.0632766e-06 -9.850193e-07 2.4387214e-06 1.12476926e-07 -1.1111459e-06
-4.5444685e-06 7.800086e-07 4.1655658e-06 2.105041e-06 1.5586938e-06 -2.2510285e-06 2.1115793e-06 -2.6473695e-06
1.6729944e-06 1.0368935e-06 -1.1031832e-06 -3.7762624e-07 8.196125e-06 -3.564488e-06 5.9679405e-07 3.9293758e-07
5.415417e-06 3.0281726e-07 5.511541e-06 6.652674e-06 1.1421289e-06 4.2483443e-06 -2.1238684e-06 3.5079445e-06
1.3234372e-06 4.040906e-06 8.702283e-06 3.7812658e-06 -6.653245e-07 5.791402e-06 -1.7225348e-06 3.0538008e-06
-1.015735e-06 9.967589e-07 -1.103514e-06 -1.9330598e-06 5.7111156e-06 1.3586896e-06 -5.538594e-06 -5.7295524e-06
6.627234e-06 -9.0898084e-08 -0.00024472422 9.7715456e-05 -0.00064008567 0.00028835464 0.0006504909 -0.0003954137
0.00026515216 1.9896663e-05 0.00013635546 -0.00044707098 -0.00031710055 4.658613e-05 7.5320975e-05 0.00028674648
-0.0006760613 0.000778071 -0.00027316212 -0.00019441036 9.0467554e-05 0.00014847706 0.00031260948 -0.00018551885
0.00046601056 -0.00035072427 -0.0002335389 0.0004756486 -0.00047404523 -4.0263127e-05 4.0037183e-05 -0.0010828512
3.221431e-05 -4.4645492e-07 -5.126668e-06 -4.8208603e-06 5.4962857e-06 -3.9524246e-05 -1.614696e-06 -1.9955725e-05
-9.585963e-07 -9.961393e-07 -3.710446e-05 1.895651e-05 1.4202238e-05 1.8984487e-05 6.83638e-05 -7.1938564e-05
00000000: d989 70b7 c1fa 67b7 46b5 de36 f0c7 a7b6
00000010: 72bb 4bb6 595a 42b7 3256 b9b5 673b 72b6
00000020: 226e 0636 7e2e 5036 879a 24b6 c83f 7f36
00000030: 8ed7 03b7 2666 e6b6 9cfc 52b7 d55e e735
00000040: b1a7 27b5 78bf 9f34 f71f bcb6 d484 ac35
00000050: e764 8db6 92fd cc35 39bc 40b7 074e b6b6
00000060: 8a66 c236 f58c f8b6 c2da 0137 7615 b7b6
00000070: 829d b436 bfa8 3db7 a068 2936 83c6 6836
00000080: 2a1b d735 50d0 5436 78aa cdb6 b68d b3b6
00000090: 5d4d 7136 a501 c336 446b 8433 d8c4 67b6
000000a0: 9f65 1d36 f6f6 3c35 a0f4 92b6 8624 dfb6
000000b0: 2ce0 f2b6 a3d9 d536 2b30 32b6 180b f1b5
000000c0: 442c 21b6 e292 d4b5 ffef 17b5 ea7a 0136
000000d0: ac20 09b7 8a77 8835 9b3c b336 c696 46b6
000000e0: 4b8a 2e36 2ad5 53b6 3f2c 5e36 4efd bfb6
000000f0: 90d4 44bb 2093 55bb 5601 62ba bd36 c939
00000100: 5207 8d38 cbf6 ba39 6132 143b 5904 4b3a
00000110: c3ba d53a 7196 3dbb 6d25 9cba 75b5 29ba
00000120: de0e 43bb 7908 f5b9 950f c4ba 0aea 2b3b
00000130: 7fc2 9e39 89ee 8aba 3e0f 0539 b289 b2b8
00000140: fc97 be39 2704 0b3a 927e f6b7 6fb1 a1ba
00000150: b39f 153a 4ac2 f6b7 2936 f937 d5a0 6c39
00000160: 1a17 6bb9 a117 e9bb 3726 54ba ae51 e9b9
00000170: bcf9 ecb8 85a2 87b8 c934 5a39 96df 0739
00000180: 20c1 4f3a 5505 10ba b8e7 c139 9508 89ba
00000190: 8050 b437 689c 4bb9 4231 7bba 78b2 0a3a
000001a0: 7d86 48ba eff6 a93a 0290 2cb9 cc8b 01ba
000001b0: 4488 9fb9 c052 56b9 777d 0eb8 0e3e 503a
000001c0: 0e94 8c37 b02b 1fba 93d1 5bb8 76ec ff38
000001d0: 5c9d ffb8 2b28 8e38 e313 84b8 1928 8ebb
000001e0: 3c27 c03b b8f1 473a 616b b9b9 2fde da39
000001f0: 8f86 74b9 ef6a eeb9 fbaa 60ba 8c88 503a
00000200: b694 b2b9 262c 32b9 66fd cd39 ac03 c839
00000210: 12c5 8c3a f4d3 c6b7 78e4 b93a 0353 40ba
00000220: 0811 4b3a 6a95 9cba 94aa 4b3a 734e 3dba
00000230: 40d8 d539 e598 cc39 246d d839 1220 f7b9
00000240: a7c7 d539 9aab 49ba e232 463a fc60 b139
00000250: e8d4 b1b9 28b3 8a3b 9219 10b6 cad2 7836
00000260: a340 9136 fd5a 7336 f200 8836 e414 0ab6
00000270: 259d 9136 6d27 f735 2591 9eb6 ce1a a8b5
00000280: 5f98 d4b5 3927 1536 e45e 0a35 37e5 a936
00000290: 0135 84b5 eaa8 2336 d88a f133 af22 95b5
000002a0: b07c 98b6 c861 5135 f0c5 8b36 5444 0d36
000002b0: 5034 d135 6010 17b6 a8b4 0d36 76a9 31b6
000002c0: a68b e035 642b 8b35 1611 94b5 8ebc cab4
000002d0: 1782 0937 7035 6fb6 6033 2035 eef4 d234
000002e0: 14b6 b536 e392 a234 c7ef b836 093a df36
000002f0: 404b 9935 008d 8e36 c887 0eb6 076a 6b36
00000300: f5a0 b135 1e97 8736 0500 1237 a7c1 7d36
00000310: c098 32b5 c453 c236 d831 e7b5 e6ef 4c36
00000320: 6454 88b5 60c8 8535 741c 94b5 b7b9 01b6
00000330: 1ca2 bf36 385c b635 29d8 b9b6 7b40 c0b6
00000340: 825f de36 c033 c3b3 544e 80b9 96ec cc38
00000350: 6ccb 27ba 4e2e 9739 b585 2a3a 874f cfb9
00000360: 1f04 8b39 c2e7 a637 a4fa 0e39 da64 eab9
00000370: 8440 a6b9 7a65 4338 a4f5 9d38 7656 9639
00000380: b539 31ba 76f7 4b3a 3337 8fb9 a2da 4bb9
00000390: 66b9 bd38 82b0 1b39 bce5 a339 d687 42b9
000003a0: e152 f439 6ae1 b7b9 1fe2 74b9 7960 f939
000003b0: 4689 f8b9 34e0 28b8 99ed 2738 75ee 8dba
000003c0: da1d 0738 4cb0 efb4 be05 acb6 e0c2 a1b6
000003d0: bc6c b836 d6c6 25b8 88b8 d8b5 9866 a7b7
000003e0: 1ea9 80b5 16b3 85b5 9ca0 1bb8 cc04 9f37
000003f0: 2646 6e37 e040 9f37 895e 8f38 b9dd 96b8

encoder_var.0.bias f4 [20]
-3.2397146e-10 2.4463251e-09 -2.1938444e-09 2.5394162e-09 5.302125e-09 2.074155e-09 -2.6430067e-09 9.2438346e-10
-5.681071e-10 1.0381727e-09 -1.9977087e-10 -1.2507214e-09 -6.7200334e-10 -2.5081457e-09 -8.132319e-10 1.4046408e-10
2.1006226e-09 2.936666e-09 -1.3333594e-09 -5.1518584e-10
00000000: ee1a b2af 351c 2831 85c2 16b1 e281 2e31
00000010: fc2d b631 ec88 0e31 44a0 35b1 b417 7e30
00000020: fc28 1cb0 74af 8e30 80a6 5baf d9e5 abb0
00000030: 08b8 38b0 c45b 2cb1 1c8a 5fb0 2071 1a2f
00000040: 8b5a 1031 60ce 4931 6a41 b7b0 fb9c 0db0

encoder_var.1.weight f4 [20]
0.00015648258 8.691004e-05 0.022880526 0.00985583 0.010687336 8.137568e-06 2.7863527e-05 0.005068987
0.000617525 2.7700262e-05 -2.1131123e-06 5.1844904e-06 -4.4759815e-07 0.016312677 1.3793738e-05 0.013550252
0.0026995814 0.00012660828 0.00096727634 2.0782716e-05
00000000: 7915 2439 7943 b638 f16f bb3c 597a 213c
00000010: f019 2f3c 9786 0837 78bc e937 bf19 a63b
00000020: 67e1 213a dc5d e837 fece 0db6 6ff6 ad36
00000030: 6c4d f0b4 2aa2 853c a76b 6737 e001 5e3c
00000040: 76eb 303b 27c2 0439 d190 7d3a 8b56 ae37

encoder_var.1.bias f4 [20]
-1.2912796e-05 1.746193e-05 0.005206733 0.00097096997 0.0003354181 -8.2470915e-06 -4.4642125e-06 -0.00012055813
5.56723e-05 8.313581e-06 1.1628554e-06 -5.9773843e-06 -1.0425525e-05 0.0021592253 1.6894426e-06 0.0030239758
4.472471e-06 -7.890854e-06 -8.570855e-06 -1.115959e-05
00000000: 09a4 58b7 367b 9237 3e9d aa3b b188 7e3a
00000010: 0edb af39 fd5c 0ab7 4bcb 95b6 27d4 fcb8
00000020: ad81 6938 8f7a 0b37 6813 9c35 5791 c8b6
00000030: 4ae9 2eb7 ca81 0d3b cec0 e235 e52d 463b
00000040: 3c12 9636 f662 04b7 8bcb 0fb7 133a 3bb7

encoder_var.1.running_mean f4 [20]
2.475977e-05 1.33355425e-05 -0.013656104 -0.0069003184 0.0072646616 -4.6561054e-06 1.3622838e-05 -0.0033121395
-5.4964494e-05 5.675482e-06 -1.5087951e-06 -3.4536e-06 1.1216881e-05 0.012086142 -4.8300553e-06 -0.010049696
-0.001304831 3.5827145e-07 -0.0001773659 -5.2657233e-06
00000000: 34b3 cf37 b8bb 5f37 dabd 5fbc 111c e2bb
00000010: 660c ee3b a43b 9cb6 a58d 6437 7b10 59bb
00000020: ad89 66b8 0570 be36 ce81 cab5 65c4 67b6
00000030: 2330 3c37 f404 463c dc11 a2b6 7ba7 24bc
00000040: dd06 abba 7458 c034 4cfb 39b9 38b0 b0b6

encoder_var.1.running_var f4 [20]
4.297442e-09 1.9088429e-09 3.954506e-05 1.3857527e-05 1.1542849e-05 7.2856926e-10 1.5150716e-09 5.033314e-06
8.6024656e-08 6.131585e-10 8.113116e-10 2.863887e-10 2.5574403e-09 3.4385215e-05 1.6967233e-09 1.9473224e-05
1.8356002e-06 1.0350516e-08 1.312308e-07 1.5579478e-09
00000000: b3a8 9331 b82c 0331 2fdd 2538 a07d 6837
00000010: 29a8 4137 8144 4830 d83a d030 d7e3 a836
00000020: 8ebc b833 328b 2830 fa02 5f30 a071 9d2f
00000030: f7be 2f31 d838 1038 2532 e930 6e5a a337
00000040: be5e f635 0dd2 3132 73e8 0c34 6a1f d630

encoder_var.4.weight f4 [16, 20]
3.2164187e-06 2.2762422e-06 3.3845787e-05 4.4781098e-07 -2.5848256e-06 -1.0283402e-06 2.4133685e-06 1.2094474e-05
6.828542e-06 1.1667415e-06 4.6208956e-07 -1.3755194e-07 3.6084093e-06 -1.7044113e-05 -7.8095593e-07 6.810451e-06
1.6275004e-05 -1.81717e-06 7.2637695e-06 2.2820984e-06 9.532743e-06 -3.1341488e-06 -0.00042043714 -6.980198e-05
0.00014911067 2.6104826e-06 -5.685183e-07 -8.826386e-05 -2.2858154e-05 3.7718005e-06 -4.9682485e-06 2.1086562e-06
2.7061562e-06 0.00060895534 -4.1644385e-06 -0.00018981805 -0.00012370857 4.5798306e-06 -1.321348e-05 1.9274644e-06
7.767804e-06 1.3920339e-06 4.65408e-05 -4.1166895e-06 -2.2810125e-05 -2.5725813e-06 3.8125017e-06 2.6468268e-05
1.4681397e-06 5.9755735e-07 -5.4257616e-06 2.1841295e-06 4.6247155e-06 -6.0252285e-05 -3.413044e-06 1.2019452e-05
7.964184e-06 -3.607675e-06 2.7212814e-06 -5.878113e-06 2.390355e-06 -7.7479876e-07 4.8849342e-06 -4.90583e-06
-3.0058209e-06 1.4382384e-06 -2.6213016e-08 1.94884e-06 1.8327727e-06 1.2658862e-06 -4.7173594e-07 -2.7274039e-06
-2.8013148e-06 1.516679e-06 -3.4004331e-06 1.2253022e-07 5.3776107e-06 -1.4679856e-06 1.4340488e-06 3.1122823e-07
-4.4469557e-06 -7.721862e-07 3.5089638e-06 -6.778371e-07 -2.526207e-07 -3.1836905e-08 -1.5490413e-07 -1.402609e-06
1.3130084e-06 -1.6172003e-06 1.4150773e-06 -1.7340994e-06 -1.268423e-06 -3.1565123e-06 -8.059369e-07 3.3242935e-07
-2.5621728e-07 8.839778e-07 -1.6800886e-06 -1.7148918e-07 -1.5143292e-05 -9.451721e-06 -0.0004519486 1.1519063e-05
0.00035890375 -3.963221e-06 -1.11699e-06 -0.00014764926 -2.0053449e-05 2.4802214e-06 2.9339344e-07 -8.6613187e-07
6.118229e-07 0.0007479309 -2.8289253e-06 -0.00026235046 -3.37227e-07 1.2705031e-05 -3.6974165e-05 -3.229212e-06
-5.54254e-06 6.760987e-06 6.110422e-05 3.660877e-05 -0.00010433321 -3.1553627e-06 9.165512e-07 -1.3802024e-05
-8.535981e-06 -8.763283e-07 2.7557194e-06 -4.5238535e-06 -4.2148968e-06 -0.00033342303 -3.7600972e-07 2.7249185e-05
-1.3664759e-05 -4.196414e-06 3.7297395e-06 4.6442847e-06 1.016618e-07 -4.52415e-07 -6.4425735e-06 1.8993666e-06
-7.4043323e-06 3.2883877e-06 2.9886064e-06 -2.2508366e-06 -1.6592742e-06 1.1654777e-06 -1.1215216e-06 -1.4855224e-06
-3.0967353e-08 -1.3921297e-05 7.027815e-07 -1.1268884e-06 1.8288915e-07 3.0157014e-07 -1.1202741e-06 -1.05748796e-07
1.6961982e-07 9.663516e-07 -1.7099094e-07 1.6158917e-06 -1.8059468e-06 -7.0373153e-07 -2.2533734e-06 1.6638307e-06
-3.5781216e-06 1.5554835e-06 -9.227339e-07 -1.6091218e-07 1.7270223e-06 -1.0044393e-05 -1.9483662e-06 -2.928616e-06
-1.3298913e-06 2.3166268e-07 -1.8413466e-06 2.8510408e-07 6.061531e-06 1.9667625e-06 0.00014646215 -4.332966e-05
4.6433917e-05 1.3839765e-06 1.5918117e-06 7.9899466e-05 1.5938887e-05 5.7147884e-07 4.689316e-06 2.7061327e-07
1.9244558e-06 -0.00027151266 5.460664e-06 0.00013791643 -6.171069e-06 5.7772268e-06 -1.1382834e-05 4.2713427e-07
1.4605273e-06 -1.0940133e-06 1.38031055e-05 -2.4743788e-06 4.9228615e-06 -6.541424e-07 3.73192e-06 -2.8261098e-07
2.3145044e-06 1.466573e-06 5.3853654e-07 -1.4412072e-06 8.877718e-07 -7.755373e-06 -2.435847e-06 3.5229082e-06
4.494639e-06 -1.4753807e-06 1.211489e-07 1.8890639e-06 1.4671969e-06 4.4455883e-06 9.732204e-06 9.720184e-06
-1.1337206e-05 -1.8390169e-06 6.8237064e-06 -1.6643564e-05 -4.0698956e-06 3.9324714e-06 4.358941e-06 1.842403e-07
3.151619e-06 -4.1285548e-05 3.4452335e-06 1.6093965e-05 -8.503996e-06 -3.6078677e-06 -6.3163257e-06 2.8503957e-06
1.6937175e-06 1.5437524e-06 -8.3114253e-07 -2.9427597e-06 -9.8975315e-06 -1.1849727e-07 -7.482089e-06 -1.5208026e-06
3.9034917e-06 1.2716639e-06 4.031566e-06 9.4900923e-07 1.2487664e-06 8.204513e-06 5.025321e-07 -5.1528496e-06
00000000: a7d9 5736 8bc1 1836 a3f5 0d38 ac6a f034
00000010: f776 2db6 8005 8ab5 5bf5 2136 5fe9 4a37
00000020: bb20 e536 ef98 9c35 1b15 f834 fdb1 13b4
00000030: 0028 7236 f4f9 8eb7 e2a2 51b5 5485 e436
00000040: 4e86 8837 7ce5 f3b5 4ebb f336 2726 1936
00000050: d2ee 1f37 4454 52b6 1e6e dcb9 a762 92b8
00000060: 975a 1c39 c02f 2f36 489c 18b5 4d1a b9b8
00000070: 83bf bfb7 0a1f 7d36 eeb4 a6b6 7082 0d36
00000080: 699b 3536 4da2 1f3a 41bc 8bb6 e509 47b9
00000090: c4b7 01b9 72ac 9936 77af 5db7 9659 0136
000000a0: 7752 0237 ecd5 ba35 ce34 4338 1822 8ab6
000000b0: 5f58 bfb7 9ca4 2cb6 48da 7f36 2c08 de37
000000c0: e50c c535 d467 2035 f00e b6b6 0f93 1236
000000d0: 012e 9b36 66b7 7cb8 a60b 65b6 27a7 4937
000000e0: e99d 0537 621b 72b6 429f 3636 9b3c c5b6
000000f0: fc69 2036 c4fb 4fb5 44e9 a336 c29c a4b6
00000100: 9cb7 49b6 7f09 c135 082b e1b2 d1c8 0236
00000110: 97fd f535 85e7 a935 e542 fdb4 7108 37b6
00000120: 39fe 3bb6 b290 cb35 ff32 64b6 da90 0334
00000130: 5371 b436 9a07 c5b5 8b79 c035 e216 a734
00000140: 0f37 95b6 3b48 4fb5 8a7b 6b36 9cf4 35b5
00000150: ed9f 87b4 0cbd 08b3 b953 26b4 4741 bcb5
00000160: a03a b035 940e d9b5 b0ed bd35 34bf e8b5
00000170: af3e aab5 78d4 53b6 9057 58b5 be78 b234
00000180: 3c8e 89b4 7e4a 6d35 687f e1b5 9622 38b4
00000190: f20f 7eb7 d592 1eb7 84f3 ecb9 0042 4137
000001a0: 3f2b bc39 cffb 84b6 7ceb 95b5 4cd2 1ab9
000001b0: 7438 a8b7 e171 2636 b083 9d34 2180 68b5
000001c0: 263c 2435 cb10 443a 91d8 3db6 158c 89b9
000001d0: 200c b5b4 b127 5537 b514 1bb8 71b5 58b6
000001e0: 0efa b9b6 70dc e236 1425 8038 5e8c 1938
000001f0: 77cd dab8 b8c0 53b6 eb08 7635 3e8f 67b7
00000200: c235 0fb7 d23c 6bb5 e6ee 3836 9bcb 97b6
00000210: b06d 8db6 48cf aeb9 62de c9b4 2e95 e437
00000220: b141 65b7 ecce 8cb6 704c 7a36 1ad6 9b36
00000230: 2a51 da33 72e3 f2b4 492d d8b6 bded fe35
00000240: bb72 f8b6 12ae 5c36 de8f 4836 140d 17b6
00000250: 3ab4 deb5 826d 9c35 3087 96b5 2962 c7b5
00000260: f700 05b3 848f 69b7 c7a6 3c35 973f 97b5
00000270: 3060 4434 7ce7 a134 535c 96b5 0418 e3b3
00000280: be20 3634 97b3 8135 a299 37b4 9ee1 d835
00000290: dc63 f2b5 10e8 3cb5 a938 17b6 ca50 df35
000002a0: a91f 70b6 02c6 d035 cab1 77b5 34c7 2cb4
000002b0: 09cc e735 5784 28b7 adc0 02b6 3d89 44b6
000002c0: b87e b2b5 f4be 7834 3024 f7b5 6810 9934
000002d0: 2864 cb36 b9fc 0336 a293 1939 debc 35b8
000002e0: 0ac2 4238 12c1 b935 3ca6 d535 b38f a738
000002f0: 80b4 8537 ba67 1935 eb58 9d36 ce48 9134
00000300: e625 0136 d059 8eb9 bf3a b736 a99d 1039
00000310: 1411 cfb6 00da c136 e6f8 3eb7 e350 e534
00000320: 5607 c435 03d6 92b5 e393 6737 810d 26b6
00000330: 0f2f a536 5398 2fb5 e671 7a36 c2b9 97b4
00000340: e252 1b36 11d7 c435 f38f 1035 816f c1b5
00000350: 374f 6e35 131d 02b7 8877 23b6 1a6b 6c36
00000360: a8d0 9636 b205 c6b5 2815 0234 be8b fd35
00000370: 80ec c435 502b 9536 7f47 2337 df13 2337
00000380: ee34 3eb7 24d4 f6b5 31f7 e436 c89d 8bb7
00000390: 2390 88b6 acf3 8336 0543 9236 97d3 4534
000003a0: 6780 5336 052a 2db8 a934 6736 8701 8737
000003b0: 62ac 0eb7 b21e 72b6 d3f0 d3b6 6d49 3f36
000003c0: b153 e335 ee32 cf35 ae1b 5fb5 3a7c 45b6
000003d0: 930d 26b7 9078 feb3 a80e fbb6 611e ccb5
000003e0: bdfa 8236 0aae aa35 e346 8736 6bbf 7e35
000003f0: 499b a735 1da6 0937 bee5 0635 a4e6 acb6

encoder_var.4.bias f4 [16]
-4.685081e-09 7.51467e-09 1.3704606e-09 4.5186938e-11 -9.65088e-09 -9.628124e-09 -4.9084337e-10 -5.595244e-09
7.36619e-09 9.858206e-09 -1.2628107e-09 6.7295025e-10 3.7810515e-09 -9.62715e-08 5.118007e-10 -1.4291077e-09
00000000: 69fa a0b1 de19 0132 cc5a bc30 f8bb 462e
00000010: 05cd 25b2 f068 25b2 08ec 06b0 4940 c0b1
00000020: b119 fd31 d95c 2932 348f adb0 aafa 3830
00000030: 7bea 8131 d1bd ceb3 c6ae 0c30 426a c4b0
