dice_ml/utils/sample_trained_models/adult-pytorch.pth (torch_old, 3439 bytes, 4 tensors)

ann_model.0.weight f4 [20, 29]
000000 ad d0 0c 3e 42 8d 52 3e ec 6e 7a 3d c9 4e 10 3e
       0.13751478 0.20561698 0.06114094 0.14092554
000010 eb 08 cc 3d 91 21 34 3e 38 82 08 3e df ca 7a 3d
       0.099626385 0.1759093 0.13330925 0.06122863
000020 b3 3a ad 3d 8a 85 a7 3c ae 9a db 3d 7c 1c 5a 3d
       0.084584616 0.020449419 0.10722862 0.05324982
000030 00 a4 fc 3c 90 60 ba 3d 37 3f cc 3d ce 75 b3 3d
       0.03083992 0.09100449 0.09972995 0.08762704
000040 a2 ce 53 3e c3 1d 81 3d 96 85 26 3e d1 d3 f8 3c
       0.20684293 0.06304505 0.16261896 0.03037444
000050 0f 20 1d 3e 0f fd cf 3d fc 6c 9d 3d bd 40 8d 3d
       0.1534426 0.10155689 0.07686803 0.068971135
000060 6d b1 98 3d c0 53 8f 3d be a3 73 3e f5 95 9e 3e
       0.07455716 0.06998396 0.23792931 0.30973783
000070 26 98 5a bf 51 ce 79 3c 23 06 c2 bb 2b 23 89 b9
       -0.8538841 0.015246944 -0.0059211417 -0.00026156878
000080 bd 37 49 bb e2 68 81 bb 60 64 85 3c e1 02 2f bc
       -0.0030703389 -0.0039492706 0.016283214 -0.010681839
000090 43 45 0f 3b 67 eb 65 bb d2 36 05 bc a4 b7 16 3c
       0.0021861352 -0.0035082938 -0.008130746 0.009199057
0000a0 41 5f c0 bb f6 d6 a1 bb 0d 14 9a 3b b9 cb 2a 3c
       -0.00587073 -0.0049389554 0.0047020973 0.010424548
0000b0 cc fa eb 3b c9 44 4c bc 96 02 2c bc cf b6 a5 3b
       0.007201528 -0.0124675715 -0.010498663 0.005057193
0000c0 18 d7 ee 3b 96 b8 75 bc 06 31 9c bb 3e ea 28 3c
       0.0072888248 -0.014997622 -0.0047665862 0.010309754
0000d0 4f e2 4a bb b2 0e 54 3b 01 28 4e 3c 07 11 bc bb
       -0.0030957644 0.0032357392 0.01258278 -0.0057393345
0000e0 da f5 db 3b 9c c3 53 3f 87 00 a4 3d 6b 28 f9 3d
       0.0067126574 0.8272035 0.08007913 0.12165912
0000f0 e3 1b 19 3d b5 01 af 3d 55 64 72 3d 74 76 d0 3d
       0.03738011 0.085452475 0.059177715 0.10178843
000100 f0 a2 a0 3d 62 69 12 3d c6 86 42 3d 99 f3 4f 3c
       0.07843578 0.035745032 0.04749181 0.012692356
000110 31 a9 83 3d 83 e7 01 3d cb 73 85 3c 17 c8 5b 3d
       0.06428755 0.031714927 0.016290566 0.053657617
000120 7e ad 69 3d e8 06 4d 3d ab e9 f9 3d 3f 78 21 3d
       0.05705022 0.050055414 0.12202772 0.039421316
000130 ad ed bf 3d 95 2e 92 3c 14 f4 ba 3d 6c d5 78 3d
       0.09371505 0.017844478 0.091285855 0.06075041
000140 2e 60 35 3d 62 ae 1d 3d fa 95 2c 3d 54 c0 2a 3d
       0.044281177 0.038496383 0.042135216 0.041687325
000150 34 d3 10 3e b3 0b 39 3e 92 fc ff be 30 62 de 3d
       0.14143068 0.18070869 -0.49997383 0.108585715
000160 29 81 27 3e d6 ba 49 3d d3 c1 e7 3d 6c 19 a2 3d
       0.16357864 0.049250446 0.11316266 0.07915005
000170 c3 90 0e 3e 35 30 d8 3d a7 89 46 3d b3 92 87 3d
       0.1392241 0.1055607 0.04847112 0.066197775
000180 18 27 88 3c d4 98 af 3d 9d 26 2e 3d dc 25 c3 3c
       0.016620204 0.085740715 0.042517293 0.023821764
000190 95 3c 94 3d 7c c3 a0 3d f1 fb 8c 3d 6d 70 28 3e
       0.072381176 0.07849786 0.068839915 0.16449137
0001a0 5d 99 50 3d 66 6f 03 3e 5f 20 c6 3c 7a fd fa 3d
       0.05092751 0.12835464 0.024185358 0.12255378
0001b0 23 c3 a5 3d ca 70 79 3d 44 76 5c 3d 06 51 6e 3d
       0.0809386 0.06089858 0.053823724 0.05818274
0001c0 05 da 64 3d 75 77 42 3e 6b 47 7b 3e f3 73 2d bf
       0.055871982 0.18990882 0.24538963 -0.6775505
0001d0 6a 79 d2 3d 5a bc 1e 3e 45 bd 3f 3d ac 61 dc 3d
       0.10277064 0.15501538 0.04681136 0.10760817
0001e0 dd eb 99 3d 8a aa 06 3e 78 cb cc 3d c5 68 3c 3d
       0.075156905 0.13150993 0.09999746 0.045998354
0001f0 01 59 7f 3d 2e 9e 81 3c ab 4c a7 3d b7 db 24 3d
       0.06234074 0.015822496 0.0816892 0.0402486
000200 19 d5 b6 3c 4e 2d 8c 3d 65 38 97 3d 52 2b 85 3d
       0.02231841 0.06844579 0.07383803 0.06502403
000210 5f 88 1f 3e cb 5d 46 3d 43 90 f8 3d 55 a2 bb 3c
       0.15579365 0.04842929 0.12136891 0.022904554
000220 85 19 ee 3d 28 83 9d 3d 12 bd 6b 3d 9d 63 4f 3d
       0.11625961 0.07691032 0.05755336 0.050632108
000230 19 19 60 3d 19 3a 59 3d 0a 75 38 3e b6 b7 6d 3e
       0.054711435 0.053033922 0.18013397 0.23214611
000240 19 21 24 bf 8b 35 b4 3d ab 77 08 3e 9b 7c 26 3d
       -0.64113003 0.08799275 0.133269 0.040646177
000250 1e 4e bf 3d 45 7b 84 3d b6 8a e5 3d a3 f6 af 3d
       0.093410715 0.06468824 0.11208098 0.08591964
000260 ab f1 20 3d e7 99 57 3d 42 d9 61 3c 48 2f 90 3d
       0.039292973 0.052637007 0.013784708 0.07040268
000270 c7 a9 0e 3d 5f eb 96 3c da c6 70 3d 43 ae 80 3d
       0.03482988 0.01842278 0.05878339 0.06283238
000280 92 80 62 3d d2 fe 08 3e 77 f3 2d 3d 11 8d d3 3d
       0.055298395 0.13378456 0.042468514 0.10329641
000290 90 aa a0 3c 22 d7 cc 3d 3e da 87 3d ed 4b 48 3d
       0.01961258 0.10001971 0.06633423 0.048900533
0002a0 49 83 2f 3d bb a3 3e 3d 11 6b 3a 3d 35 a2 1e 3e
       0.042849813 0.046542864 0.045512263 0.15491565
0002b0 89 5a 4b 3e 80 90 0c bf 86 52 6d 3c 4e 82 a8 3c
       0.19858755 -0.5490799 0.014485007 0.020569947
0002c0 4f a0 2e 3c a2 cd 8a 3c e4 ea 28 3c 42 1c 71 3c
       0.010658338 0.016943756 0.010309909 0.01471621
0002d0 8e 73 63 3c 98 87 c0 3b eb db f2 3b b8 cb 7a 3b
       0.013882531 0.005875539 0.00741147 0.0038268398
0002e0 8a da 42 3c 26 03 b9 3b de 34 9f ba 6e b9 ff 3b
       0.011892924 0.0056461273 -0.0012146493 0.0078040874
0002f0 5f 31 10 3c 46 97 97 3b 70 ae bc 3c 96 0a 32 3c
       0.0088008335 0.0046261875 0.023032397 0.010866782
000300 d7 06 5e 3c 36 d3 14 3b c2 d8 84 3c bf a1 32 3c
       0.013551435 0.00227089 0.01621664 0.010902821
000310 2d 55 89 3b 3d 53 93 3b 08 e4 f1 3b 7f 31 ff 3b
       0.004191062 0.0044960068 0.00738192 0.007787883
000320 28 e4 cb 3c 05 10 ed 3c 06 fe a8 bd 4a 71 85 3c
       0.024889067 0.028938303 -0.08251576 0.016289372
000330 05 12 b7 bb 58 70 fb b8 2c 01 44 bb d7 d8 85 bb
       -0.005586865 -0.00011989538 -0.0029907925 -0.004084687
000340 79 79 88 3c 1d c9 2f bc fc 6e 19 3b c1 f2 6c bb
       0.016659485 -0.0107291015 0.00234121 -0.0036155435
000350 27 15 0b bc 3b 5d 1e 3c a3 24 c5 bb 21 d7 b5 bb
       -0.00848893 0.009665783 -0.0060163303 -0.005549327
000360 07 51 b7 3b c4 09 28 3c 8a 85 05 3c 8e 26 51 bc
       0.005594376 0.010256235 0.008149514 -0.01276554
000370 e1 cb 31 bc 3d 93 90 3b 7b 33 f7 3b a1 86 82 bc
       -0.010851831 0.0044120834 0.0075439787 -0.015933337
000380 90 50 a2 bb 7b 7e 29 3c fc 1f 51 bb c8 1c 42 3b
       -0.0049534515 0.010345097 -0.0031909933 0.0029619206
000390 80 95 62 3c a6 e7 b9 bb d0 ab dd 3b 17 c2 60 3f
       0.013829589 -0.0056733666 0.0067648664 0.8779616
0003a0 5b 74 3f 3c 06 bd 8a bb a4 a5 1a bb 59 59 6a bb
       0.011685456 -0.004233959 -0.0023597265 -0.0035758822
0003b0 4a 39 52 bb 8e 38 67 3c 59 9f 06 bc 8f 76 09 3b
       -0.0032077604 0.014112605 -0.008216702 0.0020975207
0003c0 a2 cd 22 bb 13 0b db bb c0 60 e9 3b 33 ca 85 bb
       -0.0024841805 -0.0066846698 0.007122129 -0.004082942
0003d0 2f 21 50 bb 6a d1 85 3b 4a ea 0e 3c e5 fb e7 3b
       -0.003175806 0.004083802 0.008722851 0.0070795887
0003e0 1b 60 26 bc bd ab 1c bc 1f 2b ae 3b 2f fb b9 3b
       -0.010154749 -0.00956243 0.005315199 0.0056756954
0003f0 92 df 3d bc 48 e7 75 bb d3 e2 0a 3c 61 87 9b b9
       -0.011588948 -0.0037521888 0.008476931 -0.0002966477

ann_model.0.bias f4 [20]
000000 56 c9 03 39 f6 d1 e5 38 7c 0d 37 37 db 99 60 b8
       0.00012568137 0.00010958679 1.091079e-05 -5.354905e-05
000010 69 aa 18 b8 34 7a 6f 37 59 68 79 38 fb 59 06 39
       -3.639833e-05 1.4273963e-05 5.9463408e-05 0.00012812756
000020 00 59 bb b4 0a 21 83 38 78 af 31 b7 f8 41 35 37
       -3.489622e-07 6.252721e-05 -1.0590877e-05 1.08038e-05
000030 51 fb db b8 42 79 8b b8 7e 8e c0 b6 a0 21 61 36
       -0.00010489545 -6.6506225e-05 -5.738634e-06 3.3547185e-06
000040 28 56 fe 38 96 7e 5e b7 ae 19 c0 37 6b e0 08 b9
       0.00012127712 -1.3261704e-05 2.2900142e-05 -0.00013053573

ann_model.2.weight f4 [2, 20]
000000 23 ef 45 bf f4 6a 15 3f d0 7a e7 be 72 f6 1c bf
       -0.7731802 0.5836632 -0.45210886 -0.61313546
000010 ec 87 14 bf 39 4d fe be d5 04 98 bd 33 99 1e 3f
       -0.580199 -0.4966829 -0.07422797 0.61952513
000020 e5 cb d8 3e 5b ee 0d 3f f4 8d 2e bf 3b b0 41 3f
       0.4234306 0.55441827 -0.68185353 0.7565953
000030 f2 80 1e 39 f6 e5 32 be b5 37 d4 be 09 85 06 3f
       0.0001511609 -0.17470536 -0.4144875 0.52546746
000040 40 c5 23 3f 01 e5 fe b6 10 a2 8b b4 ce 6d 38 bf
       0.63972855 -7.5964494e-06 -2.6008684e-07 -0.7204255
000050 24 ef 45 3f f9 6a 15 bf d3 7a e7 3e 7b f6 1c 3f
       0.77318025 -0.5836635 0.45210895 0.613136
000060 ee 87 14 3f 3e 4d fe 3e d4 04 98 3d 36 99 1e bf
       0.5801991 0.49668306 0.07422796 -0.6195253
000070 e6 cb d8 be 61 ee 0d bf f8 8d 2e 3f 40 b0 41 bf
       -0.42343062 -0.5544186 0.6818538 -0.7565956
000080 47 83 1e b9 03 e6 32 3e c3 37 d4 3e 09 85 06 bf
       -0.00015116959 0.17470555 0.41448793 -0.52546746
000090 4d c5 23 bf ba e5 fe 36 32 a2 8b 34 ce 6d 38 3f
       -0.6397293 7.5965336e-06 2.600878e-07 0.7204255

ann_model.2.bias f4 [2]
000000 80 8a 0c 37 76 dc 1a 38
       8.376897e-06 3.692178e-05
