dice_ml/utils/sample_trained_models/adult_cfvae.pth (torch_old, 2161 bytes, 4 tensors)

predict_net.0.weight f4 [10, 29]
000000 96 5b fc c0 37 56 11 3f 1e 75 9e 3e fb 3e 22 3f
       -7.88618 0.5677218 0.30948728 0.6337735
000010 5f 0b d5 3e 9a 20 4c 3e ee 4c 34 3c 1c d3 ab 3d
       0.41610238 0.19934312 0.01100467 0.08389875
000020 5b 31 3f 3f 1f 97 e4 3d 8d b6 d1 3e 33 22 3d 3f
       0.74684685 0.111616366 0.40959588 0.7388031
000030 3c 3a 33 be 38 7f 20 3e 28 d7 24 3e 46 95 ce 3e
       -0.17502683 0.1567353 0.160977 0.40348262
000040 b8 3c 72 3e f8 73 b9 3e 67 b9 4f 3f 7f a8 bf 3d
       0.23655975 0.3622129 0.81142277 0.0935831
000050 b7 a9 2d 3e bd 74 8f 3e 3a de 6f 3e a1 be 9c 3e
       0.16959272 0.28018752 0.23424616 0.30614188
000060 df 16 8c 3e bd 7f 83 3e 24 0b b4 3e 46 42 16 3f
       0.273612 0.25683394 0.3516475 0.58694875
000070 35 f6 bc 3e 0b 53 13 c0 b8 a4 7b 3e 7b f2 7c be
       0.3690659 -2.3019435 0.24574554 -0.24701874
000080 fa 5c 9e 3e 4a 49 7d bb 97 6f 22 3e e6 bb 55 3c
       0.3093031 -0.003864842 0.1586288 0.013045287
000090 27 43 23 be d6 15 9b 3e 6d c1 84 3e 82 95 16 3d
       -0.15943585 0.30290097 0.25928822 0.036763676
0000a0 27 64 e1 be c0 6e 8c 3e e7 80 23 3e c3 91 8e 3e
       -0.44021723 0.27428246 0.15967141 0.27845582
0000b0 16 52 50 3e 16 ad 13 3e c2 db dd bd 50 7b 23 3f
       0.20343813 0.14421496 -0.10832931 0.63860035
0000c0 40 30 70 3e 1d ab d3 bd 24 5a 2b 3d b8 5b 43 3e
       0.23455906 -0.10335372 0.04183401 0.19077957
0000d0 c1 23 8a 3e f5 3b 8c bd 82 10 b0 bb 24 44 86 bd
       0.26980403 -0.068473734 -0.0053730616 -0.065559655
0000e0 4d b4 d3 3d fe 79 06 3e 08 c5 d9 bf 54 a6 4f 3d
       0.10337124 0.13132474 -1.7013254 0.050695732
0000f0 c1 63 40 3e 79 a7 ff 3e 5e 14 a5 bd 95 02 a5 bd
       0.18788053 0.4993246 -0.08060525 -0.08057133
000100 cf f6 67 3e d3 86 e0 3d f4 5c 22 bf 17 32 e4 bd
       0.22652744 0.10963216 -0.63423085 -0.111423664
000110 f4 aa b2 3e 8b b9 0a 3f 30 b7 00 be 09 54 50 3c
       0.34896052 0.54189366 -0.1256988 0.012715348
000120 d2 ba 91 3d e0 11 b3 bd 79 f8 0f 3e ef 7f 15 3e
       0.07115711 -0.08743644 0.14059629 0.14599584
000130 b0 7d ff bd 7f de 24 3e 82 89 14 bd ff 4f 1b 3e
       -0.12475145 0.161005 -0.03626395 0.15167235
000140 39 18 8a 3e 60 cc 17 3e 29 dd d6 3d f5 76 4a bc
       0.26971605 0.14824057 0.10491402 -0.012357463
000150 54 26 1c 3d 35 31 53 bd cf 0f 3b 3d 26 6b e0 bf
       0.03812249 -0.0515606 0.045669373 -1.7532699
000160 ae 11 ae bd c6 0d 9f 3e 1e c0 da 3e b5 f1 3c 3e
       -0.08499466 0.31065196 0.427247 0.18451579
000170 a9 45 27 3c 20 ab c4 be 34 e2 91 3e 63 b0 45 3e
       0.010209479 -0.38411808 0.28492892 0.19305567
000180 bf e2 a6 3d 33 fe 8a 3e 57 d1 48 3f 5d b9 1e be
       0.08148717 0.27147064 0.7844443 -0.15500398
000190 d9 a7 1a 3d 54 fc 31 be 4f 68 2b 3e f5 30 ae bd
       0.03775773 -0.17381412 0.1673901 -0.085054316
0001a0 af ad e8 3e 9a ef 33 3f 3c 79 aa bc 0c 15 b1 3c
       0.4544501 0.7028748 -0.020809762 0.021616481
0001b0 0f 66 8c 3e f3 0d 10 bd 31 33 5e bd 41 c7 27 3d
       0.27421615 -0.035169553 -0.05424804 0.040961508
0001c0 69 31 a2 3e 72 ba 03 3e 71 13 bc 3e 32 ba c8 3d
       0.31678322 0.12864092 0.36733583 0.09801139
0001d0 a5 f3 c8 3f 38 84 e8 bd ba 0e 60 bd 67 06 0b bf
       1.5699354 -0.11353344 -0.054701544 -0.54306644
0001e0 4c 63 9d 3d d8 28 1d be 48 31 82 bd df 32 10 3d
       0.07684955 -0.15347612 -0.06357056 0.035204764
0001f0 5d b8 90 3e f5 19 5a be 2a d9 9d bd 5c 1d 2a be
       0.28265658 -0.21298964 -0.077074364 -0.16612762
000200 e2 30 91 bd dc 33 f1 bd 88 6f 98 bd d4 1a 6e bd
       -0.07089402 -0.117774695 -0.07443148 -0.058131054
000210 87 1e 9c 3e fa 1f c8 3e d8 05 ce 3d c9 a2 09 bd
       0.3049204 0.39086896 0.10059708 -0.03360251
000220 b2 1a b1 3d 30 c8 d1 3d ee 16 ac be ca 33 0d bd
       0.0864767 0.10243261 -0.33611244 -0.034473218
000230 d1 31 80 3e c5 fe 5e be ff 7e 74 be 66 f7 74 be
       0.25038007 -0.21776874 -0.2387657 -0.239225
000240 fe f9 a6 bd f1 5d 03 41 38 0e 4b bf e5 42 59 be
       -0.08153151 8.210435 -0.7931857 -0.21216924
000250 17 3e 13 bf 9a d2 be be 93 98 0a be 92 f6 a3 bd
       -0.57516617 -0.3727005 -0.13534765 -0.08006014
000260 38 97 89 bd 43 0d 4e bf ff ac 1c be f0 20 d0 be
       -0.06718296 -0.80488986 -0.15300368 -0.4065013
000270 72 62 39 bf 30 6f e4 3d 6d 12 3c be 56 e5 58 be
       -0.7241584 0.1115402 -0.18366404 -0.21181235
000280 07 49 ca be aa 5f 76 be ab 82 84 be 33 3b 45 bf
       -0.3950884 -0.2405993 -0.25880942 -0.77043456
000290 71 f1 13 be c6 45 36 be de 39 9f be 73 06 84 be
       -0.14447571 -0.17800054 -0.31098837 -0.2578617
0002a0 b4 0d ac be bb f6 97 be 3e dd f0 be a8 ff 12 bf
       -0.33604205 -0.29680428 -0.47043794 -0.5742135
0002b0 a3 6e e5 be fe 70 8e be 15 ba 49 bf 67 b7 af bd
       -0.44810972 -0.2782058 -0.78799564 -0.08579903
0002c0 43 91 2f 3e b9 3c cc bd 8a 92 74 3e 95 02 1b 3d
       0.17145257 -0.099725194 0.23884025 0.03784426
0002d0 42 57 07 be 6a 5a 0e bd 4e 6a d6 3d fd 8c 40 3d
       -0.1321688 -0.034754194 0.10469495 0.047009457
0002e0 50 2c 69 be 34 b8 6b bc c0 bd 25 bd d5 08 b0 3d
       -0.2277081 -0.014387179 -0.040464163 0.085954346
0002f0 84 41 e7 bd e8 2a 26 bd c2 ca e4 3d 55 47 63 3e
       -0.11291793 -0.040568262 0.111714855 0.2219518
000300 74 16 79 3d 40 df a7 3d 31 bd bf bd f4 06 a7 3e
       0.06081243 0.081968784 -0.09362257 0.32622492
000310 b3 7b 04 be fa b7 cd 3c e0 fc 4b 3e 70 1d 1f be
       -0.12937813 0.02511214 0.19920683 -0.15538573
000320 fd 00 48 bd 2f 55 7e be 75 00 97 bd 7f 1f a3 3f
       -0.048829067 -0.24837182 -0.07373134 1.2743987
000330 a5 45 49 be 4c 73 2e be 63 2b 25 3e f1 e0 06 be
       -0.19655474 -0.1703617 0.16129832 -0.13171746
000340 87 9a 7e 3e 4f 28 e3 bd 18 b0 85 3d a6 2b 9f be
       0.24863635 -0.11091673 0.06527728 -0.3108799
000350 33 7f 98 be dc 14 cc 3e 52 c3 b7 be 72 4f 76 be
       -0.29784545 0.39859664 -0.35891205 -0.24053743
000360 70 69 5e 3e 62 3d f8 bd 4b e3 9a bd 36 9d c7 3d
       0.21719909 -0.12121083 -0.07562884 0.097467825
000370 a2 30 2d 3e 25 ab b6 3e 0e 84 a3 3d 23 07 f9 3e
       0.16913083 0.35677448 0.07984172 0.48638257
000380 30 f2 25 be b2 4d 4e bd 84 fe 27 3c 2d 0b ad bb
       -0.16205668 -0.050367065 0.010253552 -0.0052808733
000390 35 ea 3c bb 1f 19 5d be 0b 33 34 3e 2b 45 d2 bd
       -0.0028826122 -0.21591614 0.17597596 -0.10267099
0003a0 76 ba 27 41 3f 69 8f bf ef aa 50 be da 70 03 bf
       10.483023 -1.1203994 -0.20377706 -0.5134407
0003b0 17 c5 f0 be 56 49 f8 bd 60 c5 b6 3c d4 62 f5 be
       -0.47025368 -0.12123363 0.022310913 -0.47926962
0003c0 7c 9d 53 bf 7b 6e 84 3e 02 f1 2d bf 9e 2a 9c bf
       -0.8266218 0.2586554 -0.67945874 -1.2200506
0003d0 dd 13 34 3f 2b 60 99 3a eb 50 9d 3e ea 8e 89 bf
       0.7034281 0.0011701634 0.30725798 -1.0746739
0003e0 49 fc c0 3e 5d 41 a5 3e df 14 8e be 67 f9 d1 3d
       0.37692478 0.3227643 -0.27750298 0.10252648
0003f0 34 3f 55 3e 0e 40 db be 8f b8 c3 be 30 e0 b4 bd
       0.20824891 -0.42822307 -0.38226745 -0.08831823

predict_net.0.bias f4 [10]
000000 34 ae 14 3f d6 7f 39 3e e7 b1 2c 3e e8 1d 3e ba
       0.5807831 0.18115172 0.1686474 -0.0007252381
000010 b2 6e 81 bc 24 5e f0 be 8a 68 f4 3d 4c 82 6f 3d
       -0.015799854 -0.46946824 0.11934002 0.05847387
000020 85 f3 ef be 4a 5c 10 3b
       -0.46865478 0.0022027665

predict_net.1.weight f4 [2, 10]
000000 38 9b 4d bd bf ef 10 bd 71 6d 99 bc 39 f0 62 3d
       -0.050196856 -0.03538489 -0.018728944 0.055404875
000010 27 85 97 3c c6 41 3b bc e2 7f b0 3b 52 9f 29 3b
       0.01849611 -0.011429256 0.0053863386 0.0025882316
000020 35 2c 0f 3f 48 28 66 bb 08 97 be bc b4 fc 19 3d
       0.5592683 -0.0035119224 -0.023265377 0.037594512
000030 c8 b2 b9 3c a1 f7 59 bd fc b6 66 bc 73 0d 87 bd
       0.022668257 -0.053214673 -0.014081713 -0.06594362
000040 ac f2 8a bb 4a a8 13 3b 79 aa 23 bf 74 ac 52 3b
       -0.0042403545 0.0022530728 -0.63931996 0.0032146247

predict_net.1.bias f4 [2]
000000 5c 58 96 3d ac f9 aa bd
       0.07341072 -0.083484024
