dice_ml/utils/sample_trained_models/adult-margin-0.369-validity_reg-73.0-epoch-25-ae-gen.pth (torch_old, 35077 bytes, 78 tensors)

encoder_mean.0.weight f4 [20, 30]
0	0xbe196d8c	-0.14983195
1	0xbe335b55	-0.17515309
2	0xbaa04198	-0.001222658
3	0xbc715cf1	-0.014731632
4	0x3cd3fed9	0.025878357
5	0xbce8d0f2	-0.028419945
6	0xbca8bc33	-0.020597553
7	0xbcd0af48	-0.025474206
8	0x3c81ce17	0.015845342
9	0x3c60be3c	0.01371723
10	0xbd40f7f4	-0.047111467
11	0xbd86bf62	-0.06579472
12	0x3b4f999e	0.0031677256
13	0x3d4cba1d	0.04998218
14	0xbc9a110a	-0.018806953
15	0xbe0bc7f5	-0.13650496
16	0xbc020e34	-0.007937957
17	0x3e231358	0.15925348
18	0x3c851f44	0.01625026
19	0x3c8d955f	0.01728314
20	0x3c5d0e40	0.013492167
21	0x3b10b45a	0.0022080154
22	0x3cdef728	0.027217463
23	0x3d2f792c	0.042840168
24	0xbca90c2c	-0.020635687
25	0xbd0c7850	-0.034294426
26	0x3b506296	0.0031797043
27	0xbc248268	-0.010040857
28	0x3c2f45b1	0.010697768
29	0x3d51e7c5	0.051246423
30	0x3f0d518e	0.5520257
31	0xbd0929e8	-0.03348723
32	0xbcade165	-0.02122564
33	0x3bff85a7	0.007797915
34	0xbc69e3c9	-0.0142755
35	0xbb651cb4	-0.0034959735
36	0xbbc05f70	-0.005870752
37	0x3d478b05	0.048716564
38	0x3d5811b4	0.052751258
39	0xbb731bbe	-0.0037095393
40	0x3ce5e020	0.028060973
41	0x3d1f2f1c	0.038863286
42	0x3cbfd615	0.023417512
43	0x3b52a1f4	0.0032139989
44	0x3d69cefd	0.057082165
45	0x3d845c46	0.06462912
46	0x3cecc656	0.028903168
47	0xbd6b4bf0	-0.057445467
48	0x3daf807a	0.08569427
49	0xbc1db36a	-0.009625295
50	0xba40c7f3	-0.00073540135
51	0x3cd19b32	0.025586698
52	0x3cac7319	0.021050977
53	0x3c3670d4	0.011135299
54	0x3c99f0db	0.018791607
55	0xbc551d97	-0.013007543
56	0xbd3608fe	-0.04444217
57	0xbd5a49a3	-0.05329288
58	0xbd23d2eb	-0.03999607
59	0x3dc0f26e	0.0942124
60	0x3f2d9d8c	0.6781852
61	0x3cf021b9	0.029312955
62	0x3d2ba631	0.04190654
63	0x3d43bf85	0.04779007
64	0x3d16642d	0.03671663
65	0x3d22844e	0.039676957
66	0x3c6d35ec	0.014478188
67	0xbba6d00d	-0.0050907196
68	0xbc70f638	-0.014707141
69	0xb9d80120	-0.0004119957
70	0x3c72057f	0.014771818
71	0x3d5197df	0.051170226
72	0x3cd78fb2	0.026313636
73	0x3c5caeef	0.013469442
74	0x3bdc35da	0.006720287
75	0x3b6b1d82	0.0035875742
76	0xbc3783b9	-0.011200839
77	0x3b44ee86	0.0030049398
78	0x3d04a665	0.03238525
79	0xbd58a71d	-0.052893747
80	0xbd55e835	-0.052223403
81	0xbd53c03d	-0.051697005
82	0xbd0c1c60	-0.034206748
83	0xbd37e314	-0.044894293
84	0xbd3d2fe2	-0.046188243
85	0xbdbb6ad8	-0.09151238
86	0xbdc4ca48	-0.096088946
87	0xbe080f73	-0.13287143
88	0xbdf23d6f	-0.11828124
89	0x3e5634f6	0.2091864
90	0xbd413c3d	-0.04717659
91	0x3d0731df	0.033006545
92	0xbd1a27c5	-0.037635583
93	0x3b457daa	0.0030134716
94	0xbc6e79f1	-0.01455544
95	0xbd7514b1	-0.059834186
96	0x3d057f10	0.03259188
97	0x3d48ff5f	0.049071666
98	0x3c780d6a	0.015139917
99	0xbd90ea9b	-0.070759974
100	0x3cd852b5	0.026406625
101	0x3d220c24	0.03956236
102	0x3c04cb19	0.008105063
103	0xbb89f6f5	-0.004210348
104	0xbd6c2b2c	-0.05765836
105	0x3bb4d01a	0.0055179717
106	0xbc78e11a	-0.015190387
107	0xbce03d54	-0.027372994
108	0xbd3dad46	-0.046307825
109	0x3ca08bb6	0.01959787
110	0x3d6e282c	0.05814378
111	0x3d89d22c	0.0672954
112	0x3d41ea81	0.04734278
113	0x3c92c761	0.017917337
114	0x3d02dc5d	0.031948436
115	0x3da50966	0.08058433
116	0xbc0c197c	-0.008550998
117	0x3d3db20c	0.046312377
118	0x3d3bbccf	0.04583436
119	0xbed7da73	-0.4215885
120	0x3f369fda	0.71337664
121	0xbdafb1f2	-0.08578862
122	0xbc789da1	-0.0151743
123	0xbd577e03	-0.05261041
124	0xbc36b9de	-0.011152713
125	0xbcdf8e8c	-0.027289651
126	0x3d0a0aaf	0.033701595
127	0x3cb54683	0.02212835
128	0x3cdfc233	0.027314281
129	0x3d2b0227	0.0417501
130	0x3cfca36a	0.03083964
131	0xbd6d0b82	-0.057872303
132	0x3ce09465	0.02741451
133	0x3c9f5e28	0.019454077
134	0xbd03ee01	-0.0322094
135	0xbd04bbaa	-0.032405533
136	0xbcd796fd	-0.026317114
137	0xbccb4f2b	-0.024818024
138	0xbc92ec3c	-0.017934911
139	0x3d659e21	0.056059007
140	0x3dcd0006	0.1000977
141	0x3d28c7ba	0.0412061
142	0x3d47f797	0.048820104
143	0x3d4bffd2	0.049804516
144	0x3d18264c	0.037145898
145	0x3cc49d11	0.024000676
146	0x3cc79a4e	0.02436557
147	0x3db2f7cc	0.0873867
148	0x3d9f766b	0.07786258
149	0x3c98d96d	0.018658364
150	0xbe010891	-0.12600924
151	0xbf30f895	-0.69129306
152	0xbb96793a	-0.004592088
153	0x3bc850f7	0.0061131674
154	0xbbe608ee	-0.0070201075
155	0xbccdf27e	-0.025140043
156	0x3c41cf81	0.011829258
157	0xbc459aed	-0.012060863
158	0xbce2c26e	-0.027680602
159	0x3d0656da	0.03279767
160	0x3c8e323b	0.017357936
161	0x3c8b8886	0.017032873
162	0x3d2ced1e	0.04221832
163	0x3ce4969f	0.027903853
164	0xbd4639f4	-0.048395112
165	0x3d50b15f	0.050950404
166	0x3c1be7ca	0.009515712
167	0x3d00f3f1	0.03148264
168	0x3e075103	0.13214497
169	0xbc79ba50	-0.015242174
170	0x3ca662f6	0.02031086
171	0xbc732ae9	-0.014841774
172	0xbd060225	-0.03271689
173	0xba2b1548	-0.00065263035
174	0xbcbcb962	-0.023037616
175	0xbcf45627	-0.029826237
176	0xbd1deea0	-0.03855765
177	0x3cca6247	0.024705065
178	0x3d20bf58	0.03924498
179	0x3e487a51	0.1957791
180	0x3f2f7365	0.68535453
181	0xbec6747b	-0.38760743
182	0xbc80e73c	-0.015735261
183	0x3cce5eff	0.025191782
184	0xbc87ea8c	-0.016591333
185	0xbc8e309b	-0.017357161
186	0x3d9d9387	0.07694154
187	0x3d6be989	0.057595763
188	0x3c53d917	0.012930176
189	0x3d6e9cfe	0.05825519
190	0x3dc285c2	0.094981685
191	0x3c96c9e1	0.01840681
192	0x3d469ebc	0.048491225
193	0x3d8dbd6c	0.06920895
194	0x3d1d8591	0.038457457
195	0x3cf6cedc	0.030127935
196	0x3d0d09f3	0.034433316
197	0x3cafc145	0.021454463
198	0xbd311343	-0.04323126
199	0x3c2674ec	0.010159712
200	0xbd6a0e0c	-0.057142302
201	0x3b5759af	0.0032859852
202	0xbc0f2a5e	-0.0087381285
203	0x3b08bbc1	0.0020863863
204	0xbc7451e6	-0.014912104
205	0x3d570fd6	0.052505337
206	0xbb85dc15	-0.0040850737
207	0x3da266fb	0.07929798
208	0x3ddb5da8	0.10711223
209	0x3ec6a2b8	0.3879602
210	0x3f35c5e5	0.7100509
211	0xbd931939	-0.07182545
212	0xbcfff355	-0.03124396
213	0xbca041aa	-0.019562561
214	0xbcc37a42	-0.023862008
215	0xbd2ac33d	-0.0416901
216	0x3d8342b9	0.06409211
217	0x3d9c3d12	0.07628836
218	0x3e11ce88	0.14238942
219	0x3da1f71d	0.07908461
220	0x3d7abb1d	0.0612136
221	0x3dba7808	0.091049254
222	0x3dc04bbf	0.093894474
223	0x3d97d212	0.074131146
224	0x3d82709b	0.06369134
225	0x3d1c380c	0.038139388
226	0x3d1edeb7	0.038786616
227	0x3d3167bc	0.04331182
228	0x3cc94ed1	0.024573715
229	0x3cc2ad1e	0.02376419
230	0x3d3d4c89	0.046215568
231	0x3d0f9c7e	0.035061352
232	0x3cede9ff	0.029042242
233	0x3cdb5982	0.02677608
234	0x3d3558f7	0.044274297
235	0xbd6817d8	-0.056663364
236	0xbd6d5634	-0.057943538
237	0x3c66ceff	0.014087438
238	0x3c7082a4	0.014679585
239	0xbea1a925	-0.3157436
240	0x3f3b5b74	0.7318642
241	0x3d9091f5	0.07059089
242	0x3b5a6d5b	0.003332934
243	0xbc5b2fda	-0.013378108
244	0xbc1485ea	-0.009065131
245	0x3b388955	0.0028158028
246	0xbbe73755	-0.0070561566
247	0x3c754fc3	0.01497263
248	0x3d2241d9	0.03961358
249	0x3cf64c25	0.030065605
250	0xbc913cbb	-0.017729154
251	0xbb5f6a1f	-0.0034090353
252	0x3be9e8b8	0.007138338
253	0x3ca11cda	0.019667078
254	0xbc5dc982	-0.013536813
255	0xb9900e08	-0.00027476274

encoder_mean.0.bias f4 [20]
0	0xb51e9f86	-5.9091724e-07
1	0xb63617dd	-2.7134004e-06
2	0x35979c6f	1.1295905e-06
3	0xb62417ca	-2.4451751e-06
4	0x36f2d5ac	7.2370367e-06
5	0x36653b7c	3.4158284e-06
6	0xb6084ebe	-2.0311413e-06
7	0x3691e86b	4.3483938e-06
8	0xb5bb0260	-1.3933277e-06
9	0xb6ecb57c	-7.0544756e-06
10	0x3734056a	1.0730097e-05
11	0x3568d7fc	8.6741034e-07
12	0xb6640c46	-3.3981792e-06
13	0xb62831af	-2.506287e-06
14	0x3515bc7e	5.578112e-07
15	0x360e0cb9	2.1167054e-06
16	0xb6f04c4c	-7.1614395e-06
17	0xb6007f7c	-1.9147692e-06
18	0x377ea789	1.5178587e-05
19	0x35f755d8	1.8427918e-06

encoder_mean.1.weight f4 [20]
0	0x3e71df3c	0.23620313
1	0x3f07dada	0.53068316
2	0x3f0dcdc3	0.5539209
3	0x3ee1e197	0.44117424
4	0x3f1f5c9b	0.6225068
5	0x3eca6338	0.39528823
6	0x3f33dcb8	0.70258665
7	0x3f397e3e	0.72458255
8	0x3f010965	0.5040496
9	0x3ef23a48	0.4731009
10	0x3ee46bc1	0.4461346
11	0x3f16b9ce	0.58877265
12	0x3f3a5fcb	0.7280242
13	0x3f3e70b3	0.74390715
14	0x3e8dfbfa	0.27731305
15	0x3ef2349e	0.4730577
16	0x3f1dce5a	0.6164299
17	0x3f2435e6	0.6414474
18	0x3f333c2c	0.7001369
19	0x3f119592	0.5686885

encoder_mean.1.bias f4 [20]
0	0xbdbcbc5e	-0.09215616
1	0xbd2ad468	-0.041706473
2	0xbe8174db	-0.25284466
3	0xbe114ffa	-0.14190665
4	0x3ed82b5d	0.42220584
5	0xbe515f2a	-0.20446458
6	0x3c12ce11	0.008960263
7	0xbee5e279	-0.44899347
8	0xbe35df6e	-0.17761013
9	0xbeb03f9c	-0.3442353
10	0xbcb936d2	-0.022609148
11	0xbe5beb7a	-0.21476546
12	0x3dd6824b	0.1047407
13	0xbe023855	-0.12716801
14	0x3d0259f6	0.031824075
15	0xbed09f6b	-0.40746626
16	0xbefcaac3	-0.4934903
17	0xbf3445ad	-0.70418817
18	0x3de68f0e	0.11257754
19	0x3e7e4b20	0.24833345

encoder_mean.1.running_mean f4 [20]
0	0xba63ae0f	-0.00086852995
1	0x3e2beced	0.16789599
2	0x3e37a4b0	0.17933917
3	0xbea9edea	-0.33189327
4	0x3e97766b	0.29582533
5	0xbd908635	-0.07056848
6	0x3f10c4d5	0.5655034
7	0xbd61a3da	-0.0550879
8	0x3eddfff5	0.43359342
9	0xbe8cfe61	-0.27537826
10	0xbe4527c3	-0.19253449
11	0xbed35b6f	-0.41280696
12	0xbc87b36b	-0.016565045
13	0x3e1e3ccc	0.1545288
14	0x3e16c089	0.14721884
15	0xbe954f6a	-0.2916215
16	0x3a85d495	0.0010210449
17	0xbe68e6f0	-0.22744346
18	0x3ec503b3	0.38479385
19	0x3df9b5cd	0.12192879

encoder_mean.1.running_var f4 [20]
0	0x3ce2c18d	0.027680183
1	0x3cb48333	0.022035217
2	0x3c8da791	0.017291816
3	0x3c8c4c58	0.017126247
4	0x3c93c33a	0.018037427
5	0x3c87cc1e	0.016576823
6	0x3cc7b588	0.024378553
7	0x3ce56806	0.028003704
8	0x3caa7394	0.020807065
9	0x3c79fcec	0.015258055
10	0x3caa920a	0.02082159
11	0x3d049ccc	0.032376096
12	0x3cde6aee	0.027150597
13	0x3c6c9334	0.014439393
14	0x3c6e6eab	0.0145527525
15	0x3c6ecc68	0.014575101
16	0x3c84631c	0.01616054
17	0x3c82d00c	0.015968345
18	0x3c5d8116	0.013519546
19	0x3ce03f26	0.027373862

encoder_mean.4.weight f4 [16, 20]
0	0x3ceaa13e	0.02864134
1	0xbde60dbc	-0.112330884
2	0xbe786602	-0.24257663
3	0x3d9d58fd	0.07682989
4	0xbd8530dd	-0.065034606
5	0xbcc10662	-0.023562614
6	0xbd8b75b9	-0.06809563
7	0xbd2a82e2	-0.041628726
8	0xbe0efba7	-0.13963185
9	0x3d87805b	0.06616279
10	0x3e0b2ed4	0.13592082
11	0xbe0d4efa	-0.13799658
12	0xbe78c1d0	-0.24292684
13	0x3e688064	0.22705227
14	0xbd25b820	-0.0404588
15	0x3d86467a	0.06556411
16	0x3d01a741	0.031653646
17	0x3e4fe2dc	0.20301384
18	0xbe0758c8	-0.13217461
19	0xbd862281	-0.0654955
20	0xbd74b870	-0.059746206
21	0xbdddb68e	-0.10825835
22	0xbdbea37e	-0.093085274
23	0x3e67968a	0.2261602
24	0xbc73eea7	-0.014888442
25	0xbe043d4d	-0.1291401
26	0xbd9770d2	-0.07394566
27	0x3dd9b006	0.10629277
28	0xbde96dc0	-0.11397886
29	0xbc492614	-0.012277145
30	0xbd0e1232	-0.03468532
31	0x3e74140c	0.23835772
32	0x3e20f091	0.15716769
33	0xbcf9b60b	-0.030482313
34	0xbd162acb	-0.036661904
35	0xbc148be9	-0.00906656
36	0xbdcceae3	-0.100057386
37	0x3cb90273	0.022584176
38	0x3baca67d	0.0052688704
39	0xbbfed690	-0.0077770427
40	0x3da2d006	0.079498336
41	0xbd0ac06f	-0.033874925
42	0x3d6d10ba	0.05787728
43	0x3d8578ff	0.06517219
44	0xbdb87327	-0.090063386
45	0x3c824b2e	0.01590499
46	0xbe018adf	-0.12650631
47	0xbd05d072	-0.032669492
48	0xbe0d6249	-0.13807024
49	0xbd9bd05a	-0.07608099
50	0x3e04684b	0.1293041
51	0xbd925fc8	-0.07147175
52	0xbe6a1b22	-0.22861913
53	0x3e593703	0.21212392
54	0xbd522ee2	-0.051314242
55	0x3e2d280c	0.16909808
56	0x3dff6cc2	0.12471916
57	0x3e2b9f1d	0.16759916
58	0xbe7e3580	-0.24825096
59	0xbde4db6b	-0.11174663
60	0xbd09dd99	-0.033658598
61	0xbd318ebe	-0.04334902
62	0xbe438c1b	-0.19096415
63	0xbc031b08	-0.00800205
64	0xbbe76946	-0.00706211
65	0x3d8cb421	0.06870294
66	0xbd0a6242	-0.033785112
67	0xbe7fef3b	-0.24993603
68	0xbdff353a	-0.12461324
69	0x3e7bc155	0.24585469
70	0xbc371167	-0.011173583
71	0xbda4e69d	-0.080517985
72	0xbd827300	-0.06369591
73	0xbe4e89ea	-0.20169798
74	0x38e9b790	0.00011144497
75	0xbe411d84	-0.18858916
76	0xbd120823	-0.03565229
77	0xbdf0f4aa	-0.11765416
78	0xbd2cee65	-0.04221954
79	0xbc41497a	-0.011797303
80	0xbdc8339a	-0.09775467
81	0x3df8cfa5	0.1214898
82	0x3e0e3015	0.1388553
83	0xbcbe2ae8	-0.023213819
84	0x3de5e74e	0.112257585
85	0x3d90d9ea	0.07072814
86	0x3c3754d6	0.01118966
87	0x3eadcd03	0.33945474
88	0x3e098e14	0.13433105
89	0x3ea774e2	0.32706362
90	0xbe0ad648	-0.13558304
91	0x3d1ef33e	0.038806193
92	0x3e2f5c16	0.17124972
93	0xbe26dc7f	-0.1629505
94	0x3da4ea0e	0.08052455
95	0xbd645376	-0.055743657
96	0xbd41e8f0	-0.047341287
97	0xbdd2bd7d	-0.10290048
98	0x3e202a87	0.15641223
99	0x3d80f8ca	0.06297453
100	0x3da252ac	0.07925925
101	0xbe10a3a8	-0.1412493
102	0xbdbc4d5a	-0.09194441
103	0x3bff728d	0.007795638
104	0xbd7f334d	-0.062304784
105	0x3d87b630	0.066265464
106	0xbdcd707c	-0.1003122
107	0xbd96532c	-0.073400825
108	0xbe0c9772	-0.13729647
109	0xbd2b6a6b	-0.041849535
110	0x3e46553f	0.19368456
111	0xbd411459	-0.047138546
112	0xbe217922	-0.15768865
113	0x3de7dbe2	0.11321236
114	0xbd23f0c5	-0.040024538
115	0x3dbb294d	0.09138737
116	0x3dd75512	0.10514273
117	0x3e4369c4	0.19083315
118	0xbe1e1467	-0.1543747
119	0xbd91502f	-0.07095372
120	0xbd476894	-0.048683718
121	0x3d1c8356	0.03821119
122	0x3e5e443e	0.2170572
123	0xbe8db286	-0.27675265
124	0xbde4e79c	-0.111769885
125	0x3dd208cb	0.102555834
126	0x3e2d34b3	0.16914634
127	0x3e220050	0.15820432
128	0x3e3c5a66	0.1839386
129	0x3e9c756a	0.3055833
130	0xbd6d518d	-0.0579391
131	0xbe280e65	-0.16411741
132	0xbdc6ce76	-0.09707348
133	0xbc8010d9	-0.015633034
134	0x3e031f22	0.12804845
135	0xbcbc465a	-0.022982765
136	0x3d28ee0b	0.04124264
137	0x3d19f519	0.03758726
138	0x3cff4ab0	0.031163543
139	0xbce53cec	-0.027983151
140	0xbd5dd974	-0.054162458
141	0xbdbab6d6	-0.091169044
142	0xbe865821	-0.26239112
143	0xbdc111de	-0.09427236
144	0xbd23eec5	-0.04002263
145	0x3de69233	0.11258354
146	0xbd5ac738	-0.053412646
147	0xbe88f00e	-0.26745647
148	0xbe3ab541	-0.18233205
149	0x3e120690	0.14260316
150	0xbccbab05	-0.024861822
151	0xbd9d01f6	-0.0766639
152	0xbe15da0f	-0.14633964
153	0x3d3b9dee	0.04580491
154	0xbd9c594a	-0.07634218
155	0xbad31dfc	-0.0016106959
156	0x3d315344	0.0432923
157	0x3e471da1	0.19444896
158	0xbda5b19e	-0.080905184
159	0xbd4fd80c	-0.050743148
160	0x3cb3103e	0.02185833
161	0xbe063cc4	-0.13109118
162	0x3d5c95a4	0.053853646
163	0xbb214135	-0.0024605517
164	0xbe1737e1	-0.1476741
165	0x3d31eb19	0.043437097
166	0xbe80a950	-0.25129175
167	0x3cc537bc	0.024074428
168	0x3d7353a8	0.059405953
169	0x3c39e26b	0.011345486
170	0x3d786c6c	0.060650274
171	0x3b470320	0.0030366853
172	0xbd1ead06	-0.038739227
173	0x3e36f27f	0.17865942
174	0xbce40d3c	-0.027838342
175	0x3d6ae44f	0.05734664
176	0x3e59a8fe	0.21255872
177	0x3e04b049	0.12957872
178	0xbdcad4cd	-0.0990387
179	0xbe10cd8e	-0.14140913
180	0x3b6f782c	0.0036540134
181	0xbdfcd2bb	-0.12344881
182	0x3dcd1742	0.10014202
183	0xbd315cba	-0.04330132
184	0xbe72e47f	-0.23719977
185	0x3e149e09	0.1451341
186	0xbe648d15	-0.22319444
187	0x3d9225a6	0.07136087
188	0x3dab1879	0.08354277
189	0x3df8245b	0.12116309
190	0xbd80b02d	-0.06283603
191	0xbdae732e	-0.085180625
192	0x3d8050bd	0.062653996
193	0x3ca945e5	0.020663211
194	0xbd2f80b7	-0.04284736
195	0x3d41a3c4	0.04727532
196	0x3e0677ed	0.13131686
197	0x3e83040c	0.25589025
198	0xbdafb3cd	-0.08579216
199	0xbe926407	-0.2859194
200	0x3d83f656	0.06443469
201	0xbe1da44b	-0.15394704
202	0x3c4353ea	0.011921862
203	0xbc73fb85	-0.01489151
204	0xbe800e59	-0.25010946
205	0x3e11d528	0.14241469
206	0xbec42f07	-0.3831713
207	0x3e658996	0.22415766
208	0xbd679aba	-0.056544043
209	0x3d3b6c90	0.04575783
210	0x3e2dd979	0.1697749
211	0x3d3c68be	0.045998327
212	0x3bd5b86f	0.0065222303
213	0xbe30ee4d	-0.17278405
214	0xbdc0f707	-0.09422117
215	0x3e37ce15	0.17949708
216	0x3e64b2cc	0.2233383
217	0x3e4aa378	0.19788921
218	0xbe2dc6b7	-0.16970335
219	0xbe5d843f	-0.21632479
220	0xbd42c177	-0.047547784
221	0xbdfa40ba	-0.12219377
222	0xbdbf4441	-0.0933919
223	0x3de6cbc9	0.11269338
224	0xbd7824ca	-0.06058196
225	0xbddea57e	-0.10871409
226	0xbe533310	-0.20624948
227	0x3e18deff	0.14928816
228	0xbdc9019c	-0.0981476
229	0x3d4448a2	0.04792083
230	0xbd5847a5	-0.0528027
231	0x3ea692c5	0.3253385
232	0x3dd8e0ad	0.105897285
233	0xbcbd9406	-0.023141872
234	0xbdfbb457	-0.122902565
235	0xbcaa099c	-0.020756535
236	0xbde33955	-0.110949196
237	0x3cac99f5	0.021069506
238	0xbe1f2a3f	-0.1554346
239	0x3cafbd62	0.02145261
240	0x3c61082e	0.01373486
241	0xbdf9d95e	-0.121996626
242	0x3d9b3eaf	0.07580315
243	0xbcad8866	-0.021183204
244	0xbe709acc	-0.2349655
245	0x3e1ac8ff	0.15115736
246	0xbe84735b	-0.2586926
247	0x3d09c3ed	0.033634115
248	0x3d01945a	0.03163562
249	0x3d6d0221	0.05786336
250	0xbc2ffdcf	-0.010741665
251	0xbc809740	-0.015697122
252	0xbb6e9f74	-0.003641096
253	0x3cab2de1	0.0208959
254	0xbd52f7b6	-0.051505767
255	0x3d9b8350	0.07593405

encoder_mean.4.bias f4 [16]
0	0x353c4f26	7.0150634e-07
1	0x34b864ae	3.4345925e-07
2	0xb657135f	-3.2048772e-06
3	0x36d4cf7f	6.342248e-06
4	0xb519cf79	-5.7298854e-07
5	0x35cfca50	1.5481583e-06
6	0x352cb42a	6.4337166e-07
7	0xb42e4214	-1.6229052e-07
8	0xb5e23a69	-1.6855312e-06
9	0x366907f2	3.472433e-06
10	0xb5682904	-8.648642e-07
11	0xb4b84c39	-3.432813e-07
12	0x36bcde98	5.62875e-06
13	0xb562efab	-8.4540324e-07
14	0xb626d9c9	-2.4862695e-06
15	0xb56eb213	-8.892104e-07

encoder_mean.5.weight f4 [16]
0	0x3f39f029	0.7263208
1	0x3f1162d4	0.56791425
2	0x3f4dae1a	0.8034378
3	0x3eee0593	0.46488628
4	0x3f22cb0b	0.6359107
5	0x3f4ae5f3	0.79257125
6	0x3f0f13a1	0.55889326
7	0x3f168326	0.58793867
8	0x3f1e9653	0.61948127
9	0x3f1d9fb6	0.61571825
10	0x3f331ea2	0.69968617
11	0x3f22ab34	0.63542485
12	0x3f29e9d7	0.66372436
13	0x3f1ef59e	0.6209353
14	0x3efed795	0.4977385
15	0x3f1c2dda	0.61007464

encoder_mean.5.bias f4 [16]
0	0x3dff0327	0.12451773
1	0xbe587916	-0.2113994
2	0xbdcefdc8	-0.10106999
3	0x3ce11e4e	0.02748027
4	0xbe850a65	-0.25984493
5	0xbcc1788d	-0.023617053
6	0xbec81a4a	-0.39082557
7	0x3e1e3f3e	0.15453812
8	0xbe265436	-0.16243061
9	0xbebead9a	-0.37241822
10	0xbec8bbe5	-0.39205852
11	0xbe39265b	-0.18081038
12	0xbec1745c	-0.37784088
13	0xbedeccf6	-0.43515748
14	0xbe298a70	-0.16556716
15	0x3d96876a	0.07350047

encoder_mean.5.running_mean f4 [16]
0	0xbe434cf6	-0.19072327
1	0x3b1f8566	0.0024340986
2	0xbe5d8a62	-0.2163482
3	0xbe4f5bc8	-0.20249856
4	0x3e8246db	0.25444683
5	0xbe31bdf4	-0.17357618
6	0x3d432e59	0.047651622
7	0xbe7b66b6	-0.245509
8	0xbe10a262	-0.14124444
9	0xbe7ce3be	-0.24696252
10	0xbe9e9d89	-0.30979565
11	0xbdc114bc	-0.09427783
12	0xbe91c32a	-0.2846921
13	0x3e9e5bc5	0.3092939
14	0xbe08dd60	-0.13365698
15	0xbe51830b	-0.20460145

encoder_mean.5.running_var f4 [16]
0	0x3e82d9d4	0.25556815
1	0x3dd51d8d	0.10406027
2	0x3e91bb93	0.2846342
3	0x3d668cd1	0.056286637
4	0x3ea7bc43	0.3276082
5	0x3e55b2f9	0.20869054
6	0x3db9e5a0	0.090770006
7	0x3e4f3e56	0.20238623
8	0x3e128802	0.14309695
9	0x3e0830e9	0.13299908
10	0x3e799a12	0.2437518
11	0x3e11f586	0.14253816
12	0x3e42dd51	0.19029738
13	0x3e93d7d4	0.288756
14	0x3dbba53d	0.09162376
15	0x3e08d2b3	0.13361625

encoder_mean.8.weight f4 [14, 16]
0	0xbe27571a	-0.1634182
1	0xbcfb43e2	-0.030672017
2	0x3e73403d	0.23754974
3	0xbb9e3170	-0.0048276708
4	0x3c0934ab	0.008374373
5	0xbd243330	-0.04008788
6	0xbe8dd6de	-0.27702993
7	0x3da64780	0.08119106
8	0x3d8c01c7	0.068362765
9	0x3e8492e6	0.25893325
10	0x3eb6f4b3	0.35733566
11	0x3d8f666a	0.07001956
12	0x3e938577	0.28812763
13	0xbd221d29	-0.03957859
14	0x3dbc8185	0.092043914
15	0x3d0d21d0	0.034456074
16	0xbe76172c	-0.24032277
17	0xbdd848ae	-0.105607376
18	0xbe9d7b2c	-0.30758035
19	0xbd49dfc3	-0.04928566
20	0x3e26ff67	0.16308366
21	0xbe964ee0	-0.29357052
22	0xbdcec241	-0.10095645
23	0xbddcfade	-0.107900366
24	0xbe11cc4f	-0.14238094
25	0x3d088eb0	0.033339202
26	0x3db243ad	0.087043144
27	0xbdaa508d	-0.08316145
28	0xbd18d066	-0.03730812
29	0x3d6d4aee	0.057932787
30	0xbc84d653	-0.016215479
31	0xbe471186	-0.19440278
32	0xbe43613b	-0.19080059
33	0xbe4dbcd3	-0.20091562
34	0xbd7753b5	-0.060382564
35	0xbe0c1ec2	-0.13683608
36	0x3e3b771a	0.18307152
37	0xbe3daa22	-0.18521932
38	0x3dec36c4	0.11533883
39	0xbe344ce0	-0.1760745
40	0xbd2281b1	-0.039674465
41	0x3b09a982	0.0021005576
42	0xbd07396d	-0.03301375
43	0x3de5a711	0.11213506
44	0xbd39b745	-0.045340795
45	0x3dbc8572	0.0920514
46	0xbda8407b	-0.08215424
47	0xbe5e408f	-0.21704315
48	0x3d694331	0.056948844
49	0xbd253573	-0.040334176
50	0xbc81a299	-0.015824603
51	0x3e105bc3	0.14097504
52	0xbe110a8d	-0.14164181
53	0x3cc82663	0.024432367
54	0xbdd7e3ad	-0.105414726
55	0x3dcf7fdf	0.10131811
56	0xbda25e87	-0.07928186
57	0xbea72d0e	-0.32651561
58	0xbeab41b2	-0.3344856
59	0x3e04a7be	0.12954614
60	0xbeaaf600	-0.33390808
61	0xbe505121	-0.20343448
62	0x3e1a06d2	0.15041664
63	0x3e3c206e	0.18371746
64	0xbc2e7c00	-0.010649681
65	0xbc12c30a	-0.008957634
66	0x3d89798a	0.06712635
67	0xbe760902	-0.24026874
68	0x3e3ab589	0.18233313
69	0x3c3a2ce3	0.011363241
70	0x3e670784	0.2256146
71	0xbe2e822b	-0.17041843
72	0x3daba17d	0.08380411
73	0x3ce86c3c	0.028371923
74	0xbdafd1ef	-0.085849635
75	0x3aa2d44b	0.0012422887
76	0x3c16282d	0.009164852
77	0x3dfcd193	0.123446606
78	0xbd9e418f	-0.07727348
79	0xbc56f96e	-0.013120992
80	0xbe4f3d11	-0.20238139
81	0x3d01061d	0.03149997
82	0xbd73540f	-0.059406336
83	0xbe4dc4b1	-0.20094563
84	0x3d42925d	0.047502864
85	0xbdd79916	-0.10527246
86	0x3e6a73c2	0.2289572
87	0xbe54bccd	-0.20775147
88	0xba0d258a	-0.0005384317
89	0x3c813919	0.015774297
90	0xbde9336d	-0.11386762
91	0xbc38a38b	-0.01126946
92	0x3c46a6cc	0.012124728
93	0x3e3ded67	0.18547593
94	0xbe2285eb	-0.15871398
95	0xbe5fa7a8	-0.218413
96	0x3e759a1b	0.23984568
97	0xbd806378	-0.06268972
98	0xbd925274	-0.07144633
99	0xbd9b6226	-0.0758708
100	0xbdb2508e	-0.08706771
101	0xbdcd672f	-0.10029446
102	0xbe1c2b14	-0.15250808
103	0xbd01ad17	-0.031659212
104	0x3e159856	0.14608893
105	0x3e6b765c	0.2299437
106	0x3eabed59	0.3357952
107	0xbdc62e4a	-0.09676798
108	0x3e446bb6	0.19181713
109	0xbd4d2e67	-0.05009308
110	0xbd9ea887	-0.07746988
111	0xbcae4941	-0.021275165
112	0xbe025b28	-0.12730086
113	0xbe34a4c6	-0.17640981
114	0xbcf8d594	-0.03037528
115	0xbe961bfc	-0.29318225
116	0x3e00a44b	0.12562673
117	0x3d4ae0f4	0.04953094
118	0x3d97e5c4	0.07416871
119	0xbe7b48a3	-0.24539427
120	0xbc25e3d9	-0.010125124
121	0x3e14353c	0.14473432
122	0xbdee5b67	-0.11638527
123	0xbe53941d	-0.2066197
124	0x3d3f4549	0.046696935
125	0x3d57b13f	0.05265927
126	0xbe116302	-0.14197925
127	0xbe2d72c2	-0.16938308
128	0xbe46e84c	-0.19424552
129	0xbe40a229	-0.18811859
130	0xbe891f98	-0.26781917
131	0x3acf2abe	0.0015805585
132	0x3bd9abd5	0.0066427984
133	0xbe785fd2	-0.24255303
134	0x3e80af00	0.25133514
135	0xbdf38e70	-0.11892402
136	0xbe7acd87	-0.24492465
137	0x3c23016f	0.009949072
138	0xbdc25676	-0.09489147
139	0xbd9935e8	-0.07480985
140	0xbdbd8cb5	-0.09255353
141	0x3d938f86	0.07205109
142	0xbe51f203	-0.20502476
143	0xbe126de4	-0.14299732
144	0xbe103b1a	-0.14085045
145	0x3d2710e0	0.040787578
146	0xbd42d421	-0.047565583
147	0xbe6b1d33	-0.22960357
148	0x3da75d95	0.08172146
149	0xbd9fc84c	-0.078018755
150	0x3e590ba3	0.21195845
151	0xbe78d867	-0.24301301
152	0xbc05289a	-0.008127356
153	0x3de91308	0.11380583
154	0x3c6b68ce	0.014368249
155	0xbd3544ad	-0.044254947
156	0xbd19af96	-0.037520967
157	0x3e5f38cd	0.21799012
158	0xbdab8f2c	-0.08376917
159	0xbe5baf54	-0.21453601
160	0xbd86a529	-0.065744705
161	0x3e4766e4	0.19472843
162	0xbe08a945	-0.13345821
163	0xbda767e7	-0.08174115
164	0x3e23fdec	0.16014832
165	0xbd6fc921	-0.05854142
166	0xbdb342fe	-0.08753012
167	0xbd8cf845	-0.06883291
168	0xbd09d938	-0.03365442
169	0x3de4b094	0.11166492
170	0x3d270fe4	0.04078664
171	0x3e782799	0.24233855
172	0x3cf55c48	0.02995123
173	0x3e769aaa	0.24082437
174	0x3e25e442	0.16200355
175	0xbd9a5afe	-0.07536887
176	0xbe05e22b	-0.13074557
177	0x3e360b55	0.1777776
178	0xbe8a0005	-0.2695314
179	0x3c57f83d	0.013181743
180	0xbdc741c7	-0.09729343
181	0xbe60f5e1	-0.21968795
182	0xbd17ed8f	-0.037091788
183	0x3b79b12c	0.0038099987
184	0xbe9e390f	-0.30902907
185	0xbe099a69	-0.13437809
186	0xbcd3dc54	-0.025861897
187	0x3e003485	0.12520035
188	0xbe39515f	-0.18097447
189	0xbe0bae6f	-0.1364076
190	0xbd96d44a	-0.0736471
191	0xbcc3fc16	-0.023923915
192	0x3d6f1131	0.058366004
193	0x3e3d760e	0.18502066
194	0xbd3cadd8	-0.046064228
195	0x3ce38ce2	0.02777714
196	0x3cc1902f	0.023628322
197	0x3e7c4a38	0.24637687
198	0xbd31f840	-0.04344964
199	0x3d83cc71	0.064354785
200	0x3d36c0e1	0.044617537
201	0x3ea0d6f8	0.31414008
202	0x3e886310	0.2663808
203	0x3dc0e665	0.09418944
204	0x3ea2beb9	0.31786135
205	0x3c3db1e5	0.011578058
206	0x3b8bc8ea	0.004265894
207	0x3e001fe7	0.1251217
208	0xbe0c4fea	-0.1370236
209	0x3daaf1ba	0.08346887
210	0xbe7be0fc	-0.24597543
211	0xbd4ab4c0	-0.049488783
212	0xbd12889f	-0.035774823
213	0xbe44d0bc	-0.19220251
214	0x3e2e4e3e	0.17022035
215	0xbd236495	-0.039890844
216	0xbe94bb34	-0.29049075
217	0xbe0e1104	-0.13873678
218	0xbc56a201	-0.013100148
219	0x3d42e0bc	0.047577605
220	0xbe6bee5a	-0.23040143
221	0x3d2050ba	0.039139487
222	0xbe026461	-0.12733604
223	0xbd146268	-0.03622666

encoder_mean.8.bias f4 [14]
0	0xb6364d98	-2.716528e-06
1	0xb6a0429f	-4.7761273e-06
2	0xb5132134	-5.4810084e-07
3	0xb7141f8b	-8.828832e-06
4	0xb25c2988	-1.28151285e-08
5	0x35db0440	1.6318008e-06
6	0xb638385b	-2.745094e-06
7	0xb40c0150	-1.3038994e-07
8	0x35e1416b	1.6782845e-06
9	0x33d2b160	9.8111514e-08
10	0x34bc0c78	3.50268e-07
11	0xb50616b8	-4.995195e-07
12	0xb598cea3	-1.1385022e-06
13	0xb3a37452	-7.6114375e-08

encoder_mean.9.weight f4 [14]
0	0x3f3881f8	0.72073317
1	0x3f1e2dbe	0.6178855
2	0x3f03d320	0.51494026
3	0x3f65786f	0.8963689
4	0x3efcaa81	0.49348834
5	0x3f0c0ade	0.5470408
6	0x3f23fcb0	0.64057446
7	0x3efa7468	0.48916936
8	0x3f26743a	0.650211
9	0x3f07151c	0.52766585
10	0x3f2671a5	0.6501716
11	0x3f20c21b	0.6279618
12	0x3f30c1bf	0.69045633
13	0x3f1dfd8b	0.61715

encoder_mean.9.bias f4 [14]
0	0x3e41b6ee	0.18917438
1	0xbe16be0c	-0.14720935
2	0xbdb65343	-0.089026
3	0x3e090c87	0.13383685
4	0xbd3d8a3a	-0.0462744
5	0xbe0c7bdd	-0.13719125
6	0x3d5c16c1	0.053732637
7	0xbe846725	-0.25859943
8	0xbdca0a06	-0.09865193
9	0xbe1097ec	-0.14120454
10	0xbd096a77	-0.0335488
11	0x3d02ae5a	0.031904556
12	0x3e312b5a	0.17301694
13	0x3d8e72a5	0.069554605

encoder_mean.9.running_mean f4 [14]
0	0x3daafcfd	0.08349035
1	0xbebe662a	-0.3718732
2	0xbe834a8b	-0.2564281
3	0x3a91d900	0.0011127293
4	0xbd3d8af2	-0.046275087
5	0xbe868938	-0.26276565
6	0x3cc2c566	0.023775768
7	0xbe74024c	-0.23829001
8	0xbebb7279	-0.36610773
9	0xbe5d17a2	-0.21591046
10	0xbc36c88c	-0.011156213
11	0xbe91779b	-0.28411564
12	0x3e824421	0.25442603
13	0xbe8ba0aa	-0.27271014

encoder_mean.9.running_var f4 [14]
0	0x3d57194f	0.05251437
1	0x3e18c5d0	0.1491921
2	0x3ddafbac	0.10692534
3	0x3d738a65	0.059458155
4	0x3d474bcb	0.048656266
5	0x3debeac3	0.115193866
6	0x3d7e59bd	0.0620973
7	0x3d801315	0.062536396
8	0x3e3709eb	0.17874877
9	0x3dcfd678	0.101483285
10	0x3e1ea1ce	0.15491411
11	0x3e1493d9	0.14509524
12	0x3d9ebcd3	0.07750859
13	0x3e0850e1	0.13312103

encoder_mean.12.weight f4 [12, 14]
0	0x3df6d06d	0.12051473
1	0xbe5de6a2	-0.2167001
2	0xbe1776d3	-0.14791422
3	0xbe761af1	-0.24033715
4	0xbd43a321	-0.047762994
5	0xbe0527b6	-0.1300343
6	0x3e755cea	0.23961225
7	0xbd1b082a	-0.037849583
8	0xbe8e32ad	-0.27773038
9	0xbdd6e308	-0.104925215
10	0xbd774204	-0.06036569
11	0xbe250f6c	-0.16119164
12	0x3e2eda6e	0.17075512
13	0xbe57a6df	-0.2105975
14	0xbd4919ad	-0.049096752
15	0x3d96e39e	0.07367633
16	0xbda75172	-0.08169831
17	0xbd2895f6	-0.04115864
18	0xbe662410	-0.22474694
19	0xbe34dfb6	-0.17663464
20	0xbe068293	-0.13135748
21	0xbe9e4d6a	-0.30918437
22	0x3e0459bf	0.1292486
23	0xbe5f1558	-0.21785486
24	0xbc888116	-0.016663115
25	0x3e4df323	0.2011228
26	0xbdb36595	-0.087596096
27	0x3e2fca54	0.17167026
28	0x3d8a9d29	0.06768257
29	0xbe674f85	-0.22588928
30	0xbe284a7f	-0.16434668
31	0xbe5158cd	-0.20444031
32	0xbdf2f1e2	-0.11862542
33	0xbe247433	-0.16059951
34	0x3e694d2c	0.22783345
35	0x3c266718	0.010156415
36	0xbe77d145	-0.24200924
37	0xbd82176c	-0.063521236
38	0xbe3f6c4c	-0.18693656
39	0xbe0c860a	-0.13723007
40	0x3e689a82	0.2271519
41	0xbe533082	-0.20623973
42	0xbe201cb7	-0.15635954
43	0x3dd7f12d	0.105440475
44	0x3daa0e74	0.08303538
45	0xbea678c0	-0.32514
46	0x3d08a4d1	0.033360306
47	0x3dbd7d1e	0.0925238
48	0xbe1609b2	-0.14652136
49	0x3e2216ad	0.15828963
50	0x3e3eea58	0.18644083
51	0x3e23040d	0.15919514
52	0xbe0fb011	-0.14032008
53	0xbc68588c	-0.0141812675
54	0xbdfbc289	-0.12292964
55	0x3dbde0b1	0.09271372
56	0xbe29e80b	-0.16592424
57	0x3e237d17	0.15965687
58	0x3dc38436	0.095467016
59	0xbe873c1a	-0.2641304
60	0xbeab08e7	-0.3340523
61	0x3d7e28ea	0.062050737
62	0xbe170fd1	-0.14752127
63	0xbd84063c	-0.064465016
64	0x3e35f668	0.17769778
65	0xbd9fb47b	-0.07798096
66	0xbe0af819	-0.13571204
67	0x3ddc7e08	0.10766226
68	0xbe0bc71d	-0.13650174
69	0x3cfb51b7	0.030678613
70	0xbdecc393	-0.1156074
71	0x3e71ec47	0.23625289
72	0x3dd8f7ab	0.10594114
73	0xbebafe73	-0.36522254
74	0x3d0a90c8	0.03382948
75	0x3d2a1ae3	0.041529547
76	0xbdd99352	-0.10623802
77	0x3df2df2c	0.11858973
78	0xbd2e722d	-0.042589355
79	0x3d8a4ce8	0.0675295
80	0xbdf3cbd3	-0.11904111
81	0x3e05445c	0.13014358
82	0xbdbecdfa	-0.09316631
83	0x3d8deaec	0.069295734
84	0x3e0065d7	0.12538849
85	0xbd08f6ed	-0.03343861
86	0x3dd54a6d	0.10414586
87	0xbe969c94	-0.29416335
88	0x3e44a214	0.19202453
89	0x3e1d4353	0.15357713
90	0x3d9e7a8b	0.07738217
91	0x3e2878f1	0.16452385
92	0x3d980fdf	0.07424902
93	0x3def6fdf	0.116912596
94	0x3e1ae294	0.15125495
95	0xbb567d70	-0.0032728575
96	0xbd895a46	-0.067066714
97	0x3db23ce8	0.08703023
98	0xbcfb6cd3	-0.03069154
99	0x3c6f6f72	0.014613973
100	0x3e1f69b1	0.15567662
101	0xbe55db55	-0.2088445
102	0x3e53e13f	0.20691393
103	0x3e2452dc	0.16047233
104	0xbd3a958c	-0.045552775
105	0x3e385cb4	0.18004113
106	0x3df96f04	0.12179378
107	0x3e21bda0	0.15794992
108	0x3dc9fbc9	0.09862477
109	0xbd2b15e4	-0.041768923
110	0x3c9e3900	0.01931429
111	0x3e0e128c	0.13874263
112	0xbdfe3676	-0.12412731
113	0x3dc71d05	0.09722332
114	0x3e161334	0.14655763
115	0xbeb4e839	-0.35333422
116	0x3d40d935	0.047082145
117	0x3e7f88ee	0.24954578
118	0xbdf2b10f	-0.118501775
119	0x3e02e150	0.12781262
120	0x3d5102ea	0.05102817
121	0x3dd28bfb	0.102806054
122	0x3e114f56	0.1419042
123	0x3dabf3c7	0.08396106
124	0xbd9ca834	-0.0764927
125	0xbd10b4a7	-0.035328534
126	0xbe4e9b79	-0.20176496
127	0x3e1b8520	0.15187502
128	0x3e1952c8	0.14972985
129	0xbe8c46cc	-0.27397764
130	0xbd9dca73	-0.0770463
131	0x3dc62212	0.09674467
132	0xbe3b5d8d	-0.18297406
133	0xbc31b294	-0.010845799
134	0x3dd2f85b	0.10301276
135	0xbd9fcd34	-0.07802811
136	0xbdc19859	-0.09452886
137	0x3d82f4fe	0.06394385
138	0xbe614806	-0.22000131
139	0x3d181c8b	0.037136596
140	0x3dd66b17	0.104696445
141	0xbe6ed353	-0.23322801
142	0xbe19b96e	-0.15012142
143	0xbe8a037f	-0.26955792
144	0xbccb0cc9	-0.02478637
145	0xbd856139	-0.065126844
146	0x3d361cf2	0.0444612
147	0x3ce50f46	0.027961385
148	0xbe3fd1bb	-0.1873235
149	0xbe55c75a	-0.20876828
150	0xbe02a6f1	-0.12758996
151	0xbe4f1683	-0.20223431
152	0x3e354fd7	0.17706238
153	0xbe7cdc6b	-0.24693458
154	0x3df7c0b0	0.12097299
155	0xbe3d9a3f	-0.18515871
156	0xbe8b1079	-0.27161005
157	0xbea240a0	-0.3168993
158	0xbce7b59e	-0.028284844
159	0xbe72a4ad	-0.23695631
160	0x3d4266e1	0.047461394
161	0xbe33d92d	-0.17563315
162	0xbe406cf4	-0.18791562
163	0xbe5ec884	-0.21756178
164	0x3d1a1bd8	0.03762421
165	0xbcf0d13a	-0.029396642
166	0xbb24e640	-0.0025161654
167	0xbddff102	-0.109346405

encoder_mean.12.bias f4 [12]
0	0x35b3b142	1.3388128e-06
1	0x34858950	2.4873088e-07
2	0x35ab7eae	1.2777361e-06
3	0x35370c53	6.8190747e-07
4	0x36a77ed9	4.991755e-06
5	0xb4b6df44	-3.406259e-07
6	0x34b5ecf5	3.3886286e-07
7	0x34dce42a	4.1144204e-07
8	0x356013e2	8.3475436e-07
9	0x362fb64a	2.6183138e-06
10	0xb48347ba	-2.445284e-07
11	0x35e6a349	1.7183858e-06

encoder_mean.13.weight f4 [12]
0	0x3f6cb742	0.9246713
1	0x3fa4c26f	1.2871836
2	0x3f8381a0	1.0273933
3	0x3f48f484	0.784981
4	0x3f6d985d	0.9281061
5	0x3f531b29	0.8246332
6	0x3f585d7a	0.84517634
7	0x3f53b8c5	0.8270381
8	0x3f536c38	0.82587004
9	0x3f6a8ce4	0.9162123
10	0x3f864dff	1.0492553
11	0x3f8a642a	1.0811818

encoder_mean.13.bias f4 [12]
0	0x3e8c5c4b	0.27414164
1	0x3daf815e	0.08569597
2	0x3e66e084	0.22546583
3	0x3e058e75	0.13042624
4	0x3e11f538	0.142537
5	0x3e643f48	0.22289765
6	0x3e016ebb	0.12639897
7	0x3e2f9b37	0.17149054
8	0x3e80c871	0.25152925
9	0x3e33e54f	0.17567943
10	0x3dfa66b2	0.12226619
11	0x3e791581	0.2432461

encoder_mean.13.running_mean f4 [12]
0	0xbe69d970	-0.22836852
1	0xbdaa9f8a	-0.08331211
2	0xbe687c46	-0.22703657
3	0xbe0a84c8	-0.13527215
4	0xbe667dee	-0.22508976
5	0xbe183e54	-0.14867526
6	0x3da18309	0.07886321
7	0x3da2e029	0.079529114
8	0xbd8ae610	-0.06782162
9	0xbe5cfed8	-0.2158159
10	0xbe9b4992	-0.30329567
11	0xbea3db2f	-0.3200316

encoder_mean.13.running_var f4 [12]
0	0x3e9807d5	0.29693475
1	0x3daa09a9	0.08302624
2	0x3ea33fce	0.31884617
3	0x3e45e806	0.19326791
4	0x3df3986b	0.11894306
5	0x3dd8be9b	0.1058323
6	0x3e26c6c4	0.1628676
7	0x3e4145b5	0.18874247
8	0x3e3b0064	0.18261868
9	0x3e30a4ab	0.17250316
10	0x3e62baf4	0.2214163
11	0x3e3a96f0	0.1822164

encoder_mean.16.weight f4 [10, 12]
0	0xbf1fc9f2	-0.6241752
1	0x3edf7e88	0.43651223
2	0xbf19924b	-0.5998885
3	0x3ec77b53	0.38961276
4	0x3f2c640b	0.67340153
5	0x3eb2970c	0.34880865
6	0x3e1a1359	0.15046443
7	0x3e220c0d	0.1582491
8	0x3e9fb098	0.31189418
9	0x3f1dfb40	0.617115
10	0xbf1fbf07	-0.6240086
11	0xbf14e1c3	-0.58156985
12	0xbe3f358c	-0.1867277
13	0x3f2be0e5	0.67140037
14	0xbe57027f	-0.20997046
15	0xbe468134	-0.19385225
16	0x3dfb8a27	0.1228221
17	0xbe9d622e	-0.30738968
18	0xbee7ac01	-0.45248416
19	0xbee2b49f	-0.44278428
20	0xbe9d5cf8	-0.30734992
21	0xbcf515cb	-0.029917618
22	0xbe668146	-0.22510251
23	0x3e06bcf1	0.13158013
24	0x3db7db25	0.089773454
25	0xbe1aa354	-0.15101367
26	0x3d9eb025	0.07748441
27	0x3d4fc9c7	0.05072954
28	0xbcc0155e	-0.023447689
29	0x3d60376b	0.05474035
30	0x3d8d9940	0.06913996
31	0x3d4682d7	0.048464622
32	0x3d4a90b3	0.049454402
33	0x3c3b1a97	0.011419914
34	0x3db91c3f	0.09038591
35	0xbd9f4699	-0.07777137
36	0x3e311b17	0.1729549
37	0xbf4ac9f2	-0.79214394
38	0x3e2b3458	0.16719186
39	0x3e4cadc7	0.19988166
40	0xbe4e5018	-0.20147741
41	0x3dc5c216	0.096561596
42	0x3ebb42a7	0.3657429
43	0x3e937f2e	0.28807968
44	0x3e6b7583	0.22994046
45	0x3d2c6e0a	0.04209713
46	0x3e6da18a	0.23206154
47	0xbd8569d0	-0.06514323
48	0x3c474705	0.0121629285
49	0x3e1b3029	0.1515509
50	0xbd77acf0	-0.06046766
51	0xbc5a6efb	-0.013332124
52	0x3d254794	0.040351465
53	0xbd81b518	-0.06333369
54	0xbd521010	-0.05128485
55	0xbd07aec0	-0.03312564
56	0xbca4874c	-0.020084046
57	0x3ce137d2	0.027492438
58	0xbd23eca4	-0.0400206
59	0x3d72be20	0.05926335
60	0x3e82c3ef	0.2554011
61	0xbe13eb6a	-0.14445272
62	0x3e820c6d	0.25400105
63	0xbeb4e778	-0.35332847
64	0xbec0fd3f	-0.3769321
65	0xbe8d1c41	-0.2756062
66	0x3dd3c9d4	0.1034123
67	0xbe0a8235	-0.13526233
68	0xbe90835a	-0.28225213
69	0xbe857666	-0.26066893
70	0x3ea0cba3	0.31405362
71	0x3f09e6ed	0.5386799
72	0xbd538a23	-0.05164541
73	0x3dd995d8	0.106242836
74	0xbc9a8dfb	-0.01886653
75	0xbd7c4e25	-0.061597962
76	0xbb8e9338	-0.004351046
77	0x3d5696a0	0.05238974
78	0xbdf5d859	-0.12004156
79	0xbd9a3fed	-0.07531724
80	0xbd08730b	-0.03331284
81	0x3cb11a79	0.021619068
82	0xbd850c10	-0.06496441
83	0xbd52faf4	-0.05150886
84	0x3d1a90d6	0.037735783
85	0x3e033e45	0.12816723
86	0xbddd5d00	-0.10808754
87	0xbc948da6	-0.01813395
88	0xbb8e12b6	-0.0043357266
89	0x3c130ccd	0.00897522
90	0xbcf968a7	-0.03044541
91	0xbd833795	-0.06407086
92	0xbd4572c4	-0.048205152
93	0x3da14683	0.07874777
94	0xbd910e7a	-0.07082839
95	0x3d3e664c	0.046484277
96	0x3e86e797	0.26348564
97	0xbf234c3e	-0.6378821
98	0x3e941d20	0.2892847
99	0x3e1aa333	0.15101318
100	0xbe71f94d	-0.23630257
101	0xbe1a21ae	-0.1505191
102	0x3ef2f672	0.47453648
103	0x3ebfa003	0.37426767
104	0x3def2dc3	0.1167865
105	0xbde58f6c	-0.11208996
106	0x3eac8e05	0.33702102
107	0x3e51a6b2	0.20473745
108	0x3d55b1aa	0.052171387
109	0xbe984ee1	-0.2974768
110	0x3d845c6e	0.06462942
111	0x3e18181f	0.14852951
112	0x3c8b3520	0.016993105
113	0x3e864c25	0.2622997
114	0x3e59a045	0.21252544
115	0x3e10777c	0.1410808
116	0x3e6a5220	0.2288289
117	0x3e26c432	0.1628578
118	0x3ce5b10d	0.028038526
119	0xbe253391	-0.16132952

encoder_mean.16.bias f4 [10]
0	0xbd6b48d1	-0.05744249
1	0x3ef4bbd0	0.4779954
2	0xbe0d912e	-0.13824913
3	0xbe635173	-0.22199039
4	0xbc1042f7	-0.008805028
5	0x3c894d58	0.016760513
6	0x3dfa9baf	0.122367255
7	0x3c54afaf	0.012981339
8	0xbecce283	-0.40016565
9	0xbe92c5b8	-0.28666472

encoder_var.0.weight f4 [20, 30]
0	0xbcc048a2	-0.023472134
1	0xbcd095e3	-0.025462097
2	0x3cc31620	0.023814261
3	0x3c408ae0	0.01175186
4	0xbcf28e7e	-0.029608961
5	0x3c9cb752	0.019130383
6	0xb92c6102	-0.00016439336
7	0xba50905f	-0.0007956083
8	0x3a82f400	0.000999093
9	0x3a68ff15	0.0008888108
10	0x3bc87f0d	0.0061186613
11	0xbc043d5c	-0.00807127
12	0xbc84793a	-0.016171087
13	0x3c825c83	0.015913254
14	0x389d817c	7.510462e-05
15	0x3a874b43	0.0010322112
16	0xbc44d710	-0.0120141655
17	0x3b318cc0	0.002709195
18	0x3b0b0b6b	0.0021216522
19	0xbc348f5c	-0.011020508
20	0x3c311249	0.010807582
21	0x3c999fad	0.018752897
22	0x3b91bd32	0.0044476027
23	0xbc786a67	-0.015162087
24	0x3c43a459	0.011941039
25	0xbc05264a	-0.008126805
26	0x3c041ea8	0.00806395
27	0xbb0ffa98	-0.0021969434
28	0x3b156ced	0.002280052
29	0xbcc27488	-0.023737207
30	0x3a1e423f	0.0006037093
31	0x39622075	0.00021565131
32	0xb7dc9433	-2.6295054e-05
33	0xb9f42f1a	-0.000465744
34	0xb8f96d36	-0.00011893587
35	0x39155c0b	0.00014244036
36	0xb8dd59f2	-0.00010554855
37	0x39161f38	0.00014316745
38	0x3862637e	5.397526e-05
39	0x38be652f	9.078753e-05
40	0xb855ee09	-5.1004845e-05
41	0xb9831735	-0.00025003558
42	0x36891bbe	4.086148e-06
43	0x381de942	3.7648955e-05
44	0xb981c2ee	-0.0002475003
45	0x39176d8a	0.00014441289
46	0x3943b243	0.00018663057
47	0xb92b8db6	-0.00016360622
48	0xb99a8349	-0.00029470984
49	0xb9ac1f49	-0.00032829706
50	0xba013a53	-0.00049296505
51	0xb98d76e3	-0.00026982193
52	0x3967e310	0.00022114464
53	0x3959c93f	0.00020769703
54	0x392bb45a	0.00016375017
55	0x34d94280	4.0467785e-07
56	0xb72ffdfe	-1.048995e-05
57	0xb9812c6a	-0.00024637888
58	0x3982e69f	0.00024967358
59	0xb891db83	-6.955026e-05
60	0xbcfba6d2	-0.030719195
61	0xbc0dc147	-0.008652038
62	0xbb73d415	-0.0037205268
63	0xbb835788	-0.0040082373
64	0x3c196516	0.00936248
65	0xbb858f95	-0.004075954
66	0x3c3b80bc	0.011444267
67	0x3c65e6bd	0.014032063
68	0xbbb538c6	-0.0055304496
69	0xba9f668b	-0.0012161297
70	0xbbc93ff1	-0.0061416556
71	0x3be50350	0.0069889203
72	0xbc6451a0	-0.013935477
73	0xbc098cf0	-0.0083954185
74	0xbb2a09b0	-0.0025945716
75	0x3c64f5f5	0.013974656
76	0x39b016a6	0.0003358621
77	0xbbf9abd0	-0.0076193586
78	0xba87d4ec	-0.0010363138
79	0xbca99395	-0.020700255
80	0xbb7c35fa	-0.003848432
81	0x3bda0247	0.0066531035
82	0x3aa2ddd0	0.0012425724
83	0xb9e673c5	-0.00043955274
84	0x3c3ccd4f	0.011523559
85	0xb93ee5d2	-0.00018205427
86	0x3900bb26	0.0001227675
87	0x3a8e2b12	0.0010846576
88	0xba972d76	-0.0011533934
89	0xbd211152	-0.03932316
90	0x3d5edf08	0.054411918
91	0x3cead5a1	0.02866632
92	0xbb6209b5	-0.003449065
93	0xbc010fee	-0.007877333
94	0x3c68b0e2	0.014202328
95	0xbbe05031	-0.006845497
96	0xbc36a2ab	-0.0111471815
97	0x3b3d4793	0.0028881773
98	0xbc1d7eca	-0.009612748
99	0x3b0a9294	0.0021144496
100	0xbc1dfec9	-0.009643265
101	0x3cb8e41c	0.022569709
102	0x3b89936a	0.0041984813
103	0xbb169870	-0.0022979043
104	0x3c0d74f9	0.0086338455
105	0x3b55ae79	0.0032605215
106	0x3b569827	0.0032744498
107	0x380f9570	3.423303e-05
108	0xbc14c551	-0.009080247
109	0x3b480370	0.0030519627
110	0xbbfc4715	-0.0076989033
111	0xbc078c82	-0.008273246
112	0xb93ab9d0	-0.00017807563
113	0x3c0ca275	0.008583655
114	0x3bdc27cf	0.0067186127
115	0xbaa7ec9a	-0.0012811602
116	0x3aa472eb	0.0012546455
117	0xba3e4d46	-0.00072594394
118	0x3a3ea0ac	0.0007271867
119	0xbbe5fce7	-0.0070186737
120	0xbcd00167	-0.025391294
121	0xbb1141f6	-0.002216456
122	0xbb66abb1	-0.003519755
123	0xbb8d3221	-0.0043089543
124	0x3b0a3be5	0.0021092829
125	0x3ba9c2b8	0.005180683
126	0xb91e75e0	-0.00015111966
127	0x3c8060c5	0.015671143
128	0xbaa9aae7	-0.001294461
129	0xb9e0face	-0.00042911473
130	0x3c092c83	0.008372429
131	0xbbedea1f	-0.0072605754
132	0xbca1480d	-0.019687677
133	0xbc2f42d8	-0.010697089
134	0x3b347560	0.0027535781
135	0x3c0e3cad	0.008681458
136	0xb9677044	-0.00022071699
137	0xbbd39484	-0.0064569134
138	0xb9fda63e	-0.0004837978
139	0xbcb1820c	-0.021668456
140	0xbb946728	-0.0045288987
141	0x397174a3	0.00023027002
142	0xbb4df76a	-0.0031427988
143	0x3b35a8fb	0.0027719128
144	0x3c9b2b92	0.018941674
145	0x3bab7ef7	0.0052336412
146	0xbbab53f6	-0.005228515
147	0xba816d8c	-0.0009874566
148	0x3a825b20	0.000994537
149	0xbcf631f7	-0.030053122
150	0xbe0a55bb	-0.13509266
151	0xbd279116	-0.04090985
152	0x3af15f32	0.0018415211
153	0xbb739a4e	-0.003717083
154	0x3a951cdf	0.0011376402
155	0x3a9a06e3	0.001175132
156	0x39b79a30	0.0003501936
157	0x3bab6e18	0.00523163
158	0xbca832dd	-0.020532066
159	0x3b239920	0.0024963096
160	0x3b26d0a6	0.0025453954
161	0xbc8c56e0	-0.017131269
162	0x3ae0dea7	0.0017156199
163	0xbad99df0	-0.0016602855
164	0x3a2a1cb0	0.000648926
165	0x3ac2b32e	0.0014854425
166	0x3bdbee6c	0.0067117717
167	0x3baa24dd	0.0051923827
168	0xbbb3f305	-0.0054916167
169	0xbbbb1406	-0.005709174
170	0xbb76a086	-0.00376323
171	0xbc2d40e4	-0.010574553
172	0xb9cb0bf4	-0.00038728083
173	0x3c52b6f6	0.012861004
174	0x3b96dbd0	0.0046038404
175	0x3b43a4a5	0.0029852774
176	0xbb42f110	-0.0029745735
177	0xbb024095	-0.001987492
178	0x3b013e46	0.0019720956
179	0xbd65fc70	-0.056148946
180	0x3ceff031	0.029289337
181	0x3c88f126	0.016716551
182	0x3bdc458b	0.0067221574
183	0xbba0d993	-0.0049087494
184	0x3af1233e	0.0018397344
185	0xba3ca74c	-0.000719656
186	0xbae44bbd	-0.0017417591
187	0xbbc8645c	-0.0061154794
188	0x3b8288ef	0.003983609
189	0x3ba9ce78	0.0051820837
190	0x3a9b8879	0.0011866234
191	0x3bffe514	0.0078092907
192	0xbb858200	-0.004074335
193	0xba2206b8	-0.0006180811
194	0x3bb90550	0.0056463853
195	0xba654fb3	-0.0008747533
196	0x3b6c78a4	0.003608265
197	0xbb1152d3	-0.0022174611
198	0xbb5fc6db	-0.0034145627
199	0x3a623870	0.00086296257
200	0xbb96c82e	-0.0046015
201	0x3aa6c087	0.0012722173
202	0xbbc59c19	-0.006030571
203	0x3bbd7d63	0.0057827695
204	0x3a09cf12	0.0005256991
205	0x3aafec05	0.001342178
206	0xbab716b4	-0.0013968558
207	0x3c173af3	0.009230363
208	0xbc166ef9	-0.009181731
209	0x3b9db4f5	0.0048128315
210	0xbcd6a4de	-0.026201662
211	0xbb0b32b4	-0.0021239938
212	0xbc02924d	-0.007969451
213	0xbb033952	-0.002002318
214	0xb9f6c60a	-0.00047068327
215	0x3c025453	0.007954675
216	0xbc7ace9f	-0.015308051
217	0x3d113bc1	0.035457376
218	0xbbea9f73	-0.007160121
219	0xbc322dbe	-0.010875164
220	0xbc82b218	-0.015954062
221	0xbbbe82ac	-0.005813917
222	0x3ab60e5a	0.0013889775
223	0xbc29de0b	-0.010367881
224	0x3bc5f9de	0.0060417494
225	0x3bb4ac63	0.005513714
226	0x39003744	0.0001222762
227	0xbb26eccf	-0.0025470739
228	0x3b826f23	0.0039805337
229	0xbc5c8631	-0.013459728
230	0xbae43d5d	-0.0017413307
231	0xbbb2d193	-0.005457112
232	0x3b87a1a6	0.004139143
233	0x3a139c1a	0.0005630866
234	0x3c1f7ad7	0.009733877
235	0x3a38bf64	0.00070475624
236	0xba52c712	-0.0008040528
237	0x3bf7ffd9	0.007568341
238	0xbbf74f39	-0.007547286
239	0xbb605eaf	-0.0034236123
240	0xbc58acca	-0.01322479
241	0xbdc8164e	-0.09769879
242	0xbd24afac	-0.040206596
243	0x3c3f03d2	0.011658626
244	0xbaba278d	-0.0014202461
245	0x3c777c40	0.015105307
246	0x3c0c1602	0.008550169
247	0xbbd73eea	-0.0065687792
248	0xbbde0aa1	-0.0067761694
249	0xbbdf0244	-0.00680569
250	0xbba0b7be	-0.0049047163
251	0xbc5ecf19	-0.013599181
252	0x3c87d647	0.016581668
253	0x3bf9c258	0.0076220445
254	0xbc7228a4	-0.014780197
255	0x3c3882c2	0.011261644

encoder_var.0.bias f4 [20]
0	0x339d70b2	7.3313814e-08
1	0x32ed9d8c	2.7662075e-08
2	0xb423f824	-1.5270831e-07
3	0x34b9b1e4	3.4588368e-07
4	0xb4d3505f	-3.936029e-07
5	0xb39e7fa0	-7.380663e-08
6	0xb28ab062	-1.6145524e-08
7	0xb4a7531a	-3.1166638e-07
8	0xb34ee561	-4.817173e-08
9	0xb3bdc27b	-8.836374e-08
10	0xb3949b29	-6.9200105e-08
11	0x333fb2f0	4.4633396e-08
12	0x3237f888	1.0708511e-08
13	0x33d9412f	1.0116707e-07
14	0x33c26bba	9.053424e-08
15	0x33235abe	3.8033924e-08
16	0xb3a79fd7	-7.805618e-08
17	0xb4664a2f	-2.1447407e-07
18	0x32755c59	1.4281874e-08
19	0x34a44307	3.059615e-07

encoder_var.1.weight f4 [20]
0	0x3b7d08e6	0.003861004
1	0xb93e20ca	-0.00018132027
2	0x3ccc422d	0.024933899
3	0x3cfae974	0.030628897
4	0x3c37c2c0	0.011215866
5	0x3d3ad760	0.045615554
6	0x3c8aa3ce	0.016923811
7	0x3c81396a	0.015774447
8	0x3d1bb29a	0.038012125
9	0x3db3e7e0	0.08784461
10	0x3d28d22e	0.041216068
11	0x3b07be04	0.0020712623
12	0x3c8b8c29	0.017034607
13	0x3c72ba86	0.014814978
14	0x3c26a5c1	0.010171355
15	0x3cfc3332	0.03078613
16	0x3cc269bb	0.023732057
17	0x3c47bc69	0.012190917
18	0x3a30af0e	0.00067399524
19	0x3c9c13e1	0.019052448

encoder_var.1.bias f4 [20]
0	0x3b85f2ec	0.0040877964
1	0x39e17195	0.0004299997
2	0xbac4e956	-0.0015023153
3	0x3c152016	0.009101888
4	0xbc859845	-0.01630796
5	0x3d41d1e8	0.047319323
6	0x3c54c07e	0.012985347
7	0xbd41ad93	-0.047284674
8	0xbc409cf7	-0.011756173
9	0xbc75817b	-0.014984484
10	0x3cea5779	0.028606163
11	0x3a803485	0.0009781277
12	0x3c025530	0.007954881
13	0xbc8a2ee2	-0.016868059
14	0x3ba036a4	0.004889326
15	0x3cdca8a2	0.02693588
16	0xbc9f5e57	-0.019454164
17	0xbb79ff9a	-0.0038146735
18	0x3a5f4285	0.0008516687
19	0x3c7c4f96	0.015399834

encoder_var.1.running_mean f4 [20]
0	0xbcc381b5	-0.02386556
1	0xb88c1ade	-6.6807246e-05
2	0xbd3f6cf1	-0.046734754
3	0x3c74b4bd	0.0149356695
4	0xbd28eda2	-0.04124225
5	0xbdd3363f	-0.10313081
6	0x3cb40f58	0.021979973
7	0xbd515f3a	-0.051116206
8	0xbd4e738b	-0.05040316
9	0xbdc32189	-0.09527881
10	0xbd2a5781	-0.041587356
11	0x3ad25a4d	0.001604864
12	0x3cc44155	0.023956934
13	0xbd6a516d	-0.05720656
14	0x3caaf1e8	0.020867303
15	0xbd9206e5	-0.07130221
16	0xbd8d0bc1	-0.068870075
17	0xbcb634e2	-0.022242013
18	0x3a0be583	0.0005336629
19	0xbd90680b	-0.070510946

encoder_var.1.running_var f4 [20]
0	0x39e9fa3d	0.00044627665
1	0x363da18c	2.8257227e-06
2	0x3a08fb96	0.00052254775
3	0x39c61edf	0.00037788504
4	0x39cbfe4e	0.0003890865
5	0x3a61a9b7	0.00086083583
6	0x399da1bd	0.00030065878
7	0x3a5a9714	0.00083385524
8	0x3aba8b23	0.001423214
9	0x3a7c65d7	0.00096282124
10	0x3a444a24	0.00074878545
11	0x36a51a45	4.9204414e-06
12	0x396e37cc	0.00022718235
13	0x3a2993e0	0.00064688735
14	0x386de1ac	5.6715377e-05
15	0x3a61f669	0.0008619787
16	0x3a198b8a	0.000585728
17	0x39b49995	0.00034446703
18	0x36a043bb	4.7762564e-06
19	0x39c430a3	0.0003742027
