dice_ml/utils/sample_trained_models/adult-margin-0.165-validity_reg-42.0-epoch-25-base-gen.pth (torch_old, 34923 bytes, 78 tensors)

encoder_mean.0.weight f4 [20, 30]
000000 d7 5f 40 3f 76 d2 4e 3d b2 f4 83 3d 88 f4 4f ba
       0.7514624 0.05049368 0.06443156 -0.00079328613
000010 b5 9f 69 3d c1 65 49 3d 74 3d 78 bc 3a 7f 6e bc
       0.057037074 0.049169306 -0.01515137 -0.0145567
000020 5a da 81 3c e8 2e a8 bc a3 3e d0 bc 1c 2a af bc
       0.015851188 -0.02053018 -0.025420493 -0.021382384
000030 7a bd cf bc 0c 27 35 bc f6 9e 0c 3d b2 ef e3 3c
       -0.025358904 -0.011056673 0.034331284 0.027824257
000040 a4 6c 09 3d c3 56 03 3d 56 75 18 3c 96 dc 99 3c
       0.033550873 0.032065164 0.009305319 0.018781941
000050 c4 94 7f 3d 61 30 a6 3c 0b c9 86 3c 30 5f c9 3c
       0.062397733 0.02028674 0.016453287 0.024581522
000060 35 8c f4 3c b2 cc 5b 3c b0 50 4c bb 3f 47 33 3d
       0.029852012 0.013415502 -0.0031176023 0.043769117
000070 6d 99 32 3d aa 07 f3 3d 96 46 12 bf fa df 60 3e
       0.04360335 0.11866696 -0.57138956 0.2196044
000080 d5 f2 81 bc 6a ff 8b 3b 4b 16 ab bc 3d 58 3d bc
       -0.015862862 0.004272391 -0.020884654 -0.011556682
000090 f0 07 e4 bb 6e eb a1 3c e4 30 61 3c ea 82 9b 3c
       -0.006958954 0.019765582 0.013744567 0.018983323
0000a0 a0 3d 3a 3c 4a af c6 3b 4a b4 81 3c 5c 21 18 3c
       0.011367232 0.0060633766 0.015833039 0.009285297
0000b0 a2 f5 21 bc 14 63 b9 3b cb 38 c0 3c 9c f1 bd 3c
       -0.009885224 0.005657563 0.023464581 0.023186497
0000c0 83 08 35 3d 93 31 a6 3c 28 98 6b 3b ba 5a c9 3c
       0.04419757 0.02028731 0.0035948846 0.024579395
0000d0 b9 d4 4f 3c b3 8e f5 3b 1a 50 80 3c a2 ae d6 bc
       0.012684994 0.0074938177 0.015663195 -0.026206318
0000e0 6c 7f 49 3c a8 62 21 3c f9 63 65 3c 5a 5d f6 bd
       0.012298446 0.009850182 0.014000886 -0.12029524
0000f0 c6 91 f9 3e 8c 76 c9 be 9a f9 62 bc 7e 47 8b 3c
       0.4874403 -0.39348257 -0.013853455 0.017001864
000100 c8 59 6a bb a6 bd 4d 3c ec cb 61 bc b6 5b b9 ba
       -0.003575908 0.012557423 -0.013781529 -0.0014141712
000110 14 b6 b9 bb 26 7a fb bc a1 4f 6e 3c 12 af 8d 3c
       -0.0056674574 -0.030697893 0.014545352 0.017295394
000120 6c c1 37 bc c2 8d 9a 3c a0 fc 0c 38 0d 3e ae 3b
       -0.011215549 0.018866424 3.3613876e-05 0.0053174556
000130 5d 98 c3 3c eb 6e a3 3c ec 89 1c 3c a3 4b ce 3b
       0.023876363 0.01995035 0.0095543675 0.0062956377
000140 d5 55 c3 3c 85 78 1a 3c 87 14 b6 3b 61 00 b8 3c
       0.023844639 0.009428148 0.0055566463 0.022461118
000150 c4 83 b6 bb 6c 77 9c 3c 1b 04 9e ba 74 03 c8 3a
       -0.005569907 0.019099914 -0.0012055667 0.0015259818
000160 e4 3e f2 bb 85 ea 50 ba 58 90 de be d0 84 34 bf
       -0.007392751 -0.00079695164 -0.434695 -0.70515156
000170 17 f9 63 bc 39 b2 43 bc b0 62 2d bc ac a3 c8 bc
       -0.013914368 -0.011944347 -0.010582611 -0.024492107
000180 f5 f2 a9 3d da fd b5 3d a7 84 97 3d 96 f8 a2 3d
       0.082982935 0.08886309 0.07398348 0.0795757
000190 99 f0 d4 3d 14 1a 00 3e 26 a6 af 3d 89 11 af 3d
       0.10397453 0.12509948 0.08576612 0.085482664
0001a0 30 5e 3f 3c b4 dd cc b9 c1 b2 e2 3c 66 de 44 3c
       0.011680171 -0.00039075094 0.027673127 0.012015915
0001b0 8a 31 e5 bc a6 63 06 3d c4 4d 31 3d 7d d6 09 3d
       -0.027977724 0.032809876 0.043287054 0.033651818
0001c0 11 a1 1f 3d 11 eb 05 3d 5a 68 1a 3d 62 6b a0 3c
       0.038971964 0.03269488 0.037697174 0.019582454
0001d0 dc b7 86 3c b4 20 20 3d 61 4a 04 3d 14 68 02 3e
       0.016445093 0.039093688 0.032297496 0.12735015
0001e0 ac 8e 59 3f 6c 22 d4 bc 5c 4e 87 bd bb b9 19 bd
       0.84983325 -0.02589532 -0.06606743 -0.037530642
0001f0 28 4f 71 bd 82 cc 69 bd c8 0d a8 3d a2 4c ac 3d
       -0.05891338 -0.0570798 0.082057536 0.08413054
000200 5a 79 99 3d 6b 5a c2 3d 46 78 ba 3d cb f1 86 3d
       0.07493849 0.09489902 0.091049716 0.06589087
000210 a8 80 b4 3d 01 9c ab 3d 52 d3 db 3d e9 79 d8 3d
       0.08813602 0.08379365 0.107336655 0.105701275
000220 4b c7 e9 3d 2e 92 e9 3d 0b 11 c9 3d 1b cc 2c 3d
       0.11414965 0.11404835 0.09817704 0.042186838
000230 42 5e 76 3c 0b f3 0c 3d 53 c9 1d 3d 19 df 24 3d
       0.015037121 0.03441147 0.038522076 0.040251825
000240 4b 4b 10 3d 6e 57 55 bc ae 09 93 bb b5 c0 e2 bd
       0.035228055 -0.013021333 -0.004487238 -0.11071912
000250 00 9a ea bd 80 87 ea 3e 91 8c 89 be 2d 6b 4c bf
       -0.114551544 0.45806503 -0.26865056 -0.7985104
000260 50 38 91 3d c1 2f cf 3d 56 9e 7f 3d ce 48 a0 3d
       0.07090819 0.1011653 0.06240686 0.078263864
000270 16 62 70 3b cd eb bb 3c 31 91 43 3c b6 04 86 3c
       0.0036679558 0.022939587 0.011936472 0.016359668
000280 40 79 03 3b c2 63 a9 3a 50 ac 4d 3c 52 36 ec 3b
       0.0020061284 0.0012923407 0.0125532895 0.007208624
000290 e1 91 9f 3c 76 68 14 ba a2 29 01 bb 88 0f a8 ba
       0.01947874 -0.0005661318 -0.0019708653 -0.0012822011
0002a0 61 12 08 bd d2 69 5c bd 03 ab a8 bd a9 c7 19 bd
       -0.033220652 -0.053811856 -0.08235743 -0.037543926
0002b0 18 3d 76 bd a7 7a 10 bd b8 97 6c bd ed 7f 44 3d
       -0.060116857 -0.03527322 -0.057761878 0.047973562
0002c0 7b 7a 4c 3d d8 b2 54 3d 3b c4 52 3d 50 c0 0a 3e
       0.049921494 0.05192837 0.05145667 0.13549924
0002d0 95 d9 2f 3f f3 6d 19 3d 08 84 84 3d 59 90 b6 3d
       0.6869138 0.03745837 0.064704955 0.08914251
0002e0 24 7b 81 3d 00 34 6e 3d bc fb 8a 3d 6f f5 72 3d
       0.06322315 0.05815506 0.06786296 0.059316095
0002f0 40 f9 87 3d 5f 46 4e 3d 66 a1 7e 3d 6a 62 65 3d
       0.066393375 0.05036008 0.06216564 0.056002058
000300 ee 0e 58 3d cf 62 5d 3d 98 53 8d 3d 99 17 91 3d
       0.052748613 0.05404931 0.0690071 0.07084579
000310 6c 88 79 3d 4e 1d 87 3d 8f b4 a5 3d b8 f1 81 bc
       0.060921118 0.06597386 0.080910794 -0.01586233
000320 08 69 00 bd 31 18 a8 bc 08 a0 5f bc 3b 2e 90 bc
       -0.031350166 -0.020519348 -0.013648994 -0.01760017
000330 3c f4 5e bc 54 06 41 3d 78 73 ec 3c b5 59 e0 3d
       -0.013608035 0.047125176 0.028863654 0.1095461
000340 4f f3 d0 3d 1b e4 64 3d 84 12 2f 3f 24 8b d8 bd
       0.102026574 0.0558816 0.6838763 -0.10573414
000350 ab 0b 8f bc 84 3a 93 3c dc f9 91 bc e5 29 80 bb
       -0.017461618 0.017972238 -0.017819338 -0.003911244
000360 4b 30 12 3d ef 34 25 3d 24 b7 e6 3c f5 8a ff 3c
       0.035690587 0.040333685 0.0281635 0.03119419
000370 55 cc 46 3d 08 b4 63 3d 32 42 fa 3c 6e 08 19 3d
       0.04853471 0.055591613 0.030549143 0.037361555
000380 01 3e cf bc 3d 24 e5 bc 3c 7e 8a bc 32 aa b8 bc
       -0.02529812 -0.027971381 -0.016905896 -0.022542093
000390 11 68 45 bd c7 d4 fa 3c 9c ab 2f 3a 61 e4 24 3d
       -0.04819495 0.030619038 0.0006701292 0.04025686
0003a0 7a 40 50 3d 86 8f 02 3d 11 90 21 3d f8 fa f5 bb
       0.05084274 0.031875156 0.039444033 -0.0075067244
0003b0 c4 da c9 bc 0f 4d ff bc d0 bc 38 bd e6 0c a0 3d
       -0.024640448 -0.031164674 -0.04510194 0.0781496
0003c0 da b2 ba 3e 03 1e 39 bf 42 5c 11 3d 89 31 c9 3b
       0.36464578 -0.7231142 0.035488375 0.0061399383
0003d0 b0 b5 5b 3d f8 7b 94 3c 38 63 eb ba 44 bd b9 3c
       0.053640068 0.01812552 -0.0017958647 0.022673257
0003e0 9e a6 e2 3c e8 bc 10 3d a7 6c d0 3c 2a 98 04 3d
       0.02766734 0.035336405 0.025442434 0.032371677
0003f0 e0 ea cd 3c 2f 7b 60 bb 1a db 0f bd 6c 2b 2e bd
       0.025136411 -0.003425311 -0.03512106 -0.04252188

encoder_mean.0.bias f4 [20]
000000 48 ab 60 37 6d 09 e0 35 04 15 39 b5 0e 9b 94 b7
       1.339132e-05 1.6692044e-06 -6.894845e-07 -1.7715178e-05
000010 bb 6a 3c b8 eb 8b b9 36 cd af 21 b6 10 f1 9f 36
       -4.4922093e-05 5.5297182e-06 -2.40932e-06 4.7666326e-06
000020 c9 b9 c3 36 46 ff 14 b6 10 a0 42 b4 3c bc 48 b4
       5.833081e-06 -2.2202307e-06 -1.8125888e-07 -1.8694931e-07
000030 aa 33 b6 b4 83 57 2a b5 60 cb 44 b3 be e5 40 36
       -3.3937732e-07 -6.345728e-07 -4.5819775e-08 2.8743957e-06
000040 10 5e fd 31 84 3a b2 36 9e 01 06 37 3a ab f8 b2
       7.3739628e-09 5.3116255e-06 7.987399e-06 -2.8948865e-08

encoder_mean.1.weight f4 [20]
000000 6a 42 01 3f ca 06 96 3e d3 c6 8c 3e 24 9e 28 3f
       0.50491965 0.29302055 0.2749544 0.65866303
000010 6b 43 24 3f 0b fe 38 3f 3e b5 f3 3e 9e b1 05 3f
       0.6416537 0.7226264 0.47599214 0.5222415
000020 b6 fb d1 3e 99 f1 c7 3e 35 d8 9f 3e 85 a4 ca 3d
       0.41012353 0.39051512 0.3121964 0.09894661
000030 ae 1c 8d 3d 05 be 94 3e 74 02 83 3e 7d 2d c5 3e
       0.06890236 0.29051223 0.2558781 0.38511267
000040 9d 65 90 3d 30 5a c7 3e 7a 45 2d 3e 9a 53 6a 3d
       0.07050631 0.38935995 0.16921034 0.057208635

encoder_mean.1.bias f4 [20]
000000 f8 45 83 3e bf fc d4 bd cd e5 46 be 06 2e d2 be
       0.2563932 -0.1039977 -0.194236 -0.41050738
000010 fa 7e b1 3e 3f 9a d0 be 99 e4 88 3e df 34 83 3d
       0.34667188 -0.4074268 0.26736906 0.06406569
000020 3e d3 d7 be 8f 1f 11 3e 31 c2 67 be 89 c5 6b bd
       -0.42153352 0.14172195 -0.22632672 -0.05756143
000030 94 88 0e bd eb 0f 26 be 4c bd 1b be 56 21 89 3d
       -0.03479822 -0.1621701 -0.1520893 0.066958115
000040 7f f8 a4 bd 87 21 95 3d df 01 03 bd 4a 59 a6 bd
       -0.08055209 0.072817855 -0.031984206 -0.08122499

encoder_mean.1.running_mean f4 [20]
000000 03 60 ee 3e e4 2c fa bd 4e af 34 bb d2 ab e9 bd
       0.46557626 -0.122155935 -0.002757031 -0.11409725
000010 a3 33 2b 3f b6 72 0b be 1d e2 0e 3f 50 0b 3e 3e
       0.66875666 -0.13617977 0.5581377 0.18559003
000020 28 e3 54 be de 56 e9 3e c6 85 00 be 0b 93 ae 3d
       -0.20789778 0.45574087 -0.1255103 0.0852414
000030 0d de 1e 3d f9 04 3a be 53 8b d7 bc 2a a9 d5 3d
       0.038785983 -0.1816596 -0.026311552 0.10432656
000040 ee e8 1e bd 3f 5c bc 3e e2 fa 39 3e b5 b7 02 bd
       -0.038796358 0.36789128 0.1816211 -0.031913478

encoder_mean.1.running_var f4 [20]
000000 fe c3 97 3c 56 50 3a 3c d1 a7 46 3c 54 ea aa 3c
       0.018526074 0.011371693 0.0121249715 0.02086369
000010 98 23 17 3d 43 d2 97 3c aa 94 89 3c e0 2a 7c 3c
       0.03689918 0.018532878 0.016794521 0.015391082
000020 18 ac 5c 3c b4 bf a4 3c 0c b1 32 3c 2c dd cb 3b
       0.013468765 0.020110942 0.010906469 0.006221434
000030 ed 3d b4 3b fb f3 49 3c c4 4c 2d 3c de 85 80 3c
       0.005500546 0.012326236 0.010577384 0.015688833
000040 ea f5 50 3b ea d9 52 3c 20 87 0e 3c 58 ce 86 3c
       0.0031884857 0.012869338 0.0086992085 0.016455814

encoder_mean.4.weight f4 [16, 20]
000000 99 fd 53 bd 37 44 9c 3c 02 08 59 3e 04 7e 30 be
       -0.05175552 0.019075496 0.21194461 -0.17235571
000010 08 5a 22 bd a7 4b 57 bd 1b 47 a1 3d b8 5f fc bc
       -0.03963664 -0.052562382 0.078748904 -0.030807361
000020 82 80 a0 3e 58 18 b5 3c fc 79 89 bd 14 7b b2 3c
       0.31348044 0.022106335 -0.0671272 0.021787204
000030 67 01 63 3d 56 c0 93 3b 70 09 61 bd ac 48 01 3e
       0.05542126 0.004509012 -0.05494064 0.12625378
000040 8d ca d4 bb 42 d7 11 3d 05 2c 86 3c bd 0f 21 bd
       -0.0064938725 0.035605676 0.016378412 -0.03932165
000050 f3 89 04 be 29 cb c1 3d 3e 47 93 bc 4c 9d fd 3d
       -0.12943248 0.09462578 -0.017978307 0.123835176
000060 4f a5 1e be 8e a9 a1 3d 6b b5 17 be 02 8b e2 bd
       -0.15492748 0.07893668 -0.14815299 -0.1106167
000070 7c cf 0e 3d 67 0d 4d be 56 fa c3 3d 70 e7 11 bb
       0.03486584 -0.20024644 0.09569232 -0.0022263192
000080 8e 58 2a bd 2b c5 d6 3d f6 92 b6 3d fd b8 bb bd
       -0.04158836 0.104868256 0.08914749 -0.09166143
000090 10 b6 72 3d 5f c2 4c bd 6e d3 85 bd f1 77 8f 3d
       0.05925566 -0.049990054 -0.06534468 0.07005299
0000a0 be 00 c4 bc 48 04 af bd e0 ba 93 bc de b2 c7 3e
       -0.023926135 -0.085457385 -0.018033445 0.39003652
0000b0 8b ad f8 3d ed bf 4b be c5 80 c3 bd cb 41 1e 3e
       0.12142476 -0.19897433 -0.09546045 0.15454786
0000c0 4d 8d 6c 3e 90 05 c6 39 94 1b 72 bd 27 a5 98 3c
       0.23100777 0.00037769647 -0.05910833 0.018633438
0000d0 de a1 1b 3d 66 82 b9 bc 27 2d b7 bc 2b 60 e0 bd
       0.037996165 -0.022645187 -0.022360398 -0.109558426
0000e0 5a 2c 62 bb 6f 87 f6 bc c0 24 fd bb b3 be 6e bd
       -0.00345113 -0.030093877 -0.007725328 -0.058287334
0000f0 e7 1b e5 bd 49 7d 6e bd 34 04 17 bc 08 aa 27 be
       -0.111869626 -0.05822495 -0.009217311 -0.16373456
000100 cd e5 90 3c 3a 4b a8 3e 5a f7 9b bd e1 1c d6 bd
       0.017687703 0.32869893 -0.07615538 -0.10454727
000110 00 a8 f7 3c 4c 6e 98 bd 3d 53 9b bd d4 3a b7 3a
       0.030231476 -0.074429125 -0.07584236 0.0013979324
000120 1b 1f d0 3c 07 cf be bd 0f 17 a6 bd a1 7a 4d bd
       0.025405457 -0.09316831 -0.08109867 -0.050165776
000130 7a bd 16 3c 26 b4 ad bd 74 d4 1c bc 20 50 c8 3a
       0.009200448 -0.08481626 -0.009572137 0.0015282668
000140 2e 79 01 be 90 96 13 be 3d 13 78 bc 4f b2 b0 3d
       -0.12643883 -0.14412904 -0.0151413055 0.0862776
000150 ea 06 93 3d 40 7f 2f 3e d4 30 8a bd 48 64 af bb
       0.07179053 0.17138386 -0.067475945 -0.0053525306
000160 9f c8 10 3d 5b 07 1e 3d 5c c1 41 3e 0f 03 a5 bc
       0.035347577 0.038581233 0.18921417 -0.02014306
000170 81 03 0c 3c ee 2b 8e 3d c7 94 09 3e d3 1c 1f bd
       0.008545757 0.06941973 0.1343566 -0.03884585
000180 ae 43 12 bd fb 29 30 bd ef 19 86 bc f6 2d 5d bd
       -0.035709076 -0.043008786 -0.016369788 -0.05399891
000190 c6 e0 2d 3e f8 42 46 bd 2b c0 e6 3c 2d dc b9 bd
       0.16980276 -0.04840371 0.028167805 -0.09075198
0001a0 fb 00 4f 3d 02 1f b0 bc b1 08 11 3e bb 78 20 3e
       0.050538044 -0.02149916 0.14163472 0.15671055
0001b0 0b 0e 7b bd cc 94 a7 3d 55 a9 23 bb 56 70 8d 3d
       -0.06129269 0.081826776 -0.0024972756 0.06906192
0001c0 24 08 6b 3c 29 14 63 bd 5c dd e2 3b d1 e3 19 3e
       0.014345203 -0.055439148 0.0069233608 0.15028311
0001d0 cd 4f a1 bc 16 12 11 3e c1 c3 45 3c fd 5a 18 3c
       -0.019691372 0.14167055 0.012070597 0.009299037
0001e0 e2 93 fd 3d 4e 4e ee bd 36 e6 05 3e 20 aa 97 bd
       0.12381722 -0.11636029 0.130761 -0.07405496
0001f0 90 04 8a bd cb 5c 5b bc 0f 0f 3d 3d cc ef 08 3e
       -0.067391515 -0.013388823 0.04615694 0.13372725
000200 16 60 cb 3d ac cb 4c 3d 13 ce ee bc cc 3d 43 3d
       0.09930436 0.049998924 -0.029150998 0.047666356
000210 b4 4d d9 3c 49 15 75 bd 3f 3f 98 bb 02 82 ff 3d
       0.02652631 -0.059834752 -0.0046462114 0.12475969
000220 f3 e6 2c bc 72 12 27 3e 5a 74 8a 3d 03 f7 aa bb
       -0.010553109 0.1631563 0.067604735 -0.0052174344
000230 50 66 76 bb 13 d4 94 bd f9 0e e9 3d 7e d3 67 bd
       -0.0037597604 -0.072670124 0.11379809 -0.05659818
000240 b1 0f b5 3b cc ce 1e bc 79 56 57 3d db 83 46 3e
       0.005525552 -0.009692859 0.0525727 0.19386236
000250 dc 6f 40 3d 1e f1 99 3d b2 a4 44 bd fc d0 4b 3d
       0.046981677 0.075166926 -0.04800863 0.04975985
000260 cb f8 4a 3c be 6a 61 bd 06 67 9f bd ee de cc 3d
       0.012388418 -0.055033438 -0.07783322 0.10003458
000270 96 70 57 bc 8f 26 27 3e e2 1e 77 3d 22 4d 7c 3d
       -0.013149401 0.16323303 0.060332187 0.061596997
000280 e6 fc 1a 3e 4c 0e b2 bc f1 37 95 3d 32 60 e7 bd
       0.15135536 -0.021735333 0.072860606 -0.11297645
000290 6e 2b 9c 3d b7 17 0d bd 4f 19 4f 3e ee cb 3a 3e
       0.07625471 -0.034446444 0.20224498 0.18241856
0002a0 2f d3 e0 3d 08 48 ae 3d 44 8e c4 bc e4 c6 23 3c
       0.1097778 0.085098326 -0.023993619 0.00999615
0002b0 73 61 12 3c c5 0b d0 bc a8 bb 65 b9 5a 34 dd 3d
       0.0089343665 -0.025396237 -0.00021909049 0.10801001
0002c0 f8 2a 47 bc a2 fd f3 3d a0 d0 80 3d 2f 4a aa bb
       -0.012156241 0.11913611 0.06289792 -0.0051968317
0002d0 a7 15 20 3e b5 da 67 bd ac eb e4 3d ad 50 b0 bd
       0.1563326 -0.05660506 0.11177763 -0.08609138
0002e0 f5 7e 5a 3d 11 57 b5 bc 2d c0 d2 3d 51 8b ed 3d
       0.053343732 -0.022136243 0.10290561 0.11598838
0002f0 f2 62 91 3d 99 db 7c 3d 00 c0 ff bc 3e f1 31 3d
       0.070989504 0.061732862 -0.031219482 0.043442957
000300 21 e5 07 3d 1f 31 04 bd 7d 41 94 3c 04 20 0a 3e
       0.0331775 -0.032273408 0.018097633 0.13488775
000310 21 3e 35 3c 17 a3 02 3e 6a 2a 52 3d eb ea b4 bc
       0.011062176 0.12757526 0.05130998 -0.022084674
000320 ff c9 c4 3e fd 27 00 3d 70 19 6b 3d 25 4d 6d bd
       0.3843536 0.031288136 0.057397306 -0.0579349
000330 d8 67 a2 bd d4 62 45 bd 8f 98 91 bd 27 a3 ac bc
       -0.07929963 -0.048189953 -0.07109176 -0.02107389
000340 a6 f6 cf 3d 6a d1 b4 bc 1c 27 f2 bc 63 30 1c 3b
       0.10154466 -0.022072513 -0.029559664 0.0023832552
000350 7e 66 26 3a 67 8e 18 3c 6e 4e 11 bd e6 11 58 bd
       0.000634767 0.009311295 -0.035475187 -0.052751444
000360 13 7a 83 bc 5a a1 29 bc 46 38 bb 3c 6f f6 4b 3d
       -0.01604942 -0.010353411 0.022853982 0.049795564
000370 dc 31 ee bd 45 a8 9f 3d 2c 7b 91 bd 92 1f d7 bd
       -0.11630604 0.07795767 -0.07103571 -0.105040684
000380 28 9b 09 3f 46 f2 7d bd 31 13 53 bd 0c 24 2b be
       0.53752375 -0.061998628 -0.051531974 -0.1671297
000390 af 4e 3c 3e 67 b8 b1 bd e2 9d 39 bd 7a fb a7 bc
       0.1838939 -0.0867775 -0.045316584 -0.020505656
0003a0 5a f5 b1 bc 66 53 f2 3b e0 75 ff 3a 1f 16 aa bd
       -0.021723438 0.007395196 0.0019490086 -0.083050005
0003b0 9f 7e 30 3c d0 ec 04 be 67 2e 21 bd b0 91 1e 3d
       0.010772376 -0.12980962 -0.039350893 0.038713157
0003c0 c5 96 d9 bd c6 be fa bd 38 75 97 bd fb 06 bd 3d
       -0.1062446 -0.122434184 -0.073954046 0.09229847
0003d0 df 8e 46 bd 9a f0 6c 3e b9 60 59 bd c9 75 a8 bd
       -0.048476096 0.23138657 -0.053070758 -0.08225591
0003e0 fa 1b f5 bc ad d7 40 bd ce 0b 21 3e 29 34 5c bd
       -0.029920567 -0.047080684 0.1572716 -0.05376068
0003f0 2f 31 fa bb 8b ab db 3c 0b 7a cc 3d e9 c7 f5 bd
       -0.0076352577 0.026815196 0.09984215 -0.120010205

encoder_mean.4.bias f4 [16]
000000 d7 3f 57 b5 fe e4 57 35 80 dd 8d 36 0a 17 08 36
       -8.018664e-07 8.042697e-07 4.2279135e-06 2.027899e-06
000010 c4 db 0f 35 92 99 96 b6 3e 9c 5b 35 72 bd cc b4
       5.359145e-07 -4.4882263e-06 8.181122e-07 -3.81358e-07
000020 2c 9b 30 b5 c8 65 8f b6 f8 46 5f b5 5b c1 89 b6
       -6.5790914e-07 -4.273581e-06 -8.3177247e-07 -4.1054277e-06
000030 c0 32 9b 34 f2 ba db b4 62 0f 0d 36 bb ed fb 36
       2.8907925e-07 -4.092795e-07 2.1019591e-06 7.5080584e-06

encoder_mean.5.weight f4 [16]
000000 ce 3d ac 3e 2f d4 f3 3e 8e 98 b2 3e c1 81 e5 3e
       0.33640903 0.4762282 0.34882015 0.44825557
000010 4b 03 a5 3e e6 f1 f6 3e e5 e4 a8 3e 3a 3e ac 3e
       0.32229075 0.4823143 0.32987133 0.33641225
000020 7f 7d 06 3f d8 71 ed 3e df 7a a0 3e e1 93 0a 3f
       0.5253524 0.46375918 0.31343743 0.54131895
000030 b7 d1 cd 3e d7 32 c0 3e 97 67 d7 3e 64 a4 eb 3e
       0.40199062 0.37538788 0.4207122 0.46023858

encoder_mean.5.bias f4 [16]
000000 2e 37 35 be b2 53 85 be d1 63 fb bd 79 2b ae be
       -0.1769683 -0.26040417 -0.12274898 -0.34017542
000010 32 06 98 bd a4 dc a6 3e fb 2c 47 3e 54 b8 d4 3d
       -0.07423057 0.3259021 0.19450752 0.1038672
000020 59 bb b6 3e 3f a4 97 3e ff 3b 92 bd ee c9 ac be
       0.3568981 0.29617497 -0.071403496 -0.3374781
000030 62 d9 51 be 4f 19 58 bd d3 31 87 be e2 7e 84 be
       -0.20493081 -0.05275851 -0.264052 -0.25878054

encoder_mean.5.running_mean f4 [16]
000000 31 2e 2d 3d 99 c9 72 be e3 58 17 3d f6 c1 dd bd
       0.04228038 -0.23709716 0.036950003 -0.10828011
000010 84 8e 1c bc 0a b6 74 3e 4f 38 02 3e 2d fb 10 3e
       -0.009555463 0.23897567 0.12716793 0.14158316
000020 a6 12 89 3e c4 07 5d 3e 0f 40 96 3d 39 71 9a 3d
       0.2677204 0.21584994 0.07336437 0.07541127
000030 61 e7 01 be 14 2f 36 3e eb 22 43 be f1 90 8a be
       -0.1268592 0.17791396 -0.19056289 -0.27063707

encoder_mean.5.running_var f4 [16]
000000 a7 ff d2 3c ee b1 0d 3e e6 fb f3 3b d7 9f df 3c
       0.02575667 0.13837406 0.0074458 0.027297897
000010 87 0f bc 3c 66 a9 f0 3d 11 4f 56 3d 66 00 78 3d
       0.022956623 0.1175106 0.052321497 0.060547255
000020 a4 04 1b 3e 9f df ce 3d 83 2d be 3c b2 70 24 3d
       0.15138489 0.10101246 0.023215061 0.040146537
000030 b4 88 98 3d 60 88 a9 3d bb ca a5 3d 67 de 1d 3e
       0.07447949 0.082779646 0.080953084 0.15416871

encoder_mean.8.weight f4 [14, 16]
000000 41 27 7a 3d 58 1b f2 3c ce eb 01 3d b8 ab 31 bd
       0.06107259 0.029554054 0.03171902 -0.043376654
000010 cc d0 72 bc df 02 23 be ae 34 18 be f3 34 8e 3c
       -0.014820289 -0.15919064 -0.14863846 0.017359233
000020 2f e4 fc bd 21 37 23 be 98 2d 65 3c fc 37 b8 bd
       -0.1234821 -0.15938999 0.013987921 -0.08995053
000030 d7 da 9a bc c7 32 8d 3d f6 6e 25 3e 39 61 40 3e
       -0.01890318 0.06894451 0.1615561 0.18787088
000040 da 66 62 be 25 65 42 be 95 4d 25 bd 54 13 5b bc
       -0.22109547 -0.18983896 -0.04035719 -0.013371307
000050 a0 da 23 3d 0e 99 21 3d 8b 33 e1 3d cd a0 26 3d
       0.04000342 0.039452605 0.10996159 0.040680695
000060 d7 41 cf 3c 9b c9 1e 3d 33 b3 00 bc e8 b4 6a 3d
       0.02529995 0.038766485 -0.007855224 0.057301432
000070 32 22 0c bd c0 24 85 bd 33 a7 23 be f0 8c 2a be
       -0.0342123 -0.0650115 -0.1598175 -0.16655326
000080 64 36 9e 3d 63 2a 24 bd d0 02 26 bd dd d4 bf bc
       0.07725218 -0.040079486 -0.040530026 -0.02341693
000090 c8 44 2f bd 5a 58 6d 3c 7d 26 ad 3d 15 82 3c 3d
       -0.042790204 0.014486397 0.08454607 0.046022493
0000a0 14 aa 1c 3e 0e 55 d7 3c 4b b8 f4 3d d1 de b4 3d
       0.15299255 0.026285674 0.119492136 0.08831561
0000b0 40 09 58 3c b5 13 20 3e c7 dd 5b bd 2a e3 bd bc
       0.013185799 0.15632518 -0.0536783 -0.02317961
0000c0 1b b6 bd bc ce 53 0d bd 0c 95 3a 3b e1 87 1c 3d
       -0.023158124 -0.03450375 0.0028470187 0.03821552
0000d0 22 2d 7b bc aa 9c 62 bd bc 60 b4 bd f6 47 20 be
       -0.015330585 -0.055325188 -0.08807513 -0.15652451
0000e0 de 18 19 bd 51 c4 93 bd 5e d9 25 be 02 16 f2 bd
       -0.03737723 -0.07215179 -0.161962 -0.11820604
0000f0 9a 8b 20 bd c8 b5 dc bd 39 2f 8f 3d 1f 20 9e bb
       -0.039195634 -0.107768595 0.06991429 -0.0048256065
000100 c9 e1 08 3e 69 48 b0 3d 16 c5 87 3b ea 9e 53 3c
       0.1336738 0.08607561 0.0041433675 0.012916306
000110 9c e6 6d 3d 42 a7 30 3e 5a 4d 02 bc 68 4b 0a bd
       0.058081254 0.17251304 -0.007953012 -0.03376332
000120 3c 6e 23 bd b0 43 50 bc 04 9e 74 3d 8e a9 26 3e
       -0.03990005 -0.01271145 0.059721008 0.16275617
000130 fc 1e e0 3d de 44 8b bc a4 9b a2 3d 8f 37 b7 3d
       0.1094341 -0.017000612 0.07939842 0.08946144
000140 df 95 28 bc 46 46 1b 3e 6b 89 ad bd 56 8e d5 bd
       -0.010289638 0.15163526 -0.08473476 -0.10427539
000150 92 f0 43 be 5e 97 ca bc 53 ea 7b bd b5 a2 3c bd
       -0.19134739 -0.02473038 -0.061502766 -0.046053607
000160 ba 46 11 3c 00 5c 17 bd 7c b1 26 bd af ed b0 bd
       0.00886696 -0.036952972 -0.040696606 -0.086390845
000170 34 46 34 be 36 31 26 3d dd 45 15 3e 81 d0 f3 3d
       -0.17604905 0.040574275 0.14577432 0.11905003
000180 42 e7 79 bb b1 41 c0 bd d8 83 29 bc af 42 b7 bc
       -0.0038132225 -0.0938753 -0.010346375 -0.022370664
000190 89 10 71 bd 37 53 1c 3d 6b 4c 31 bd b6 9f 1b 3e
       -0.05885366 0.038165297 -0.04328577 0.15197644
0001a0 5d 35 e0 bc 2c b8 77 bc ae 48 12 3e bd 53 8b 3d
       -0.027369196 -0.015119594 0.14285538 0.06803081
0001b0 e0 46 b3 bc 60 3a 5e 3e 2a c8 aa bd 94 8a 84 bc
       -0.021884382 0.21701956 -0.083389595 -0.01617936
0001c0 de ae 5e 3d c7 89 81 3d 99 6c 00 3d 72 22 7c 3d
       0.054365985 0.06325107 0.031353567 0.061556287
0001d0 09 a9 78 3d e9 10 5b be aa ac 71 bd c7 7d 02 3e
       0.06070808 -0.2139317 -0.059002556 0.12743293
0001e0 91 4a 3a be 1b 40 4a be 79 f2 a7 3c 95 c4 40 bd
       -0.18192507 -0.19751017 0.020501362 -0.047062475
0001f0 df b4 98 3b cb 48 dd 3a 66 cc ca 3d af d2 85 3d
       0.0046602334 0.0016882656 0.09902267 0.06534325
000200 48 c2 38 3d 2b 7f 02 be 5e 9f a5 bd c8 db a9 bd
       0.045107156 -0.12743823 -0.080870375 -0.08293873
000210 7b 37 03 be da 8a 23 bd 72 20 8f bd ae 40 07 be
       -0.12814133 -0.03992734 -0.0698861 -0.13208267
000220 a2 2e 97 bc 25 10 11 bd 73 88 95 bd 7c 46 bd bd
       -0.018454853 -0.035415787 -0.07301416 -0.092419595
000230 c8 9f 3d be 06 7c b4 3c e2 2f 99 bd ad a2 8b bd
       -0.18517983 0.022031795 -0.07479836 -0.06818137
000240 83 04 06 bc 41 0b 8c 3d a0 53 1d 3e 1b 3a 31 3e
       -0.008179787 0.06838084 0.15363932 0.17307322
000250 1b cb d4 3d b5 57 35 bd ef 4d 14 bd a4 59 09 3c
       0.10390302 -0.044273097 -0.036207136 0.008383188
000260 fa e6 b3 bd ef d4 a6 bd 26 0d 94 3b 40 8c 32 bd
       -0.0878429 -0.081460826 0.004518169 -0.043590784
000270 7c 31 34 3e 3f e1 f0 bb c8 d7 c9 bc 46 4c 2d 3c
       0.17597002 -0.00735107 -0.024639025 0.010577267
000280 cd 4d ac 3d 72 52 1a 3e 39 c5 2c 3d 6e 00 47 3d
       0.08413277 0.15070513 0.042180274 0.048584394
000290 67 83 cb bc b3 89 3b be 05 02 03 be 94 10 73 3c
       -0.024842931 -0.18314247 -0.12793739 0.0148354955
0002a0 23 c7 18 be 6e 12 3d be d6 ee 64 3c 00 3d b3 bd
       -0.14919715 -0.18464062 0.013972959 -0.08751869
0002b0 4f ab 61 3c de 53 b9 bc b0 04 c5 3d 22 c6 e2 3d
       0.013773753 -0.022622999 0.09620035 0.11072947
0002c0 87 fe c4 3c 10 2c c9 3d 87 c6 17 3e 51 c5 56 3e
       0.02404715 0.098228574 0.14821826 0.20973708
0002d0 3c 24 ca 3d d6 35 61 be 44 d6 c2 bd 75 66 94 bd
       0.098701924 -0.21993193 -0.09513524 -0.07246105
0002e0 25 7f 46 be 22 43 67 be f9 75 0a bd 4d 86 18 be
       -0.1938444 -0.22584203 -0.033803914 -0.14894982
0002f0 43 56 bf 3d 6d 5f b6 3c 67 53 e7 3d 54 87 da 3d
       0.09342625 0.0222623 0.112952046 0.10670343
000300 f8 d1 b3 3d 7b b7 07 3e dc 31 24 3e 31 1b 0d 3e
       0.08780283 0.13253586 0.16034645 0.13779904
000310 d4 4d c1 bd 4c 1f c9 bd 56 88 de bc 54 7a 34 3d
       -0.09438673 -0.098204225 -0.02716462 0.044061974
000320 96 26 bf 3c 7e 50 ab 3b 81 bd fd 3d 5a 0a 91 3d
       0.023333829 0.0052281013 0.123896606 0.070820525
000330 01 1b ca 3d ae d6 4f 3e 86 64 b9 bb 9a b8 22 3c
       0.09868432 0.20296738 -0.0056577353 0.009931708
000340 18 e9 5e 3e c9 34 ac bd b6 34 02 3e 51 64 ac bd
       0.21768606 -0.084085055 0.1271542 -0.08417571
000350 4e 08 af bd f2 85 3f 3c 7e 12 44 3e 5b d1 4e 3d
       -0.08546506 0.01168965 0.19147679 0.050492626
000360 b2 81 dd 3c 9f 5b 8d 3d 7f cf a1 3d 47 83 67 3e
       0.027039383 0.06902241 0.07900905 0.22608672
000370 90 35 89 bd 0a 4d 63 3d 71 d9 15 be 9b e9 2d be
       -0.06699669 0.055493392 -0.14633729 -0.16983645

encoder_mean.8.bias f4 [14]
000000 2f 6c 31 b6 34 d5 09 36 6f 32 2e 33 cf 03 43 34
       -2.6438026e-06 2.0538691e-06 4.05584e-08 1.8162176e-07
000010 08 6f ae 35 67 89 77 36 04 a4 a5 33 f2 43 0a b6
       1.2996325e-06 3.6885847e-06 7.7132455e-08 -2.0603152e-06
000020 76 ad f7 b6 b0 99 af 35 7d 41 86 b6 96 8d 0c 37
       -7.381367e-06 1.3083245e-06 -4.001135e-06 8.377616e-06
000030 b4 cb 8f 35 77 83 02 36
       1.0713616e-06 1.9448032e-06

encoder_mean.9.weight f4 [14]
000000 fa 7c 00 3f 88 02 8e 3e e0 7f 92 3e a1 49 00 3f
       0.501907 0.27736306 0.28613186 0.5011235
000010 38 47 8e 3e 93 28 05 3f b5 ac 91 3e ad 2c f3 3e
       0.2778871 0.52015036 0.28452078 0.47495022
000020 53 01 0d 3f 81 55 c4 3e 5f 71 fd 3e c1 e7 35 3f
       0.55080146 0.38346484 0.49500558 0.71056753
000030 ee fa 9d 3e 24 94 02 3f
       0.30855507 0.51007295

encoder_mean.9.bias f4 [14]
000000 de c8 66 be 0c 09 eb 3d 35 57 19 3d bc c0 47 bd
       -0.22537562 0.11476335 0.037436683 -0.04876779
000010 27 38 7f 3d 7d e9 82 be 89 f5 a1 3d 35 4c 6e be
       0.06230941 -0.25568762 0.0790816 -0.23271258
000020 b9 72 71 be f1 43 00 be d9 15 60 be cb 8d 12 be
       -0.2357892 -0.12525918 -0.21883334 -0.14311902
000030 f9 ae f0 3d cd 74 43 3e
       0.117521234 0.19087525

encoder_mean.9.running_mean f4 [14]
000000 aa ed 24 be 51 66 c8 3c 4c 8b 0a 3e 09 db 0c be
       -0.16106287 0.02446285 0.135297 -0.1375543
000010 52 22 da 3d b8 4a 83 bd 36 71 5e 3d 29 11 29 be
       0.10651077 -0.06410736 0.054307185 -0.16510452
000020 64 cf fe bd 90 f7 1f bd 1c 7f 3e be 07 40 63 be
       -0.124419 -0.039054453 -0.18603176 -0.22192393
000030 1e d0 83 3d ee 12 e8 3d
       0.064361796 0.113317356

encoder_mean.9.running_var f4 [14]
000000 b1 a1 83 3d 39 5d 44 3c 63 37 70 3d d0 74 4c 3d
       0.064273246 0.011985117 0.05864657 0.04991609
000010 81 e8 90 3c 61 94 1d 3c e7 83 cc 3c 66 61 95 3d
       0.017688992 0.009617896 0.02496524 0.07293968
000020 57 77 b1 3c 36 fc bd 3c 4a 0f ba 3d 96 92 24 3e
       0.021663351 0.023191553 0.090849474 0.16071543
000030 d6 a4 8e 3c 00 15 99 3d
       0.017412584 0.074747086

encoder_mean.12.weight f4 [12, 14]
000000 5a b4 ee bc 86 aa 6c 3d b9 68 46 3d b8 38 61 be
       -0.029138733 0.05777981 0.048439715 -0.21994293
000010 7a a4 26 3e bc 19 ac bd b9 f9 eb 3d 24 8e 5a 3d
       0.1627368 -0.08403346 0.1152224 0.053358212
000020 2b ef 68 be 12 eb c4 bc e9 a5 d4 3c 9a d3 14 be
       -0.22747485 -0.024037872 0.025958018 -0.14533845
000030 89 7b a0 3d 2d 66 13 3c ae 29 5b bd 63 14 64 3d
       0.078360625 0.008996529 -0.053506546 0.055683505
000040 bb cb 01 3e bd 3c 3c be 3b 3b 02 3e 55 5a dd bd
       0.12675373 -0.18382545 0.12717907 -0.10808245
000050 8e bc af 3d c9 44 43 3d 24 2a 38 be a9 7c 91 bd
       0.08580886 0.04767302 -0.17984825 -0.07103855
000060 d4 a5 47 bd f3 5a fd bd 14 e4 b6 3d 78 ac 86 3c
       -0.04874213 -0.12370863 0.08930221 0.016439661
000070 19 80 3b 3e 79 fd e6 bd 13 d7 14 bd ba 92 8e bd
       0.18310584 -0.11278815 -0.036337923 -0.069615796
000080 b9 3d a3 3c 9a 5d 4c 3e 87 39 b7 bd ff 61 0c 3e
       0.019926893 0.19957581 -0.08946519 0.13709258
000090 12 ef 6d bd f9 02 c1 bb a6 a9 31 3e b0 47 41 3d
       -0.058089323 -0.005890247 0.17349872 0.047187507
0000a0 24 d1 ad 3c ef 33 c0 bd c2 3a f1 3c a7 e1 d6 bd
       0.02121789 -0.093849055 0.029446963 -0.104922585
0000b0 c3 ae 95 3d 63 f8 05 3e 6b 85 f7 3d 60 67 55 b9
       0.07308724 0.13083033 0.12085994 -0.00020351773
0000c0 30 57 d9 3d 3b d3 3a 3e 3b 0a c1 bd 35 00 51 3e
       0.10612333 0.1824464 -0.094257794 0.20410235
0000d0 fb 31 a2 3d 6e 89 f5 bd c9 a4 73 3e bd 92 02 be
       0.07919689 -0.11989103 0.2379333 -0.12751289
0000e0 a0 77 69 be 25 1d 0f 3c 66 4a 65 bd aa ff 0c be
       -0.2279954 0.008734976 -0.055979155 -0.13769403
0000f0 84 c7 70 bd 4e 66 48 be 27 1a cd bc 01 c9 15 be
       -0.058784023 -0.19570276 -0.025036884 -0.14627458
000100 b2 61 4d be dd bb d1 3b 5c a4 53 be ab 4a d9 bd
       -0.20056799 0.006400569 -0.20668167 -0.10609945
000110 78 6f 10 bd ed 98 7a 3c da 34 f4 3b 0a cf f4 bc
       -0.035262555 0.015295249 0.0074525895 -0.02988388
000120 96 cb a6 bd 4d 6d 80 3d 3e 16 52 bd 2d 89 8b 3e
       -0.081443 0.062708475 -0.051290743 0.27253094
000130 7c 07 ae bd 22 e8 e2 bd 7b 9b 3e 3e ed c1 65 be
       -0.08497521 -0.11079432 0.18613999 -0.22437258
000140 5a 52 66 bd df dc f3 3c 9b 4b 88 bd 52 94 25 bd
       -0.05623088 0.029768405 -0.066550456 -0.040424652
000150 97 77 27 be 54 48 1d bb 9d cf b6 bd 93 7f f6 bc
       -0.16354214 -0.002399941 -0.08926318 -0.030090129
000160 f1 32 c5 bd 9e de e0 bc 75 f1 9a bd 6b fe 3b be
       -0.09628857 -0.027449902 -0.075655855 -0.18358772
000170 b4 40 17 bd 7c 93 eb bd 48 34 32 be 88 2d fe 3e
       -0.03692694 -0.1150274 -0.17402756 0.49644113
000180 8a bd cd bd ad b2 93 3e eb 0e a2 bd 62 c3 80 3d
       -0.10045917 0.28847256 -0.079130016 0.06287266
000190 26 ce d8 3d 67 d4 5b be d9 79 93 3d 98 02 20 be
       0.10586195 -0.21467744 0.07200975 -0.1562599
0001a0 20 cc bb 3d 46 36 27 3d 20 9a 53 be 62 5e 5d bd
       0.09169793 0.040823244 -0.20664263 -0.05404509
0001b0 a7 16 aa bd 0e ab 20 be 9c b7 75 3d 05 3a 39 3c
       -0.08305102 -0.15690252 0.059989557 0.011305337
0001c0 89 63 ee bd d0 fe 00 3a 75 99 fe bd 85 1c bd 3d
       -0.116400786 0.00049207825 -0.12431613 0.09233955
0001d0 78 8e c2 bd 8f cc 24 3e 77 77 ee bd d8 2a 1b be
       -0.0949983 0.16093658 -0.1164388 -0.15153062
0001e0 ce 58 5c 3e e6 3f 51 be 77 9f cd bd 47 40 ff bc
       0.21518251 -0.20434532 -0.10040181 -0.03115858
0001f0 c9 d6 a7 bd 3c ad 54 bd 21 da 17 3e 6e 9d 35 be
       -0.08195264 -0.05192302 0.14829303 -0.17735836
000200 b0 27 85 bc 6a 2f d2 3d d1 35 8c 3c c2 b8 f6 3d
       -0.016254276 0.1026295 0.017115505 0.120469585
000210 f3 96 37 bd 8c 66 30 3e 32 d7 f2 bd 15 eb 1d 3e
       -0.04482169 0.17226619 -0.118574515 0.15421708
000220 29 3e 24 3e 38 17 7e bd 4c 5d 7a 3d 94 01 25 bd
       0.16039337 -0.062033862 0.06112413 -0.04028471
000230 21 3b 7d be 62 96 4c 3a fe f9 db bd b2 90 0e bd
       -0.24729587 0.0007804391 -0.107410416 -0.03480596
000240 9d c4 5e bd ec a6 e3 bd c0 f5 95 bd 98 71 7e be
       -0.054386724 -0.11115822 -0.07322264 -0.2484802
000250 06 ae e5 bd 76 3b 91 3c 2f 08 64 be fb 0d 8d bd
       -0.11214833 0.017728548 -0.22268747 -0.06887432
000260 4e 36 86 bd 48 c0 86 bc 80 dc 3a 3e 35 86 f7 bd
       -0.065533265 -0.016449109 0.18248177 -0.12086145
000270 8e 30 16 bd aa 35 13 bd f7 03 2b 3d 0c 4a 3a 3e
       -0.0366674 -0.03593985 0.041751828 0.18192309
000280 12 47 8f bd 2c 65 d1 3d aa 58 c6 bd 44 8c 6e bc
       -0.069959775 0.10224375 -0.0968488 -0.014559809
000290 e1 d3 17 3e 4c 83 3a 3d 7a 00 ba 3c c4 b4 b1 bd
       0.14826919 0.04553537 0.022705305 -0.086770564

encoder_mean.12.bias f4 [12]
000000 15 e3 eb b4 f2 93 1e b6 ff 21 a2 b5 bc 36 28 36
       -4.3937385e-07 -2.362995e-06 -1.2079835e-06 2.506581e-06
000010 fa 2d 36 35 22 5f ab b6 e2 a3 ae b6 a5 39 61 b5
       6.786719e-07 -5.107272e-06 -5.2046826e-06 -8.3902916e-07
000020 9e d0 ba b6 29 fb 28 b7 9e 04 43 36 36 2e 89 b5
       -5.567518e-06 -1.0072058e-05 2.9059952e-06 -1.0220745e-06

encoder_mean.13.weight f4 [12]
000000 e7 28 49 3f bf 08 5c 3f ec 2c 53 3f 5a e2 46 3f
       0.7857804 0.85950845 0.8249042 0.77689135
000010 f5 1f 70 3f 1f 51 89 3f a6 72 88 3f f5 20 5f 3f
       0.9379876 1.0727881 1.0659988 0.87159663
000020 54 ee 94 3f bd 79 4e 3f a7 b7 91 3f 99 1e 52 3f
       1.1635232 0.8065451 1.1384171 0.8207794

encoder_mean.13.bias f4 [12]
000000 38 12 36 3e ec 34 40 3e 84 0f 30 3e f9 de 9c 3e
       0.17780387 0.18770188 0.17193419 0.30638865
000010 af 83 09 3e 11 fe 23 3e 7f a3 c4 bc 09 d9 27 3e
       0.1342914 0.16014887 -0.024003742 0.16391386
000020 0a a7 0b 3e aa df 29 3e 1c ef 75 3d f1 7e 35 3e
       0.13637939 0.16589227 0.060042486 0.17724206

encoder_mean.13.running_mean f4 [12]
000000 a1 de bc bc 4f 9e 5d bc 73 a2 a7 bc 4d 43 30 3d
       -0.023055376 -0.013526513 -0.020463204 0.043032933
000010 e1 a2 00 be 7e 6e 21 bd a8 83 87 3d a6 24 41 bd
       -0.12562133 -0.039412014 0.06616908 -0.04715409
000020 93 f5 a1 bd 8e 4f b6 3b 61 ba 05 be 9d dd 92 bc
       -0.07908168 0.005563683 -0.13059379 -0.01792794

encoder_mean.13.running_var f4 [12]
000000 ae 92 e9 3c d6 c4 06 3d 12 08 9b 3c 7a 76 4a 3c
       0.028512325 0.03290256 0.018924747 0.012357349
000010 a6 82 48 3c 7c 55 ae 3c 97 7c fc 3b fc 9e ff 3c
       0.01223818 0.021280997 0.007705282 0.03120374
000020 d0 c1 00 3d 95 cb 7e 3c a9 81 53 3c 83 3c 7c 3c
       0.031434834 0.015551467 0.012909331 0.0153952865

encoder_mean.16.weight f4 [10, 12]
000000 fa 80 3a be 00 45 36 be 4f 05 ad be 66 56 91 be
       -0.18213263 -0.17799759 -0.33793113 -0.2838623
000010 0d fc 1d 3f bf 80 15 3e e9 09 03 bf 43 77 4b bc
       0.61712724 0.14599894 -0.51186997 -0.012418571
000020 35 76 bd 3e 2f 55 8a be de 3d 57 3f b8 00 98 be
       0.37004247 -0.27018115 0.84078777 -0.29688048
000030 9b 11 4b 3d 8f e6 36 3c e4 36 83 be db 4c fd be
       0.049577337 0.011163368 -0.25627816 -0.494727
000040 e0 6c 75 3e ee 5d cd 3e 6f fd 10 bf 73 93 96 3d
       0.23967314 0.40110725 -0.5663671 0.073523425
000050 12 5d f5 3e 1f 22 cc be bb 94 8f 3e 69 e4 94 be
       0.4792257 -0.39869782 0.2804316 -0.29080513
000060 85 d4 43 bc d1 33 6a bc c0 94 4b bb 3f e3 09 3d
       -0.011952524 -0.014294581 -0.0031064004 0.033663984
000070 92 82 1b 3c c5 8f 52 bc ff d7 88 3b 38 ee b3 3b
       0.00949158 -0.01285166 0.0041761394 0.0054910444
000080 95 c2 4c 3c 80 a0 9f bc d1 7e 08 3d 3e 54 c9 bb
       0.012497564 -0.019485712 0.033324067 -0.0061440757
000090 24 a1 69 3e ae 79 8f 3e cf e5 93 be 86 b3 ae be
       0.22815377 0.28022522 -0.28886268 -0.3412134
0000a0 3c 0f b5 3e 80 25 c5 3c 35 70 c8 be 69 4e 9f 3d
       0.35363185 0.024065733 -0.39148107 0.077786274
0000b0 55 de e8 3d f0 f3 cb be e2 a9 b5 3e 23 59 b6 be
       0.113705315 -0.39834547 0.35481173 -0.3561488
0000c0 a8 80 e6 be 7f 32 be be c1 61 ad 3e 2f 1a 3d be
       -0.45020032 -0.371479 0.33863643 -0.1846702
0000d0 f0 1c a8 be 09 9c 1e 3f a2 b0 8c be d5 a6 00 bf
       -0.32834578 0.6195684 -0.2747851 -0.50254565
0000e0 e5 9a 19 3f 70 31 04 3e cc 44 f9 3d 70 2f a3 3e
       0.60001975 0.12909484 0.12171325 0.3187213
0000f0 8a 7e 3c 3c ca 15 6f 3d 34 fc 22 3c 63 ef 18 bc
       0.011504779 0.05837039 0.009947825 -0.009334418
000100 b3 f5 75 bc 88 e0 1c 3d 70 5b 03 bb b6 52 62 3c
       -0.015012193 0.038300067 -0.0020043515 0.013813665
000110 87 4c 9f 3d a6 8e 09 bd 3e 8d 16 bd 73 c2 20 3d
       0.07778268 -0.033583306 -0.036755793 0.03924794
000120 08 d6 f0 ba c9 8d 73 ba 0c a0 59 3a 6f a7 8f ba
       -0.0018374333 -0.0009290842 0.0008301742 -0.0010959933
000130 13 32 31 3c 63 3a c4 bb 02 e7 bd ba 95 6c 0d bc
       0.010815161 -0.0059884056 -0.0014488401 -0.008631845
000140 20 0e 5c 3c 06 f5 f7 ba 97 2f a9 bb 14 e8 3d bc
       0.013431102 -0.0018917627 -0.005163144 -0.011590976
000150 24 78 7d 3c 2e d9 bc 3c b6 0c 18 bc f8 0e 1a bc
       0.015470538 0.023052778 -0.009280374 -0.009402983
000160 34 aa 20 bb 07 e8 03 3c b9 37 e4 bb c4 5c f6 bb
       -0.0024515511 0.008050925 -0.0069646505 -0.0075183827
000170 c8 e6 57 ba 40 6d 0d 3b 01 87 e2 3b c4 0c a5 3c
       -0.0008235988 0.002158001 0.0069130664 0.020147689
000180 d0 99 cf 3e 4f 8f d3 3e 4d 45 2d be c2 59 80 3e
       0.40547037 0.41320273 -0.16920967 0.2506848
000190 89 1a 4d 3d e7 dd 1e bf bc 6e c4 3e a7 dd b3 3e
       0.050074134 -0.62057346 0.38365734 0.35130045
0001a0 4d 56 26 bf e3 03 49 bd 9b a5 56 be 66 cd 06 be
       -0.64975435 -0.049075972 -0.20961611 -0.13164291
0001b0 1a 96 7a be 69 bd 61 be 21 e8 cd 3e 15 4c fe 3d
       -0.24471322 -0.2204491 0.40216163 0.12416855
0001c0 8e ae e9 be f4 62 99 3e 76 d7 2e 3e cc 64 96 be
       -0.45640987 0.29958308 0.1707438 -0.29373777
0001d0 6d 8b 00 3e 72 58 ac 3e 67 25 c6 be 5e 71 cc 3e
       0.12553187 0.33661228 -0.3870041 0.39930242

encoder_mean.16.bias f4 [10]
000000 37 39 32 be 8e f2 2c bd e6 79 74 bc 4c 6b 4a 3c
       -0.17404638 -0.042223506 -0.014921641 0.012354683
000010 11 06 23 be c3 19 a1 bd 7e d2 66 3b 3d 76 96 bc
       -0.15920283 -0.07866242 0.0035220678 -0.018366927
000020 88 1b 46 3e 21 2e 7f bd
       0.1934644 -0.06229985

encoder_var.0.weight f4 [20, 30]
000000 71 1b 24 b8 1d ff 1f b9 d1 4a aa b8 5c d2 92 b8
       -3.9126204e-05 -0.00015258459 -8.120167e-05 -7.001005e-05
000010 82 99 95 b9 31 e2 78 37 a2 9c 5c b9 07 1a ca 38
       -0.00028533867 1.4834616e-05 -0.00021039185 9.6369586e-05
000020 74 a3 ca 38 da de 5f ba ff a7 eb 37 68 07 98 b8
       9.662556e-05 -0.00085399824 2.8092412e-05 -7.249304e-05
000030 b2 bf 7a 38 f7 00 1d 38 8d 5a 21 b9 02 dc 8b b9
       5.9783175e-05 3.7432615e-05 -0.0001538789 -0.00026676065
000040 d3 46 f5 37 87 20 21 39 74 47 ca b7 ba 13 bd b9
       2.9239256e-05 0.00015366274 -2.411355e-05 -0.00036063587
000050 2c f0 89 b8 48 ff fb 38 ed 0a 56 37 9f fd a9 38
       -6.5774046e-05 0.000120161625 1.2757938e-05 8.1057886e-05
000060 2b f1 a4 38 d0 01 12 39 38 4b 16 b9 f8 cf 1e 39
       7.8650504e-05 0.0001392432 -0.00014333136 0.00015145529
000070 8d fb 1c b9 8e e2 bb 38 72 eb 2e 3c e9 e8 fe bc
       -0.0001497103 8.959054e-05 0.010676252 -0.03111692
000080 84 54 77 ba f8 81 e3 bb 3f 6b a4 39 56 18 8c 3b
       -0.0009434896 -0.0069429837 0.00031360422 0.004275362
000090 47 63 b7 3b 97 34 91 3b af 15 a7 ba 60 d7 61 bb
       0.0055965516 0.004431318 -0.0012747551 -0.003446065
0000a0 08 4f c0 ba d6 1b 58 3b 24 ee ce 37 0f 25 97 bb
       -0.0014671991 0.0032975576 2.4668007e-05 -0.004612572
0000b0 16 d6 94 ba fa 17 f5 3a 09 9e 9a 3b be 26 81 bb
       -0.0011355306 0.0018699162 0.0047185463 -0.003941386
0000c0 9a ce 82 3b 70 98 e9 b9 71 89 fc bb 70 13 ca 38
       0.003991914 -0.00044554798 -0.007706814 9.635731e-05
0000d0 19 6f 41 3b 40 fb f8 3a 90 40 ce 38 f9 9f 35 3a
       0.0029515682 0.0018995777 9.834871e-05 0.000692844
0000e0 7d 17 2c ba c6 59 28 ba e0 88 28 3a 06 00 dd bc
       -0.00065647793 -0.00064220687 0.00064290874 -0.02697755
0000f0 91 2a 0f 3a 4b a7 9a b8 a3 ba c9 b9 fc 66 ff b9
       0.000546136 -7.374453e-05 -0.00038476763 -0.0004871412
000100 4b b2 4e b9 4b 9b 25 3a c0 d5 29 b8 56 db 13 3a
       -0.0001971211 0.0006317391 -4.049181e-05 0.00056402886
000110 1a 96 c5 38 2a 73 c0 b9 b2 44 39 39 8a 13 37 38
       9.4216506e-05 -0.00036706898 0.00017668566 4.3648797e-05
000120 a3 ee 41 ba 97 55 61 39 81 ff b5 b9 bb df 3e 3a
       -0.00073979254 0.00021489557 -0.00034713375 0.0007281263
000130 36 1f 2a 39 b6 80 39 ba c0 dd ee 35 4b e0 61 ba
       0.0001622409 -0.00070763694 1.779692e-06 -0.0008616491
000140 24 da b9 b9 de 04 ee 39 4a 0e d9 38 74 00 a1 b9
       -0.00035448477 0.00045398524 0.00010350028 -0.0003070865
000150 54 de 88 38 e1 4e 40 38 c8 c9 ff b7 17 68 3a b9
       6.526397e-05 4.584983e-05 -3.049233e-05 -0.00017777119
000160 99 d2 32 39 15 c2 0e bb 29 00 96 b9 ef 9e 82 b9
       0.00017053857 -0.0021783162 -0.0002861035 -0.00024913947
000170 68 bd 06 b9 94 35 94 38 91 be c7 b8 c8 de ef b8
       -0.00012849795 7.06717e-05 -9.524555e-05 -0.00011437904
000180 ea ec 72 b8 25 49 b7 38 f3 3e 20 38 1c 82 20 b9
       -5.791794e-05 8.739744e-05 3.82056e-05 -0.00015307259
000190 e7 3c 24 39 4b b8 a6 38 11 ea b3 38 39 9f d8 38
       0.00015662947 7.949824e-05 8.5789834e-05 0.0001032934
0001a0 45 0d 60 b9 41 bf 44 b9 2c 45 45 b8 e6 38 a4 b7
       -0.00021367248 -0.00018763264 -4.703288e-05 -1.9576819e-05
0001b0 08 ba e4 37 82 35 ae 37 93 06 85 38 9b 40 97 b9
       2.7266346e-05 2.0767333e-05 6.343159e-05 -0.000288491
0001c0 37 f6 17 39 e4 6e 9d 37 75 43 2c b9 b5 45 07 b9
       0.00014492204 1.8767496e-05 -0.00016428328 -0.00012900571
0001d0 55 96 00 39 be 0a 88 b8 4f 86 89 38 ad b0 c7 38
       0.00012263034 -6.486986e-05 6.557686e-05 9.521968e-05
0001e0 68 4b 88 3a 1a 61 81 ba eb bc 19 ba 58 aa ff b7
       0.0010398449 -0.0009870857 -0.0005864638 -3.0477691e-05
0001f0 c3 60 b1 b9 69 28 0c 3a 0d 10 bc 39 9d 6b 8f 3a
       -0.00033832164 0.0005346598 0.00035870113 0.0010942105
000200 5d c6 8f 39 6e 82 4f ba 48 d3 9b b9 00 b5 0a b8
       0.00027422878 -0.0007915859 -0.0002972132 -3.3070333e-05
000210 bc 20 4d ba 4b fa 2c 3a 84 d8 1e ba 63 7c c8 3a
       -0.0007825007 0.0006598576 -0.0006059485 0.0015295859
000220 94 4f 8e 39 57 9b 42 ba 18 e4 f5 39 a0 bb ac ba
       0.0002714364 -0.000742366 0.00046899985 -0.0013178475
000230 b0 8e f4 37 70 24 01 b8 3e 6b c9 39 0a 16 38 ba
       2.915351e-05 -3.078993e-05 0.0003841761 -0.0007022327
000240 43 56 85 3a b5 e3 59 38 45 18 96 b8 60 be d7 38
       0.0010172803 5.19489e-05 -7.157078e-05 0.00010287459
000250 01 6e c2 b8 12 67 93 bb e6 7a bd 38 da e6 77 ba
       -9.271131e-05 -0.004498371 9.035114e-05 -0.0009456702
000260 d7 8d dc 39 0e 40 09 b7 8f b9 87 39 2e 97 26 b9
       0.0004206735 -8.18075e-06 0.00025887458 -0.00015887312
000270 53 21 cd 39 43 54 94 b9 ad fd 02 b9 05 ac 10 b9
       0.00039125475 -0.0002829154 -0.00012492268 -0.00013796992
000280 00 5e f5 38 37 2d e2 38 d6 a0 8d b9 17 8c 9d b9
       0.00011700019 0.00010784942 -0.00027013448 -0.0003004975
000290 3a 04 1c b9 8c 32 05 3a 4d ae e0 b8 eb 2e 9a b9
       -0.00014878894 0.00050810794 -0.000107136184 -0.00029408126
0002a0 02 f3 5a 39 60 e3 ff 37 ba ef b8 36 6a b3 fb 39
       0.00020880628 3.0504249e-05 5.511535e-06 0.00048008125
0002b0 c1 e6 12 37 d4 74 a3 38 41 74 07 3a ef cd fd 39
       8.756005e-06 7.7942066e-05 0.00051671645 0.00048409353
0002c0 8a 8c 01 ba 62 ec 97 b8 1a 0f 46 38 09 c0 c3 b9
       -0.00049419014 -7.244271e-05 4.7220943e-05 -0.00037336376
0002d0 a7 c5 72 3b f3 35 17 bc c2 17 bb 39 1c eb 96 ba
       0.003704408 -0.009229171 0.0003568512 -0.001151416
0002e0 3c 26 9f b9 e0 78 66 3a cc 0d 6c ba 98 09 0f 3b
       -0.0003035533 0.00087918155 -0.00090047414 0.0021825787
0002f0 82 a0 79 3a 00 ee 45 ba 58 20 ca ba aa cc 26 3a
       0.0009522514 -0.00075504184 -0.0015421016 0.0006362895
000300 8c b0 37 39 10 59 88 ba be 8d d8 b9 be 3e 97 3a
       0.00017518009 -0.0010402519 -0.00041304337 0.0011539084
000310 21 95 ac 3a 62 95 58 bb c9 68 5b 3b fc 90 f0 ba
       0.0013167002 -0.0033048023 0.0033479205 -0.0018353756
000320 ae 11 93 ba 36 b3 69 ba 38 ef 9d 3a 06 b5 65 3a
       -0.0011220479 -0.0008914949 0.0012049442 0.00087626313
000330 86 84 8f 3a 52 f6 c7 39 b1 77 c8 b9 e8 1e 8c 39
       0.0010949529 0.0003813976 -0.0003823615 0.00026725908
000340 68 32 8c b9 3c 33 38 bc 4f a0 fd 3b 90 47 92 bc
       -0.00026740436 -0.011242684 0.0077400575 -0.01785639
000350 78 76 53 ba 9a 39 97 bb 6c 72 05 3b 50 2b 78 3a
       -0.00080666644 -0.004615021 0.002036239 0.0009466903
000360 f6 d2 87 39 a2 2a c0 3b 6c 5f a3 3a 54 c0 15 bb
       0.00025906385 0.005864457 0.0012464351 -0.0022850232
000370 e3 67 4e bb a1 e3 1a 3b ea be 63 39 fe a6 8b bb
       -0.0031495027 0.0023634213 0.00021719528 -0.0042618504
000380 40 c6 4f bb 82 91 29 3b 97 59 a3 3b 3d 05 5d bb
       -0.003170386 0.0025874083 0.004985045 -0.0033725046
000390 72 6d 54 3b b8 ee 81 ba 70 cd 9e bb ca c8 97 b9
       0.0032413867 -0.0009913063 -0.0048462674 -0.00028950564
0003a0 d8 e4 59 3a 18 39 69 39 c8 4a 23 3b 3e cf 61 3a
       0.00083119934 0.0002224188 0.00249164 0.00086139503
0003b0 1a a4 67 ba ac 5e 80 3a 2f 0f 80 ba 04 0c b4 bc
       -0.0008836404 0.0009793839 -0.000977015 -0.021978386
0003c0 07 c0 48 3a 40 60 4f ba 53 0f 68 b9 5a 9d d2 38
       0.0007658009 -0.00079107657 -0.00022130953 0.00010042889
0003d0 41 ef 08 b9 86 2a 09 b8 71 fb b2 39 03 ed d8 39
       -0.000130591 -3.270295e-05 0.00034138144 0.00041375318
0003e0 a3 cd a5 38 93 f3 14 ba 08 18 8b 37 d0 98 41 b9
       7.906116e-05 -0.00056820473 1.6581282e-05 -0.00018462841
0003f0 d6 6f 0a ba e4 2a 6d 38 5a 92 0f ba 89 c7 85 3a
       -0.0005280947 5.654515e-05 -0.0005476825 0.0010206561

encoder_var.0.bias f4 [20]
000000 7b 55 b7 33 4d fc f6 b3 35 3c 03 33 5c c7 56 b4
       8.5371504e-08 -1.1501161e-07 3.0555572e-08 -2.000283e-07
000010 c8 c6 19 34 e8 69 3c b4 fc 2d 9b 33 3f 30 c6 b4
       1.4321552e-07 -1.7547393e-07 7.2261145e-08 -3.6915478e-07
000020 94 5d e6 b3 54 bb d3 32 34 4d d1 32 79 0a ba b2
       -1.07272314e-07 2.464882e-08 2.436591e-08 -2.1658012e-08
000030 59 39 81 b4 76 45 99 b2 30 4f d2 32 68 a6 03 b4
       -2.4069848e-07 -1.7843131e-08 2.4483228e-08 -1.2260864e-07
000040 02 57 47 b4 b1 ff ce 33 8a 75 c6 b2 fa 75 ac 33
       -1.8564972e-07 9.6391325e-08 -2.3103684e-08 8.030834e-08

encoder_var.1.weight f4 [20]
000000 63 6f 0c 3b 29 0a 32 3d 03 10 86 3b 52 3f e8 3a
       0.0021428696 0.04346672 0.004091264 0.0017719066
000010 e0 1b e0 3b e7 96 15 3b e0 62 91 3c 9c 5f 02 3d
       0.0068392605 0.002282554 0.017747343 0.03182946
000020 14 03 80 3b ca f8 eb 3b db 90 d9 3b 68 50 3b 3b
       0.003906617 0.007201289 0.0066395826 0.0028581861
000030 27 d1 be 3a 10 4f d7 3b 58 41 58 3b d8 f4 c7 3c
       0.0014558182 0.0065707043 0.0032997932 0.024408743
000040 18 38 0c 3d 37 db ff 3a d1 56 07 3b 6d 79 7f 3b
       0.034233183 0.0019520287 0.0020651112 0.0038982288

encoder_var.1.bias f4 [20]
000000 35 9f a3 37 5a d7 d0 39 60 20 43 39 c2 87 46 b9
       1.950525e-05 0.000398333 0.0001860871 -0.00018933325
000010 44 8e 9d 3a bc 44 1e 39 11 e1 4a 3b cf a8 85 3b
       0.0012020548 0.0001509366 0.0030956904 0.0040789614
000020 83 4c cb 39 4e b8 fa b8 c5 c3 99 3a 24 b7 0c 3a
       0.00038776183 -0.000119552584 0.0011731317 0.0005367866
000030 a8 d5 1e b8 a6 fa df 3a 0e fd 1e 39 6c 6a a3 3b
       -3.786912e-05 0.0017088249 0.00015162324 0.0049870517
000040 5d 26 b3 3b 3c 71 2b 38 dd e1 3c 39 90 a9 3c 3a
       0.0054672197 4.0875035e-05 0.00018013218 0.00071968976

encoder_var.1.running_mean f4 [20]
000000 e9 4f 42 ba 15 5a fe bc b2 b2 54 bb 91 10 f6 38
       -0.000741242 -0.031048814 -0.0032455144 0.0001173328
000010 41 40 b4 bb 28 4c 89 ba 97 66 4b bc 47 33 c4 bc
       -0.0055008237 -0.0010474967 -0.012414596 -0.023950232
000020 89 39 3b bb 05 3d a0 bb 18 c4 8c bb c6 52 44 ba
       -0.002856823 -0.0048900866 -0.004295837 -0.0007489141
000030 54 db 29 39 8c 38 4f bb 40 ba 25 3b a7 9c 8f bc
       0.00016198802 -0.0031619398 0.0025288016 -0.017530752
000040 22 c3 d0 bc da 3c 11 39 c2 d4 cd 39 ad 3f 5b bb
       -0.025483672 0.00013850947 0.00039259164 -0.0033454702

encoder_var.1.running_var f4 [20]
000000 02 1b 44 36 1d b6 11 39 34 b4 9c 36 58 d8 54 35
       2.9221997e-06 0.0001389612 4.6701407e-06 7.9290976e-07
000010 cc 13 5c 37 7e 75 6f 36 9f 3b 07 38 a4 20 ce 38
       1.3117631e-05 3.5682165e-06 3.2242035e-05 9.828925e-05
000020 09 13 85 36 8d f5 04 37 dc c9 30 37 9a 22 66 36
       3.965925e-06 7.924985e-06 1.05374165e-05 3.4292812e-06
000030 75 f7 7f 35 a5 d9 8a 37 35 3a 0f 36 c9 9d 8f 38
       9.5355e-07 1.655223e-05 2.1342541e-06 6.848161e-05
000040 24 3f 32 39 04 7b 0e 35 4e 99 8e 36 58 2b c0 36
       0.00016998925 5.3078134e-07 4.249777e-06 5.727092e-06
