dice_ml/utils/sample_trained_models/adult-margin-0.165-validity_reg-42.0-epoch-25-base-gen.pth (torch_old, 34923 bytes, 78 tensors)

encoder_mean.0.weight f4 [20, 30]
000000 66 48 36 3f 7a 0f 73 bd fa 1c fc 3c e8 f4 88 be
       0.7120422 -0.05934093 0.030775536 -0.2674935
000010 e5 d8 3a 3d bb 39 4a 3d 4c 53 7e 3d a9 a0 70 3d
       0.045617003 0.049371462 0.062091157 0.058746967
000020 2b 63 9f bd 77 19 6d 3d e5 c3 05 3d 69 0d 0a be
       -0.07782587 0.057885613 0.032657523 -0.13481678
000030 83 d2 68 3d a3 87 8f 3d e9 4c 00 3d 1b 09 68 3d
       0.056841385 0.070082925 0.031323347 0.05664931
000040 8d a0 09 3d 85 b5 92 3d 25 e6 93 bc de 5f 93 3d
       0.03360038 0.07163528 -0.018054077 0.071960196
000050 a9 9c 99 bd 2a c6 8f 3d 56 7e a6 3d 8f 68 9c 3d
       -0.07500584 0.07020219 0.081295654 0.076371305
000060 22 9b 95 3d 43 13 37 3d bb b2 82 3d 2d b9 c6 bd
       0.0730498 0.044696104 0.063817464 -0.09703288
000070 db f8 c1 bd 9a 16 33 3e 3b 0d fb 3e 3b 0d 74 bd
       -0.094712935 0.1748909 0.49033532 -0.05958293
000080 64 3e de bb 10 81 02 3e 21 c6 1c 3b 8f 6d 2d bc
       -0.00678234 0.12744546 0.0023921805 -0.010585203
000090 4e 8c 87 bc 72 8f 0c 3c ba 9d 21 bd d2 42 72 bc
       -0.016546395 0.008579122 -0.03945706 -0.014786439
0000a0 82 e2 f4 bb ac dc a8 bd 36 24 38 3c 6e d1 1b 3c
       -0.007473291 -0.08245215 0.011239102 0.009510381
0000b0 2d 8c 6d 3d 94 92 ae 3d 9a a4 96 3d 90 7c 11 3d
       0.05799501 0.08524051 0.07355614 0.035519183
0000c0 be 92 d2 3d 6a b4 b8 3c 79 43 0c bd 7e f1 be bb
       0.10281895 0.022546966 -0.034244034 -0.005827128
0000d0 36 77 91 3b 00 02 78 bb 4f 2e 80 3b 57 46 e8 bb
       0.00443926 -0.003784299 0.0039117704 -0.0070884633
0000e0 3a 65 79 3c b2 ef 54 bd 8b c4 26 bd 92 d7 57 3e
       0.015221888 -0.051986404 -0.04071478 0.21078327
0000f0 ea 7c 98 be 33 b5 08 be c6 58 2b 3c bf 5e 36 bc
       -0.29782802 -0.13350372 0.010458177 -0.011130988
000100 22 b3 04 bc 75 f3 30 3c 6f 83 93 3d 3d b2 d0 bb
       -0.008099349 0.010800232 0.07202803 -0.006368904
000110 3f af 2b bc 19 7d 32 3c 16 88 ff bc 2e a8 52 bb
       -0.010478794 0.010894083 -0.03119282 -0.00321437
000120 40 ec be 39 74 37 b2 bb 37 d8 b1 bd 96 5c c8 3b
       0.00036415644 -0.0054387394 -0.08683818 0.0061145527
000130 50 33 8e bd d5 2b 18 3e 39 04 5f bd ff 0f 81 bb
       -0.06943381 0.1486047 -0.054447386 -0.0039386745
000140 89 f4 d8 bc fe 8b ee bb af dd 2d bd cf 63 2e bd
       -0.026483791 -0.007279872 -0.042447742 -0.042575654
000150 bb 08 fe bc 1c f5 3d bd 50 b8 60 bd cc 58 78 3d
       -0.031010022 -0.046376333 -0.054863274 0.06063156
000160 e1 6a d7 3c b9 3b a2 be 78 7c 77 3e 9b 72 44 bf
       0.026296081 -0.3168619 0.24168575 -0.76737374
000170 55 81 74 3d c9 85 c2 3d 3f 85 34 3d 2b 06 24 3d
       0.059693653 0.09498174 0.044072386 0.040044945
000180 ff 52 47 3d 8a e7 b0 3d fe cd da 3d 09 13 49 3d
       0.048663136 0.086379126 0.10683821 0.04909042
000190 36 79 85 3d 76 78 9d 3d d1 77 13 3d 06 a3 28 3d
       0.0651726 0.07688992 0.036002938 0.041171096
0001a0 3c f2 23 3d 55 8d 64 3d f2 36 5d 3d be 43 44 3d
       0.040025935 0.055798847 0.054007478 0.047916166
0001b0 9a d0 82 3d cf 20 46 3d 06 93 ba bc b9 98 f8 3c
       0.06387444 0.048371132 -0.022775184 0.030346261
0001c0 80 31 7a 3d fc 9d 4c 3d eb 97 4a 3d fc 22 9c bc
       0.061082363 0.049955353 0.049461287 -0.01905965
0001d0 37 dd 30 3b 80 58 77 bc d3 84 41 bc c2 77 93 3e
       0.0026987323 -0.015096784 -0.011811453 0.28802305
0001e0 25 08 7d be c9 32 c4 3d 8f 52 10 3d 3f 7b 50 bb
       -0.24710138 0.09579999 0.035234984 -0.0031811742
0001f0 63 d0 d1 3d 63 41 ee 3c 0c 13 17 bd 38 79 c0 3d
       0.10244825 0.029083913 -0.0368834 0.09398121
000200 cf da 82 3d 35 d4 46 bd 4c e5 03 3d e2 02 25 3e
       0.06389391 -0.04854222 0.032201096 0.16114381
000210 6c bf 08 bd 6c 37 8b bd 70 74 17 3d 5b 57 47 3e
       -0.03338568 -0.0679768 0.036976278 0.19466917
000220 9b 07 69 bc 77 a6 6b 3c d3 e5 8d 3d ad 76 a7 3d
       -0.014223005 0.01438295 0.06928601 0.081769325
000230 30 8c 93 bc 4d 2f 97 3d b0 cb af bc b0 ea 14 bd
       -0.018011183 0.07382069 -0.02145943 -0.036356628
000240 42 05 9b 3d f1 d0 1a 3e e0 44 a3 3d 3d 3c a9 3c
       0.07569362 0.15118767 0.07972121 0.020658607
000250 da 37 2c 3e ad e2 d5 be c4 4c bc be 56 44 34 be
       0.1681818 -0.41774502 -0.36777318 -0.17604193
000260 8a 3c 28 3c a1 e0 a3 3c 18 c4 83 3d 02 aa 09 3c
       0.01026834 0.020004572 0.06433886 0.008402349
000270 88 b0 64 3d 4a 7e 3d be 5f a9 5c ba f8 7e 5a 3e
       0.055832416 -0.18505207 -0.0008417572 0.21337497
000280 9f 63 56 bd f9 8f bd bb c5 b5 b2 bd 6c 9b 6e 3e
       -0.0523411 -0.005784985 -0.08726076 0.23301476
000290 b2 89 1c 3e 91 19 3a bd 90 53 81 3b a4 ea 03 3e
       0.15286902 -0.04543454 0.003946729 0.12882477
0002a0 4b 5f a9 bb aa 81 95 3a 28 8d 84 3c 45 2a 25 bd
       -0.0051688305 0.0011406441 0.01618059 -0.040323514
0002b0 91 bb 68 3d ba 6a e6 3d fc eb 32 3b b6 8a 07 bd
       0.056819502 0.11250825 0.0027301302 -0.03309127
0002c0 5e f3 80 bd 91 c5 d5 3c e4 d8 4c 3c ff a0 06 3e
       -0.062964186 0.026095184 0.012502883 0.13147353
0002d0 36 c8 21 3f 6e ba 60 3c 3d 90 f5 3c fd 66 85 3d
       0.6319612 0.013716323 0.029976005 0.06513784
0002e0 46 7a 19 3d f3 f4 0a 3d b2 43 0d bd 92 82 05 bd
       0.037470125 0.033925008 -0.034488387 -0.032595225
0002f0 e9 26 9c bc d1 9d c8 bc 6a 24 d9 bc b2 28 c1 bc
       -0.019061523 -0.024489315 -0.026506621 -0.023578975
000300 88 05 b4 bc 20 34 f3 bc c5 2e 10 bd 91 54 3b bd
       -0.021975294 -0.029687941 -0.035200853 -0.045734946
000310 90 bb 2a bd 3e 3e f0 bc ae 1e 14 bd e7 c5 c4 bc
       -0.04168278 -0.029326554 -0.03616207 -0.024020148
000320 20 9d 8a bd 18 39 00 bd e7 39 c4 bc e8 53 aa bc
       -0.067682505 -0.03130445 -0.023953391 -0.020791963
000330 ca 01 cd bc 38 46 b8 3d 84 35 c7 3d f7 46 4b 3c
       -0.025025267 0.08997768 0.09727004 0.012407056
000340 22 60 de 3b 2a df fc 3e cb c7 ff 3e b5 e2 d5 bc
       0.0067863623 0.4938901 0.49957117 -0.026109079
000350 00 1f 0e 3e 84 68 0a be 38 8a 13 3e b5 02 76 3d
       0.13879013 -0.13516432 0.14408195 0.060061175
000360 6c 25 1f bd e0 81 e0 bc 40 28 31 bc 90 fe 5e bd
       -0.038854048 -0.02740568 -0.010812819 -0.05444199
000370 73 83 27 bd 0c 90 3d 3d 7d b3 a3 bd 38 5c 07 be
       -0.040896844 0.046279952 -0.07993219 -0.13218772
000380 9c 12 4d ba a3 d5 f5 bc ce 95 f1 bb a9 93 93 bd
       -0.00078229024 -0.030009096 -0.0073725944 -0.07205898
000390 ec 6a b9 bd 0a 8f c4 3d b2 4e a5 bd db 11 17 3d
       -0.09053597 0.09597595 -0.080716506 0.036882263
0003a0 8a fa 9f 3d 2d 6b 87 3c b6 05 8b 3d 15 0d 0e bd
       0.078114584 0.016530598 0.06788199 -0.034680445
0003b0 c3 58 36 bd 61 7f ca bb 64 d8 b5 bb 7a ee d2 be
       -0.044518244 -0.0061797355 -0.0055494774 -0.41197568
0003c0 34 83 29 3f 39 4c 11 3e d9 57 8f 3d 4f c7 d1 3d
       0.66215825 0.14189233 0.069991775 0.10243093
0003d0 69 4b ad 3d 82 28 a2 3d 51 b3 c1 3c ca 12 0a 3d
       0.08461649 0.079178825 0.023645075 0.033709325
0003e0 81 db 98 3b 34 ec 1a 3d 15 a9 b7 3c 18 98 e0 3d
       0.004664839 0.037822917 0.022419492 0.109665096
0003f0 69 97 a2 3c bf 98 53 3d da b8 0a 3d 7c db 71 3d
       0.019847589 0.051659342 0.033867694 0.059047207

encoder_mean.0.bias f4 [20]
000000 ee f9 9f b9 59 8e db b9 3c 08 82 b7 14 da e7 b9
       -0.00030513055 -0.00041876992 -1.5501042e-05 -0.00044222234
000010 97 b8 cd 39 08 0e 40 b8 06 26 03 38 6c 51 48 39
       0.00039238177 -4.5789435e-05 3.1268246e-05 0.00019103818
000020 f9 a2 da 39 2f 9f 3b b9 bc 94 02 39 7c 7b 28 b9
       0.00041701624 -0.0001789301 0.00012453174 -0.0001606773
000030 ae 60 08 38 b1 7f 83 b9 8f eb 93 39 6d dd e9 b8
       3.2514967e-05 -0.00025081405 0.0002821353 -0.000111515496
000040 ec 46 e1 b8 8f 77 65 39 8a b5 d5 b9 e7 f8 fa b8
       -0.00010742046 0.00021883681 -0.00040761783 -0.000119672906

encoder_mean.1.weight f4 [20]
000000 cd 2f 44 3f 28 c9 15 3f b8 3f c6 3e 05 36 5f 3f
       0.7663544 0.58510065 0.3872049 0.871918
000010 ea fe 04 3f eb 7c f7 3e 0d 7f 8f 3f 33 8e 1a 3f
       0.5195147 0.48337492 1.1210648 0.6037323
000020 9c 93 5a 3f fd b3 36 3f 5c db 99 3e a9 05 2a 3f
       0.85381484 0.7136839 0.3005017 0.66414887
000030 c5 4d 1c 3f b8 f9 0a 3f 1c de df 3e 48 12 30 3f
       0.61056167 0.5428729 0.43724144 0.68777895
000040 e1 c7 19 3f 74 35 63 3f 79 83 d5 3e b9 e5 45 3f
       0.60070616 0.8875344 0.41701868 0.77303654

encoder_mean.1.bias f4 [20]
000000 6d aa 98 3e 9a 80 45 be f5 e3 c8 bd 29 61 ba be
       0.29817525 -0.19287339 -0.09809104 -0.36402252
000010 e0 29 78 bd ea cc de bd 69 92 30 3e 42 ad 20 3e
       -0.06058681 -0.10878928 0.17243351 0.15691093
000020 0e 3a 00 be 97 e0 96 bd ad 7f 69 be ce bf e1 bd
       -0.12522146 -0.07367056 -0.2280261 -0.11022912
000030 52 f1 c2 bd 12 f1 1b be be 47 9a bd fb 6c 5d be
       -0.095186844 -0.1522868 -0.07533215 -0.21623604
000040 d7 41 54 be 71 8a cd 3d 96 61 4e be 16 17 ef be
       -0.20728241 0.10036171 -0.20154414 -0.466973

encoder_mean.1.running_mean f4 [20]
000000 49 2c 00 3f 27 a3 a9 3e ab 1a de be eb 08 72 3e
       0.50067574 0.33132288 -0.4337972 0.23636214
000010 c0 81 00 bd d8 0c 16 3e 91 0f 2b 3f 14 63 89 be
       -0.03137374 0.14653337 0.6682063 -0.26833403
000020 09 d3 34 3f 2c 56 51 3e 42 e7 23 3c 90 7b 10 bd
       0.70634514 0.20443028 0.010003867 -0.03527409
000030 4f cf 06 bf 9d ac b4 3d 14 4d 81 3e a4 16 fb 3d
       -0.5266008 0.08821986 0.25254118 0.12260178
000040 77 93 a9 be 9e 32 0a 3f cd 3e 0a be 62 80 27 be
       -0.3312032 0.53983486 -0.13500519 -0.16357568

encoder_mean.1.running_var f4 [20]
000000 34 9e e0 3c bb c3 58 3c f5 78 c3 3c ce 30 95 3c
       0.027419187 0.0132302595 0.023861388 0.018211748
000010 7f 4f 5d 3d 27 ed 8a 3d 70 ab d7 3c 30 6d 2b 3d
       0.05403089 0.067835145 0.026326865 0.041852176
000020 b6 93 da 3c 8a 1e b0 3c ff 8d 68 3d f9 2c 1e 3d
       0.026681762 0.021498937 0.056776043 0.038617108
000030 2b 45 3a 3d 2b 5a 7b 3d f7 13 c7 3c 6e e5 bb 3c
       0.04547612 0.061365288 0.024301512 0.022936549
000040 19 04 93 3c 8e 68 f7 3c dc f3 54 3d 18 0e ae 3c
       0.01794629 0.030201223 0.051990375 0.021246955

encoder_mean.4.weight f4 [16, 20]
000000 44 13 83 3e 66 0c 2b 3e 9a 6f 93 bd 51 59 1e 3e
       0.25600636 0.16703948 -0.07199021 0.15463759
000010 01 ba a2 3d 4a 94 e8 bd 62 f6 94 3e 9b 80 22 3e
       0.07945634 -0.11356409 0.29094225 0.15869372
000020 cb c3 8e 3e 7c 6a a2 3c 44 3f a5 3c 0d 27 49 3e
       0.27883753 0.019826166 0.020171769 0.19643803
000030 b2 40 6a bd f3 18 94 be 33 06 80 3d 62 8d 8f be
       -0.057190605 -0.28925285 0.062511824 -0.28037554
000040 01 58 41 be da af ca 3b 70 0d 2a bd 0a 7c 4f be
       -0.18881227 0.006185514 -0.04151672 -0.20262161
000050 bd 9f 8b bd e2 7c 23 bd 86 c0 aa bd 3e 6b f5 bd
       -0.06817577 -0.03991402 -0.08337502 -0.119833454
000060 e7 b0 8c 3b 20 b3 c0 bd 05 9d 76 bd 28 ab 52 be
       0.0042935493 -0.094091654 -0.06020834 -0.20573103
000070 4c a4 23 be f6 9e 8f 3d a2 ac f0 3a f6 59 35 bd
       -0.15980643 0.07012741 0.0018361995 -0.044275247
000080 2d 7a a9 bd 2c 3d 58 bd 9d b0 3b bd 79 0d 4d bd
       -0.08275256 -0.052792713 -0.04582273 -0.050061677
000090 a2 02 1a be 72 cb a3 bd 73 bd fb bd e3 54 34 be
       -0.15040067 -0.079977885 -0.12291994 -0.17610507
0000a0 ca 65 78 3d 32 e9 8a 3e ba ec 2c bd cf 76 0a 3e
       0.06064395 0.2713104 -0.042217948 0.13521884
0000b0 e6 40 3b be 54 5c a4 bc e1 90 ad bb 35 f9 3d 3d
       -0.18286476 -0.020063557 -0.005296812 0.04638024
0000c0 a4 3a 74 3e 2f b7 cb 3d b5 d1 07 3b b2 98 1a be
       0.23850495 0.09947049 0.002072436 -0.15097311
0000d0 a1 a9 3d be 52 44 ce bd 21 a4 93 3d 34 6b 11 be
       -0.1852174 -0.10071625 0.072090395 -0.14201051
0000e0 60 25 2a be 02 84 8e 3e 4f 5b f2 bd 7b 6f 2f be
       -0.1661582 0.2783509 -0.11833822 -0.1713237
0000f0 70 3c 96 be d3 81 18 bc bd 4e 4b 3d 38 16 6a bd
       -0.29342985 -0.009308296 0.049635638 -0.057150096
000100 75 78 47 bd 8c a8 cc 3d b1 db 8f be 79 26 0a be
       -0.04869886 0.09993085 -0.280973 -0.13491239
000110 a2 c6 3f be 76 1b 78 be 97 a4 9b 3d 24 59 99 bc
       -0.18728116 -0.24229226 0.075997524 -0.018719263
000120 c2 08 75 3d ed 37 57 3e 93 a8 b7 bd 09 f9 64 3e
       0.059822805 0.21017428 -0.089677 0.22360624
000130 59 f0 12 3e 01 b5 fe bd 69 04 24 3c a2 6d 99 3d
       0.14349498 -0.124368675 0.010010817 0.07491614
000140 0d aa 9b be a6 d4 47 bc 80 d5 b3 3d 30 ea 9a 3b
       -0.30403176 -0.012196695 0.08780956 0.0047276244
000150 ab 4d ab 3d b2 ba 19 bd cb ce 90 be 0a 56 8b bd
       0.08364423 -0.037531562 -0.2828277 -0.0680352
000160 e2 29 10 be 4b 06 7b bd 10 79 9e 3d 73 e1 87 3c
       -0.14078477 -0.0612853 0.077379346 0.016586995
000170 f6 27 02 3d 22 ef 58 3d b4 ed 98 bd 3a 0e 0f 3e
       0.03177639 0.05296243 -0.07467213 0.13970271
000180 16 6e e0 3d 79 e0 8a be d9 d8 81 bd d3 6b 97 3e
       0.10958497 -0.27124384 -0.063401885 0.2957445
000190 2d 34 ca 3d b7 aa fa 3d 6c c1 62 bb f8 4c d3 3e
       0.09873233 0.122395925 -0.0034600152 0.4126966
0001a0 80 d6 e4 bd 2a 60 5e bc 5f 84 8c be 5a c9 85 bb
       -0.11173725 -0.013572732 -0.2744474 -0.004082841
0001b0 ba ef d5 3d 2a 16 65 3e 28 d1 e1 bc d7 c6 83 bd
       0.10446115 0.22371736 -0.027565554 -0.0643441
0001c0 94 a2 c3 bc 13 16 5e 3c 59 2f 2e 3d 11 41 8a bc
       -0.023881234 0.013555068 0.042525623 -0.01687673
0001d0 48 37 c1 3d 82 44 04 3b 39 41 35 bd c4 1d 04 3e
       0.09434372 0.0020182435 -0.044251654 0.1290198
0001e0 25 5f 88 be de 46 9f bd 96 ee da 3d 53 e6 8f 3e
       -0.2663509 -0.07777189 0.10690038 0.2810541
0001f0 53 a0 e6 bc f1 dc 20 3d 9f 36 0a be ae a9 6c bd
       -0.02815262 0.039273206 -0.13497399 -0.057779007
000200 c9 89 b7 bd 86 64 14 3e 3d 20 b1 3d 35 a0 a1 bd
       -0.08961827 0.14491472 0.08648727 -0.07891885
000210 06 d4 d4 3d 15 ff 3c bc 04 dd bf bd 17 f0 8f 3d
       0.10392003 -0.011535426 -0.09368327 0.070282154
000220 1b 0b 96 3d 81 d9 05 be 8e f8 8b 3d 97 79 89 3e
       0.07326337 -0.13071252 0.068345174 0.26850578
000230 82 9c 0e 3e af 67 18 3e 81 0a ab bd aa fa 0f 3e
       0.1392689 0.14883302 -0.08351613 0.14060465
000240 67 65 fe bd a0 a5 3b 3b 04 5c 44 3e 51 dc 9c 3c
       -0.12421685 0.0028632656 0.19175726 0.019148024
000250 04 f2 be 3e 2b 1f 5b 3d 83 a8 01 bd 26 dd 00 be
       0.37294018 0.05349652 -0.031654846 -0.12584361
000260 b1 2c c8 bd 68 c5 7e 3d 8b 24 ab 3d 59 d0 5e be
       -0.09774149 0.06219998 0.083565794 -0.21759166
000270 be 77 96 bd 0c 12 7c 3e ee 0e fc ba 66 51 ce bd
       -0.07347058 0.2461626 -0.0019230524 -0.10074119
000280 25 33 12 3e d7 1f 36 3e 02 6b b4 bd 8b c4 31 3e
       0.14277323 0.17785583 -0.088094726 0.17360131
000290 29 0c 81 bc 66 85 9e bc 40 06 50 3e 9c 09 45 3d
       -0.015752869 -0.019350719 0.20314884 0.048104867
0002a0 f5 b9 9e 3e 85 35 c2 3d b1 3b 90 bd 04 50 2f bd
       0.3100125 0.09482864 -0.07042635 -0.04280092
0002b0 61 93 a2 bd 88 a3 3f 3c 38 18 04 3d ee f0 38 bd
       -0.079382665 0.011696704 0.03224966 -0.045151643
0002c0 0c 2d a7 3d fe 97 be 3e c9 e2 26 bd ed e4 e4 3c
       0.08162889 0.37225336 -0.040743623 0.027941192
0002d0 d8 69 b6 bc 93 fe 43 bb 9f 44 78 bd a6 60 bc bd
       -0.022267267 -0.0029906377 -0.060612317 -0.09198122
0002e0 64 cb 72 3d 67 62 88 bd ce 0e 05 3f be 72 3f bd
       0.059276 -0.06659394 0.51975715 -0.046740286
0002f0 27 12 44 be cb 38 ff 3c 4a 41 91 bd c3 5e ed bc
       -0.1914755 0.03115501 -0.07092531 -0.02897585
000300 b0 d4 01 3e ab b2 fa bc f9 03 19 bd af ea 24 3c
       0.1267879 -0.030602774 -0.037357304 0.010065719
000310 19 27 5b 3d 9c 85 2c be ec 58 ca 3d 32 1f 9e 3d
       0.053504083 -0.16847843 0.09880242 0.07720794
000320 64 2a 96 3d 1e f6 87 bd bb 6d d1 3d 9a 33 03 be
       0.07332304 -0.0663874 0.102260076 -0.12812653
000330 19 7e 64 3e 35 9f b8 bc 0a be c2 bd ff 00 7a 3e
       0.22313727 -0.022536853 -0.09508903 0.24414442
000340 8b d2 17 be f6 87 78 3c 44 66 44 bd a9 ff 58 3e
       -0.1482641 0.015169134 -0.04794909 0.21191277
000350 77 9b 3e 3e cd 26 8e bd e6 93 10 bd 0f 43 22 bc
       0.18613993 -0.069409944 -0.035297297 -0.009903683
000360 c1 47 9a bd cc 21 a7 bd b4 c5 ca 3d 5d 28 f5 3c
       -0.07533217 -0.08160743 0.0990099 0.029926473
000370 48 18 d4 be 67 09 30 3d fa 83 9e 3c 49 ab c8 3e
       -0.41424775 0.042977717 0.01935004 0.3919318
000380 03 53 41 bc 3d 2e ca bc ff 75 69 3d c7 38 1e 3d
       -0.011799577 -0.024680251 0.056997295 0.038628366
000390 27 24 04 3e 7f dd 90 3e 1a cf d4 3c eb 91 26 bc
       0.12904416 0.28293988 0.02597766 -0.0101666255
0003a0 34 80 13 3d e8 c8 8b 3b 05 0c 19 bd 25 b9 df 3d
       0.036010936 0.0042658933 -0.03736498 0.109239854
0003b0 51 0e a3 3c ef 71 62 3d 58 d6 e9 bd 2e 74 73 3e
       0.019904288 0.055284437 -0.11417836 0.23774788
0003c0 5f 47 7d be 9c 21 9a bd 78 8e 24 3c 35 12 33 3e
       -0.24734257 -0.07525942 0.010043733 0.17487414
0003d0 09 b2 66 3c 6b 6b a3 3d 23 59 8b be b1 a8 7e be
       0.014080533 0.07979473 -0.27216443 -0.24869038
0003e0 4e f9 18 be 63 18 d9 3d 9c 74 42 bd 7e b0 bc bc
       -0.14938852 0.106003545 -0.04747449 -0.023033377
0003f0 e0 1a b6 bc 6e 4d ca 3d df c7 d7 bc f8 9f 91 3e
       -0.022229612 0.0987805 -0.026340423 0.2844236

encoder_mean.4.bias f4 [16]
000000 ea 6e 3b b7 3b cf ff b9 8b fc 14 ba 75 64 0b 3a
       -1.1171893e-05 -0.0004879179 -0.0005683384 0.00053173985
000010 a3 80 49 39 50 43 27 39 db 55 5f b8 2e c1 88 37
       0.00019216775 0.00015951437 -5.3247302e-05 1.630242e-05
000020 75 57 fc b7 c0 2a 24 b9 f4 77 aa b7 ad d1 24 38
       -3.0081466e-05 -0.00015656184 -2.0321437e-05 3.9295923e-05
000030 45 9b 62 b9 fb 48 c5 38 64 2c 51 b8 84 01 a0 38
       -0.00021610882 9.407286e-05 -4.9870825e-05 7.629677e-05

encoder_mean.5.weight f4 [16]
000000 a4 b3 37 3f 77 29 f2 3e 45 72 28 3f ad c2 2d 3f
       0.71758485 0.4729726 0.6579936 0.67875177
000010 07 ed 3e 3f a5 66 37 3f dd 2d 36 3f 06 5b 32 3f
       0.74580425 0.71641 0.7116373 0.6967014
000020 ab 6e 2f 3f 3d 0b 37 3f 22 01 20 3f 9f 57 2e 3f
       0.6852824 0.71501523 0.6250173 0.6810245
000030 d7 fc 30 3f 70 67 48 3f 14 19 32 3f cd 72 36 3f
       0.69135803 0.78282833 0.69569516 0.7126892

encoder_mean.5.bias f4 [16]
000000 22 5e bb 3d 9e 81 9d bd 9d 51 1c 3e 41 94 0f be
       0.09148814 -0.07690738 0.15265508 -0.14021398
000010 31 5b 74 be 93 90 e7 3d e1 16 04 be 65 e1 a1 3d
       -0.23862912 0.11306872 -0.12899353 0.07904319
000020 fa a6 12 be f1 02 85 be dd 06 8c be 06 5b 1a 3e
       -0.14321509 -0.25978807 -0.27348986 0.15073785
000030 e5 0e 10 bd 93 12 b0 3d a6 af f9 bd 83 a4 d9 bd
       -0.035170455 0.08597293 -0.121917054 -0.10627081

encoder_mean.5.running_mean f4 [16]
000000 0f f5 a1 3e 4e 2d b8 be 83 41 e0 3d 84 b5 b6 be
       0.31632277 -0.35972065 0.10949995 -0.3568536
000010 17 72 ad be af d4 c2 3d 23 56 fa bd 70 6f a4 3e
       -0.33876106 0.095132224 -0.122234605 0.3211627
000020 1c 1a e8 3e 10 05 0f 3e 72 e3 70 3d 3e c8 b7 3d
       0.4533242 0.13966775 0.05881066 0.0897374
000030 7a 0e 40 be f8 a9 19 3e e2 b2 9a be a5 38 e3 3d
       -0.18755522 0.15006244 -0.30214602 0.110947885

encoder_mean.5.running_var f4 [16]
000000 ee 98 15 3f 71 e9 8c 3d e0 d5 c2 3e 6f 7c 04 3f
       0.5843648 0.06880463 0.380538 0.5175237
000010 96 a3 f9 3e 54 72 a9 3d 03 51 62 3e 05 99 fe 3e
       0.4875762 0.082737595 0.22101216 0.4972612
000020 3b d6 02 3f 31 3a 83 3d a1 be 5d 3e 16 14 14 3e
       0.5110814 0.064075835 0.2165475 0.14460787
000030 98 0e e3 3e 7d 61 cf 3d 14 81 13 3f 9a 4c a9 3e
       0.44347072 0.10126016 0.5761883 0.33066255

encoder_mean.8.weight f4 [14, 16]
000000 10 35 8a be 8f 2d 36 bd b7 9a e3 bd 22 ab fe 3d
       -0.26993608 -0.04447704 -0.11113494 0.12434985
000010 5c ce a0 3e 5c 8e de 3c 18 6d 3f 3e 38 70 25 be
       0.3140744 0.027167492 0.1869396 -0.1615609
000020 90 2d 60 be ce 9f 22 be 76 bd 12 be 3a 08 14 3e
       -0.2189238 -0.15881273 -0.14330086 0.14456263
000030 2b 3d 4b 3e 81 3c 45 3e ed 2f 15 bd 6c 9e 34 be
       0.19847552 0.19261362 -0.03642266 -0.17638558
000040 ee a4 67 3d a8 89 23 3c 67 f4 f8 3d ca ea 0c be
       0.056553774 0.00998155 0.12155991 -0.1376144
000050 6e f9 a4 be e9 6c 85 bc 1f 75 72 be 07 e0 2c 3e
       -0.3222155 -0.016287284 -0.2367749 0.16882335
000060 04 77 ce 3c a4 c7 04 3e ca 0d 16 be a7 bd eb 3c
       0.025203235 0.12966782 -0.14653698 0.028776957
000070 92 db 78 be 69 40 5a be 05 ad 86 be 5f e5 96 bd
       -0.2430251 -0.21313633 -0.26303878 -0.07367968
000080 fa 78 03 be 5d 7b bf 3d bb cc 0a be a2 89 56 3e
       -0.12839118 0.093497016 -0.13554661 0.2095094
000090 90 8d 3b 3e 0c aa 08 3e 95 1f 68 3e 1d 2a 4b be
       0.1831572 0.13346118 0.22668298 -0.19840284
0000a0 b7 64 17 be d6 97 04 be 16 57 31 be 38 ef a9 3d
       -0.14784513 -0.12948546 -0.17318377 0.082975805
0000b0 62 9e e0 3d 96 b9 03 3e 42 1b 12 3d a2 a1 67 be
       0.10967709 0.12863764 0.035670526 -0.22620252
0000c0 16 a6 e2 3d 17 35 e2 bd e2 bf 3d 3e 62 3d 0f be
       0.11066835 -0.11045282 0.18530229 -0.1398826
0000d0 a1 41 8e be da f9 62 3c ca 90 83 be c4 45 4c bc
       -0.27784446 0.013853515 -0.25696403 -0.012467805
0000e0 f4 27 ae 3d b8 66 ac 3d a5 12 93 be b4 03 15 3d
       0.08503714 0.084180295 -0.28725162 0.036380485
0000f0 9f a4 29 be f7 7d 3c be 7d 89 32 be 20 1d 2b 3c
       -0.16566704 -0.18407427 -0.1743526 0.010443956
000100 be 2b 90 be cd a2 06 be ee c3 1b be 6a 01 6f 3e
       -0.28158373 -0.13148041 -0.1521146 0.23340383
000110 83 58 42 3e 74 e7 62 3d d9 77 6b 3e 2e ff 25 3d
       0.18979077 0.055396512 0.22994937 0.04052656
000120 06 85 4e bd a9 46 1d be 99 cf 83 bd db f4 d6 bc
       -0.05041983 -0.15358986 -0.064360805 -0.026239803
000130 fe 18 16 3e a4 1c 80 3d 2c 12 e6 3d a9 d6 23 be
       0.14657971 0.06255463 0.11233935 -0.15999855
000140 5f 58 83 3c 10 3a c1 bd 8d 1e 11 3e d2 10 af bd
       0.01603335 -0.09434903 0.1417181 -0.0854813
000150 51 fa b3 bd 05 3b 6f 3e 13 5c e5 bd b8 20 0d 3e
       -0.087879784 0.23362358 -0.111992024 0.13782012
000160 ed 24 e4 3d 03 b4 7b 3e 22 db 82 be 42 0f 5a 3e
       0.111398555 0.24580388 -0.2555781 0.21294883
000170 86 62 81 bd 5e b3 91 3e 3d 18 f3 bd d8 4e d0 3c
       -0.0631762 0.2845716 -0.118698575 0.02542822
000180 cc ef ce bd 86 8c 1b be 79 74 40 be 7f 3b 21 3e
       -0.101043314 -0.15190324 -0.18794431 0.15745352
000190 c1 88 cd 3d 69 a6 1f 3e 49 05 e9 3d d3 5a 16 bd
       0.10035849 0.15590824 0.11377961 -0.03670771
0001a0 6e 45 57 bd 0a 0b d6 bd 0e 07 53 be 48 13 59 3e
       -0.052556448 -0.10451324 -0.2060816 0.21198761
0001b0 35 35 90 3d c7 37 56 3d 0b 8a bd 3e ef aa 5d be
       0.070413984 0.052299287 0.3701938 -0.21647237
0001c0 f4 88 ee 3d 27 e0 fd bd 63 d3 b1 3c 63 66 81 bc
       0.116472155 -0.12396269 0.021707242 -0.015795892
0001d0 a4 26 0c 3d bf b4 a4 3e 1d 7e ea 3d 7b d0 36 3d
       0.034216538 0.32169148 0.114498354 0.044632416
0001e0 74 1b 24 3e 5a fb 70 3e bf 74 9f 3c fe e8 74 3e
       0.16026098 0.23533383 0.019464849 0.23917004
0001f0 af 08 0a 3c 4d 38 1e 3e b4 09 b9 bd c7 c1 26 3e
       0.008424922 0.15451165 -0.09035054 0.16284858
000200 ca b6 09 3e 6d a1 01 be f7 54 d7 bd f6 62 4d bd
       0.13448635 -0.12659235 -0.10514253 -0.050143205
000210 43 c4 12 3e e5 7c 86 3e 4c 2b 1b 3e 29 40 ca bd
       0.1433268 0.26267162 0.15153235 -0.09875519
000220 8b 9e 84 be 2e 9e 2b 3e 24 12 a5 bd 5a d0 2b 3e
       -0.2590221 0.1675956 -0.08060101 0.16778699
000230 ea e2 06 3e 49 78 6b 3e 27 93 28 be 3e 9a 0a be
       0.13172498 0.22995104 -0.16462384 -0.13535401
000240 64 e9 1c 3e 44 59 38 bd 68 2d 51 3e 83 63 78 be
       0.15323406 -0.045007005 0.20427477 -0.2425671
000250 35 95 98 be 3b 04 63 be 0b 96 18 be 60 cc 7b 3e
       -0.29801336 -0.22169583 -0.14900987 0.24589682
000260 47 bb 0f 3e c6 5f 10 3e 0f 4f a0 3d fb a1 ba bd
       0.14036284 0.14099035 0.07827579 -0.091129266
000270 55 bc 96 be ae 70 16 be 51 f6 58 be 96 56 a7 bd
       -0.2944056 -0.14691421 -0.21187712 -0.08170812
000280 af f9 cf 3d 5d 27 0d be 9c 11 fe 3c eb 0d b9 bd
       0.10155045 -0.13784547 0.031014256 -0.09035858
000290 3a 55 28 3c a5 8f 04 3e 33 83 11 3e 61 80 61 3d
       0.010274226 0.12945421 0.14210205 0.055054072
0002a0 ed 78 0d 3e c9 a7 73 3e 94 0e 86 bd ba 5e 8b 3e
       0.13815661 0.23794474 -0.06545749 0.27220708
0002b0 60 13 33 3d ba e1 89 3e d7 1e 0a bd 6c 33 60 3e
       0.04371965 0.26930028 -0.033720817 0.21894616
0002c0 4c ef 64 be a6 ba a7 3d 4c 6f 22 3d ec 75 6b 3e
       -0.2235691 0.08189897 0.039656922 0.22994202
0002d0 d7 0e 3d 3e 62 a4 6f 3d e8 af 9e 3d 88 30 46 be
       0.18462692 0.058506377 0.07748395 -0.1935445
0002e0 c9 23 86 be ef 1f 08 be 71 89 44 be 75 20 c0 3d
       -0.26199177 -0.13293432 -0.19193055 0.09381191
0002f0 83 de 0c 3e 94 e5 0c bd 64 2e fd bd 19 a5 a0 be
       0.13756756 -0.03439863 -0.12362364 -0.3137596
000300 3c 2d cb 3d 2e b9 93 bc fe 08 ff 3d 13 01 5a be
       0.09920737 -0.018032636 0.12452887 -0.21289472
000310 01 2e d0 bd ef 2b 78 3e d8 74 07 3e 51 b2 df 3d
       -0.101650245 0.2423551 0.13228166 0.10922683
000320 14 ac 05 3e 8a 51 6f 3d 4a d4 8b be e5 2e d1 3d
       0.13053924 0.05842737 -0.273104 0.102140225
000330 25 0e 13 3d df f4 9a 3d 18 73 b7 be bc e5 33 3c
       0.03590216 0.07566237 -0.35829997 0.010980066
000340 5a b8 28 3d 5e 05 03 3d 4c 45 82 be ca 87 86 3c
       0.041191436 0.03198754 -0.25443494 0.016422171
000350 8c 5e b4 3d 00 0c 1c 3e 4c 00 3f 3e 8e 21 5c be
       0.08807096 0.15238953 0.18652457 -0.21497175
000360 e2 af f1 bd 11 23 07 be c7 a3 4a 3e 45 5b be 3d
       -0.11801125 -0.1319697 0.19789039 0.09294752
000370 99 9e 78 3d 5c c8 18 3e 3c f2 1e 3e 2d ff e4 3e
       0.060698126 0.14920181 0.15522093 0.44725934

encoder_mean.8.bias f4 [14]
000000 a3 92 7d 39 32 db 0e 39 c8 e4 ba 38 f4 a6 fe b9
       0.00024182587 0.00013623832 8.911785e-05 -0.00048571045
000010 b8 af d2 b8 19 cb 57 ba 26 32 a5 38 57 cd 02 b7
       -0.000100463105 -0.0008231863 7.877154e-05 -7.796413e-06
000020 71 7f 50 39 78 2a 07 b9 a5 05 17 ba 07 9e f3 37
       0.00019883901 -0.00012890424 -0.0005761034 2.9041445e-05
000030 83 06 84 39 1a 59 10 b8
       0.00025181854 -3.4415258e-05

encoder_mean.9.weight f4 [14]
000000 f0 66 3a 3f eb 09 28 3f 4e 30 37 3f 04 f0 2a 3f
       0.7281332 0.65640134 0.7155808 0.66772485
000010 2e 36 1d 3f 59 74 2d 3f fa d9 19 3f c4 15 38 3f
       0.61410797 0.6775566 0.6009823 0.7190821
000020 8b 4c 29 3f 6a 78 50 3f d8 2b 2c 3f cb fc 1c 3f
       0.6613242 0.8143374 0.672544 0.6132323
000030 57 a2 42 3f e8 9b 2a 3f
       0.7602896 0.66644144

encoder_mean.9.bias f4 [14]
000000 d5 c0 df 3d 24 21 83 3e 09 63 fb 3d ce 9c 4c 3e
       0.10925452 0.25611222 0.12274749 0.19981691
000010 c8 35 a5 3d 01 18 b7 3e 08 ec 67 3d c9 ac fb 3e
       0.080668986 0.357605 0.05662158 0.49155262
000020 ce 4a dc 3d f5 6b df 3e 64 c8 e2 3e d8 9b 0a 3e
       0.10756455 0.43637052 0.4429351 0.13536012
000030 c8 01 a3 3e c1 04 d4 be
       0.31837296 -0.41409877

encoder_mean.9.running_mean f4 [14]
000000 60 ee 36 bd 03 93 17 be fd c8 97 3c be cc ee bd
       -0.044660926 -0.14802174 0.018528456 -0.11660145
000010 67 b2 26 3c d5 3c 64 3e 71 c8 92 3d 3b 9f c5 3e
       0.01017437 0.2228883 0.071671374 0.38598046
000020 10 35 07 3e c9 be aa bd 86 c4 bd 3e 7d fb 2f be
       0.13203835 -0.08337171 0.37063998 -0.17185779
000030 22 ce 00 3e 1a e7 27 3e
       0.12578633 0.16396752

encoder_mean.9.running_var f4 [14]
000000 d8 b8 08 3f 69 87 af 3e ed 72 d4 3e b5 d1 8d 3e
       0.5340705 0.34282997 0.4149393 0.27699056
000010 73 4b 97 3e 31 2a e3 3e 14 e2 8d 3e b4 fd ca 3e
       0.2954975 0.44368127 0.27711546 0.39646685
000020 f7 18 94 3e 66 64 0e 3f f8 23 c0 3e 53 21 bf 3e
       0.28925297 0.55621946 0.37527442 0.37330112
000030 a9 8c 9e 3e a8 35 82 3e
       0.3096669 0.2543156

encoder_mean.12.weight f4 [12, 14]
000000 70 24 93 be e5 e2 e3 3d e2 01 54 be c0 bd ff 3c
       -0.28738737 0.11127261 -0.20703843 0.03121841
000010 f7 47 87 be f7 ac 44 3d fc f9 09 be d1 31 86 3e
       -0.26422092 0.048016515 -0.13474268 0.26209882
000020 f0 2f c5 bd fb 27 d2 bc 34 85 92 3d f5 be 41 be
       -0.09628284 -0.02565383 0.07154313 -0.189205
000030 7f cc 4d 3d 6a cb 61 be e1 ba 3e 3d c4 97 8c be
       0.05024385 -0.22050253 0.04656494 -0.27459538
000040 e0 ec 0a 3e de 72 91 be e6 59 13 3e 47 eb 9a bd
       0.13566923 -0.2840795 0.14389762 -0.07564407
000050 5a f4 28 3e e8 1a a1 3d cd cf a3 bd 95 5a 4e be
       0.16499463 0.0786646 -0.07998619 -0.20151742
000060 67 c4 e5 3d 55 51 dd 3d 79 98 ca bd d3 e0 54 be
       0.112191014 0.108065285 -0.09892363 -0.20788889
000070 0f d9 2b be f9 72 f7 3d 71 ba 96 be 97 17 d5 3d
       -0.1678202 0.12082476 -0.29439119 0.1040489
000080 ad 30 61 be 35 06 3a 3e 66 4b 4e be fb 70 e5 3c
       -0.21991225 0.1816643 -0.2014595 0.028007975
000090 d5 d2 ae bd 90 d1 99 3d a6 e4 2f 3e 79 4f 0e be
       -0.08536307 0.07510674 0.17177066 -0.13897504
0000a0 a4 5b 22 3e 4c 4d 63 be a5 ee 85 3e eb d5 33 be
       0.1585527 -0.22197455 0.26158634 -0.17562072
0000b0 22 ea 04 bc b1 27 62 be b5 38 69 3e e8 8f 58 be
       -0.008112462 -0.22085454 0.22775538 -0.21148646
0000c0 97 08 f7 3d 56 6c c7 bc 4b ef 18 be bb c0 8f be
       0.12062185 -0.02434365 -0.14935033 -0.2807673
0000d0 7b af 88 ba f4 50 4c 3e 35 fc 77 be 1d ce 40 be
       -0.0010428274 0.19952756 -0.24217303 -0.18828626
0000e0 8f 81 02 bd 6a 2d 99 bd 03 83 5f bd b4 3f 4b be
       -0.031861838 -0.07479365 -0.054568302 -0.1984852
0000f0 bc f9 b4 bd 97 9a a4 be ba c0 cb bd bb 35 9b be
       -0.088366956 -0.32149193 -0.09948869 -0.3031443
000100 35 2a cb be e1 6c 0a be d0 d8 80 be fe 12 95 3d
       -0.3968064 -0.13518097 -0.25165415 0.07279013
000110 aa 48 8e be fe fc 75 bc fa a7 79 bd d9 c7 cd be
       -0.27789813 -0.015013931 -0.06095121 -0.40191534
000120 49 96 1b 3b 70 aa 71 be 70 14 1a 3e 7c 2c 21 3d
       0.00237407 -0.23600173 0.15046859 0.039349064
000130 ef 63 3e 3e 0e 5c cb 3d cb bb a3 3d f3 d1 99 be
       0.18592809 0.099296674 0.07994803 -0.3004299
000140 cb 77 82 3e cc c9 f8 3c 37 09 3e 3d 6c d7 2c 3b
       0.2548202 0.030369662 0.046395507 0.0026373519
000150 5f 81 1f 3e 78 5e 94 be 4d 9b e4 3d ce a3 9d be
       0.15576695 -0.28978324 0.11162434 -0.30789036
000160 74 0a 61 3d 06 68 bf 3d 00 08 11 3e 72 a1 f8 3d
       0.05494161 0.09346013 0.14163208 0.12140168
000170 f2 70 68 3e b2 b0 98 be 78 58 f5 3d a7 ac 5a bc
       0.22699335 -0.29822308 0.11979765 -0.013346828
000180 42 ff ae 3d 52 97 9f bd a3 be 83 3d 73 78 cb bd
       0.0854478 -0.07792534 0.064328454 -0.09935083
000190 34 5d 87 3c e8 71 80 bd 6c 14 91 bd b5 8c 67 3d
       0.016523935 -0.06271726 -0.07083973 0.056530673
0001a0 3d 46 27 bd 13 70 b9 3e 16 57 8d 3e 56 24 95 be
       -0.04083847 0.36218318 0.27605504 -0.29129285
0001b0 8a 0b 7b 3e ef 91 6e bd e9 c3 22 3e 90 66 28 3e
       0.2451612 -0.058244642 0.15895046 0.16445374
0001c0 bd 03 6c be 38 f3 b9 3c b4 2c 23 be 35 92 34 3d
       -0.23048301 0.022698984 -0.15935022 0.044084746
0001d0 22 d1 86 bd fe 6c 6d 3e ad 05 6b 3b d4 b5 19 3e
       -0.06582858 0.23186108 0.0035861537 0.15010768
0001e0 66 68 9d 3d d4 67 6f 3a b1 b3 96 3e 40 11 a1 bd
       0.07685928 0.0009132598 0.2943397 -0.07864618
0001f0 c0 71 15 3e 92 dd a5 be fa 72 9e 3d c0 14 5d be
       0.14594173 -0.32395607 0.07736774 -0.21589947
000200 c2 e7 40 3e d0 a9 83 be d3 1b 1c 3e 66 2c 7e bd
       0.18838409 -0.25715494 0.15244989 -0.06205406
000210 2d 89 0e 3e da d1 5e bd 35 94 47 bd a4 fa 0f be
       0.13919516 -0.05439935 -0.048725326 -0.14060456
000220 f9 21 5e bd 48 54 b0 bc 13 0e 79 be 26 d1 4a be
       -0.054231618 -0.021524563 -0.24321775 -0.19806346
000230 d7 17 99 bd af ca 5e bd cc af 72 bd 86 9f 14 be
       -0.0747525 -0.054392513 -0.059249684 -0.14513978
000240 29 8a 01 be 2d 17 7c be a1 7b 50 be bc 3b 9b be
       -0.1265036 -0.24618216 -0.2035966 -0.3031901
000250 2d dc 74 be 44 44 0b be e5 c9 b0 be 74 00 87 3d
       -0.23912115 -0.1360026 -0.34529033 0.06591883
000260 e2 b3 5d be 99 a2 90 3e 35 dd 8b be f1 05 6a bc
       -0.21650651 0.28249052 -0.27317205 -0.014283643
000270 46 54 7a be 5f cd ed 3d 5c c9 c7 bd b9 8d 21 3e
       -0.2444621 0.11611437 -0.09755203 0.15776719
000280 d9 07 ca bd a8 25 06 3e c0 0d a3 3d ad f1 9e 3e
       -0.09864778 0.13100302 0.07961607 0.3104376
000290 8e fb 32 3e 3c e7 d8 be b2 2c d1 3d ea 91 5f 3c
       0.17478773 -0.42363918 0.10213603 0.0136456285

encoder_mean.12.bias f4 [12]
000000 5a 79 da b9 47 2e e5 b9 58 78 f7 39 b9 2e a5 39
       -0.00041670614 -0.00043712763 0.00047201174 0.00031506064
000010 b4 54 0f 3a ec da 6b 38 a1 cb 2a 39 16 2d 95 39
       0.0005467639 5.6232253e-05 0.00016288321 0.00028453086
000020 77 be 81 39 86 30 99 38 70 29 58 3a d6 30 12 b9
       0.00024746705 7.304647e-05 0.0008245921 -0.00013941838

encoder_mean.13.weight f4 [12]
000000 51 1c 7c 3f 67 b9 6f 3f 6b 7c 64 3f e1 dc 7b 3f
       0.9848071 0.93642277 0.89252347 0.9838391
000010 f9 03 9e 3f 92 6c 62 3f 69 73 54 3f e3 9f 72 3f
       1.2344962 0.88446915 0.829886 0.9477522
000020 7e 80 6d 3f 18 5f 6d 3f 0c 1a 8b 3f 66 34 82 3f
       0.9277419 0.92723227 1.0867324 1.0172241

encoder_mean.13.bias f4 [12]
000000 07 ad 83 3e 2a 91 ef 3d bf 77 bb 3e 04 13 87 3d
       0.25717947 0.1169761 0.36614797 0.06595424
000010 ae 99 32 3d 72 08 49 3e 86 32 6b 3e bd 5a e1 3e
       0.04360359 0.19632128 0.22968492 0.4401454
000020 c1 71 c0 3e fb db 71 3d ad 94 0b 3e f4 f1 9d 3c
       0.37586787 0.05904768 0.13630934 0.019280411

encoder_mean.13.running_mean f4 [12]
000000 16 28 da bd d0 35 5f be 39 64 9e 3d 0e 53 be be
       -0.10652177 -0.21797872 0.0773396 -0.3717274
000010 0a 7d 67 bf 41 6a 28 be 30 ff a2 bd a0 c5 4a 3e
       -0.9042517 -0.16446783 -0.079588294 0.1980195
000020 87 6a 60 3e 0d 11 c1 be 5e 56 46 bf 45 00 10 3e
       0.21915637 -0.3770832 -0.77475536 0.14062603

encoder_mean.13.running_var f4 [12]
000000 86 a7 aa 3e ff 90 b6 3e a5 85 12 3f 6b d1 27 3f
       0.33330935 0.35657498 0.57235175 0.6555392
000010 65 d6 a1 3f e0 06 d3 3e e0 fa 0a 3f 46 db f7 3e
       1.2643553 0.41216183 0.54289055 0.4840948
000020 2d 84 d8 3e e9 1c e7 3e 51 c3 75 3f 1b a8 1f 3f
       0.42288342 0.45139244 0.96001154 0.62365884

encoder_mean.16.weight f4 [10, 12]
000000 3d 77 4c be eb 17 63 3e 5c ea 7b be b5 1b db 3e
       -0.19967361 0.22177093 -0.2460112 0.42794576
000010 dd 98 db 3e 04 ef c6 bc 15 40 f4 bd 20 bc 68 be
       0.42890063 -0.024283893 -0.11926285 -0.22728014
000020 45 e4 ad be 06 a3 07 3f 14 f6 a0 3e 6f 5d fb be
       -0.33963218 0.5298313 0.31437743 -0.49094722
000030 a8 42 b9 be 49 46 e2 3e 6d eb a3 be 59 5e c7 3e
       -0.36183667 0.44194248 -0.32015553 0.3893917
000040 a8 0b 0b 3e 88 c1 ba 3e 60 90 83 3e bd e4 16 3e
       0.13578665 0.36475778 0.25696087 0.14735694
000050 54 e9 21 be fe 25 99 3e 00 1a 0c be e0 91 93 be
       -0.15811664 0.29911798 -0.13681793 -0.2882223
000060 70 1f 73 3e 11 be 94 be fd 29 94 3e 92 c0 88 be
       0.23742461 -0.2905126 0.28938285 -0.2670942
000070 f2 40 c5 bd ed ac 98 be 78 4d 8b be 4c 5f 42 bd
       -0.09631528 -0.29819432 -0.2720754 -0.047454163
000080 15 be 8c 3c 73 6e a6 be 1a 44 ec bd a9 74 0b 3e
       0.017180482 -0.3250614 -0.11536427 0.13618721
000090 bd 1f 85 3d e7 4e ca be b3 7b 48 be b6 40 cd be
       0.06500194 -0.39513323 -0.19578438 -0.40088433
0000a0 65 d1 57 3e 2f 53 4e be 9f 14 87 bd 23 63 23 be
       0.21075971 -0.2014892 -0.0659573 -0.15955786
0000b0 f0 be a7 bd de 7a 50 be 29 85 e3 3e 01 95 40 3e
       -0.08190715 -0.2035937 0.4443753 0.1880684
0000c0 f2 43 2a be 42 ab 7f bd 16 55 30 be f8 fb bb bc
       -0.16627482 -0.062419184 -0.17219958 -0.022947297
0000d0 25 5c 47 3e 03 1e 05 3d aa ba 21 bd 33 7b a4 bd
       0.19468744 0.032499325 -0.039484657 -0.08031311
0000e0 e7 e3 48 bd 92 5e 87 3c 24 d0 6c 3e a3 df 89 3e
       -0.04904547 0.016524587 0.23126274 0.26928434
0000f0 e7 31 cf bd cd ae 5f 3c 9f fb b0 3d 44 66 b9 3c
       -0.1011694 0.013652516 0.08641743 0.022631772
000100 0c 45 0d bf 83 bb 83 3d 72 e6 84 3e 8e f3 be 3e
       -0.5518348 0.064322494 0.25957066 0.37295192
000110 75 eb 4b 3e ca ac 30 3e 01 57 a3 be a7 0f 59 bd
       0.19914038 0.17253414 -0.31902316 -0.052993443
000120 ec d2 16 bd 9d 10 ae 3d af d7 ef bc 40 4b 9e bd
       -0.036822245 0.084992625 -0.02927765 -0.077291965
000130 7e 73 fe be eb bd 27 3e 0f e8 8b 3e c0 bd 71 3e
       -0.4969749 0.16381042 0.27325484 0.2360754
000140 53 ce c1 3d e4 95 b7 3d be e9 ec be f4 d0 6d be
       0.09463181 0.08964136 -0.4627208 -0.2322424
000150 09 c6 90 3e e5 55 dd 3d 71 81 50 bd 9e 4c bb bd
       0.2827609 0.10807399 -0.050904695 -0.09145473
000160 d7 32 28 bf b4 8d b2 3e c9 ad ba 3e 4e a1 cc 3e
       -0.65702575 0.34873736 0.36460713 0.39966816
000170 ff b4 7c 3e f0 17 f1 bc 2d 11 c0 be 02 b8 d0 3e
       0.2467842 -0.02943036 -0.37513104 0.40765387
000180 4f e1 48 bd 27 f1 29 3e 9a 40 27 3d fc e8 54 3e
       -0.049042996 0.16595899 0.040833093 0.20792001
000190 0b 6f 83 be 46 f8 18 3e 0d 66 97 bc e4 74 51 bd
       -0.25670657 0.14938459 -0.018481279 -0.051136866
0001a0 a2 cc 27 3e 38 1c c8 3d 97 3d 35 be 58 34 52 be
       0.16386655 0.09771007 -0.17699276 -0.2052778
0001b0 d3 81 bb 3e 45 a9 ab be d5 71 be 3e 9b 22 96 be
       0.36622486 -0.3352758 0.37196222 -0.29323277
0001c0 bc 76 f6 be 98 15 4b be be 49 8e be 1e 4d 68 3d
       -0.48137462 -0.19832456 -0.27790636 0.05671417
0001d0 8e 6a d0 3e fd 09 e2 be c5 a3 e0 be 97 3f ee 3d
       0.40706295 -0.44148245 -0.43874946 0.116332226

encoder_mean.16.bias f4 [10]
000000 8e 6b 18 bd cf dd 33 be c2 d8 93 3e 52 b9 93 3e
       -0.037211947 -0.17565082 0.2887631 0.28852326
000010 74 b9 d1 bc d5 ed 13 bd 88 08 4c 3e 1b 2a b5 be
       -0.025601126 -0.036115486 0.1992513 -0.35383686
000020 61 8c 8f bc 1a ba b0 3e
       -0.017522993 0.34516984

encoder_var.0.weight f4 [20, 30]
000000 af 7f 3b 3b 4f 6b 31 bc bf 47 4b bc 55 4b 42 3b
       0.002861004 -0.010828807 -0.012407242 0.0029646952
000010 02 20 26 3c 0b 3a 79 3b f8 dc b4 39 40 fa 10 3c
       0.010139467 0.003802898 0.0003449691 0.008848727
000020 16 dd 26 3a 34 e4 b3 bb 15 bb 74 bc c3 eb 46 3b
       0.0006365342 -0.0054898504 -0.014937182 0.0030352927
000030 08 fe c9 ba ea 30 14 3b 47 76 1e bb 4e 1a 2b 3c
       -0.001541079 0.0022612163 -0.0024179386 0.010443283
000040 fb 5b 0d 3b 6f f4 97 bb 62 17 97 bb 6b 19 dc ba
       0.0021569717 -0.004637293 -0.0046109417 -0.0016792243
000050 cf 94 31 3b 29 e8 c0 bb 99 92 3a 3b 4d 51 98 3b
       0.0027096753 -0.0058870506 0.0028468727 0.0046483637
000060 40 b9 f8 3b 8a 49 0f 3a f0 9f 73 b9 5a 96 2c bb
       0.007590443 0.0005465975 -0.00023233867 -0.0026334734
000070 2b 98 88 3b df a9 ba bd 12 7d 02 3d 86 8e 7c bd
       0.0041685305 -0.091144316 0.031857558 -0.06165936
000080 21 e6 20 bc 57 86 f8 3b 40 6e a7 ba db cc c9 3b
       -0.009820492 0.007584374 -0.0012773946 0.006158454
000090 68 64 54 3a b2 b3 a5 3b b0 09 7b 3c 74 d6 35 bc
       0.000810212 0.0050568217 0.015322134 -0.011098493
0000a0 68 21 76 bb f1 ec 82 3b e8 b7 48 bb 04 fb 9a bb
       -0.0037556533 0.003995531 -0.0030627195 -0.0047296304
0000b0 c2 b6 d9 3b 58 d5 75 3c 0b 63 3f 3c e2 0f 34 3a
       0.006644101 0.015004478 0.0116813285 0.0006868822
0000c0 5e 53 9d 3c ac c0 8d bb 43 c6 cc 3b 9a ed d0 bb
       0.019204792 -0.004325947 0.0062492206 -0.0063759806
0000d0 80 11 db b8 56 42 93 3b a2 f8 18 bb 30 6a 41 bc
       -0.000104459934 0.004493992 -0.0023341556 -0.011805102
0000e0 7d fc 37 3c be 12 d0 3b 73 f2 21 bc 70 a8 cf bd
       0.0112296315 0.0063498905 -0.009884465 -0.10139549
0000f0 9f 50 a4 3a 57 a1 96 3b 8d 04 25 3c 5d 93 2a bc
       0.0012536234 0.00459687 0.010071886 -0.010411111
000100 48 b7 28 bc 1a 0f 75 3c b7 a0 c6 3a 95 e8 ef b9
       -0.010297604 0.014957214 0.0015154098 -0.0004575892
000110 c7 c9 5a 3c aa 53 0c bc ce 05 02 bc 20 fa 59 3c
       0.0133537715 -0.008564869 -0.007935954 0.013304263
000120 ad de 7b bc a2 e2 0b 3b c2 c9 86 3c 11 0a 7d 3c
       -0.015372914 0.00213448 0.016453627 0.015444295
000130 39 bc 58 bb b4 d1 07 bc 00 90 a1 bb b8 0f 41 3b
       -0.0033071174 -0.008289743 -0.004930496 0.0029458832
000140 3d 90 2b bc 52 a5 5f bb ec b7 fe bb 28 4e 06 3b
       -0.010471401 -0.0034125638 -0.00777339 0.0020493362
000150 8b 47 63 3c af 17 a1 3b 8b 3b 73 bb 35 e2 5d bb
       0.013872038 0.0049161534 -0.0037114348 -0.0033856754
000160 9e 74 3e 3b c2 4d 9b bd b2 63 47 bc 77 f1 ab bc
       0.0029061208 -0.075831905 -0.012169765 -0.020989163
000170 f8 d2 d6 3b 36 b4 1d bb a2 dc c5 ba 8e 26 95 bb
       0.006555911 -0.0024063713 -0.0015095661 -0.004551715
000180 12 bc ba bb 45 6c 1c 3c ba 9a 80 3a 31 46 5b 3c
       -0.0056986893 0.009547298 0.0009811737 0.013383434
000190 e9 69 75 3b 7b 25 63 3a 46 b2 8b 3b 89 51 92 bc
       0.003744716 0.0008664948 0.004263195 -0.017861145
0001a0 39 e8 22 bc 10 8e 91 3b 44 7c 71 bb 50 13 60 3c
       -0.0099430615 0.004441984 -0.003684775 0.013676479
0001b0 bd 7c 2e bb ba 76 6f 3a b7 d2 81 bb 76 96 b8 bb
       -0.0026624643 0.0009134818 -0.0039618867 -0.0056331707
0001c0 c8 38 ad bb 75 91 b8 3a e4 bd e8 3b 4d a1 a6 bb
       -0.00528631 0.0014081436 0.007102715 -0.0050851465
0001d0 9c 31 9b 3b 76 b5 b9 bb 7b 38 aa 3b ed 6c 0f 3c
       0.0047361385 -0.005667384 0.0051947213 0.008753997
0001e0 34 c3 20 3c 6c ad 19 bc a2 93 81 bb 29 29 aa bb
       0.009812165 -0.009379726 -0.003954367 -0.005192895
0001f0 cc 64 04 3c 16 e0 7d 3b 34 5a 90 bb ef 3f 0a 3c
       0.0080806725 0.0038738302 -0.0044052843 0.0084380945
000200 f7 84 3e 3c 0c 8c c3 bb aa 9f c0 bb b9 ce 3b 3b
       0.011628381 -0.0059676226 -0.0058784084 0.0028657152
000210 82 cf 75 bc 24 89 b4 3b f2 a2 d4 39 bf 56 26 3c
       -0.015003087 0.0055095125 0.00040557195 0.010152518
000220 73 7c eb ba c2 6d 8b b9 b9 c0 b9 3b c8 5f cf bb
       -0.0017966166 -0.00026593922 0.0056687263 -0.0063285567
000230 86 bd ad bb 02 5a 63 3c ac 70 a5 ba 26 a9 74 bc
       -0.005302134 0.01387644 -0.001262208 -0.014932906
000240 6c 59 35 3c 3e d3 60 bc 81 ed 69 3c 7d e9 80 ba
       0.011068683 -0.013722239 0.014277817 -0.000983521
000250 1e 88 29 ba 25 9b 59 bd 22 86 9f 3c e8 c3 89 bd
       -0.00064671214 -0.053126473 0.01947314 -0.06726819
000260 d6 8a db 3c fd 98 86 3c 5d 65 01 bd 11 70 25 bc
       0.0267996 0.016430372 -0.03159081 -0.0100975195
000270 12 27 a1 3c 88 65 b1 bb c4 3c 0a 3c 23 03 82 bb
       0.01967195 -0.005413715 0.008437339 -0.003967659
000280 28 04 59 b9 6c 1c 0b bc 8e 06 da bc 9a 5e 4a 3c
       -0.00020696281 -0.008490663 -0.026614454 0.012351656
000290 7a 10 27 bc d0 e0 5f 3b ab d7 25 bc 5c ad 19 3a
       -0.010196799 0.0034161098 -0.01012222 0.00058623194
0002a0 f2 e6 e2 bb 86 40 11 bd 3f 4d 8c 3c d4 c2 42 3c
       -0.0069245035 -0.035461925 0.017126678 0.011887271
0002b0 ec c0 ed bb 10 ee c3 3c c6 c7 ff bb c1 48 a1 3b
       -0.007255664 0.023917228 -0.0078057973 0.004922003
0002c0 c9 14 ae bb f2 2b 00 3c b6 da ff bb 86 4d 4c 3b
       -0.0053125364 0.007822977 -0.007808055 0.0031174137
0002d0 8b 45 88 bd 6f 6c 8a 3d db 5e 2b 3c fa 7d 60 bc
       -0.06653889 0.06758963 0.010459627 -0.01370191
0002e0 b1 e9 9e 3c 3f 7f ef 3b 23 70 14 3c 9d 25 78 b9
       0.019398542 0.00730887 0.009059939 -0.00023665135
0002f0 20 b6 18 3b 1d ea 2f 3c 9f be 70 bb 5c 20 f8 39
       0.0023301914 0.010736969 -0.0036734713 0.00047326356
000300 58 ec 3c 3c 7f a2 89 bb 56 71 19 bb 48 88 cd 3b
       0.011530958 -0.0042002792 -0.00234135 0.0062723495
000310 cd 08 2c ba 75 c8 24 bc 5d 53 18 3d 74 56 0d 3c
       -0.0006562591 -0.010057558 0.037188876 0.008626569
000320 7a 79 70 bc 5e 62 02 bd cb ea 10 3b 08 33 e5 3c
       -0.0146774 -0.03183209 0.0022112604 0.027978435
000330 19 d2 65 3c bc ab 12 3b 1b 7c 9d ba 17 62 a0 bc
       0.014027142 0.0022380194 -0.0012015136 -0.019578023
000340 2a 1c f2 bc d6 ed 37 3d 38 f2 7f ba 73 36 32 3c
       -0.029554445 0.044904552 -0.00097635714 0.0108772395
000350 04 50 7e bb 25 2e 32 3c 0e 51 55 3b c5 ce 1c bc
       -0.0038805017 0.0108752595 0.0032549533 -0.009570782
000360 36 b8 8e bb de b6 1b 3c f0 65 dd b8 5e 53 71 bb
       -0.0043554557 0.009504048 -0.000105570885 -0.0036823372
000370 62 df 82 3b d0 2d 00 3b f6 1b 01 bb cd 85 b7 bb
       0.0039939145 0.0019558556 -0.0019700504 -0.005600667
000380 18 7c 8b bc 77 d5 ea 3c 68 6d c8 3a 2e 14 d0 bc
       -0.017026946 0.028666241 0.0015291395 -0.025400247
000390 12 02 01 3c d7 a2 1e bc 0a c3 2b 3c a0 d5 8a 38
       0.007874029 -0.009682379 0.010483513 6.6201435e-05
0003a0 5a 6f 75 3a 02 03 c9 bb 89 8e 01 3c 60 4d 81 b8
       0.0009362601 -0.0061343918 0.007907518 -6.1656116e-05
0003b0 60 f6 28 b8 b8 d8 79 3a 44 87 54 ba 9c a7 8a bd
       -4.0283776e-05 0.000953089 -0.00081073144 -0.0677025
0003c0 16 ec 89 3c cb 30 f1 ba 57 e4 4b bc fc 56 cf 3a
       0.016836207 -0.0018401382 -0.012444577 0.001581877
0003d0 51 f9 f3 3a e4 7b bb 3c 84 d9 21 3c e6 81 f9 3a
       0.0018613731 0.022886224 0.00987852 0.0019035905
0003e0 f5 0d 2b 3c 7b c5 17 3b 6a 36 71 3b 14 2a dc 3a
       0.010440339 0.002315848 0.0036806115 0.0016797208
0003f0 8f fa 83 bc b8 a3 a7 3b 6c 91 10 3b a2 88 2a 3c
       -0.016110687 0.0051159523 0.0022059334 0.010408552

encoder_var.0.bias f4 [20]
000000 64 78 40 39 f0 10 a4 38 3d 28 d7 39 63 f8 da b9
       0.00018355396 7.823284e-05 0.00041037975 -0.00041765263
000010 a6 d0 0c 37 01 14 00 b9 50 c3 82 b9 08 85 94 b9
       8.39323e-06 -0.00012214483 -0.0002494105 -0.00028327876
000020 08 f4 db b9 e5 7f d8 b8 f3 31 64 38 22 6d 0f 39
       -0.00041952753 -0.00010323505 5.4405955e-05 0.00013678198
000030 da ec 88 b8 cd 29 d8 39 7a d7 46 b8 f6 c9 70 38
       -6.5291024e-05 0.00041229874 -4.7407557e-05 5.740855e-05
000040 b8 f0 1f b8 5e d0 82 39 7a b0 9b 37 75 75 58 39
       -3.813274e-05 0.00024950778 1.8559618e-05 0.00020643121

encoder_var.1.weight f4 [20]
000000 92 0c 34 3e 2e 14 45 3e a6 62 3e 3e 7b 7b 40 3e
       0.1758292 0.19245979 0.18592319 0.18797104
000010 40 4c 48 3e ce 27 37 3e 11 c0 41 3e 5c cf 3f 3e
       0.19560337 0.17886278 0.18920924 0.18731445
000020 a1 7c 40 3e 84 c4 37 3e 25 2a 38 3e 8a d7 3d 3e
       0.18797542 0.17946059 0.17984827 0.18539253
000030 16 71 48 3e 67 3f 3f 3e d1 15 42 3e 45 50 3a 3e
       0.19574389 0.1867653 0.18953635 0.18194683
000040 e7 e5 32 3e 03 4c 44 3e 81 72 37 3e 1f f6 37 3e
       0.17470513 0.19169621 0.17914774 0.17964981

encoder_var.1.bias f4 [20]
000000 c8 65 dd ba 72 6d 57 3b 4f e7 03 bc e8 22 61 bb
       -0.0016891295 0.003287163 -0.008050754 -0.003435308
000010 67 c3 34 3b c8 f0 83 bc fb 3b f9 3c 12 cf 01 bc
       0.002758229 -0.016106024 0.030424109 -0.007922905
000020 58 38 b9 b9 f8 32 0e bb d7 98 30 bc d1 15 01 3c
       -0.0003532793 -0.002169786 -0.010778627 0.007878737
000030 d4 4f 89 bd 9c 34 d4 3b 60 13 44 b9 eb d1 39 bc
       -0.06704679 0.006475998 -0.00018699234 -0.011341552
000040 19 28 d6 bb d2 45 80 bb b1 d2 e7 bc 32 c4 d3 bb
       -0.0065355417 -0.003914573 -0.028298708 -0.0064625973

encoder_var.1.running_mean f4 [20]
000000 6a 7d d0 bd 2b 03 fb bd 48 fd ad bd 53 2f 5c 3c
       -0.10180171 -0.122564636 -0.08495575 0.013439017
000010 25 a6 18 bd 95 47 18 bd 1a 79 88 3d a5 75 ee bc
       -0.037267823 -0.03717764 0.06663723 -0.029108832
000020 d1 91 3c bd 01 82 da bc 42 bb ad bd da d2 54 3d
       -0.0460375 -0.026673319 -0.08482982 0.051958896
000030 27 a9 6a bd 0d ef 32 3d c6 2a 3e 3d a1 ee 49 3d
       -0.057290222 0.043685008 0.04642751 0.04929984
000040 98 8e d7 bc fa c0 b6 3b 5d 11 48 bd af b7 f5 3c
       -0.026313111 0.005577204 -0.048844684 0.029994814

encoder_var.1.running_var f4 [20]
000000 92 b3 0a 3b 63 4a 16 3b 74 17 aa 3a ba 72 8c 3a
       0.002116416 0.0022932522 0.001297696 0.0010715344
000010 a8 dc ae 3a 5e 21 f5 3a ec 34 d9 3a ca e3 9d 3a
       0.0013340907 0.0018701961 0.0016571558 0.0012046036
000020 7a 6a c8 3a 21 52 0f 3b e3 2f b8 3b b5 da 9b 3a
       0.0015290522 0.002186902 0.005620943 0.0011890741
000030 7d 48 ee 3a 1b 57 f3 3a 53 13 b2 3a 6d 2b 98 3b
       0.0018179562 0.0018565388 0.0013586081 0.0046438486
000040 7d b2 d8 3a 3a c6 83 3b 51 27 ca 3a ea b8 82 3a
       0.0016532686 0.004021433 0.0015423094 0.0009973322
