dice_ml/utils/sample_trained_models/adult-margin-0.165-validity_reg-42.0-epoch-25-base-gen.pth (torch_old, 35075 bytes, 78 tensors)

encoder_mean.0.weight f4 [20, 30]
00000000: adeb 1b3f 9a0f 303d 0856 d53b fbc2 083c
00000010: 53bd 8c3c 410b 303c 15bf e33c 4c37 de3c
00000020: 8fdb 183d 5581 e53c 21f3 553c 9628 0c3d
00000030: a027 033c 66f3 cb3c 2026 42bc 327a 07bc
00000040: 8039 4d3c 90c7 12ba 5637 9eba 0f52 0e3c
00000050: ec13 1b3d 4637 81ba dc2f 33bc a0a1 ff3b
00000060: 03be 0d3c 1e37 70bc e4b3 80bc fed3 633c
00000070: 4bcd fb3c 3d4b da3e cd26 0bbe caa9 47bf
00000080: 8694 ed3c 9a89 a13c e9a8 943d 7944 073d
00000090: 8d5d 1fbc 5142 bdbc 4c0f 403b eca8 353c
000000a0: f0d0 5ab9 3257 cb3c 0de6 37bc 8d0a 59bc
000000b0: 4730 043d 0bbc 923d 3c3c b9bb 30eb be3d
000000c0: e962 59bd ebd3 9fbb 46b3 21ba 8180 9e3c
000000d0: 73e9 88ba 7a34 d6ba 6875 01bb faa9 813d
000000e0: 9fde 693d 4829 693c c2ca a83c 54a8 063e
000000f0: 3fd0 4b3f 40c2 0fbc 887c 003c b495 773c
00000100: c4cc c33a 0d34 da3b 428b e73c 5012 0e3d
00000110: b82a 18bc f9b0 fd3c 1f9f 0e3d 3e2e 8b3c
00000120: 50f1 053d 9aa1 f73c 6620 f23c 63c9 ea3c
00000130: 92d7 043d ed4b f53c 3522 193d 7c94 523b
00000140: aad6 b6bc 8a23 2cbb d4ac 72ba a2fc c23a
00000150: 702f 6e3a efe9 0b3d dee0 113d d6fe 063e
00000160: 9582 0b3e 2bf1 fb3e 0981 a03e 9c33 4dbf
00000170: 0854 f2bc fba4 6d3c 8904 88bc 36b4 f2bc
00000180: 5a10 aa3d 9c3b 703d 708a 3f3d 6a65 363d
00000190: 7b53 af3d cf09 ad3d 41b4 303d a8da 4d3d
000001a0: c5a6 80bd 3ebc 8abd c79f 0fbd bd1f f13b
000001b0: ae09 dabd 5777 8b3d 5445 633c 10e7 9a3d
000001c0: 512f 6c3d 371a 6d3d d754 393d 02d7 c5bd
000001d0: d2a1 bcbd 9dc7 efbc 7213 48bc 063b ae3e
000001e0: 5a7b 283f b0f1 803d 37b5 5cbc 108d 8d3d
000001f0: 98de afbc cf42 e83b d20d 9b3b 5cdd 09bb
00000200: 435a f6bb 33af bbba 8adb 24bc 1378 02bd
00000210: 2a98 123c 7652 4fbb bd9b 203d 99c6 323d
00000220: 4706 1a3d f938 543d 526c ce3c b4a8 273d
00000230: df11 66bd f469 053d ae29 d73c 5616 f13c
00000240: d569 d13c 17e5 d2bc 236d e2bc e76f 94bd
00000250: e81e a3bd bcc9 ae3e fdb8 023f 03a8 af3d
00000260: 5525 903d da74 6a3d c827 783d b77f 6c3d
00000270: b022 19bd 6c90 15bd a11e ec3c 27b3 c53b
00000280: 6b0b 24bc a8ac b9bc fa40 443b 80ad 3fbd
00000290: af4b 813c bd9e c13c adb1 273c 1e67 523c
000002a0: 2328 e03b a29a 0e3c fb5d 2e3c 0682 b03b
000002b0: 9980 413b 73da 6e3b b35e 0a3d aaef a23d
000002c0: 145a a33d 0a55 983d b980 6d3d 46a3 593e
000002d0: 4624 2d3e 9d7f 61bf 3000 9cbc e0ad 903b
000002e0: 2142 23bc c3de babc 7011 993d 9fba 343c
000002f0: 0700 363b aac4 f83c 4c03 b43b c8fa 93bb
00000300: 9d67 1c3d 7b8e b93c a343 703d 16d2 033c
00000310: dfeb 3d3d 83bc 83bd 9ed4 d33c 0f35 e43c
00000320: 8e20 b9bb 3b69 9fb9 a691 533c 8e8e b23b
00000330: f210 c8bb b7a4 1d3d 23c1 413d e254 bebc
00000340: 54ff 4bbb 8b66 853e 5f11 fbbe 8c9e 62bf
00000350: 2e2b 1bb9 96d9 243d 70f9 32bb 3e8c 6b3b
00000360: 61a9 ffbc cecd 02bd 90c9 c9bc 1732 babc
00000370: 0f83 4b3b fb25 00bc 78aa a5bc a62f 9dbc
00000380: 2323 a53c 5d48 5ebb 3a87 fdb9 2f68 0f3c
00000390: 9bb3 95bb b430 ab3c 3ae1 60bc f806 263d
000003a0: 2929 373d 2edc 1e3d 8b4e a63c b646 9c3c
000003b0: 48fa 693c cb73 473d 941b 113d b3fd 093e
000003c0: 2442 09bf 5167 b13d 126f 20bd 23f5 1cbc
000003d0: e20a 1abd d1a0 1dbd d43e 2a3d 821d 063c
000003e0: 9df0 b53d 1efb e63c 56aa 3b3c de7c 04bd
000003f0: 977a 2c3d 5c61 023d 5ae6 dfbc 048d 31bd
0.6090649 0.04298363 0.0065105 0.008347268 0.01718012 0.010744871 0.027801076 0.027125977
0.037318762 0.028015772 0.013058455 0.034218393 0.008005053 0.024896335 -0.01184991 -0.00826888
0.012525916 -0.0005599195 -0.0012070935 0.0086865565 0.037860796 -0.0009858392 -0.0109367035 0.0078012496
0.008651259 -0.014661578 -0.015710779 0.013905523 0.03073754 0.42635527 -0.1358902 -0.7799345
0.029001486 0.019718934 0.072587796 0.033024285 -0.009726894 -0.023102911 0.0029305993 0.011087637
-0.00020867935 0.024821851 -0.011224282 -0.013247144 0.032272603 0.071647726 -0.0056529325 0.09322202
-0.053072844 -0.0048775575 -0.00061683764 0.019348385 -0.001044555 -0.0016342544 -0.0019753817 0.063312486
0.057097074 0.014231034 0.020604495 0.1315015 0.79614633 -0.00877434 0.007842191 0.015111376
0.0014938344 0.006659037 0.028264645 0.034685433 -0.009287529 0.030968176 0.03481972 0.016989823
0.032700837 0.030228425 0.029556464 0.028660482 0.032432146 0.02994343 0.037386138 0.003213196
-0.022319157 -0.00262663 -0.0009257321 0.0014876316 0.0009086048 0.034158643 0.03561484 0.1318315
0.13624032 0.49207434 0.31348446 -0.80156875 -0.029581085 0.014504666 -0.016603725 -0.029626947
0.083039 0.058650598 0.046762884 0.04453031 0.085608445 0.084491365 0.043140654 0.050257355
-0.06281809 -0.067741856 -0.035064485 0.00735852 -0.106463775 0.06809872 0.01387151 0.07563603
0.057662312 0.05788633 0.045246925 -0.0966015 -0.09210552 -0.029269988 -0.012211667 0.34029406
0.6581322 0.06296098 -0.013470939 0.06911671 -0.021468446 0.0070880423 0.004731872 -0.0021036481
-0.0075180843 -0.0014319181 -0.010062108 -0.031852793 0.008947412 -0.0031634844 0.039211024 0.04364643
0.037603643 0.051812146 0.025198136 0.040932372 -0.056169387 0.032571748 0.026264992 0.029429596
0.02556316 -0.025744004 -0.027639931 -0.07247906 -0.07964879 0.34138286 0.5106352 0.085769676
0.070383705 0.057240345 0.060584813 0.057738986 -0.037386596 -0.036514685 0.028823199 0.0060333195
-0.010012488 -0.022665337 0.0029945956 -0.046796322 0.015783159 0.023635263 0.010235232 0.012841968
0.006840722 0.0087038595 0.010642524 0.0053865938 0.0029526113 0.0036446124 0.03378172 0.079558685
0.079761654 0.07438095 0.057984088 0.2125369 0.16908368 -0.8808535 -0.019043058 0.0044152588
-0.009964497 -0.0228113 0.07474029 0.011030822 0.0027771012 0.030367214 0.005493557 -0.0045159794
0.03818475 0.022650948 0.058658253 0.008045694 0.046367522 -0.0643244 0.02585822 0.027857332
-0.005649633 -0.00030405246 0.012913143 0.0054491227 -0.0061055357 0.038487162 0.04730333 -0.023233835
-0.003112753 0.26054797 -0.4903669 -0.88523173 -0.00014798038 0.04024657 -0.002730932 0.0035941745
-0.031208696 -0.031934552 -0.024632245 -0.022728963 0.0031053459 -0.007821555 -0.020222887 -0.01918776
0.020158356 -0.0033917644 -0.00048356672 0.008752867 -0.00456853 0.020897247 -0.013725573 0.04053399
0.044716988 0.0387842 0.020301124 0.019076686 0.014280863 0.048694413 0.03542669 0.13475685
-0.5361655 0.08662284 -0.039168425 -0.0095799295 -0.037608035 -0.038483445 0.041563824 0.008185746
0.08883784 0.028195914 0.0114541855 -0.032345645 0.0421091 0.03183113 -0.02733152 -0.043347374

encoder_mean.0.bias f4 [20]
00000000: dd03 1db7 54f3 a036 6df2 54b6 33e6 feb5
00000010: 9dda c535 4c32 8cb5 3fed 84b7 af1e 48b7
00000020: ca9c 5ab6 a6b4 7bb5 18de eb33 1a27 feb5
00000030: 8f13 d735 3ff1 35b5 a2f8 7e36 a2e5 7d34
00000040: 9205 c8b5 b8b7 1bb5 a044 7936 04a2 62b6
-9.358829e-06 4.7966987e-06 -3.1731572e-06 -1.8991472e-06 1.4741269e-06 -1.0445451e-06 -1.5846103e-05 -1.1928073e-05
-3.2575795e-06 -9.3767665e-07 1.0983439e-07 -1.8935855e-06 1.6024441e-06 -6.7778814e-07 3.7993673e-06 2.3646001e-07
-1.4902782e-06 -5.8009346e-07 3.7143836e-06 -3.377093e-06

encoder_mean.1.weight f4 [20]
00000000: b97e ca3e 19f0 0a3f 9b07 2f3f 2742 153f
00000010: 4f4d d33e 9e60 a53e 79a1 e83e d9fa 043f
00000020: 2dda c03e 2f4f a83e e982 ab3c b706 733e
00000030: 774f 9b3e 4c15 113f 7243 ae3e bc81 3b3e
00000040: a0cf c83e a67c b73d f7cb 883e 6539 a63e
0.39549807 0.5427261 0.6837098 0.58304065 0.4126992 0.32300276 0.45435694 0.51945263
0.37666455 0.32872912 0.020936446 0.2373303 0.30334064 0.5667312 0.34035832 0.18311208
0.39220905 0.08959322 0.26718113 0.32465664

encoder_mean.1.bias f4 [20]
00000000: 8f97 d43d 244e bbbe ee03 6b3e cf7b b8be
00000010: 0956 c43d 0df9 17be 8620 c8be 50d7 57be
00000020: 94ea 18be c73c 3cbe 830b 48bd 1517 99bd
00000030: 0c28 fe3b e256 e9be d300 e9bc 3ea4 2f3c
00000040: 3bea 2abe 2bd5 013d 6328 ca3d 638b d33d
0.1038047 -0.36583054 0.22950718 -0.36031958 0.095867224 -0.14841099 -0.39087313 -0.21078229
-0.14933234 -0.1838256 -0.048839103 -0.07475106 0.007756239 -0.455741 -0.028442776 0.010720311
-0.16690914 0.031697433 0.098709844 0.1032932

encoder_mean.1.running_mean f4 [20]
00000000: fb84 1a3f 1e9d 0bbd 2452 5e3f 5695 a03c
00000010: 120b e83e 08fd 153f a3f6 debc ba6e 95be
00000020: c271 e63d 2123 563e c9de 803d 8e47 1b3e
00000030: 1160 213f 2e02 9bbe d3b3 b83e cbe6 63be
00000040: 80a1 f23e 99c8 833d c69e 55bd 70b4 b63e
0.6035916 -0.034085386 0.86844087 0.019602459 0.45320946 0.5858922 -0.027217215 -0.2918604
0.11252166 0.20911838 0.06292493 0.15164015 0.6303721 -0.302751 0.36074695 -0.2225601
0.4738884 0.06434745 -0.05215337 0.35684538

encoder_mean.1.running_var f4 [20]
00000000: 608e d33c 2c01 963c cc8c 143d faa5 ed3c
00000010: 1099 ab3c 53d8 583c 0584 c13c d474 ee3c
00000020: 30c4 803c 302b 763c 2e93 ff3a 268b 233c
00000030: e9ed 803c 8a3c c43c 0f94 693c ba8e 923c
00000040: 015b 953c 6e74 d33b 654c c33c 899c 913c
0.025824726 0.018311106 0.036267087 0.029009808 0.02094701 0.013235169 0.023622522 0.029108442
0.01571855 0.015024945 0.0019498819 0.009981906 0.015738444 0.023954649 0.014256491 0.017890323
0.01823187 0.0064530885 0.023840139 0.017774837

encoder_mean.4.weight f4 [16, 20]
00000000: 409e f4bd 16aa e0bc b36d b43e 73e1 b13b
00000010: 107f a6bd 2c79 d5bd 1d56 1b3e 4aa1 1ebd
00000020: 322c bb3c 26e6 71bc 3d69 9d3a 504e ad3c
00000030: 6617 0abe d240 95bd ee0b d0bd db0b 303d
00000040: 20fb dcbd 69e5 28bd f23e 24bd 67df 8cbd
00000050: 10d5 15be 2368 a53d 1cda 0ebe a2e5 38bd
00000060: c5c7 16be c6ca 78bd e464 69b9 72c4 933c
00000070: 3fbf 183e 5eba dfbc 8793 08bc 3876 adbc
00000080: 6089 acbd 1085 073d e5f8 dcbd 7b9b c1bd
00000090: 80fa 93bd a120 19bd 6c49 02be 0b3f 01be
000000a0: 4a1e 4dbe cd06 f13d 3015 42be b2a3 0cbd
000000b0: 46ec a6bd f192 893d dd28 ad3c 5f8a 493d
000000c0: c8f3 24bd faef e0bd 7c1a afbb 572b 69bd
000000d0: cbd0 01be 9882 393e 1718 f93d 6cf6 c93d
000000e0: 5d2d ccbd 9ec1 f4bb 10e3 dc3d e6c2 a6bd
000000f0: cf4b 18bd 6306 32be 3701 d43a 2f50 adbc
00000100: a6bf 8dbc b8b6 233d 8583 e03d 5bd6 d43e
00000110: a202 8ebd be97 b4bc 712d 293c 4bdf 4fbd
00000120: af58 8cbd a2ea 21be 6b07 713c 0e7c a53d
00000130: 9df4 c4bd cbb7 e23c 2e90 a33d 93b9 7a3d
00000140: 7891 d3bc e6bb 283e 0428 c43c a683 903e
00000150: df52 473c 13b6 c3bd 79d0 ce3e 75b8 41be
00000160: d40e 423d 0b06 373e 6bc9 25bc 09da 013e
00000170: 5e34 483d babe 3cbd 03e9 153b e284 30bc
00000180: a873 67bc b937 1f3c 6c5c 9bbd e490 15bd
00000190: 5c0c 623c 91bf 363e c4df 84bd 7724 663e
000001a0: 61af 04be 6286 b5bd 4530 4a3e dd6b 6b3d
000001b0: c8db 21be e34c bd3d b860 81bb 6391 1b3c
000001c0: f04e 93bb fb17 193e 050b e3bd 31f8 78bd
000001d0: 141a afbd a01d 953d 34e7 12be c79a 5cbd
000001e0: 22cf d9b8 4e3f 48bc 54c7 5bbe 8b6f f9bd
000001f0: 23a6 433e 1531 dfbc a38d e73d 9b8b bbbc
00000200: 7db8 dcbd 4e02 0f3d 9e09 b2b9 7aab e03b
00000210: 0c1f 223d ac9a b5bb dfd7 683e 52f8 f53d
00000220: f288 1a3d c6e1 493d df73 9d3d 287f 533c
00000230: 306c 2abe 2b67 513e 4a34 28be 99c6 d23d
00000240: c649 39be 1746 94bd 0a5f 1b3e 54e7 1a3d
00000250: a849 5c3d 1272 ff3c a5a4 1bbb a3cd 14bd
00000260: d354 a8bd d548 b73d e4b6 65bd 954c 3f3d
00000270: 194f 37bd 842d 13bb dd61 a2bd 343c 1dbe
00000280: 0be7 243d 47e7 c1bd 5ebb 5cbe 11a2 6f3e
00000290: a316 d63b 031c af3d edc0 313e f51b 08be
000002a0: fb92 00be 11b1 033e 2131 12b9 a298 6c3d
000002b0: e86a cc3d 2fbd f8bd 7ad3 ddbb de1d 093e
000002c0: 91d1 ac3d 2088 9c3c ba02 9b3d ce97 003d
000002d0: e9a8 11be 5298 403e 3fbd 48be 386c 0d3e
000002e0: 5aaf 1ebe 2ca9 a1bd 6f09 373e 948e 2a3d
000002f0: c235 993d f5cc 643d 4658 0c3a 235b d3bc
00000300: ff69 3bbd 6259 c53d c984 b3bd 4344 d9bd
00000310: a4d6 ecbc cc98 1a3a d361 ccbd ea88 4cbe
00000320: 40bf dfbb e464 cd3b 3551 bc3e b6ee ce3d
00000330: 4504 eebb cb64 723d 4872 b13d c45c 1cbe
00000340: 133c dabd 4c10 a53d 71b8 bcbc ec6d 2d3c
00000350: 5e04 9a3b 1d76 aebd 5b25 cb3c 44a3 1fbd
00000360: c89b 12bc bfd7 81ba 8162 3f3b 0f95 803b
00000370: 51df f93d bb3c 1dbc 4027 a0bd 9bc2 0abc
00000380: 718e 993d 9473 173e 2175 aebd b481 203d
00000390: c956 ccbd aced 7b3d b2e2 583c e80c 893d
000003a0: 84de 0a3e 7a1a 1fbd aa1b b83d 20aa 59bd
000003b0: 2921 213e 268c 893d cd71 763d 7a2d e23d
000003c0: eb45 20be 7fa6 9c3d c15f 1dbe 736b 473d
000003d0: 3b6f 52be 1112 253d 72ae f43c b058 903c
000003e0: 878e 293d c177 88bc 71e7 5fbc f991 c3bc
000003f0: e3f7 1ebd c4a9 a03e 3874 b53b 8ade 04be
-0.11944246 -0.027424853 0.35239944 0.005428487 -0.08129704 -0.10423502 0.15169568 -0.038728036
0.022848222 -0.014764344 0.0012009513 0.021155506 -0.13485488 -0.07287754 -0.101585254 0.042980056
-0.10790086 -0.041234408 -0.04009909 -0.06878548 -0.14632058 0.08076503 -0.1395039 -0.04514087
-0.14724644 -0.060740255 -0.00022258196 0.018038008 0.14916705 -0.027310546 -0.0083359545 -0.021174535
-0.0842464 0.033085883 -0.1078966 -0.09453484 -0.072255135 -0.037384633 -0.1272332 -0.12621705
-0.20031086 0.11768875 -0.18953395 -0.0343358 -0.08150534 0.0671748 0.02113765 0.049204227
-0.04027155 -0.10983272 -0.0053437334 -0.056926098 -0.12677304 0.18116224 0.12162798 0.09861454
-0.0996959 -0.00746937 0.10785496 -0.08142643 -0.03718167 -0.17385249 0.0016174678 -0.021156399
-0.0173033 0.039969176 0.10962585 0.4156979 -0.06934096 -0.022045013 0.0103257755 -0.05075006
-0.068528526 -0.15812162 0.014711241 0.08080302 -0.09616969 0.02767553 0.079864845 0.061212134
-0.0258262 0.16477928 0.023944862 0.2822544 0.012165754 -0.09556212 0.40393427 -0.18918021
0.047377422 0.17873399 -0.010118823 0.1268083 0.048878066 -0.04608033 0.0022874482 -0.010773869
-0.014126696 0.009717875 -0.075859874 -0.03651513 0.013796892 0.17846514 -0.064879924 0.22474848
-0.12957527 -0.08863522 0.19744976 0.057475913 -0.15806496 0.092431806 -0.0039482974 0.009495112
-0.004495494 0.14950554 -0.11086086 -0.06078357 -0.08549896 0.07281041 -0.1434601 -0.053858545
-0.00010385948 -0.012222124 -0.21462756 -0.12179478 0.19106345 -0.027245084 0.11306312 -0.022893718
-0.10777376 0.034914307 -0.0003395797 0.006856379 0.03958039 -0.00554212 0.22738598 0.12010254
0.037728257 0.04928758 0.07688116 0.012908734 -0.16642833 0.20449512 -0.16426197 0.10291786
-0.18094549 -0.07239931 0.15172973 0.037818268 0.05378118 0.031182323 -0.0023749259 -0.036328923
-0.08219304 0.089494385 -0.05608262 0.046703894 -0.044753168 -0.002245755 -0.07928822 -0.15354997
0.040259402 -0.09467941 -0.2155585 0.23401667 0.00653346 0.08550265 0.17358752 -0.13291915
-0.12556069 0.12860514 -0.00013941947 0.05776275 0.09981328 -0.12145459 -0.0067695947 0.133903
0.08438409 0.019107878 0.075688794 0.031394772 -0.1422459 0.18808106 -0.19603442 0.13810813
-0.15496579 -0.07893595 0.17874692 0.04163988 0.074809566 0.055859525 0.000535373 -0.025800293
-0.045755383 0.09636189 -0.08765561 -0.10608723 -0.028910942 0.00058974023 -0.09979596 -0.19974104
-0.0068282187 0.0062681306 0.36780706 0.10104124 -0.0072636926 0.059178155 0.086643755 -0.15269762
-0.106559895 0.08059749 -0.023037167 0.010585289 0.0047002276 -0.08518622 0.024798086 -0.03897406
-0.008948274 -0.0009906216 0.0029203 0.003924019 0.12200797 -0.009596999 -0.07819986 -0.008469249
0.07497872 0.14790183 -0.08518434 0.039186195 -0.099774905 0.06150596 0.013237642 0.06691915
0.13561445 -0.03884361 0.089896515 -0.05314076 0.15735306 0.06716184 0.060167123 0.1104383
-0.15651672 0.07648944 -0.15368558 0.048686456 -0.20550244 0.040300433 0.029868338 0.017620414
0.04139569 -0.016658666 -0.01366602 -0.023873316 -0.038810622 0.3137952 0.005537536 -0.12975517

encoder_mean.4.bias f4 [16]
00000000: a653 b4b5 4f56 01b6 e5c1 43b6 faa6 edb5
00000010: 52d5 16b7 a9c7 b9b5 ab86 69b6 33e8 8936
00000020: c0a8 6635 e475 5cb6 7ea8 80b5 6af0 3ab6
00000030: fab7 d935 5694 8234 9885 6fb6 d560 3736
-1.343539e-06 -1.9272736e-06 -2.9170126e-06 -1.7706473e-06 -8.990364e-06 -1.3841683e-06 -3.4798093e-06 4.1099497e-06
8.592724e-07 -3.2851176e-06 -9.585781e-07 -2.78561e-06 1.6221304e-06 2.4322316e-07 -3.5691537e-06 2.7325489e-06

encoder_mean.5.weight f4 [16]
00000000: da04 9a3e ae17 dc3e 09dd f13e 0c16 bb3e
00000010: 8fbf e73e 8797 e43e 0daf 823e cf38 ec3e
00000020: c9c2 b03e 812d 003f 5d24 d83e df5d a23e
00000030: b835 313f aaf3 a03e 05b8 b03e d09c 063f
0.30081826 0.42986816 0.4723895 0.36540258 0.45263335 0.44646856 0.25524178 0.46137092
0.3452361 0.50069433 0.42215243 0.31712243 0.69222593 0.314359 0.34515396 0.52583027

encoder_mean.5.bias f4 [16]
00000000: 0c4e 02be df53 35be b275 19be a082 98be
00000010: 0649 09be 3d0d f3bd 06a6 f3bc 4363 2fbe
00000020: ae2e 3fbd 4ac4 6bbe c721 a73d f0f5 0d3e
00000030: a92f 97be a5c7 3b3e decb 023e 6e23 833e
-0.12725085 -0.17707776 -0.14986303 -0.2978716 -0.13406762 -0.118677594 -0.029742252 -0.17127709
-0.046675377 -0.23024097 0.081607394 0.13863349 -0.2952855 0.18337877 0.12773082 0.25612968

encoder_mean.5.running_mean f4 [16]
00000000: 58c2 263d c4a1 3dbe e1fa ddbd 31c3 d93c
00000010: a1e4 e53c 4933 88bd d1ca 48ba 3c14 26be
00000020: ca1b b6bc 02a7 38be 9466 053e 4e8b d73d
00000030: ef87 2ebe 7238 303e c637 be3d f7c8 533e
0.040712684 -0.1851874 -0.10838867 0.026582332 0.02806312 -0.06650407 -0.00076596165 -0.16218656
-0.022230048 -0.18032458 0.13027412 0.10524617 -0.17044042 0.17209032 0.09287982 0.20682131

encoder_mean.5.running_var f4 [16]
00000000: d2dd 393c 4c4f 973d 24c3 3f3d 9d1f 853b
00000010: fbd1 903c 4a88 dd3c b7a0 d13b cdbc 9c3d
00000020: bcdf 4e3c bd20 ab3d 1a3d 883d ba3c e93c
00000030: 0c3c 903d 8c12 523d 6f77 343d 94c9 e13d
0.01134439 0.073881716 0.04681696 0.0040626065 0.017678251 0.027042527 0.0063973325 0.076531984
0.012626585 0.08355854 0.06652279 0.02847134 0.07042703 0.05128722 0.044059213 0.11024776

encoder_mean.8.weight f4 [14, 16]
00000000: 5fea 873e 91e5 3cbd 9845 cfbd ad45 8b3d
00000010: 7a16 423e bab8 c43c aa4c 0e3b e399 88bd
00000020: 13c5 203e 1a66 92bd 2a7f adbc 1174 fe3d
00000030: da80 92bd 2ef1 b33d 29aa 2a3e 85ea 6cbd
00000040: df27 483d 42a9 f5bd 5fe3 1dbe 1c31 c9bd
00000050: 4f79 53be c6de 963d 3f50 863d ae57 f3bd
00000060: e671 54bd 51f7 e1bd bc0d 6c3d a01d 193e
00000070: b08e 6ebd 95d1 6b3d 25f2 073e 877d d5bb
00000080: 8af2 a5bc b034 213e a944 5d3c 769a 7e3d
00000090: 9f43 693c 9c09 e73a ba8f edbd 16f6 ab3d
000000a0: d72e e4bd d6dc 633d 034c 71bd d1d8 d9bd
000000b0: f524 6d3e 471b 31be 5169 a2bd 8c76 21be
000000c0: 8727 26be 054f 63bd dcb6 65be 4e53 bbbd
000000d0: b4de 283d d751 f2bd 2de3 febd 6693 0abe
000000e0: 5183 34be fb00 02be e42c 0dbe 2ade e2bd
000000f0: b4e0 0cbe f3ee b0bd 2b9f f3bd 3cdd 28bd
00000100: cf01 073e d53f 41bc 941e 4ebe ff76 43bd
00000110: 0895 813e 6fa0 d33d 467a 853d cf95 ac3c
00000120: 5518 143e 57d6 5e3c f607 623e 8c5f 83bb
00000130: 98a9 233d a2cd 4c3c e769 74bd 1af2 833c
00000140: e8c1 12bd 856d ccbc c8fd f13d 881a b9bc
00000150: 0029 c1bd 8fb8 63bd dc05 2bbc f9a9 963c
00000160: 0483 063e decf cabc bd77 ebbd 06be fdbd
00000170: d07b 18bd 66cb fabd 1f61 d5bd e5ea be3e
00000180: 6150 063e f9ce 6cbd ec18 93bd e6d8 2dbe
00000190: b9c6 2ebe 7201 aebc b85a 033e 6207 0f3c
000001a0: 1fc4 4a3c f0ea bdb9 e85b 863d 0152 213e
000001b0: 17f5 0fbb d409 d03d b8c2 0d3e 2a54 1dbd
000001c0: 1cd4 9bbd 6dc0 b93d d678 95bd 46a0 8e3d
000001d0: a865 cf3d 181d de3d 7599 54bd af1d 313e
000001e0: b023 cfbc 095e 423e b616 85bd 6d71 36bd
000001f0: 4778 cebe 1c5b 55bb 87bf 1abd e7c6 a4bd
00000200: 4ab4 8abd 70d7 183e 8300 b2bc e636 35bc
00000210: ba0b b83c ac55 10be 1825 08be c5cc 5c3d
00000220: 777e 1dbe 6666 b43d 3795 eebd e51e fdbd
00000230: 10fd 023e d4b3 1dbe f049 b9bd 6b92 0bbe
00000240: 78d5 3b3e 16d1 44ba a2d7 cbbd e7c0 adbc
00000250: 1abf b63d 34ab 1fbd cd55 063e 2ddf a73c
00000260: e017 bc3d 8bb0 473d 13b9 02bc 3eac 493e
00000270: 2091 ff3c 1361 883d c76d 203e 1570 18bd
00000280: 3125 66bd 431e 8e3c 4380 843e a474 f13d
00000290: b06c 833a 32d6 cc3d 6d3f c03d 6259 f73d
000002a0: b461 dbbb 54bc b33d d8f3 09bd e112 25bd
000002b0: 8146 713e 8e01 e8bd e329 6fbd 88ee 8bbd
000002c0: b327 653d 5c05 f8bd c0e2 0abd 959f 213d
000002d0: 9cf0 babe 6c90 6bbc bd19 093e 25f8 96bd
000002e0: 2184 1ebd f525 a4bd d0b5 e53d 84c5 0d3e
000002f0: 4b94 c3bd 3e40 803d 5930 f43d 7c9f edbc
00000300: 92f6 b9bd 7a3d 86bd a88b 883c a48e 223e
00000310: 6a1e 803d 6108 093e aa54 01bd 41c3 38bd
00000320: 0ae2 50be bce2 32bd 59f4 873e d3f2 a7bd
00000330: 2368 963e 7883 d13d eb69 86bd 4242 80bc
00000340: f148 7ebd 0a5c 8d3d 9d0e 293e 10fc 803d
00000350: d49f cabc 511d 3d3d f6c1 0fbd 40fe a23d
00000360: 81c3 923b 6189 bd3d 34a3 9ebd 2770 c2bd
00000370: 8713 4f3e c623 fabd ab66 1abe 404d 4abe
0.26545998 -0.04611737 -0.10120696 0.06800399 0.18953887 0.024013866 0.0021713176 -0.066699766
0.15700178 -0.071483806 -0.0211788 0.12424482 -0.07153483 0.08786236 0.16666473 -0.057840843
0.04886615 -0.11995174 -0.15418766 -0.0982382 -0.20651744 0.073667094 0.065582745 -0.11881958
-0.051866435 -0.110335 0.057630286 0.14952707 -0.058241546 0.05757292 0.13275965 -0.006515208
-0.020257253 0.15742755 0.013505139 0.062159024 0.0142373135 0.0017626765 -0.11599679 0.083965465
-0.111417465 0.055630527 -0.05891038 -0.106370576 0.23158629 -0.17295562 -0.07930244 -0.15767878
-0.16226016 -0.05549528 -0.22433037 -0.091467485 0.04122801 -0.11832016 -0.12445674 -0.1353279
-0.17628218 -0.12695687 -0.13786656 -0.11077531 -0.13757592 -0.08639326 -0.11895593 -0.04122661
0.13184284 -0.011795004 -0.20128852 -0.047720905 0.25309014 0.10333335 0.065174624 0.021067528
0.14462407 0.013600907 0.2207335 -0.004009193 0.03995666 0.012500199 -0.05967131 0.016106654
-0.035829455 -0.024954567 0.11815983 -0.022595659 -0.09431648 -0.05559593 -0.010438409 0.018391596
0.13135916 -0.024757322 -0.11497448 -0.1238976 -0.03722745 -0.122458264 -0.10418915 0.37288585
0.131166 -0.057814572 -0.07182488 -0.16977271 -0.17067994 -0.021240924 0.12827575 0.008729788
0.0123758605 -0.0003622393 0.065604985 0.15753938 -0.0021966153 0.101581246 0.1384381 -0.038410343
-0.07608816 0.090699054 -0.07298438 0.069641635 0.10126811 0.10845393 -0.05190416 0.1729648
-0.025285572 0.18981184 -0.064984724 -0.044541765 -0.4032614 -0.0032555526 -0.03778031 -0.0804575
-0.06772669 0.14925933 -0.02172876 -0.011060452 0.02246653 -0.14095181 -0.132954 0.05390622
-0.15380274 0.088085935 -0.11649554 -0.12359408 0.12791848 -0.1540063 -0.090473056 -0.13630073
0.1834315 -0.0007507963 -0.09953238 -0.021210147 0.089231685 -0.03898163 0.13118668 0.02049216
0.09184241 0.04875235 -0.007978695 0.19694611 0.03119713 0.066591404 0.15666877 -0.037216265
-0.056187812 0.017348414 0.25879106 0.117898256 0.0010026898 0.10001792 0.093870975 0.12077595
-0.0066949967 0.08776155 -0.033679813 -0.040301207 0.23562051 -0.113284215 -0.058389556 -0.068326056
0.055946063 -0.12110397 -0.033907652 0.03945883 -0.36511695 -0.014377695 0.13388725 -0.073715486
-0.038700227 -0.08015052 0.112163186 0.13844877 -0.09549769 0.06262253 0.11923284 -0.029006712
-0.09080233 -0.065546945 0.016668156 0.15874726 0.06255801 0.13382103 -0.031574883 -0.045108084
-0.20398727 -0.043673262 0.2655361 -0.08200612 0.29376325 0.10230154 -0.06563171 -0.015656594
-0.06208128 0.06902321 0.16509481 0.06298077 -0.024734415 0.046170536 -0.035097085 0.079586506
0.0044788723 0.092547186 -0.07745972 -0.094940476 0.20222293 -0.122138545 -0.15078227 -0.19756031

encoder_mean.8.bias f4 [14]
00000000: 8897 c235 1a06 1f36 8905 0535 a9ee 1036
00000010: 997e f233 32bb 88b6 61dd 4db5 c652 1d34
00000020: 3aa7 4536 1ac9 4734 61d4 9334 102e c9b5
00000030: e2ce 21b6 ad8c 4435
1.4498228e-06 2.3696398e-06 4.9554416e-07 2.159659e-06 1.1292031e-07 -4.0749082e-06 -7.66906e-07 1.4651877e-07
2.9452626e-06 1.860648e-07 2.753541e-07 -1.4989073e-06 -2.4111291e-06 7.32204e-07

encoder_mean.9.weight f4 [14]
00000000: 2ab3 e13e 8c8f d63e 1269 df3e caae 253f
00000010: 0b64 a73e 7e85 e23e 9b8a d03e fac5 c23e
00000020: 2921 093f fd60 a23e 9195 f43e 5ec5 013f
00000030: 2cb0 c03e 24b6 033f
0.44082004 0.41906393 0.4363485 0.6471983 0.32693514 0.4424247 0.40730748 0.3804167
0.53566223 0.3171462 0.4777036 0.50691783 0.37634408 0.514498

encoder_mean.9.bias f4 [14]
00000000: 1e7a 2c3c 5ba5 013e 0e68 9abd 09d0 61be
00000010: b879 853d ab9a 8dbd 2690 f53d ee1e 43be
00000020: 8b8a 14be c268 f83c 280c 213d 5c84 9d3d
00000030: 6243 8a3d c27e 92bd
0.010527162 0.12660734 -0.07539378 -0.22052015 0.06517357 -0.06914266 0.11990385 -0.19054767
-0.14505975 0.03032339 0.039318234 0.07691261 0.067511335 -0.071530834

encoder_mean.9.running_mean f4 [14]
00000000: e766 a13d f17b 463c 79bc b1bd 7171 56be
00000010: 55e2 ba3d 7606 943c ce9e 593d f367 6cbd
00000020: 7f23 01be 18f0 c13d aa57 a33c d728 673c
00000030: 39d6 8c3d 1439 a9bd
0.07880955 0.012114511 -0.086785264 -0.20941712 0.09125201 0.018069487 0.053129964 -0.05771632
-0.12611197 0.094696224 0.019939262 0.014108858 0.06876797 -0.0826284

encoder_mean.9.running_var f4 [14]
00000000: 94e7 323d 1e86 d13c 5c40 973d b448 3c3d
00000010: 2dd1 263d c899 093c 5fb2 c13c 2fab 1b3c
00000020: d0c4 853d df8a f33c a409 573d 4fb8 043d
00000030: a86c ad3c 04ae c23d
0.04367788 0.025576647 0.073853225 0.045967773 0.04072683 0.008398481 0.023644624 0.009501263
0.0653168 0.029729305 0.05249943 0.032402333 0.021169975 0.09505847

encoder_mean.12.weight f4 [12, 14]
00000000: 92e7 2fbd f9cc f6bd ce9d 83bc a76f 6ebe
00000010: 6829 373e d0d0 133c 6161 9c3c 8e94 3b3e
00000020: 28e6 8ebc 03a4 453e ee35 5c3e 70dd 1dbe
00000030: 823e fb3d 8679 72bc bb69 8b3d 9972 38bc
00000040: f970 e43c a62e 54be ae6d b03d d19a 243e
00000050: b961 3e3d acc1 d93d fc7b dfbd cd43 c33d
00000060: cb08 86be 3d19 ac3c 0910 423e c340 313e
00000070: c0ca 0dbe b279 34bc baf1 74bd 42b9 a33e
00000080: 3bf3 a3bd 1e25 10be 2d87 2abd 9464 35be
00000090: d244 5e3d 9098 f9bd f758 d8bd 76fe 19bd
000000a0: cbba 5abe ea6f ecbd a238 c9bd c2ae 07be
000000b0: 8ef0 223e 4adb 65bd 9f32 dfbd a9ac 37be
000000c0: f97a 2abe c285 c4ba 3c93 5d3e edbc 92bd
000000d0: 8af2 a1bc 6bb4 1cbe 00d0 41bd 6785 b53d
000000e0: 0868 0e3e 78ae 13be eaab 843d bf80 70be
000000f0: 1e42 d3ba b3a5 d3bc 8080 ecbd e9c2 2a3e
00000100: b63a a9bc 99cf b0bc 0057 083e 6ef8 2fbe
00000110: a806 fe3d 6ca5 20bd 512a cbbc abe2 2fbe
00000120: 118d de3d 66c5 e6bd 08fb 013c 3526 1cbe
00000130: 77e9 3ebe 8682 943d 02b5 273e d35f 2dbd
00000140: 1874 dd37 2c0f 31be 6496 98bb 240d 2c3e
00000150: b25e 9f3d f979 893d 4dba 03be c124 43be
00000160: 12a6 8f3d 63c6 2c3e 041a b23d d4e0 08bc
00000170: 4311 49be d98e c93d b2e7 88bd 8001 9a3d
00000180: d918 883d 09f7 fcbd 0cd3 e1bd a574 1d3d
00000190: 774c 73be 7a1d 32be a564 37be c98f 73bc
000001a0: 8abf 423d 4c08 09be 5809 69be 2451 66bd
000001b0: 9edb 39be a48e c33c 3ed0 b8bb 4910 6dbe
000001c0: bef4 f13d b6bf 6f3d d6ec adbd 6758 15be
000001d0: 289b b53d 9784 3c3e 88fd 8c3d 90c5 fc3c
000001e0: bc0d 16be d257 f73d a8fd 00be b22a d23d
000001f0: fdd0 5c3d a3e5 4cbd 7fcc e3bd 2542 af3d
00000200: 7c5e 5abe 335a 64be be13 0fbe 7995 ce3c
00000210: 505b b13d c41b e2bd d899 37be c8fb 073b
00000220: 9559 06be 0fc6 ad3d 6c44 893d 7e93 39be
00000230: c459 9abc cb00 27be 67c8 cb3d f98e 22be
00000240: 5675 73bc fbba 12be 14f6 36be dec7 973d
00000250: 6ca4 363e 3db6 fdbc d0f7 25bc c74c 29be
00000260: b373 043d d6bf 1d3e 67d3 3d3e e484 1e3e
00000270: bf75 8e3d 36ca 94be 4efa 003e 0672 263e
00000280: 90c0 883d 2d5a 0d3e ed1f 613d 5082 e23d
00000290: a512 e43d c536 2e3d b394 5f3e 2c6a d43d
-0.042945452 -0.12050814 -0.016066458 -0.2328478 0.17886889 0.009021953 0.019089403 0.18318388
-0.017443731 0.19300847 0.21504948 -0.15416503 0.12267782 -0.014799481 0.06807276 -0.011257791
0.0278859 -0.2072092 0.0861467 0.16074683 0.046479914 0.10632643 -0.1091232 0.09534416
-0.26178584 0.021008128 0.1895143 0.17309861 -0.13846874 -0.011015343 -0.05980084 0.31977278
-0.08005377 -0.14076659 -0.04163282 -0.17714149 0.05426485 -0.12187302 -0.10563844 -0.03759619
-0.21360318 -0.115447834 -0.09825255 -0.13250259 0.15912077 -0.056117333 -0.10898327 -0.17936958
-0.16648473 -0.0014993476 0.21638197 -0.07164941 -0.019768972 -0.15303199 -0.047317505 0.08863335
0.13906872 -0.14422023 0.064781025 -0.23486613 -0.0016117727 -0.025835847 -0.11547947 0.16675915
-0.020657878 -0.021583365 0.13314438 -0.17184612 0.12403613 -0.03922026 -0.024800451 -0.1717631
0.1086675 -0.112681195 0.007933386 -0.1524895 -0.18643747 0.07251458 0.16377643 -0.042327713
2.6399313e-05 -0.17290944 -0.0046566 0.16801888 0.077817336 0.067127176 -0.12864037 -0.19056989
0.07014097 0.16872554 0.08696368 -0.008354384 -0.19635491 0.09841699 -0.066848174 0.07519817
0.06645364 -0.12351806 -0.11026582 0.03844132 -0.23759638 -0.17394057 -0.17909487 -0.014865824
0.047545947 -0.13382071 -0.2275747 -0.056229725 -0.18150184 0.023871727 -0.005640059 -0.23150744
0.11814259 0.05853244 -0.084924385 -0.14584504 0.08867484 0.18409954 0.06884295 0.030855924
-0.14653677 0.12077297 -0.12596762 0.1026205 0.053910244 -0.050023686 -0.11122989 0.08557538
-0.21325105 -0.22300033 -0.13972375 0.025217758 0.086599946 -0.11040452 -0.1792978 0.0020749439
-0.1312011 0.08485042 0.067025036 -0.1812267 -0.018841632 -0.16308896 0.09950333 -0.15874852
-0.014859518 -0.1432914 -0.17867309 0.074111685 0.1783616 -0.030970687 -0.010129884 -0.16533194
0.032336902 0.15405211 0.18537675 0.15480381 0.06956052 -0.29060525 0.12595484 0.16254434
0.066773534 0.1380393 0.054962087 0.110600114 0.11136369 0.0425327 0.21834068 0.10371813

encoder_mean.12.bias f4 [12]
00000000: 83d8 b3b5 96e7 f335 16a9 2d36 bda2 33b6
00000010: 9acc 03b6 a3d8 db35 8024 8eb3 e19f 6d35
00000020: b601 6ab5 6334 aeb4 a35f 5735 a395 9636
-1.3399552e-06 1.8172311e-06 2.587743e-06 -2.6767805e-06 -1.9639615e-06 1.6379821e-06 -6.6190296e-08 8.8522035e-07
-8.717428e-07 -3.2448142e-07 8.023291e-07 4.4877684e-06

encoder_mean.13.weight f4 [12]
00000000: 7036 243f 0afb 2f3f a323 a73f e54d 713f
00000010: 67c1 433f 4b21 5c3f 3e78 2c3f 940b 893f
00000020: f824 433f ec2f 733f 65b2 5d3f c3b0 473f
0.64145565 0.6874243 1.305775 0.9425948 0.76466984 0.859883 0.67370975 1.0706658
0.76228285 0.94995 0.86600333 0.7800409

encoder_mean.13.bias f4 [12]
00000000: 5e61 a93e 8907 b43e b2fe 843e 5ab3 6b3d
00000010: 39f8 4c3e bb51 e13d 5da7 8f3e 481d f03d
00000020: a220 883e 70c2 523e 4fc8 853d d17f d43e
0.33082098 0.35162 0.25975567 0.05754409 0.20016564 0.11001917 0.28057376 0.11724335
0.26587397 0.20581985 0.065323465 0.41503766

encoder_mean.13.running_mean f4 [12]
00000000: 6bdf a23c c3df 2b3d 511b eebd 908e dbbd
00000010: 3173 57bd 7887 b0bd defa ce3c 4ea3 22be
00000020: 545f 483d 644c bbbd 00d4 babd 70b5 3c3e
0.019881925 0.041961443 -0.11626304 -0.10720551 -0.05260009 -0.086195886 0.025266107 -0.15882608
0.048919037 -0.0914543 -0.09122467 0.18428588

encoder_mean.13.running_var f4 [12]
00000000: 5763 103d 6415 e13c 1e8a 523d b7fe 833d
00000010: df37 043d 59df 733d 2a22 3e3d 180e 473d
00000020: 69e6 643d 1f49 1b3d 288f 693d 5f0c 9c3d
0.035250988 0.02747602 0.05140125 0.064450674 0.032279845 0.059539173 0.0464193 0.048597425
0.0558838 0.03791153 0.05702129 0.07619547

encoder_mean.16.weight f4 [10, 12]
00000000: 634e f1bc c6ad f03e eefe 17bf fa73 59bf
00000010: 68a0 8fbe 0fb1 28bf ac7a 1c3f bba4 023f
00000020: 7658 193f 9157 2a3f 8405 2ebf 14e5 003f
00000030: fc9a 03bd 1fdb a8bb ae27 26bc c0f2 293c
00000040: 7d83 0f3d 3c0b 8f3c 5f6d 863c 36ca 343b
00000050: 1b5d 5f3c 8df7 f3bc 5839 d7bb 02c3 8b3b
00000060: 15b7 9b3a f3d8 f43b fb22 c3bb cad0 90bc
00000070: a97b b83c 9036 ffba 4bea 953b f775 373c
00000080: bcca 23bd 08b6 50bb f9bc 4dbc 163d 3d3c
00000090: 199b d63c bea7 39bd bcb7 033c 6ffd be3b
000000a0: 4643 26bb 684f f4bb 0af3 7ebd e2eb 0cbd
000000b0: cf1b 363d 6bfa 8e3d 162c e7bc 3fe3 fb3c
000000c0: 47e3 6f3d 5abd e0bb 81f5 4dbc a2c5 bfbc
000000d0: 3bb3 d33c fd4d 93bc fcca 9ebc b8ee 3a3e
000000e0: 73e2 3bbd bf15 3ebc 1918 a83c 428d b2bb
000000f0: f4c5 02ba 7a65 a53b 4a72 1fb9 9d4b 67ba
00000100: 4972 97ba 3782 79bb b52f 793c 8279 9c3c
00000110: dca7 f6bb 9c46 4f3c a257 acbb e0aa 53bc
00000120: 2f6e 2dbf ab93 fabe e578 8a3f 6cd0 5dbe
00000130: dca9 26bf f927 c9be 96b2 75be 2469 583f
00000140: a81f 7dbe 125a 0a3f 9286 e7be 533d 02bf
00000150: 46ba 29bd fa95 203c 80ed 26bd 810c 51bd
00000160: 117f 153d a84d cd3d 6e47 5d3c cbbe abbd
00000170: 9a74 063a 8d91 dbbd 5ef0 d4bc 46cc 703c
00000180: 361a 1ebd 6442 ebbc d08f 7e3a 98fa ccb8
00000190: e55c 063c 889b cebb 6f16 1f3d 4c09 16be
000001a0: ce90 a33c fbf2 533d 50a2 253d 73d2 1cbc
000001b0: c1b0 81bd 4910 c13c ba02 99bb 4223 c0ba
000001c0: 3be1 573d bc85 7a3d 7f0b a23d ab5b e4bd
000001d0: 9767 ce3c 892f 0abd 6fa3 d7bb 2bcb 8abd
-0.029456323 0.4700758 -0.59373367 -0.8494259 -0.28052068 -0.6589517 0.6112468 0.5103261
0.59900606 0.66539866 -0.67977166 0.50349545 -0.032130226 -0.0051530744 -0.010141296 0.0103728175
0.035037506 0.017461412 0.016409574 0.0027586347 0.013633038 -0.029781127 -0.006568115 0.00426519
0.0011880124 0.0074721514 -0.0059550977 -0.017677683 0.022519903 -0.0019471217 0.004575049 0.011197559
-0.039988264 -0.003184678 -0.012557262 0.011550209 0.026197003 -0.045325987 0.008039411 0.0058285515
-0.0025369688 -0.007455755 -0.0622435 -0.034404643 0.044460114 0.06981357 -0.028219264 0.030748008
0.058566358 -0.00685851 -0.01257074 -0.023409668 0.0258423 -0.017981524 -0.0193839 0.18255126
-0.045870256 -0.011601864 0.020519303 -0.005448968 -0.0004988604 0.0050474973 -0.00015205998 -0.0008823218
-0.0011554445 -0.0038072 0.015209128 0.019100908 -0.0075273346 0.012651112 -0.00525947 -0.012919158
-0.6774625 -0.48940787 1.0818144 -0.21661538 -0.65102935 -0.3928831 -0.23993906 0.8453543
-0.24719107 0.54043686 -0.45219857 -0.50874823 -0.04143741 0.009801382 -0.04075384 -0.051037315
0.036498133 0.100245774 0.0135058 -0.08386 0.00051290693 -0.10721121 -0.025993522 0.01469714
-0.038599215 -0.028718181 0.0009710761 -9.774155e-05 0.008200859 -0.006305162 0.038839754 -0.14651984
0.01996651 0.051745396 0.040437996 -0.009571659 -0.06332541 0.023567336 -0.0046695145 -0.0014658945
0.05270503 0.061162695 0.07912349 -0.11150297 0.02519588 -0.03373674 -0.006580762 -0.067770325

encoder_mean.16.bias f4 [10]
00000000: 9a78 f8bd 4219 04bb d602 493c b94a 44bc
00000010: 3376 68bd d52a d7bb 3547 323e 6a97 b13d
00000020: 9170 e03c 738c 033d
-0.12132378 -0.0020156656 0.012268743 -0.011980706 -0.05675335 -0.0065663853 0.17409976 0.08671458
0.027397426 0.032116365

encoder_var.0.weight f4 [20, 30]
00000000: 7a0b 1d3b e580 a93a 9088 20b9 6a4f 16ba
00000010: 7463 2f3b 9c6f c5ba 3cfb 513a 714a 113b
00000020: 6699 47ba ebcb b5ba 16d0 063a 7bcb 70b9
00000030: 0674 933a 5206 3bbb ab18 613a f365 f9ba
00000040: 7e24 19ba 1a0f 353a 72f7 533a 1fb7 a7ba
00000050: d882 0aba bb0c 9b3a 6859 933a a38c 99b9
00000060: 6ed1 6139 612c 1b3b 89df 1abb de6a 873b
00000070: 977b 85bb 4483 843b cdaa d2bb b41c 8cbb
00000080: 0202 92ba 9239 a13b 400a 5e3a a0f0 04bb
00000090: 611c 4a3c a619 a83b 20b6 993b 8784 30bc
000000a0: 84ca 943b 9a0f 943b c239 15bb c99d bcbb
000000b0: 8355 9dbb f12f 9c3b 0dce 6fba 66a7 fdba
000000c0: 4774 09bb bc8c 1cbb dd46 903b e999 38bc
000000d0: 20af 7b38 cb98 0c3c de98 4c3b bc02 973b
000000e0: 39f6 97bb ca61 87bb d58c 823b 7950 97bc
000000f0: 344c dc38 da08 fc37 6771 bf39 6bf0 c2b8
00000100: ae5b 29ba 66a2 053a 6122 ff39 1db2 613a
00000110: 3dc5 bbb8 96c3 72b9 0492 553a 8865 d138
00000120: 530d 8fb9 fe8f 31b9 3879 94b9 4d61 143a
00000130: bc56 85b8 3dae 6639 665a 4a38 c4a2 f0b9
00000140: e46d 9ab8 404f 92b9 3960 7cb9 b20a 3338
00000150: 3d7b 033a e38b 2c39 c09e 58b5 1256 a738
00000160: 8ebb 9cb8 74a3 7eba b078 d6bb 86e6 21bc
00000170: c889 4cbc 249b a33b 4eec ed3b a061 2c39
00000180: ee9f 403c 03f1 8abc 5cef af3b faa4 f03b
00000190: abde 2bbb 8e22 2f3c 9242 b7bb 5a46 e4bb
000001a0: 402e ac37 1890 8a3c 6334 08bb 9e02 03bc
000001b0: dc26 0ebc 15fa e8bb 19dd 543b 2ef6 ccbc
000001c0: 8890 e53b 5887 fa3b 9e3d 5c3c 1d3a e4bb
000001d0: bbfd d73b 388a c5bb ca5f c73b 0a21 afbd
000001e0: da49 253a 9628 97bb 82b0 c5bb 5439 0bba
000001f0: ff1e 97ba c8c8 ec3b fd79 15bb d83f 893a
00000200: e972 353c cedb 47bb 2d79 583b 8219 413b
00000210: b1d3 b0bb 320e 6e3b e8c7 0abb 0136 313c
00000220: d059 84bb b742 0abb 4e9a 04bc 8f40 5fbb
00000230: bdd5 9fba c506 eabb 0b6e 5d3b 44e0 ae3b
00000240: 8e17 1f3b 40fd f1ba 607d f23a d0dd b8b9
00000250: 5cef ab39 2300 84bd c0e9 1b3a d611 5839
00000260: 618b 5eb9 4c46 bbb9 fd95 26b9 8786 e938
00000270: c693 5937 4fc1 7d39 5151 0eb9 ee5c 333a
00000280: f0ef 36ba d224 35b9 d0e6 0db9 c85c e339
00000290: ae34 68b8 daa2 c438 f8a9 a4b8 a7a0 f5b9
000002a0: d91c 09ba 962d 3fb9 bd12 c1b9 9fdf 90b9
000002b0: 9f2c ac39 f7d4 3139 87dd b236 ed55 02ba
000002c0: 23d6 fd39 cda5 f9b9 1b19 fe39 42e5 fdba
000002d0: c815 2a38 3ea9 40b9 7be0 00ba 9a8a 4eb9
000002e0: 8835 8839 8daf b038 ece7 57b9 0228 0a3a
000002f0: f34c 1639 4ae5 8ab8 14db d239 25cd f5b6
00000300: d873 17b8 28a1 f5b9 425e 4538 2c1c 3c39
00000310: a3b4 14b8 66ad 8839 28f6 f139 692a 51b8
00000320: 4441 61b9 8313 e4b9 d844 b939 01f8 5d38
00000330: b779 6a39 a084 7d38 8ba7 a4b8 c0d6 8939
00000340: ceab 89b9 90a5 c7b8 174b 87ba 10e3 4ab8
00000350: d25b 63bb 7b4b 883a 8193 813b 3d7e 05bb
00000360: 5e5d 26ba 5c7d 87bb a8f7 9eba ca86 3cbb
00000370: 3d9c 24bb 0404 cabb 3828 773a 6835 e83a
00000380: 4e71 12b9 1fb8 5e3a 8042 db39 6a1e 113a
00000390: 30f6 8c3a 6fc3 4338 dc52 913a 0885 89ba
000003a0: ce20 57bb 1c5c 9539 b65e 843a 5ac5 633b
000003b0: ad16 5abb a22f 023a 7db1 01ba f230 813b
000003c0: 0162 1ebc 33cc 583b 4a25 e2ba ecf0 1e3b
000003d0: fc87 1ebc 3449 243c bd57 473c 9eb8 7ebb
000003e0: 6f7e 813c 0a6f eebb 4c03 0cbb 5a8a a83c
000003f0: a5c5 42bc e451 5d3b 79d4 92bb 36b5 4f3c
0.002396314 0.001293209 -0.00015309663 -0.00057338795 0.002676216 -0.0015063169 0.0008010154 0.0022169615
-0.00076141057 -0.0013869976 0.00051427016 -0.00022963986 0.0011249788 -0.0028537703 0.00085867447 -0.0019027576
-0.00058419246 0.00069068524 0.00080858835 -0.0012795663 -0.00052837795 0.0011829355 0.0011241855 -0.00029287217
0.00021535691 0.0023677575 -0.0023631772 0.0041326126 -0.004073571 0.0040439684 -0.0064290524 -0.0042758826
-0.0011139514 0.004920193 0.00084701553 -0.0020285025 0.012335868 0.0051300107 0.0046909004 -0.0107737845
0.0045407433 0.0045184614 -0.0022770022 -0.005756114 -0.0048014536 0.0047664572 -0.00091478304 -0.0019352257
-0.0020973848 -0.0023887595 0.004402979 -0.011267164 6.000616e-05 0.008581351 0.0031219046 0.0046084803
-0.0046375063 -0.0041315304 0.0039840736 -0.01847099 0.000105046114 3.0044863e-05 0.0003651485 -9.295422e-05
-0.00064605 0.00050977466 0.00048663004 0.000860961 -8.953593e-05 -0.0002315178 0.0008147063 9.984808e-05
-0.00027285013 -0.00016933677 -0.00028319075 0.0005660251 -6.35809e-05 0.00021999418 4.8244743e-05 -0.00045897637
-7.363761e-05 -0.00027906336 -0.00024068439 4.2686886e-05 0.00050156174 0.0001645531 -8.069728e-07 7.9792124e-05
-7.4735945e-05 -0.00097136875 -0.006545149 -0.009881621 -0.0124840215 0.0049928594 0.0072608357 0.00016439566
0.01175688 -0.016960626 0.00536911 0.0073438855 -0.002622525 0.010689391 -0.0055926526 -0.0069663944
2.0525535e-05 0.016914412 -0.0020783178 -0.007996229 -0.008676257 -0.00710989 0.0032480417 -0.025019731
0.007005755 0.0076455288 0.013442425 -0.0069649355 0.0065915263 -0.00602844 0.006084417 -0.085512236
0.0006305255 -0.0046129925 -0.0060330043 -0.0005310972 -0.0011529623 0.0072260834 -0.0022808306 0.0010471297
0.01107476 -0.0030496004 0.003303121 0.0029464667 -0.0053963293 0.003632438 -0.0021176282 0.010816098
-0.004039027 -0.0021096894 -0.00809343 -0.003406558 -0.0012194436 -0.0071419203 0.0033787515 0.005336793
0.0024275514 -0.0018462315 0.00185005 -0.00035260478 0.00032793998 -0.064453386 0.0005947612 0.0002060601
-0.00021223493 -0.00035719795 -0.00015886869 0.000111353635 1.2968614e-05 0.00024199973 -0.00013572468 0.00068421557
-0.00069785025 -0.00017275222 -0.00013532792 0.0004336594 -5.5362172e-05 9.376342e-05 -7.8517885e-05 -0.00046849737
-0.0005230434 -0.00018232162 -0.0003682579 -0.0002763243 0.00032839642 0.00016959371 5.3306026e-06 -0.00049719104
0.00048415465 -0.00047616512 0.0004846536 -0.0019370692 4.0551444e-05 -0.00018373595 -0.00049162627 -0.00019697324
0.00025979825 8.425033e-05 -0.00020590395 0.0005270244 0.0001433378 -6.623061e-05 0.00040217547 -7.325451e-06
-3.6109093e-05 -0.00046850112 4.7056245e-05 0.00017939572 -3.545418e-05 0.00026069133 0.00046150503 -4.986898e-05
-0.00021481985 -0.00043502086 0.00035337242 5.2921478e-05 0.00022361321 6.0443417e-05 -7.851337e-05 0.00026290677
-0.0002625868 -9.519898e-05 -0.0010322061 -4.837202e-05 -0.003469218 0.0010398471 0.0039543514 -0.0020369433
-0.000634631 -0.004134817 -0.0012128251 -0.0028766864 -0.002511754 -0.0061650295 0.00094282953 0.0017716112
-0.00013965854 0.0008496064 0.0004182048 0.0005535843 0.0010754522 4.6673635e-05 0.0011087316 -0.0010491917
-0.003282595 0.00028488121 0.0010099027 0.0034755082 -0.0033277676 0.0004966204 -0.0004947407 0.0039426023
-0.009666921 0.0033080697 -0.0017253545 0.0024252487 -0.009675976 0.010027219 0.0121669145 -0.0038867365
0.015807359 -0.0072764205 -0.002136427 0.020573784 -0.011887942 0.0033770734 -0.004480895 0.012677481

encoder_var.0.bias f4 [20]
00000000: 7f14 4c34 a8cb ea31 4633 7eb4 962d 7eb4
00000010: b3bf a8b4 1df9 6d34 a7b7 89b4 4255 1733
00000020: 24f7 b734 7090 a633 c041 df31 c3f0 f6b3
00000030: be28 5834 081e e1b4 963a 5134 b8f0 56b2
00000040: be56 37b3 1db7 8db3 b267 2334 4509 90b3
1.9006437e-07 6.8334494e-09 -2.3674247e-07 -2.3672177e-07 -3.1431918e-07 2.2162972e-07 -2.5651863e-07 3.523497e-08
3.4266225e-07 7.7562504e-08 6.497629e-09 -1.1499062e-07 2.013139e-07 -4.1931366e-07 1.9485955e-07 -1.25111725e-08
-4.26869e-08 -6.599132e-08 1.5218282e-07 -6.707209e-08

encoder_var.1.weight f4 [20]
00000000: c095 d43b d68f 033c 72a3 333a 84a0 503d
00000010: 4d48 353d 56c5 dc3a 9f1d c33a bcbb 14ba
00000020: 1a05 4c3d 9fbb d83b 176b 093c bcb2 803c
00000030: 3bbf 833b 7850 403d 6934 ef3b 5222 ba39
00000040: 78b9 13ba 66d3 1a3b 26b9 453d c2da 24bc
0.006487578 0.008029899 0.00068526634 0.05093433 0.044258405 0.0016843479 0.0014886147 -0.00056737266
0.049809553 0.006614163 0.008387349 0.015710227 0.004020599 0.04695174 0.007299949 0.00035502255
-0.0005635242 0.0023624538 0.048272274 -0.010061922

encoder_var.1.bias f4 [20]
00000000: dd1e c03b 8fa8 92bb e7bc 063a 36e0 243c
00000010: 1918 3d3b 36bd 33ba 70bc 2fba 226d a4bb
00000020: 168f 983b 4bb8 af3b 8e36 7b3a 3cef 34bd
00000030: a606 893b 70b6 92bb a2b0 8f3a 08b8 183c
00000040: 802f 053a b67d 023c b18c 513c bc20 8c3a
0.005863054 -0.00447566 0.0005139843 0.010063222 0.0028853475 -0.0006856503 -0.00067037996 -0.0050178925
0.004655729 0.0053625456 0.00095830194 -0.044173464 0.0041817008 -0.0044773147 0.0010962675 0.00932122
0.00050806254 0.007964542 0.012789891 0.0010690908

encoder_var.1.running_mean f4 [20]
00000000: 8dbb 603b a7f6 7dbc 796c 27ba 0a1c 67bd
00000010: 0abb 48bd 592d 1fbb 83ac 2aba 1a13 a03b
00000020: a207 81bd 4324 063c 2913 16bc 1200 d4bc
00000030: 0c4a b83b 60e7 6abd 7e63 43bc baa8 073c
00000040: 086b 493a 0bb7 e93b 8b55 96bd d332 8cbb
0.0034291476 -0.015500701 -0.0006386708 -0.056423225 -0.0490065 -0.0024288504 -0.00065106916 0.0048850896
-0.06300284 0.008187356 -0.009159842 -0.02587894 0.0056240615 -0.057349563 -0.011925576 0.008279974
0.00076834904 0.007132416 -0.07340535 -0.0042785197

encoder_var.1.running_var f4 [20]
00000000: 0cd5 7838 b78e 5039 2832 bf36 3332 833a
00000010: 1574 213a e822 bc36 52ad 3636 231f 9638
00000020: 55ec 663a f3d0 2b38 c442 3338 ab0c 8a3a
00000030: 615d 2338 88cb 723a 445e 8d3a 1c51 9c38
00000040: 0f44 5436 17f8 db38 95f0 f03a 8bc2 ca38
5.9326223e-05 0.00019889591 5.6980825e-06 0.0010009467 0.000615896 5.6069002e-06 2.7221e-06 7.158357e-05
0.000880902 4.0964176e-05 4.2739106e-05 0.001053234 3.8949194e-05 0.0009261896 0.001078554 7.4537675e-05
3.1630077e-06 0.00010488944 0.0018382246 9.668347e-05

encoder_var.4.weight f4 [16, 20]
00000000: dd3f 41bb 2c42 b43a 4298 96b9 9230 9a3c
00000010: 255d 843c 1efa 0a3a 290a 0c3a 5f19 1b3b
00000020: 22ed a43c da2c 94bb 7863 823b 8078 d6b9
00000030: 049d 27bb f83a 5b3c 032f 9bbb 8253 88bb
00000040: a995 b9b8 0c5d af3b e6c0 8e3c 4a64 33bb
00000050: 1a68 55bb ed3c 2b3b 457e 55ba c353 883c
00000060: 7efa 8a3c dfba 6e3a 2daf 5339 5986 2f3b
00000070: 3a56 a83c 5814 5cbb a4ef 8e3b 8b90 0cbb
00000080: 2c3d 03bb 3fd6 373c 0f27 aebb 02f9 7dbb
00000090: efd9 31ba 90dc a13b 5e50 8d3c 41b6 05bb
000000a0: 1f11 27bb 4202 343b bbed e4b9 3abc 5d3c
000000b0: d680 7e3c 5883 043a ac5d b939 403b f43a
000000c0: 3c8d bb3c 2f92 53bb 2545 5e3b f43f f43a
000000d0: e750 02bb d9bd 663c db29 b2bb 7380 01bb
000000e0: a2e1 0cb9 8cc0 633b 0c8b 803c 0212 3abb
000000f0: ef36 e139 e7af b2ba a8f8 1239 1a0e 4ebb
00000100: 1f5f f3bb 0b8e 1039 4917 6cb9 7c80 70b7
00000110: adf7 d6bb a069 3b3a fa5d dfba 4997 68bb
00000120: 9a9a 9039 55d0 0cbc d6d7 9f3a 39c8 4339
00000130: d016 c4b8 c9bd 97ba ea3f b2bb f11f 96b9
00000140: 2f2d 61ba a9ad 5b3b 42ae 75b9 d939 7b3c
00000150: c347 2d3c c16e 023a 04b9 b439 3445 bb3a
00000160: 2652 6a3c 872d 0abb 4688 343b 501d 19ba
00000170: 843d c9ba d0fd 203c aa31 a8bb 5849 09bb
00000180: b2d5 8b38 6b3d 233b 7481 4c3c 3917 a0ba
00000190: 4d3b 89ba c197 603a dd0f d2b9 6673 f73b
000001a0: eb2f e13b 9cde 3e38 a1dc 2f39 81cf 6f3a
000001b0: d2e8 1f3c 310d 21ba fd33 823a 0b65 06ba
000001c0: 73e0 b1ba 0cb4 cf3b 04b5 c0ba 76af b0ba
000001d0: 3fae e1b9 bbd0 cc3a 7a15 ca3b 7b98 b7ba
000001e0: 6a2d c539 927e 19ba 3110 8ab7 5829 0cbb
000001f0: a84b 1ebb f287 32b9 2d61 4cb9 1501 5cb9
00000200: c5c9 3bbb 413b ba39 9844 acb9 7850 eab9
00000210: 884e 3939 4d8b 61bb 5abe ad3a a230 ceb8
00000220: afc7 9c39 d177 b0b9 6025 3bbb 68b4 01ba
00000230: aa80 51bb 60ae 003c 0bf1 15ba 208f 763c
00000240: 2d9a 9f3c d7ac 463a 71c8 8a39 0fab 9a3b
00000250: 860c 673c ffcb bbbb 6a29 973b d830 053c
00000260: a5eb fcba 11ae e73b a452 1ebc 4a20 4cbb
00000270: f98b 0039 0ba0 da3b 80b8 8d3c 86bf 06bb
00000280: e249 36bb 6a14 ba39 7831 acb9 1841 5d3c
00000290: b1b2 373c 8568 96b9 8f0f 9239 fa73 973a
000002a0: f998 4f3c b107 08bb 2ba9 073b 3645 863a
000002b0: b03f 08bb 4aa5 2e3c e1de bcba 1eb1 f9ba
000002c0: f05e beb9 e4f4 cf3a 6f6e 563c bb46 00bb
000002d0: 845e 2dbb 3371 693b 3c3c edb9 cc76 803c
000002e0: 9f1f 443c 8ce1 4f39 360e 6239 a424 b03a
000002f0: 5fa9 983c 4968 59bb 3f81 723b fc3b 2c3b
00000300: 9500 f5ba 6f80 923c cee5 81bb 1b57 b7ba
00000310: 86d9 b3b9 6d2e 2f3b 1073 653c 768d fab9
00000320: b63b 3f38 1a20 0c39 64d7 a537 87e4 9cb9
00000330: e69a c0b8 b4c3 0038 5d80 e338 3d79 de37
00000340: 7416 79b7 986a 97b8 d4ca 0eb6 9fd3 a338
00000350: 979f 4439 bb6d bfb9 fe9e fbb9 7001 71b7
00000360: f846 ff37 8414 adb7 6452 5737 46bd 4438
00000370: 9d39 36ba f74a fe39 48fd 133a b4eb c5b9
00000380: e705 8139 5cc7 8439 836b 9639 539a f1b8
00000390: 750b 5039 cf3c 12b9 5a0d 15b8 460a 84b9
000003a0: 948f 10b9 d06b 44b8 6b4b 103a f482 8839
000003b0: 3fd2 3939 16d7 393a 48a3 623a ab14 6739
000003c0: febd 11ba ec21 773a 2da5 0fb9 299b 143c
000003d0: 25c6 e33b 10d7 373a 5674 2239 70ac 8c3a
000003e0: a036 0d3c 4922 c4ba d01c a53a f334 3c3b
000003f0: efeb 87ba 1edd 083c a0b7 42bb 3886 f9b7
-0.0029487528 0.0013752631 -0.0002872367 0.018821988 0.016157696 0.00053015526 0.000534209 0.0023666245
0.020132605 -0.0045219483 0.0039791428 -0.0004090704 -0.0025575766 0.013380758 -0.004735829 -0.0041603455
-8.849364e-05 0.005351668 0.017425966 -0.002737301 -0.003256327 0.0026128844 -0.0008144121 0.016641503
0.016965147 0.00091068255 0.00020187786 0.0026782958 0.020548929 -0.0033581462 0.0043620635 -0.002144846
-0.0020025475 0.011220514 -0.0053147147 -0.0038753157 -0.0006784489 0.004939623 0.017250236 -0.0020402821
-0.0025492383 0.0027467166 -0.00043664672 0.013533646 0.015533647 0.0005054972 0.0003535574 0.001863338
0.022894494 -0.0032283177 0.0033915725 0.0018634782 -0.0019884647 0.014083349 -0.0054371185 -0.00197604
-0.00013435495 0.0034752218 0.015691303 -0.002839208 0.00042956273 -0.0013632745 0.00014016277 -0.003144151
-0.007427111 0.00013785825 -0.00022515388 -1.433503e-05 -0.006560287 0.0007149223 -0.0017041557 -0.0035490564
0.00027581007 -0.008594592 0.0012195061 0.00018671238 -9.3502575e-05 -0.0011576946 -0.005439748 -0.00028634028
-0.0008589802 0.0033520258 -0.00023429937 0.015333616 0.010576191 0.000497561 0.00034470123 0.0014287592
0.014301812 -0.0021084265 0.0027547046 -0.0005840855 -0.0015353416 0.009826139 -0.0051328735 -0.0020948257
6.66784e-05 0.0024908434 0.012482036 -0.0012213952 -0.0010469944 0.0008567535 -0.0004006614 0.0075515984
0.0068721673 4.550685e-05 0.00016771491 0.0009148047 0.0097600985 -0.0006143628 0.0009933707 -0.0005126751
-0.0013570919 0.006338602 -0.0014702384 -0.0013480026 -0.00043045168 0.0015626171 0.006167111 -0.0014007235
0.00037608604 -0.0005855347 -1.6458422e-05 -0.0021386947 -0.0024153981 -0.00017026046 -0.00019491157 -0.00020981238
-0.00286542 0.00035520832 -0.00032857503 -0.00044691912 0.0001767223 -0.0034415305 0.0013255582 -9.831904e-05
0.00029903415 -0.00033658606 -0.0028556213 -0.0004947842 -0.003196756 0.007854074 -0.0005719817 0.015048772
0.019482696 0.0007578856 0.00026470752 0.004720099 0.014102107 -0.0057311053 0.0046130912 0.008129321
-0.0019296302 0.007070311 -0.009663258 -0.0031147175 0.00012259175 0.0066719106 0.01729989 -0.0020560934
-0.0027815034 0.00035491894 -0.00032843254 0.013504289 0.011212037 -0.00028688103 0.00027858882 0.001155495
0.012670749 -0.0020756538 0.0020700197 0.0010244015 -0.0020789914 0.010659525 -0.0014409685 -0.0019049977
-0.00036310358 0.001586583 0.013087853 -0.0019573409 -0.002645404 0.003562045 -0.0004524904 0.015681647
0.01197043 0.00019825081 0.00021558334 0.0013438654 0.01863545 -0.003317373 0.0037003306 0.002628087
-0.001869219 0.017883508 -0.0039641624 -0.0013987751 -0.00034303608 0.0026730553 0.014004484 -0.00047789112
4.559356e-05 0.00013363399 1.9769832e-05 -0.00029924905 -9.1841255e-05 3.069984e-05 0.00010848113 2.6520918e-05
-1.4846784e-05 -7.220096e-05 -2.127771e-06 7.811863e-05 0.00018751468 -0.00036512114 -0.0004799291 -1.4365054e-05
3.0431416e-05 -2.063276e-05 1.2834182e-05 4.6906316e-05 -0.0006951334 0.00048502508 0.0005645347 -0.0003775038
0.00024609195 0.00025325536 0.00028690332 -0.00011520521 0.00019840694 -0.00013946298 -3.5536803e-05 -0.00025184656
-0.00013786397 -4.683045e-05 0.0005504402 0.0002603751 0.00017721298 0.000708924 0.00086455466 0.00022037576
-0.0005559622 0.0009427357 -0.00013699075 0.009070196 0.006951111 0.0007012943 0.00015492862 0.0010732543
0.008618981 -0.0014963831 0.0012597088 0.0028718084 -0.0010369996 0.0083535 -0.00297115 -2.9745614e-05

encoder_var.4.bias f4 [16]
00000000: 93b1 6335 d758 9434 2686 e3b5 d939 9934
00000010: 50df 9332 2426 c4b4 f5cf a2b3 ec16 2135
00000020: d0de 2035 76ae 1034 0b71 a432 bce3 a533
00000030: 1302 08b5 d795 4d35 c005 8e35 fc14 2134
8.4822494e-07 2.7631788e-07 -1.695186e-06 2.854056e-07 1.7214603e-08 -3.6535596e-07 -7.58154e-08 6.001053e-07
5.992888e-07 1.3474514e-07 1.9143519e-08 7.724836e-08 -5.0666966e-07 7.6586497e-07 1.0581498e-06 1.5001928e-07

encoder_var.5.weight f4 [16]
00000000: 964e 473d bd48 343d db30 333d 92ce 7d3c
00000010: b7fb 083d d995 9e3c d26b ec3b fa59 503d
00000020: 8bc8 ec3c ef56 193d 5b07 3f3b 372b c33b
00000030: 3940 b13c d731 613d 9667 223d de0a 653c
0.04865893 0.04401468 0.043747764 0.015491145 0.03344318 0.019358562 0.0072150016 0.05086706
0.02890422 0.037436422 0.0029148671 0.0059560793 0.021637069 0.05497917 0.03964957 0.013979642
