dice_ml/utils/sample_trained_models/adult-margin-0.165-validity_reg-42.0-epoch-25-base-gen.pth (torch_old, 34995 bytes, 78 tensors)

encoder_mean.0.weight f4 [20, 30]
-0.35620114 -0.7130816 0.034196585 0.035429418 0.03989508 0.014492212 0.0016013718 0.013547667
-0.01672545 0.01086003 0.01570687 0.025501067 0.00803052 0.023342974 0.02343864 0.035134494
0.0542768 0.045807846 0.006684631 -0.0034440407 0.020814067 0.0067387554 0.006349504 0.008507559
0.021404926 -0.002903412 -0.0036324444 0.020041406 0.035019096 0.12014273 0.036389973 -0.8875482
-0.018414313 -0.024867302 -0.0569674 -0.019877754 0.004294942 -0.005956795 -0.010406132 -0.00018150476
0.018989103 -0.0018037301 0.01317338 -0.008878642 -0.013253884 0.0066917483 -0.005016798 0.0023392001
0.00046666164 0.008369483 0.0144779 0.008520495 0.007185069 -0.003850507 0.01792303 -0.03559838
-0.024206592 0.028508957 0.016150156 0.24328685 -0.4710056 0.08216716 0.014186573 -0.0050925817
0.0014937213 -0.0005622199 -0.00091244234 0.04677948 -0.009039066 0.0015200146 0.0030276948 0.054514155
-0.009401403 -0.020846983 0.034956206 0.058544558 0.0073484187 -0.03187373 0.08119467 -0.006247398
0.003555809 0.0051312707 -0.007418433 0.021767797 0.0350064 -0.00068463106 -0.014256868 -0.01646615
0.022916729 -0.1773275 -0.37119582 -0.094906755 -0.02775209 -0.0019359005 -0.013046047 -0.012138127
0.018341389 0.0034158204 -0.03681907 0.036804415 0.0051378915 -0.030487066 0.029155066 0.05017413
0.053416703 0.009382043 -0.04143732 0.062702894 -0.018087199 0.038431305 0.052881133 0.00021596445
0.041288197 0.013896267 0.014679794 0.012475979 0.054859586 -0.01032947 -0.010842689 0.060100906
0.47614062 -0.42073014 -0.045492895 -0.040800784 -0.05511434 -0.056530498 0.0078060953 0.0058880458
0.053704623 0.006296822 0.015376315 0.054426245 -0.005428527 0.014716716 -0.10540614 -0.112016335
-0.11053257 -0.08427654 -0.11967852 0.009590031 -0.018691791 0.008550853 0.007474357 -0.00040195836
0.0052805906 -0.12693718 -0.09611465 0.04958246 0.05649306 0.36532328 0.78783166 -0.030643143
0.038842954 0.05049017 0.036502708 0.037764937 0.015257968 0.008694114 -0.015331335 0.015805952
0.021554897 0.024935247 0.024799315 0.016636048 0.04290176 0.033708766 0.04080521 0.043696173
0.043294095 0.03807348 0.031401716 0.04181155 0.04129942 0.038274407 0.036050793 0.02811501
0.025644107 -0.081052676 -0.08518198 0.4354804 -0.5782516 0.032083675 -0.010081311 -0.03851976
0.0016735345 -0.010990816 -0.056668047 -0.070454925 -0.09416041 -0.060569096 -0.06261526 -0.04894462
-0.06394399 -0.06273205 0.08503377 0.07978057 0.09148836 0.096909024 0.05487227 0.06857567
0.089964315 0.054716293 0.06365557 0.082410336 0.06786315 -0.03504564 -0.03718485 0.081381835
0.08796228 0.0563854 0.6788895 0.037628606 0.017662432 0.0100578265 0.024052681 0.016862668
0.040900365 0.041465446 0.030379733 0.04677379 0.030921824 0.023473615 0.045736227 0.0402495
-0.0060813623 -0.005879756 -0.0070376894 -0.00952523 -0.01205699 0.055671252 0.07179151 0.043025926
0.043069698 0.05634009 0.04836423 -0.020787708 -0.031669777 0.075217865 0.08115456 0.39300576
0.30675557 -0.25005957 0.012012555 0.003999662 0.02523854 0.029907772 -0.0060134996 -0.012947327
-0.0029633301 0.0075132265 -0.028255846 -0.03174543 -0.039139945 0.0030584943 0.040001936 0.01964965
00000000: ff5f b6be 848c 36bf b811 0c3d 701e 113d
00000010: 0669 233d be70 6d3c 1fe5 d13a 09f7 5d3c
00000020: d003 89bc 44ee 313c b2ab 803c 9de7 d03c
00000030: 7192 033c c439 bf3c 6402 c03c 30e9 0f3d
00000040: 5a51 5e3d 02a1 3b3d c00a db3b 6ab5 61bb
00000050: 4382 aa3c c7d0 dc3b 800f d03b 4a63 0b3c
00000060: 6259 af3c 2c47 3ebb 4e0e 6ebb e02d a43c
00000070: 2f70 0f3d 640d f63d a70d 153d 5c36 63bf
00000080: 9dd9 96bc 83b6 cbbc a656 69bd acd6 a2bc
00000090: 96bc 8c3b 3831 c3bb 7b7e 2abc 5052 3eb9
000000a0: 098f 9b3c 246b ecba 29d5 573c b977 11bc
000000b0: d226 59bc 7446 db3b f463 a4bb 444d 193b
000000c0: 44aa f439 2820 093c b734 6d3c 8c99 0b3c
000000d0: ba70 eb3b ca58 7cbb 51d3 923c 9bcf 11bd
000000e0: e74c c6bc 9e8b e93c 554d 843c 3020 793e
000000f0: a527 f1be 4247 a83d cd6e 683c acdf a6bb
00000100: f8c8 c33a f061 13ba f830 6fba d79b 3f3d
00000110: 9718 14bc 3a3b c73a 4a6c 463b 3c4a 5f3d
00000120: 5808 1abc 4bc7 aabc 3d2e 0f3d 6bcc 6f3d
00000130: 01cb f03b 078e 02bd 6449 a63d f9b6 ccbb
00000140: 9308 693b 3824 a83b 5416 f3bb 6152 b23c
00000150: df62 0f3d d078 33ba a395 69bc 05e4 86bc
00000160: ddbb bb3c 5795 35be 610d bebe 795e c2bd
00000170: 5a58 e3bc 0bbe fdba 16bf 55bc ffde 46bc
00000180: ae40 963c f5db 5f3b 98cf 16bd 3ac0 163d
00000190: c25b a83b 03c0 f9bc 9bd6 ee3c 6383 4d3d
000001a0: 79cb 5a3d 24b7 193c 2eba 29bd 606a 803d
000001b0: 9b2b 94bc 256a 1d3d e399 583d 8474 6239
000001c0: d01d 293d 2bad 633c 8583 703c 0c68 4c3c
000001d0: 72b4 603d f03c 29bc 89a5 31bc 5e2c 763d
000001e0: b4c8 f33e f169 d7be c256 3abd b91e 27bd
000001f0: 93bf 61bd 868c 67bd 46ca ff3b 82f0 c03b
00000200: 61f9 5b3d 9255 ce3b f1ec 7b3c 0eee 5e3d
00000210: c9e1 b1bb 611e 713c 2ddf d7bd d268 e5bd
00000220: e65e e2bd 2e99 acbd 031a f5bd 811f 1d3c
00000230: 871f 99bc e018 0c3c 73eb f43b f0bd d2b9
00000240: ce08 ad3b d2fb 01be c2d7 c4bd fa16 4b3d
00000250: 4465 673d a70b bb3e 56af 493f 5407 fbbc
00000260: ca19 1f3d c8ce 4e3d dd83 153d 68af 1a3d
00000270: 8efc 793c c271 0e3c 4830 7bbc 7c7b 813c
00000280: e593 b03c 0145 cc3c ef27 cb3c 5248 883c
00000290: c2b9 2f3d 3412 0a3d 5d23 273d c2fa 323d
000002a0: 2655 313d f0f2 1b3d 169f 003d 9642 2b3d
000002b0: 9529 293d a0c5 1c3d ffa9 133d 7351 e63c
000002c0: 9713 d23c f2fe a5bd e473 aebd 49f7 de3e
000002d0: 4c08 14bf 2c6a 033d 152c 25bc e5c6 1dbd
000002e0: 805a db3a d312 34bc c11c 68bd ac4a 90bd
000002f0: 2cd7 c0bd 4d17 78bd 6e3c 80bd 277a 48bd
00000300: 11f5 82bd a979 80bd 2f26 ae3d ff63 a33d
00000310: 405e bb3d 3d78 c63d bfc1 603d 6771 8c3d
00000320: 363f b83d 311e 603d da5d 823d c0c6 a83d
00000330: d6fb 8a3d 048c 0fbd 244f 18bd 85ab a63d
00000340: 9125 b43d 61f4 663d b4cb 2d3f 7420 1a3d
00000350: ceb0 903c 95c9 243c 210a c53c 9423 8a3c
00000360: 2487 273d acd7 293d ebde f83c e095 3f3d
00000370: c44f fd3c bd4b c03c e955 3b3d a9dc 243d
00000380: 2a46 c7bb f8aa c0bb 6b9c e6bb b60f 1cbc
00000390: ae8a 45bc 8a07 643d 6d07 933d f43b 303d
000003a0: da69 303d dec4 663d 9219 463d fc4a aabc
000003b0: 2bb8 01bd d30b 9a3d 5d34 a63d 0d38 c93e
000003c0: 110f 9d3e cf07 80be 4fd0 443c 990f 833b
000003d0: 0ec1 ce3c 2501 f53c e40c c5bb 0721 54bc
000003e0: 6e34 42bb 8331 f63b ce78 e7bc 7f07 02bd
000003f0: 3551 20bd 0571 483b 12d9 233d 4ef8 a03c

encoder_mean.0.bias f4 [20]
-1.8661187e-06 2.0604492e-07 8.126343e-07 1.7910395e-07 -1.7428105e-06 -1.3326793e-05 -8.706719e-08 6.866232e-05
-9.225195e-07 9.2679045e-08 -2.2814956e-07 -1.994562e-06 -1.0864486e-06 -1.17346644e-07 2.1858812e-06 -3.8314556e-06
-5.7215084e-07 1.0061736e-08 7.42468e-06 -2.3948242e-06
00000000: 5a77 fab5 323d 5d34 ce23 5a35 b84f 4034
00000010: 83ea e9b5 2496 5fb7 b2f9 bab3 cdfe 8f38
00000020: 0fa3 77b5 d806 c733 46f9 74b4 50da 05b6
00000030: 17d2 91b5 0000 fcb3 27b1 1236 f48f 80b6
00000040: e895 19b5 fcdb 2c32 8421 f936 c4b6 20b6

encoder_mean.1.weight f4 [20]
0.52075976 0.5178877 0.26417953 0.17326725 0.5176034 0.5788446 0.39039505 0.6541346
0.14199373 0.33002838 0.25767648 0.4648001 0.45690998 0.43180385 0.4418884 0.4763252
0.14259014 0.321857 0.42370048 0.35963327
00000000: 8350 053f 4a94 043f 8a42 873e f86c 313e
00000010: a881 043f 292f 143f dce1 c73e 5d75 273f
00000020: ce66 113e 7bf9 a83e 2cee 833e 47fa ed3e
00000030: 1bf0 e93e 6515 dd3e 323f e23e e6e0 f33e
00000040: 2603 123e 71ca a43e 45ef d83e da21 b83e

encoder_mean.1.bias f4 [20]
-0.40898085 -0.19989884 -0.19963491 0.06582493 -0.28660956 0.26386258 -0.067086 0.18522349
0.051382292 -0.104798436 -0.0069408068 -0.22976941 -0.11610052 -0.1837172 -0.31405067 -0.2083392
-0.013902564 -0.11900279 0.069788665 -0.10557739
00000000: f065 d1be 48b2 4cbe 186d 4cbe 39cf 863d
00000010: 7dbe 92be ff18 873e 6364 89bd 3aab 3d3e
00000020: 3d76 523d 90a0 d6bd b56f e3bb ac48 6bbe
00000030: 1cc6 edbd 5d20 3cbe 40cb a0be df56 55be
00000040: 94c7 63bc bcb7 f3bd 5ced 8e3d f538 d8bd

encoder_mean.1.running_mean f4 [20]
-0.14248851 -0.16499202 -0.21456376 0.018005885 0.09668158 0.64978784 0.05051608 0.6861304
0.19804482 -0.3088293 0.15998264 -0.23421344 0.5608308 -0.08842855 -0.176145 -0.2818468
-0.06259065 -0.22210723 0.64738744 -0.015351474
00000000: 82e8 11be abf3 28be 9ab6 5bbe 1481 933c
00000010: fe00 c63d 7f58 263f f3e9 4e3d 3ea6 2f3f
00000020: 43cc 4a3e e01e 9ebe 7dd2 233e a6d5 6fbe
00000030: 9b92 0f3f 071a b5bd 5b5f 34be 394e 90be
00000040: 872f 80bd 1470 63be 2fbb 253f c084 7bbc

encoder_mean.1.running_var f4 [20]
0.020859346 0.021905983 0.009407862 0.011211254 0.022149893 0.033048037 0.015605953 0.024474831
0.009696887 0.0189138 0.016551405 0.01462184 0.022897152 0.021173911 0.018603299 0.018194415
0.008206689 0.009105099 0.02223684 0.01792231
00000000: 38e1 aa3c 2d74 b33c 6f23 1a3c 68af 373c
00000010: b173 b53c 615d 073d 1cb0 7f3c 717f c83c
00000020: b1df 1e3c 1df1 9a3c d096 873c 7190 6f3c
00000030: cf92 bb3c e974 ad3c f265 983c 740c 953c
00000040: 5975 063c 8e2d 153c 092a b63c cfd1 923c

encoder_mean.4.weight f4 [16, 20]
0.1657574 0.060257584 -0.056993537 0.062152207 -0.054550704 -0.12509124 0.070721045 -0.17110065
-0.067131884 -0.06431125 0.057315346 0.03836347 -0.07196294 -0.0108934045 0.057590548 0.052934095
0.008137816 -0.026553182 -0.19657093 0.11046444 -0.0039379112 -0.1617756 0.014386531 -0.07135126
0.1896601 0.04664133 -0.098966524 -0.07741225 0.045211203 -0.07433599 -0.04631631 -0.097452015
0.14817521 -0.12781116 -0.047026366 -0.08586238 -0.055225667 -0.06763369 0.13621366 -0.12071711
0.010200137 0.0025740496 -0.07022889 -0.043462887 0.089699395 0.07760714 -0.12947015 0.027369978
0.042098433 -0.16369809 -0.06585316 0.042828277 0.12344445 0.07514272 -0.010100573 -0.0107713565
-0.008858522 -0.07474568 0.12450671 -0.13025574 -0.13487633 0.10707496 -0.10297382 -0.043258153
0.15961958 -0.004311133 -0.104787566 0.3425312 0.05066224 -0.14232613 -0.022208981 -0.13506985
0.087896146 0.08503363 -0.057548173 -0.12904969 -0.008896645 -0.12649107 0.07255612 -0.108799756
-0.015906474 -0.07071489 -0.053243216 -0.060128897 0.036104176 -0.008202894 -0.1350686 0.10044771
0.06888122 -0.12478949 -0.08092724 0.04066942 0.1441543 -0.03198662 -0.0888879 -0.050335642
-0.013024082 -0.06505217 0.15461637 -0.10684017 -0.031580295 0.3039304 -0.011573449 -0.11170106
0.06273094 0.019535454 -0.14872226 0.024365816 -0.024607193 -0.057422165 -0.094677076 -0.1294678
-0.0055240914 0.32448748 0.008590891 -0.04468451 -0.031940315 -0.06039437 -0.037452966 -0.051063936
0.15682347 0.120868795 -0.006668182 -0.009582413 -0.03831835 -0.113150015 0.20361218 -0.15402932
0.008566607 -0.05690644 -0.018589096 0.045675304 -0.071654245 0.12458306 0.17604418 0.105523944
-0.03088074 0.0263313 -0.07990146 -0.058073796 0.13714321 0.068598226 0.036096025 0.054641977
-0.040469933 -0.11806171 0.055719074 -0.16942027 -0.06048887 -0.009093618 0.04681731 0.031934477
-0.083084755 0.031644117 0.10647388 0.061729375 -0.0025833342 0.06548797 -0.18682782 0.090240955
0.035520025 0.06972327 0.16729714 -0.10008082 0.14978811 -0.015966285 -0.11806583 -0.027252013
0.032135267 0.0792434 -0.16256471 -0.008544776 0.09714473 0.09963856 0.01953108 -0.093400285
-0.1290664 0.21791334 0.120026074 -0.092771694 0.23279381 0.15933834 0.009162161 0.033009186
-0.012578515 -0.08131828 -0.15819961 -0.10157699 0.05769247 -0.116483815 0.009259132 0.07158402
0.0023574163 0.1700215 0.15854028 0.17072336 -0.053775422 0.016313639 -0.034993544 -0.03962401
-0.07094791 0.09131743 0.0029483137 0.07624419 -0.18713406 0.39575022 0.05122834 -0.046638303
-0.0676909 -0.10112416 0.08181328 -0.17506652 -0.15581182 -0.024080561 0.1944466 0.11572033
0.056454707 -0.00020419247 -0.164018 0.06356974 0.15825665 0.05408269 -0.036353786 0.060203597
-0.08858151 -0.19259953 0.046393838 -0.21073784 -0.08809703 -0.037695795 0.075515755 0.053019788
-0.039891124 -0.025388705 0.11065615 0.06483088 0.006434643 0.0080308 -0.17721954 0.10676625
-0.020898543 -0.091140896 -0.090114765 -0.057870217 0.16453204 -0.07049353 -0.17229684 -0.0018633674
0.06027165 -0.09659482 -0.0884904 -0.03859504 0.10965481 0.022018177 -0.01890616 -0.093261
00000000: 4fbc 293e a8d0 763d 0e72 69bd 5093 7e3d
00000010: 8f70 5fbd eb17 00be 32d6 903d 0235 2fbe
00000020: 717c 89bd 9eb5 83bd 7fc3 6a3d 0423 1d3d
00000030: 4e61 93bd 407a 32bc 11e4 6b3d 6cd1 583d
00000040: 7954 053c 0f86 d9bc e449 49be 2e3b e23d
00000050: 9809 81bb 81a8 25be 7cb5 6b3c 9c20 92bd
00000060: 4236 423e fb0a 3f3d f6ae cabd 508a 9ebd
00000070: 622f 393d 783d 98bd 2cb6 3dbd ec94 c7bd
00000080: 3ebb 173e eee0 02be b89e 40bd 9ed8 afbd
00000090: 4f34 62bd 8883 8abd 987b 0b3e 883a f7bd
000000a0: 7a1e 273c 63b1 283b 2ad4 8fbd 2406 32bd
000000b0: 51b4 b73d 7ef0 9e3d d393 04be 0137 e03c
000000c0: 686f 2c3d 79a0 27be 06de 86bd b46c 2f3d
000000d0: 72d0 fc3d 6de4 993d e07c 25bc 587a 30bc
000000e0: 5623 11bc 4314 99bd 60fd fe3d c361 05be
000000f0: 051d 0abe 1e4a db3d f0e3 d2bd 762f 31bd
00000100: 5173 233e 6844 8dbb dd9a d6bd 4060 af3e
00000110: 3583 4f3d f1bd 11be 9cef b5bc c04f 0abe
00000120: e502 b43d 1d26 ae3d a2b7 6bbd 9a25 04be
00000130: 3cc3 11bc e086 01be 4e98 943d 68d2 debd
00000140: 4b4e 82bc f8d2 90bd 8f15 5abd b849 76bd
00000150: f9e1 133d 6e65 06bc 6c4f 0abe 87b7 cd3d
00000160: 9911 8d3d a291 ffbd 2ebd a5bd fa94 263d
00000170: 2f9d 133e 6704 03bd dc0a b6bd bf2c 4ebd
00000180: f662 55bc 123a 85bd c153 1e3e 05cf dabd
00000190: 575a 01bd c49c 9b3e 909e 3dbc 86c3 e4bd
000001a0: 1479 803d d108 a03c a64a 18be d29a c73c
000001b0: 0695 c9bc 8133 6bbd 0ee6 c1bd 3593 04be
000001c0: 7003 b5bb 3923 a63e cfc0 0c3c 1b07 37bd
000001d0: d9d3 02bd 1660 77bd 4868 19bd 6b28 51bd
000001e0: 5596 203e 0f8a f73d c480 dabb 8eff 1cbc
000001f0: b4f3 1cbd 32bb e7bd b67f 503e ddb9 1dbe
00000200: f45a 0c3c ba16 69bd 2948 98bc 0716 3b3d
00000210: 76bf 92bd 6725 ff3d ed44 343e f01c d83d
00000220: 9bf9 fcbc bdb4 d73c 60a3 a3bd cade 6dbd
00000230: 456f 0c3e 3a7d 8c3d 6dd9 133d 44d0 5f3d
00000240: cdc3 25bd 56ca f1bd af39 643d 827c 2dbe
00000250: 2dc3 77bd 66fd 14bc 82c3 3f3d bacd 023d
00000260: 5728 aabd 439d 013d fa0e da3d f1d7 7c3d
00000270: 284d 29bb 8f1e 863d cb4f 3fbe 40d0 b83d
00000280: 727d 113d 13cb 8e3d f14f 2b3e 2cf7 ccbd
00000290: 0e62 193e bacb 82bc 7fcc f1bd 9d3f dfbc
000002a0: 45a0 033d 5d4a a23d 5d77 26be 63ff 0bbc
000002b0: d1f3 c63d 4d0f cc3d a5ff 9f3c a648 bfbd
000002c0: fb29 04be ad24 5f3e 3bd0 f53d 16ff bdbd
000002d0: 8061 6e3e 9729 233e e31c 163c a434 073d
000002e0: 1e16 4ebc 338a a6bd 14ff 21be 9907 d0bd
000002f0: f04e 6c3d 118f eebd 9db3 173c a59a 923d
00000300: e27e 1a3b 1e1a 2e3e 6258 223e 1bd2 2e3e
00000310: 9e43 5cbd 2ea4 853c 6455 0fbd c94c 22bd
00000320: 234d 91bd a204 bb3d 7f38 413b ea25 9c3d
00000330: 12a0 3fbe c69f ca3e cfd4 513d ce07 3fbd
00000340: 87a1 8abd 2f1a cfbd b98d a73d a344 33be
00000350: 228d 1fbe 9944 c5bc 021d 473e c8fe ec3d
00000360: 0d3d 673d 801c 56b9 56f4 27be da30 823d
00000370: 080e 223e d085 5d3d b5e7 14bd 0c98 763d
00000380: 396a b5bd d038 45be 7707 3e3d a9cb 57be
00000390: 376c b4bd e866 1abd 01a8 9a3d 472b 593d
000003a0: e064 23bd f9fb cfbc b19f e23d 0dc6 843d
000003b0: b3d9 d23b 9e93 033c 0a79 35be 44a8 da3d
000003c0: 6c33 abbc 14a8 babd 178e b8bd 5209 6dbd
000003d0: 167b 283e e95e 90bd 956e 30be 3c3c f4ba
000003e0: 68df 763d 81d3 c5bd 743a b5bd d515 1ebd
000003f0: b392 e03d 775f b43c 17e1 9abc a0ff bebd

encoder_mean.4.bias f4 [16]
4.0084597e-06 -2.7136334e-06 3.51397e-06 -5.638544e-06 -2.4160042e-06 1.602528e-06 2.1615497e-06 -4.5703578e-07
1.3329122e-06 -4.324861e-06 -3.2758617e-06 1.2492654e-06 2.4215124e-06 -1.18681155e-05 -4.0732975e-05 1.7051027e-06
00000000: 6880 8636 de1b 36b6 8bd1 6b36 b932 bdb6
00000010: a322 22b6 7116 d735 240f 1136 855e f5b4
00000020: 84e6 b235 461e 91b6 e0d6 5bb6 6fac a735
00000030: 4481 2236 2b1d 47b7 b3d8 2ab8 e2da e435

encoder_mean.5.weight f4 [16]
0.43349683 0.3864994 0.3564659 0.6174389 0.34746602 0.37951118 0.4268468 0.37857997
0.38900474 0.49588144 0.4697281 0.5161209 0.43641603 0.46423572 0.42572394 0.54303795
00000000: 4cf3 dd3e 40e3 c53e b382 b63e 7a10 1e3f
00000010: 11e7 b13e 4a4f c23e aa8b da3e 3cd5 c13e
00000020: a12b c73e 2ce4 fd3e 3480 f03e 8020 043f
00000030: ec71 df3e 4eb0 ed3e 7df8 d93e 8904 0b3f

encoder_mean.5.bias f4 [16]
-0.1412804 -0.11292035 0.08702985 0.009784888 0.07270723 -0.16495135 -0.16142046 -0.07453979
-0.046649083 -0.06820479 -0.17021659 -0.21439284 -0.056209106 0.13594188 -0.14503478 -0.24137841
00000000: cfab 10be c942 e7bd b53c b23d cb50 203c
00000010: 87e7 943d 02e9 28be 684b 25be 51a8 98bd
00000020: 1c13 3fbd f4ae 8bbd 424d 2ebe cc89 5bbe
00000030: 853b 66bd 5934 0b3e ff83 14be e72b 77be

encoder_mean.5.running_mean f4 [16]
-0.12124287 -0.038120616 0.04366658 0.074591026 0.015476887 -0.014864891 -0.066899806 -0.10385645
0.014548089 -0.031199543 0.10374287 -0.13748498 -0.049324196 0.032047845 0.02047558 -0.14667822
00000000: 2f4e f8bd 5d24 1cbd badb 323d 2ec3 983d
00000010: c592 7d3c df8b 73bc c402 89bd b1b2 d4bd
00000020: 1c5b 6e3c 2f96 ffbc 2477 d43d ddc8 0cbe
00000030: 2b08 4abd 9a44 033d 67bc a73c d132 16be

encoder_mean.5.running_var f4 [16]
0.07122514 0.026776645 0.036715697 0.094270654 0.034130096 0.016740272 0.05256677 0.069767825
0.019200923 0.03567317 0.012475674 0.09555085 0.024254825 0.046141647 0.009339002 0.11107875
00000000: 7cde 913d b25a db3c 3363 163d f910 c13d
00000010: 00cc 0b3d e522 893c 4150 573d 6fe2 8e3d
00000020: 414b 9d3c 081e 123d c566 4c3c 2ab0 c33d
00000030: 0eb2 c63c 06ff 3c3d 9d02 193c 417d e33d

encoder_mean.8.weight f4 [14, 16]
-0.037088268 -0.15886125 -0.09818773 -0.09967709 -0.09115761 0.0664586 -0.10517054 -0.019729283
-0.07527875 -0.17781298 -0.1877774 -0.06339988 -0.1357418 -0.11295055 -0.15339112 -0.11182155
-0.1443298 0.08879806 0.13809629 -0.043695223 0.086497866 -0.10007737 -0.11395099 -0.12976733
-0.09605711 -0.014082711 0.13920805 -0.16340506 0.09401777 -0.06302079 0.087781616 -0.16129592
0.010684284 -0.029441398 0.09997223 -0.06312434 0.03757043 0.08734313 -0.14729258 0.015048133
0.017005345 -0.22509247 0.066257484 -0.03319674 0.0438027 0.39104047 -0.101610094 -0.006062042
0.15355606 -0.045273 -0.1251799 -0.100499034 -0.08594564 -0.05193822 0.074645095 0.14914533
-0.099329695 0.060059723 0.0031826482 0.14583045 -0.05206524 -0.09862132 -0.08188261 0.19814976
-0.12104628 0.11689285 0.08642685 0.06104731 0.07801719 0.027910352 -0.053170018 -0.10052439
0.12659691 -0.0082041295 0.14407472 -0.14459437 0.12940307 0.0064910264 0.09867701 -0.0909998
-0.023210302 -0.15216649 -0.11453347 0.5414286 -0.10256951 -0.0872755 -0.027983928 -0.009189397
-0.16736306 0.046282813 -0.09659658 -0.016455907 -0.14183886 -0.07825751 -0.10407852 -0.03948749
0.13422099 -0.07888846 -0.21804875 -0.1395783 -0.14929351 -0.036581308 0.15600158 0.061271645
0.0982042 0.05496068 0.039078932 0.15082155 -0.08968452 -0.042752042 0.14526878 0.13127786
-0.09444045 0.077580035 0.14461635 0.017989835 0.15270764 0.15956834 -0.053386934 -0.05636669
0.082648024 -0.024454229 0.1384701 -0.11190702 0.11522105 0.10754375 0.022662852 -0.060541835
-0.06618075 0.21824507 0.027487509 -0.07396408 0.015411487 -0.03522666 -0.045143746 0.07270876
0.26213613 -0.013776911 0.115551606 -0.07199488 0.09590591 -0.08991616 0.26324397 -0.0715417
0.0069588595 -0.13752216 -0.06838507 -0.09437248 -0.08293912 0.09789092 0.11511647 -0.029032877
-0.022832828 0.25668252 0.25439796 -0.04422152 -0.1397485 0.14353043 -0.069527045 -0.017094921
-0.021489866 0.07159829 0.034930434 -0.030039238 0.005686153 0.14553106 0.080335386 0.08862773
0.22548673 0.21538429 0.086333476 -0.0049106567 0.08066885 0.11698742 0.17769866 -0.040992793
-0.106479645 0.06632551 0.057710003 -0.038364746 0.107152574 -0.20900068 -0.07573915 -0.116212994
-0.07734839 0.024722004 0.10649729 -0.16791457 0.070178345 -0.11722764 0.03325311 -0.17259575
-0.16936982 0.17115232 0.10359248 -0.03265591 0.084097736 -0.112979285 -0.03051683 -0.15750621
0.0018679812 0.039162215 0.13040826 -0.1389934 0.09764162 -0.05251533 0.08180864 -0.13227203
0.09503166 -0.042043284 -0.050128113 -0.05552405 -0.16703436 0.046606503 0.16177088 0.115365036
-0.0077390275 0.17460579 0.035567813 0.07380002 -0.104160964 0.013869257 0.13773392 0.16116251
00000000: dee9 17bd 86ac 22be a616 c9bd 8123 ccbd
00000010: d7b0 babd 721b 883d a763 d7bd 4e9f a1bc
00000020: bf2b 9abd 9b14 36be b848 40be ccd7 81bd
00000030: e6ff 0abe 9e52 e7bd 9012 1dbe b202 e5bd
00000040: 31cb 13be c2db b53d 1d69 0d3e c3f9 32bd
00000050: cb25 b13d 5df5 ccbd 235f e9bd bae1 04be
00000060: 97b9 c4bd 2cbb 66bc 8e8c 0e3e a853 27be
00000070: 638c c03d 0b11 81bd d9c6 b33d c22a 25be
00000080: 230d 2f3c 162f f1bc 3ebe cc3d 5547 81bd
00000090: 74e3 193d f4e0 b23d ded3 16be 728c 763c
000000a0: cb4e 8b3c a47e 66be 01b2 873d 4ef9 07bd
000000b0: 766a 333d 7536 c83e f418 d0bd 18a4 c6bb
000000c0: cd3d 1d3e 2e70 39bd 292f 00be 70d2 cdbd
000000d0: 4504 b0bd 2cbd 54bd 87df 983d 8eb9 183e
000000e0: 5e6d cbbd 2f01 763d fa93 503b 9454 153e
000000f0: 5c42 55bd faf9 c9bd 12b2 a7bd c5e7 4a3e
00000100: 1de7 f7bd 8565 ef3d 8f00 b13d be0c 7a3d
00000110: 7ac7 9f3d 40a4 e43c cec8 59bd bbdf cdbd
00000120: 9fa2 013e 9d6a 06bc 5388 133e 8c10 14be
00000130: 3d82 043e adb2 d43b 2c17 ca3d 1a5e babd
00000140: 8823 bebc 88d1 1bbe 8690 eabd 119b 0a3f
00000150: f70f d2bd 7fbd b2bd 8d3e e5bc 208f 16bc
00000160: 3961 2bbe 0c93 3d3d 6ed4 c5bd 8ace 86bc
00000170: 353e 11be 7945 a0bd 1e27 d5bd a2bd 21bd
00000180: 3a71 093e 4690 a1bd 2c48 5fbe 9ded 0ebe
00000190: 66e0 18be 48d6 15bd e1be 1f3e faf7 7a3d
000001a0: 491f c93d 731e 613d 3b11 203d f770 1a3e
000001b0: 85ac b7bd c41c 2fbd 57c1 143e b46d 063e
000001c0: ff69 c1bd 48e2 9e3d 4f16 143e 6b5f 933c
000001d0: 645f 1c3e e265 233e 42ac 5abd c2e0 66bd
000001e0: 5e43 a93d 3c54 c8bc 1bcb 0d3e 822f e5bd
000001f0: 04f9 eb3d e63f dc3d 72a7 b93c b7fa 77bd
00000200: c689 87bd a37b 5f3e 7c2d e13c 7b7a 97bd
00000210: 7680 7c3c d549 10bd a6e8 38bd 55e8 943d
00000220: b536 863e 8eb8 61bc 52a6 ec3d 0d72 93bd
00000230: 516a c43d f725 b8bd eac7 863e 7484 92bd
00000240: 2507 e43b 9cd2 0cbe 790d 8cbd 5c46 c1bd
00000250: fcdb a9bd 097b c83d 2fc2 eb3d 5bd6 edbc
00000260: e90b bbbc e46b 833e 7340 823e a021 35bd
00000270: 3b1a 0fbe a4f9 123e 3264 8ebd a60a 8cbc
00000280: 840b b0bc 20a2 923d 3713 0f3d d914 f6bc
00000290: e952 ba3b 1806 153e e186 a43d 7582 b53d
000002a0: fee5 663e b38d 5c3e 9bcf b03d 93e9 a0bb
000002b0: b635 a53d 1a97 ef3d a3f6 353e 0fe8 27bd
000002c0: 0012 dabd abd5 873d 5361 6c3d 5a24 1dbd
000002d0: cf72 db3d 4604 56be 211d 9bbd 1401 eebd
000002e0: d568 9ebd cd85 ca3c 401b da3d ccf1 2bbe
000002f0: aab9 8f3d 0b15 f0bd 6a34 083d f1bc 30be
00000300: 486f 2dbe 8e42 2f3e 4b28 d43d 34c2 05bd
00000310: 6f3b ac3d af61 e7bd 6efe f9bc 4f49 21be
00000320: 0cd7 f43a 8f68 203d be89 053e 4954 0ebe
00000330: 54f8 c73d 511a 57bd 4a8b a73d 5272 07be
00000340: f59f c23d 9435 2cbd 2353 4dbd 306d 63bd
00000350: 0e0b 2bbe 76e6 3e3d 44a7 253e 8144 ec3d
00000360: ab97 fdbb dccb 323e 8eaf 113d 7724 973d
00000370: 5852 d5bd e13b 633c 1f0a 0d3e c907 253e

encoder_mean.8.bias f4 [14]
-3.291533e-06 -2.0498574e-06 -1.0625101e-07 2.3530138e-06 1.1970693e-06 4.9240903e-06 -5.0051676e-07 7.1146826e-07
-3.286008e-06 -3.3207854e-07 7.201595e-07 3.6470428e-06 4.5015527e-06 -2.0322357e-06
00000000: 1be4 5cb6 4890 09b6 1c2c e4b3 78e8 1d36
00000010: fdaa a035 9d39 a536 405b 06b5 bafb 3e35
00000020: 3085 5cb6 8748 b2b4 fc50 4135 b8bf 7436
00000030: 0b0c 9736 8b61 08b6

encoder_mean.9.weight f4 [14]
0.66687155 0.43540692 0.4649267 0.4374634 0.3592188 0.49378797 0.44116697 0.37470034
0.33136642 0.42362696 0.3454509 0.50194925 0.38162315 0.41282886
00000000: 18b8 2a3f a8ed de3e df0a ee3e 34fb df3e
00000010: 87eb b73e c7d1 fc3e a3e0 e13e b9d8 bf3e
00000020: dca8 a93e a2e5 d83e f1de b03e bf7f 003f
00000030: 1c64 c33e 4e5e d33e

encoder_mean.9.bias f4 [14]
-0.18519357 0.043638397 0.07843561 0.011596348 0.1520176 -0.2168746 0.00378476 -0.025197338
0.058742937 0.012758605 0.22849393 -0.006226383 0.10200684 0.08125699
00000000: 62a3 3dbe 2dbe 323d d9a2 a03d 9cfe 3d3c
00000010: 80aa 1b3e 6014 5ebe bc09 783b a66a cebc
00000020: 6f9c 703d 7809 513c 50fa 693e b006 ccbb
00000030: f6e8 d03d 116a a63d

encoder_mean.9.running_mean f4 [14]
-0.2104027 -0.029244468 0.057064235 -0.037564483 0.065531574 -0.013658865 -0.03426774 0.10825589
0.067504585 0.007868793 0.13691677 -0.06333677 0.0011707733 0.027053501
00000000: ce73 57be 1892 efbc 30bc 693d 37dd 19bd
00000010: 6b35 863d 6fc9 5fbc 545c 0cbd 44b5 dd3d
00000020: d83f 8a3d 1cec 003c e933 0c3e b5b6 81bd
00000030: a274 993a 4e9f dd3c

encoder_mean.9.running_var f4 [14]
0.062966965 0.04312481 0.023914509 0.05567549 0.052599806 0.018410457 0.057167422 0.049624376
0.029691137 0.052838974 0.039001565 0.03650381 0.03347988 0.05118622
00000000: d3f4 803d a4a3 303d 5ce8 c33c fc0b 643d
00000010: e572 573d 87d1 963c 6328 6a3d ee42 4b3d
00000020: d43a f33c ae6d 583d 1bc0 1f3d 0585 153d
00000030: 3322 093d a4a8 513d

encoder_mean.12.weight f4 [12, 14]
-0.15855245 0.016432932 0.05671148 -0.1712478 0.047295924 0.18880035 -0.067016006 0.20028068
0.12626721 0.0909638 0.07868748 0.005874817 0.048867293 -0.06593325 -0.21929982 -0.2111289
0.02495515 0.07178941 -0.18345253 -0.11824163 0.08322339 -0.09896495 0.026652113 0.090690695
0.055916328 -0.18843505 -0.1902485 0.0813997 -0.24193387 -0.11181446 0.2973531 0.02850111
0.034812845 0.09841406 0.03556248 0.014892426 -0.13077474 0.14816698 0.17256853 -0.18858604
-0.08217686 0.061893355 -0.25128436 -0.19745596 0.0436496 0.06612461 -0.15598974 -0.11916072
0.083813235 -0.0065164943 -0.1048575 0.13082395 -0.011013079 -0.18348038 -0.19479921 0.077349626
0.23844032 -0.0051381583 -0.08969083 0.013372785 -0.082860336 -0.16133942 -0.080413274 -0.089034915
-0.1935137 -0.20754363 -0.23186436 0.010402774 -0.026990209 -0.116426155 -0.17431468 0.05150417
0.021253124 -0.16271736 0.029755326 0.16313888 -0.13985215 0.11851868 0.1732328 0.008743946
0.062946044 0.03541632 0.10823707 -0.100085646 -0.18206668 0.05948399 0.023263067 -0.18088816
0.066365175 0.21107477 -0.16678092 0.104956605 0.11834714 0.038203686 0.03320888 0.029311847
0.085416734 -0.086726725 -0.16340098 0.05363875 0.09851544 -0.17764898 0.13929015 0.19134787
-0.09276051 0.098121695 0.15250053 -0.015816303 0.11897181 -0.01819787 0.011990729 -0.0011804135
-0.11715102 -0.14863732 -0.08777008 0.114360936 -0.19799875 -0.06425353 0.08467161 0.08545848
-0.044799406 -0.14818338 -0.12214632 -0.11623931 -0.14112484 0.056430012 -0.21870942 0.066851005
0.13728648 0.09395523 0.078307696 0.18492131 0.044834033 0.16507302 0.0012514213 0.15107636
0.22698447 0.0345885 0.07782227 0.14579037 -0.25643992 0.07539491 -0.14079778 -0.12850772
0.01520062 -0.04118458 -0.20889167 -0.10730294 -0.056777805 -0.06587913 -0.069161355 0.1382688
0.109424435 -0.21786183 -0.2651628 0.15073916 -0.14525354 -0.09467064 0.0019274054 0.0054871263
-0.1750669 -0.1233213 0.06704299 -0.074819855 -0.051230848 0.19492309 0.10060626 -0.17133799
00000000: 935b 22be 5b9e 863c 4c4a 683d 955b 2fbe
00000010: 5fb9 413d e154 413e b03f 89bd 6116 4d3e
00000020: 314c 013e 3b4b ba3d e726 a13d 8981 c03b
00000030: 1229 483d 0308 87bd 2290 60be 2d32 58be
00000040: be6e cc3c 5406 933d fbda 3bbe ab28 f2bd
00000050: 0671 aa3d 23ae cabd 8855 da3c 0bbc b93d
00000060: 8508 653d 1ef5 40be 81d0 42be e3b4 a63d
00000070: 83bd 77be fbfe e4bd aa3e 983e 297b e93c
00000080: ea97 0e3d 508d c93d f7a9 113d 5dff 733c
00000090: d0e9 05be 16b9 173e ceb5 303e b31c 41be
000000a0: 574c a8bd e383 7d3d 58a8 80be e531 4abe
000000b0: ecc9 323d 576c 873d c6bb 1fbe 890a f4bd
000000c0: 46a6 ab3d 5188 d5bb 87bf d6bd b7f6 053e
000000d0: 3470 34bc 48e2 3bbe 7279 47be 7b69 9e3d
000000e0: b329 743e ff5d a8bb d3af b7bd 8719 5b3c
000000f0: aeb2 a9bd 2936 25be b7af a4bd f057 b6bd
00000100: 7528 46be 5186 54be da6d 6dbe 6670 2a3c
00000110: 921a ddbc d670 eebd 8c7f 32be 09f6 523d
00000120: 081b ae3c 619f 26be 71c1 f33c e10d 273e
00000130: 6735 0fbe ecb9 f23d f063 313e c542 0f3c
00000140: dbe9 803d b410 113d 66ab dd3d b4f9 ccbd
00000150: b06f 3abe 7ca5 733d 3092 be3c bf3a 39be
00000160: 77ea 873d fc23 583e 9ec8 2abe 7df3 d63d
00000170: fc5f f23d 787b 1c3d 0906 083d 661f f03c
00000180: f8ee ae3d c89d b1bd 9652 27be 4eb4 5b3d
00000190: 77c2 c93d 9de9 35be 14a2 0e3e b2f0 433e
000001a0: 39f9 bdbd 07f4 c83d 1929 1c3e 3191 81bc
000001b0: 7ea7 f33d b313 95bc c374 443c 1bb8 9aba
000001c0: e0ec efbd 6234 18be cdc0 b3bd 1136 ea3d
000001d0: 2fc0 4abe 5b97 83bd 4f68 ad3d db04 af3d
000001e0: 957f 37bd 62bd 17be da27 fabd e00e eebd
000001f0: 0883 10be 2823 673d 5df5 5fbe 2ee9 883d
00000200: d494 0c3e 9a6b c03d c95f a03d 035c 3d3e
00000210: e4a3 373d e708 293e bb06 a43a c3b3 1a3e
00000220: 9e6e 683e acac 0d3d 4861 9f3d 124a 153e
00000230: 184c 83be a668 9a3d 4b2d 10be 8797 03be
00000240: 050c 793c 2ab1 28bd b3e7 55be a5c1 dbbd
00000250: d88f 68bd a3eb 86bd 78a4 8dbd 5696 0d3e
00000260: eb19 e03d 2c17 5fbe 6bc3 87be 5e5b 1a3e
00000270: 58bd 14be aee2 c1bd fea0 fc3a 5acd b33b
00000280: bd44 33be e18f fcbd d64d 893d 273b 99bd
00000290: 70d7 51bd eb99 473e a80a ce3d 3a73 2fbe

encoder_mean.12.bias f4 [12]
2.2499587e-06 -1.8594464e-07 1.4425461e-05 -1.2134734e-07 -3.9621245e-06 -4.3413284e-08 -1.4785365e-06 -1.0438278e-06
-4.550635e-06 3.7407557e-07 1.1609939e-06 2.8217048e-06
00000000: fffd 1636 13a8 47b4 e204 7237 b44b 02b4
00000010: 64f2 84b6 6975 3ab3 2172 c6b5 a619 8cb5
00000020: a8b1 98b6 8ed4 c834 72d3 9b35 855c 3d36

encoder_mean.13.weight f4 [12]
0.7617366 0.84076035 0.7719573 0.85786396 1.3063287 0.69589925 0.6815175 0.73250157
1.071471 0.7387403 1.0549084 0.948365
00000000: 2b01 433f 123c 573f fe9e 453f f99c 5b3f
00000010: c735 a73f 7426 323f ee77 2e3f 3985 3b3f
00000020: f625 893f 161e 3d3f 3d07 873f 0cc8 723f

encoder_mean.13.bias f4 [12]
0.39397776 0.0738471 0.3082102 0.07288289 0.10791116 0.3207471 0.28728294 0.4021357
-0.07445736 0.3938915 0.20150135 0.28783154
00000000: 74b7 c93e 263d 973d bacd 9d3e a043 953d
00000010: 8700 dd3d f738 a43e c016 933e bbe4 cd3e
00000020: 1a7d 98bd 26ac c93e 5f56 4e3e a85e 933e

encoder_mean.13.running_mean f4 [12]
0.054224454 -0.13240623 0.00502095 -0.1430999 -0.17186865 0.02672425 0.015312085 0.06817994
-0.1596276 0.19544323 -0.14993726 -0.08442583
00000000: 761a 5e3d 8095 07be c886 a43b c888 12be
00000010: 56fe 2fbe d0ec da3c 8adf 7a3c eda1 8b3d
00000020: 6b75 23be 4522 483e 2789 19be 73e7 acbd

encoder_mean.13.running_var f4 [12]
0.048055243 0.06110486 0.06819913 0.05975771 0.085556835 0.052720405 0.052887235 0.058890615
0.039076343 0.08330197 0.06076008 0.05577849
00000000: 93d5 443d 1749 7a3d fcab 8b3d 80c4 743d
00000010: 6c38 af3d 5af1 573d 49a0 583d 4937 713d
00000020: 840e 203d 399a aa3d 90df 783d fc77 643d

encoder_mean.16.weight f4 [10, 12]
-0.24214749 0.15188396 -0.027428959 0.19863445 0.29123285 -0.2731838 -0.23083806 -0.28445518
0.29077777 -0.1433638 0.019367699 -0.060955875 -0.050431307 -0.04500819 0.0011052272 -0.0086421985
0.01959465 -0.0007061113 0.017903876 0.0021789558 0.0061341356 0.0389118 -0.022311272 0.008798174
0.06472968 0.0078063947 -0.038370375 -0.0047733164 -0.021334613 -0.044452608 -0.047012325 0.0031032434
0.11272709 -0.0075312825 0.0045092027 0.05458823 0.24431065 -0.21446416 -0.29819718 -0.28764006
-0.16343333 0.27235058 0.3267492 0.24821372 -0.43453005 0.07030669 0.4207288 0.42841673
-0.0029190974 0.061563518 -0.037413333 -0.06520307 -0.06015188 0.026198894 0.034583364 0.072054766
-0.011365182 0.005338352 -0.18911734 -0.10042405 -0.037884954 -0.058215242 0.029028825 0.00023569807
0.012200864 0.0062295236 -0.003484288 0.018487813 0.023720529 0.027809959 0.029332941 -0.018498013
-0.42796487 -0.041070882 -0.47841367 -0.12542257 1.0710245 -0.48200613 -0.49834087 -0.42619994
0.47203273 -0.5917202 0.20274219 0.023425085 0.013569819 0.039987713 -0.16815525 -0.052662566
-0.05358271 0.049936075 -0.042261355 0.09235825 0.067507945 0.1670767 -0.18544269 -0.1280605
0.018349044 0.7116967 0.48833668 0.7132593 -0.4247111 -0.24661072 -0.20375064 -0.016206775
0.66948086 0.20705672 -0.7774095 -0.7437205 -0.13546252 -0.01656003 0.06512737 -0.019661848
0.14010456 -0.016002927 -0.035646033 -0.027640324 -0.1191891 0.034249015 0.24949999 0.17451519
00000000: 83f5 77be 7887 1b3e b2b2 e0bc d466 4b3e
00000010: 791c 953e bfde 8bbe d060 6cbe 1ca4 91be
00000020: d3e0 943e f6cd 12be 02a9 9e3c deac 79bd
00000030: 0f91 4ebd 825a 38bd 45dd 903a 0298 0dbc
00000040: f684 a03c 541a 39ba 26ab 923c d0cc 0e3b
00000050: dc00 c93b fb61 1f3d 21c6 b6bc 3726 103c
00000060: ff90 843d c9cc ff3b 412a 1dbd 7b69 9cbb
00000070: edc5 aebc f013 36bd ff8f 40bd c95f 4b3b
00000080: 76dd e63d fac8 f6bb efc1 933b e897 5f3d
00000090: 922c 7a3e 7e9c 5bbe 4dad 98be 8f45 93be
000000a0: 115b 27be 8971 8b3e ac4b a73e bd2b 7e3e
000000b0: b97a debe f4fc 8f3d c469 d73e 7059 db3e
000000c0: 544e 3fbb 072a 7c3d b93e 19bd 3089 85bd
000000d0: d161 76bd 109f d63c 49a7 0d3d 7391 933d
000000e0: 0735 3abc 58ed ae3b faa7 41be 20ab cdbd
000000f0: 412d 1bbd 1b73 6ebd dccd ed3c b825 7739
00000100: 22e6 473c 0821 cc3b a758 64bb c173 973c
00000110: 8e51 c23c b6d1 e33c a34b f03c 2589 97bc
00000120: 361e dbbe f139 28bd a3f2 f4be c66e 00be
00000130: 5517 893f 82c9 f6be 8926 ffbe e136 dabe
00000140: 46ae f13e fa7a 17bf a69b 4f3e f7e5 bf3c
00000150: f253 5e3c 28ca 233d e430 2cbe b4b4 57bd
00000160: 8b79 5bbd c589 4c3d 3e1a 2dbd 5226 bd3d
00000170: 9b41 8a3d 2816 2b3e b0e4 3dbe 4b22 03be
00000180: bc50 963c c131 363f 4407 fa3e 2998 363f
00000190: bc73 d9be 8587 7cbe 02a4 50be 12c4 84bc
000001a0: 1963 2b3f ad06 543e 4f04 47bf 7764 3ebf
000001b0: b0b6 0abe e6a8 87bc 8061 853d e211 a1bc
000001c0: 9277 0f3e 9218 83bc 9301 12bd f66d e2bc
000001d0: 6a19 f4bd b248 0c3d ed7c 7f3e 1cb4 323e

encoder_mean.16.bias f4 [10]
0.1531568 0.007475253 -0.029177535 -0.36006135 0.13418469 -0.018075155 0.37158632 0.103676625
0.17111029 -0.18271841
00000000: 23d5 1c3e f8f2 f43b ba05 efbc f659 b8be
00000010: b667 093e 5912 94bc 9040 be3e 6954 d43d
00000020: 8937 2f3e 891a 3bbe

encoder_var.0.weight f4 [20, 30]
-0.0001777086 -0.00051517354 -0.00037057398 0.0002766111 -0.0003872696 -0.00022039813 -0.00012968111 -1.2234432e-05
-8.954197e-06 -0.0004451512 -0.0003371592 9.169751e-05 -8.604138e-07 -7.9159494e-05 0.0002997954 0.00028682296
-3.089282e-05 -0.00094286166 -0.00010981537 6.0389168e-05 0.00022228692 0.00013250958 -6.419388e-05 -0.00058276986
0.00034158444 -0.00017959505 8.649754e-05 -0.00019275339 0.000192586 -0.0003322836 0.0076370523 0.00057136547
0.00046358624 0.01536985 -0.010106349 -0.0019017037 -0.015611338 0.019701289 -0.0070104385 -0.0026918203
-0.0062074875 -0.003013024 -0.010593276 0.0022662992 -0.015756711 0.013350318 -0.008274604 0.0063742683
-0.0032976898 0.0015886951 0.01499311 -0.009384299 -0.0016648113 -0.0074936636 0.005410957 -0.003545935
0.0035455362 -0.008592192 0.008603194 -0.07877533 -0.0013440507 -0.0026742858 0.003175914 0.0025059795
-0.0037465943 0.0005384988 0.001840923 0.010124495 0.0030109729 0.002821081 0.0032802825 0.0018824687
-0.0040355725 -0.009143142 0.0039679855 -0.00093628024 -0.0007574216 -0.002810077 0.00035127462 -0.006006721
0.0025268204 0.002009985 0.0018673067 -0.006977536 0.00381545 -0.0004773167 0.00046789536 0.0056634704
-0.0056359037 0.008445666 0.003067699 -0.001679016 0.0035195996 0.0040926463 -0.0006433523 -0.004929199
-0.020683948 0.0063970312 -0.0071946136 0.005593828 0.0026623479 0.0024775635 -0.0026476083 0.0026675651
-0.0074466784 0.015393196 0.0004340487 -0.006880088 0.0024513926 -0.004792593 0.0040342608 0.0025888542
-0.0076393206 -0.004347397 0.012489717 -0.007297929 0.0072892723 -0.010047166 0.010040938 -0.02987451
0.00030432633 6.444896e-05 0.00017897243 0.0007760447 -9.677478e-05 -0.00014223786 -0.00040093757 -0.00083948177
-0.00037666166 -0.00018149156 0.0015182303 0.0002524064 -0.0001387905 0.00019534571 -0.00085742434 0.0014499333
0.0005931174 7.542321e-05 0.0008670975 0.0001004084 0.0007020597 -0.0026329241 -0.00064180564 -0.00092887797
0.0005442684 -0.0007631558 0.0007580492 -0.0016429502 0.0016814981 -0.0019745901 -0.00014525361 0.00014398484
9.1660826e-05 9.8724224e-05 0.000116648436 0.00025855302 -0.00021034126 2.9162511e-05 5.990612e-05 0.00010327781
2.5579127e-05 1.6697686e-05 -8.7608656e-05 -0.00014053588 0.0001361529 -6.102855e-07 -3.1880543e-05 0.00010252151
-5.4288936e-05 -0.000338759 5.398588e-05 2.2026334e-05 0.000114698836 -0.00015233099 -8.9475616e-05 -6.151119e-05
6.591558e-05 8.205032e-05 -0.00010312981 3.5293593e-05 -0.00011969191 -0.000243625 -0.00031989237 0.0002720239
0.0011252348 -0.0006994857 0.000542621 -0.0014919738 -0.00015973144 0.0012071644 0.0012406555 -0.00030794865
0.000456793 0.00081969635 0.0005046205 -0.0010766063 -0.00034216928 0.00043846905 0.00020644409 0.00051289616
0.00025679145 -2.3087814e-05 -6.183722e-05 0.00035693016 -0.0012599804 0.000284159 -0.00029988584 -0.00073908106
0.0007432527 0.0011137129 0.013220395 -0.004846189 -0.005688486 -0.0020229518 0.0030160288 0.0029047334
0.008625315 0.0020578825 -0.0011761978 -0.006962482 0.0007076957 -0.006364329 -0.010617667 0.0067578577
-0.02282517 0.019471098 0.0015343237 0.0024822874 -0.0066766306 0.019253839 -0.0034881209 -0.026475893
0.003162656 -0.00033444504 0.002989941 -0.00069313357 0.0006429751 -0.006456936 0.006454267 -0.06891557
0.0071751038 0.0033807592 -4.0131505e-05 -0.0022792711 0.0058756988 -0.0050126007 -0.007798469 -0.00950557
-0.0020777993 -0.0024625612 0.0048221387 0.0041632457 -0.0015883513 0.015792029 -0.002360243 0.010747415
00000000: 4a57 3ab9 b60c 07ba 9949 c2b9 1d06 9139
00000010: 720a cbb9 ac1a 67b9 02fb 07b9 7c42 4db7
00000020: fc39 16b7 2f63 e9b9 bec4 b0b9 ba4d c038
00000030: 30f7 66b5 6e02 a6b8 dc2d 9d39 ba60 9639
00000040: ea92 01b8 602a 77ba ae4c e6b8 604a 7d38
00000050: b115 6939 45f2 0a39 d49f 86b8 06c5 18ba
00000060: b016 b339 ae51 3cb9 0366 b538 d81d 4ab9
00000070: e9f0 4939 5a36 aeb9 3d40 fa3b b0c7 153a
00000080: 7e0d f339 d3d1 7b3c 1a95 25bc 9642 f9ba
00000090: b3c6 7fbc 9964 a13c d2b7 e5bb 4069 30bb
000000a0: 2e68 cbbb 2876 45bb 6b8f 2dbc 3186 143b
000000b0: 3814 81bc 4bbb 5a3c 3492 07bc 3ddf d03b
000000c0: 0e1e 58bb c33b d03a a9a5 753c 9ac0 19bc
000000d0: cc35 daba 688d f5bb 664e b13b eb62 68bb
000000e0: 3a5c 683b 44c6 0cbc 69f4 0c3c f654 a1bd
000000f0: dc2a b0ba 1243 2fbb ff22 503b 5c3b 243b
00000100: 6c89 75bb 0b2a 0d3a 204b f13a 36e1 253c
00000110: be53 453b e3e1 383b 02fa 563b 2bbd f63a
00000120: d63c 84bb 1ecd 15bc e005 823b b470 75ba
00000130: b48d 46ba 4529 38bb 482b b839 07d4 c4bb
00000140: 0399 253b f4b9 033b 6ac0 f43a d0a3 e4bb
00000150: a10c 7a3b 5d40 fab9 da4f f539 a294 b93b
00000160: 63ad b8bb b15f 0a3c 730b 493b 6e12 dcba
00000170: 15a9 663b 9b1b 863b a4a6 28ba 1e85 a1bb
00000180: 6271 a9bc 309e d13b cbc0 ebbb 6e4c b73b
00000190: c97a 2e3b 9e5e 223b 7f83 2dbb 51d2 2e3b
000001a0: 4403 f4bb be33 7c3c 0891 e339 5c72 e1bb
000001b0: 8ba7 203b 2f0b 9dbb d531 843b c4a9 293b
000001c0: 4453 fabb 9c74 8ebb aca1 4c3c 7723 efbb
000001d0: d9da ee3b de9c 24bc bf82 243c 63bb f4bc
000001e0: fd8d 9f39 c628 8738 8caa 3b39 7a6f 4b3a
000001f0: 90f3 cab8 af25 15b9 ee34 d2b9 ab10 5cba
00000200: ac7a c5b9 c54e 3eb9 5bff c63a 6a55 8439
00000210: 4b88 11b9 b7d5 4c39 c6c4 60ba b00b be3a
00000220: 6f7b 1b3a 872c 9e38 ee4d 633a 5992 d238
00000230: 6e0a 383a 238d 2cbb d93e 28ba f27f 73ba
00000240: 3cad 0e3a 850e 48ba d2b7 463a 4358 d7ba
00000250: b765 dc3a 2068 01bb 384f 18b9 a3fa 1639
00000260: 083a c038 2a0a cf38 27a1 f438 668e 8739
00000270: 0d8f 5cb9 04a2 f437 b543 7b38 da96 d838
00000280: c292 d637 0212 8c37 8aba b7b8 d05c 13b9
00000290: 44c4 0e39 80d2 23b5 79b7 05b8 d100 d738
000002a0: 4db4 63b8 779b b1b9 e66e 6238 31c5 b837
000002b0: 788a f038 0abb 1fb9 dba4 bbb8 92ff 80b8
000002c0: 283c 8a38 6e12 ac38 6547 d8b8 3508 1438
000002d0: 1b03 fbb8 9775 7fb9 3ab7 a7b9 6e9e 8e39
000002e0: 9d7c 933a b15d 37ba ae3e 0e3a 558e c3ba
000002f0: 957d 27b9 b739 9e3a 7e9d a23a 2b74 a1b9
00000300: b87d ef39 e4e0 563a 8248 043a ea1c 8dba
00000310: 2f65 b3b9 52e2 e539 ea78 5839 e173 063a
00000320: f7a1 8639 b4ac c1b7 9bae 81b8 5b22 bb39
00000330: ed25 a5ba 2dfb 9439 ff39 9db9 e4be 41ba
00000340: d8d6 423a 01fa 913a 5b9a 583c c8cc 9ebb
00000350: 7b66 babb 8093 04bb 91a8 453b 575d 3e3b
00000360: 3151 0d3c 8add 063b a62a 9aba 8825 e4bb
00000370: a884 393a dc8b d0bb b9f5 2dbc 0571 dd3b
00000380: dafb babc da81 9f3c 5c1b c93a dfad 223b
00000390: a3c7 dabb 3aba 9d3c f598 64bb f9e3 d8bc
000003a0: 9044 4f3b 7458 afb9 e3f2 433b 68b3 35ba
000003b0: 548d 283a b494 d3bb 517e d33b 9b23 8dbd
000003c0: 221d eb3b ba8f 5d3b e052 28b8 d35f 15bb
000003d0: ef88 c03b be40 a4bb 4d8a ffbb 40bd 1bbc
000003e0: b02b 08bb ec62 21bb 0803 9e3b d66b 883b
000003f0: 3a30 d0ba 495e 813c 4eae 1abb ed15 303c

encoder_var.0.bias f4 [20]
-6.654952e-08 -3.6294458e-07 1.5860562e-07 -7.053366e-09 2.124792e-08 -8.273412e-08 -1.4565221e-07 1.5818819e-07
1.22705615e-08 5.803829e-07 -6.219267e-09 -3.56048e-09 4.988569e-08 3.1260652e-07 -8.515949e-08 -6.686892e-08
3.71787e-08 2.4899694e-07 -3.2833e-07 -1.9468277e-07
00000000: fce9 8eb3 b9da c2b4 2e4d 2a34 105a f2b1
00000010: ac84 b632 90ab b1b3 9364 1cb4 70da 2934
00000020: 80ce 5232 9ccb 1b35 40b1 d5b1 a0ac 74b1
00000030: e541 5633 50d4 a734 ede0 b6b3 9499 8fb3
00000040: 6aae 1f33 e1ad 8534 5545 b0b4 fe09 51b4

encoder_var.1.weight f4 [20]
-0.001315739 0.04548717 0.012002259 0.014587924 0.0048849056 0.00016238038 0.0013220486 0.039146062
0.02745674 0.048736256 -0.0006584508 0.048532322 0.0015372053 0.0028513423 0.031188753 0.0029170162
0.033454333 0.027266437 0.0013161252 0.029428665
00000000: e074 acba c150 3a3d 1fa5 443c 3002 6f3c
00000010: 8f11 a03b a744 2a39 9748 ad3a 9f57 203d
00000020: f5ec e03c ab9f 473d e39b 2cba d4c9 463d
00000030: 0d7c c93a 96dd 3a3b 8e7f ff3c 692b 3f3b
00000040: 6907 093d dd5d df3c d581 ac3a 6214 f13c

encoder_var.1.bias f4 [20]
0.001355106 -0.0035759688 -0.0020163904 -0.0043511176 -0.0016653878 0.00066551194 0.0035375287 -0.015624275
0.014953012 -0.016092243 0.004170981 0.005188863 -0.0005063364 0.00029193825 0.0037598133 0.0038436092
-0.012542399 0.008321861 0.0006757929 0.0068997266
00000000: d09d b13a cd5a 6abb 6b25 04bb d293 8ebb
00000010: 2449 daba c075 2e3a e2d5 673b f6fc 7fbc
00000020: 7afd 743c e1d3 83bc b9ac 883b 5607 aa3b
00000030: a9bb 04ba 4a0f 9939 3367 763b 10e5 7b3b
00000040: a27e 4dbc 6a58 083c b227 313a 1a17 e23b

encoder_var.1.running_mean f4 [20]
-4.7415677e-05 -0.066506326 0.00057593745 -0.021405296 -0.002376892 -0.00021445763 0.0022194232 -0.043302942
-0.028057588 -0.03751666 0.004262302 -0.05252668 6.7124114e-05 -0.002942068 -0.039084233 -0.0014581392
-0.03335554 -0.033777617 -0.00018118593 -0.02879189
00000000: 32e0 46b8 7834 88bd 82fa 163a 295a afbc
00000010: a1c5 1bbb 08e0 60b9 be73 113b 6d5e 31bd
00000020: 07d9 e5bc 12ab 19bd c8aa 8b3b 3726 57bd
00000030: fcc4 8c38 b6cf 40bb ca16 20bd 081f bfba
00000040: d29f 08bd 665a 0abd bafc 3db9 f8dc ebbc

encoder_var.1.running_var f4 [20]
3.8352623e-06 0.001670174 0.00015223364 0.00082729093 2.7110258e-05 1.2043921e-06 1.3077424e-05 0.00081500865
0.00104953 0.00030723267 8.53328e-05 0.0008044113 2.460807e-06 1.1761974e-05 0.0018430515 1.48763565e-05
0.0006274117 0.00043716157 4.118433e-06 0.00057303807
00000000: a7b0 8036 bde9 da3a e8a0 1f39 8ede 583a
00000010: d66a e337 99a6 a135 1c67 5b37 4ea6 553a
00000020: 6290 893a 1214 a139 b3f4 b238 21df 523a
00000030: 5824 2536 4b55 4537 8c92 f13a 7795 7937
00000040: e378 243a d532 e539 1231 8a36 ef37 163a

encoder_var.4.weight f4 [16, 20]
0.00064968015 0.0149620995 -0.0027950308 0.0012500917 0.0011017211 -1.5839643e-05 -0.0015565197 0.023758113
0.003193953 0.016945468 0.0026913218 0.010473157 0.00045862305 -0.00091375713 -0.0031566357 0.0003216496
0.0047391634 -0.011577682 0.00049031875 0.0058287284 -0.00038597384 -0.006816553 0.0029837678 -0.0017813973
-0.0006773688 0.00017367332 -1.4611884e-05 -0.0028151786 -0.007352624 -0.010348217 -0.00070995005 -0.0136506045
-9.6683936e-05 -0.0012851264 -0.0093333665 -2.2717832e-06 -0.015582041 -0.012026534 -0.0001870378 -0.0063790986
-0.00031428298 -0.005202491 0.0037368564 -0.003091274 -0.0012853348 0.0001575984 0.00063042226 -0.0016730803
-0.010280871 -0.004582759 0.0002617918 -0.010514894 3.8835406e-05 -0.0014078234 -0.00651391 -9.773794e-07
-0.00885869 -0.014345902 -0.00013432166 -0.0058647515 -0.0002731084 -0.012623966 0.0072688833 -0.004624314
-0.00080999243 0.00016963846 -0.0002928269 -0.0063704797 -0.00862071 -0.017617974 -0.00045852558 -0.015640518
-0.000113837974 -0.0014243635 -0.006774502 -0.00025972904 -0.009904192 -0.010406381 -0.00022915796 -0.003584727
-0.00031167717 -0.009079827 0.0046302658 -0.002946387 -0.00038724067 1.25914685e-05 0.00023813781 -0.008089225
-0.0061526382 -0.015953824 -0.0008590039 -0.012239668 -9.7441145e-05 -0.0011106713 -0.0041177142 -0.0003486356
-0.01106734 -0.00977926 -0.00039507574 -0.00618315 -0.00011535846 0.005467093 -0.0028057494 -0.001797543
-0.00019532804 8.771187e-05 -0.002138683 0.019282926 0.009873617 0.015231293 0.001653838 0.014569348
0.00065968576 0.00023370015 0.0063561727 0.00014072566 0.0038579677 0.0020781925 0.00020038693 0.0035146521
-0.000114146016 -0.014014102 0.002516116 -0.0035956965 -0.0006579751 0.00020757869 0.00023288104 -0.0098048905
-0.008056114 -0.018317865 -0.0005433791 -0.012089294 -0.00038438293 -0.001439845 -0.006788305 7.1285504e-06
-0.0089523345 -0.009284628 -0.00019518845 -0.0038057498 0.00011957898 0.011749693 -0.00013798018 0.0016396116
0.0006056101 0.0002811575 -0.0012078219 0.014195005 0.0048865248 0.012871765 0.0017567212 0.010552498
6.295898e-05 0.00050779217 0.002988532 -6.917643e-05 0.0056845956 0.0044254875 0.00016729157 0.0078097647
-0.0003335656 -0.0064892606 0.004955326 -0.002511982 -0.0006884843 8.1221646e-05 0.00025329678 -0.010938385
-0.0077387826 -0.010037828 -0.00045971049 -0.014655832 0.00025569514 -0.001201192 -0.0069383834 -0.00025861838
-0.010760515 -0.008215528 -0.00020368298 -0.0021891443 1.9497975e-06 0.00037501234 -6.547123e-05 -1.4098532e-07
-5.9802718e-05 -0.00012485623 -9.70432e-05 0.00019498596 8.867799e-05 -0.00049060327 0.00014554897 0.00040561755
-5.7098605e-05 4.3681208e-05 4.7068635e-05 -1.270674e-05 0.00011887142 4.2993986e-05 5.508927e-05 0.00025982683
-0.00048386984 -0.0066139568 0.0023990949 -0.0024950558 -0.0012651104 0.00012347169 0.00036242497 -0.008147237
-0.007776198 -0.020495664 6.872553e-06 -0.011039601 -0.0003032568 -0.0011481444 -0.008366838 -9.794492e-05
-0.011489801 -0.011737179 -7.79057e-05 -0.0069792797 -6.4421234e-05 -0.007568498 0.004294096 -0.0016010024
-0.00063293293 -0.00028004425 -0.00012217223 -0.0041198926 -0.008478238 -0.008631403 -0.0005262691 -0.014985559
4.630624e-05 -0.0011135874 -0.008695572 -0.00026591617 -0.011896394 -0.0053215013 -9.671806e-05 -0.0034764656
0.00023600503 0.01627931 -0.009095826 -0.003190918 -0.0010128155 -7.4061754e-05 -0.00039130345 0.01635074
0.018214578 0.02619966 0.0005585706 0.02340634 0.00037975123 0.0010077591 0.014936642 0.0011949735
00000000: 4c4f 2a3a 9823 753c d62c 37bb 1eda a33a
00000010: a067 903a 60df 84b7 2204 ccba 60a0 c23c
00000020: a451 513b 39d1 8a3c e360 303b 9b97 2b3c
00000030: 5873 f039 3489 6fba 8fdf 4ebb 14a3 a839
00000040: fc4a 9b3b 51b0 3dbc bc88 003a ebfe be3b
00000050: 885c cab9 645d dfbb 518b 433b c67d e9ba
00000060: 7391 31ba 141c 3639 9025 75b7 dc7e 38bb
00000070: 48ee f0bb 918b 29bc f11b 3aba c9a6 5fbc
00000080: cbc2 cab8 b071 a8ba faea 18bc f074 18b6
00000090: d14b 7fbc f10a 45bc 941f 44b9 c207 d1bb
000000a0: 59c6 a4b9 a879 aabb 0ce6 743b f996 4abb
000000b0: ae78 a8ba 0041 2539 ec42 253a 424b dbba
000000c0: 1971 28bc f82a 96bb 1a41 8939 a946 2cbc
000000d0: 33e3 2238 b786 b8ba a372 d5bb 802e 83b5
000000e0: 0a24 11bc 130b 6bbc b2d8 0cb9 1a2d c0bb
000000f0: fd2f 8fb9 c0d4 4ebc d02f ee3b 8f87 97bb
00000100: ac55 54ba fae0 3139 9086 99b9 75bf d0bb
00000110: e13d 0dbc 9253 90bc 4366 f0b9 8b20 80bc
00000120: 4cbc eeb8 b5b1 baba a4fc ddbb 3e2c 88b9
00000130: 3145 22bc 877f 2abc 1f4a 70b9 bded 6abb
00000140: 9a68 a3b9 8ec3 14bc 7cb9 973b 2c18 41bb
00000150: 9006 cbb9 f23f 5337 a2b4 7939 ab88 04bc
00000160: 129c c9bb 98b1 82bc c72e 61ba e388 48bc
00000170: 5159 ccb8 f293 91ba e4ed 86bb 14c9 b6b9
00000180: ca53 35bc 3039 20bc 2b22 cfb9 069c cabb
00000190: 9aec f1b8 4d25 b33b aae0 37bb 899b ebba
000001a0: f9d0 4cb9 f4f1 b738 2629 0cbb 3af7 9d3c
000001b0: f4c4 213c ac8c 793c 98c5 d83a 46b4 6e3c
000001c0: c3ee 2c3a 680d 7539 7147 d03b c28f 1339
000001d0: f5d5 7c3b 4932 083b f51e 5239 1456 663b
000001e0: ad61 efb8 679b 65bc 6ce5 243b c7a5 6bbb
000001f0: f67b 2cba 7ba9 5939 8731 7439 b1a4 20bc
00000200: cbfd 03bc 590f 96bc 8e71 0eba 2d12 46bc
00000210: 0187 c9b9 2eb9 bcba 6e70 debb c831 ef36
00000220: d0ac 12bc 8d1e 18bc 80ab 4cb9 e369 79bb
00000230: 7ac6 fa38 c981 403c c6ae 10b9 3ce8 d63a
00000240: cec1 1e3a 5268 9339 c74f 9eba 2b92 683c
00000250: 241f a03b 18e4 523c c841 e63a 62e4 2c3c
00000260: d808 8438 5b1d 053a 3fdb 433b d012 91b8
00000270: d845 ba3b ae03 913b fd6a 2f39 0ee9 ff3b
00000280: 6be2 aeb9 dda3 d4bb 4a60 a23b 11a0 24bb
00000290: 667b 34ba 8a55 aa38 ebcc 8439 e936 33bc
000002a0: 9d95 fdbb b475 24bc 4c05 f1b9 041f 70bc
000002b0: d20e 8639 5171 9dba 615b e3bb 2c97 87b9
000002c0: df4c 30bc 6c9a 06bc bc93 55b9 bf77 0fbb
000002d0: 44d9 0236 4e9d c439 994d 89b8 c061 17b4
000002e0: aed4 7ab8 d7eb 02b9 ac83 cbb8 2575 4c39
000002f0: a2f8 b938 d49b 00ba 819e 1839 11a9 d439
00000300: 297d 6fb8 5736 3738 906b 4538 082f 55b7
00000310: 9c4a f938 7154 3438 a70f 6738 5e39 8839
00000320: e9af fdb9 e4b9 d8bb 223a 1d3b 1784 23bb
00000330: 10d2 a5ba 2e78 0139 db03 be39 fd7b 05bc
00000340: 7acf febb 86e6 a7bc c89a e636 71df 34bc
00000350: 70fe 9eb9 557d 96ba 1015 09bc c767 cdb8
00000360: b83f 3cbc 4c4d 40bc 4e61 a3b8 71b2 e4bb
00000370: e319 87b8 2a01 f8bb 7db5 8c3b bad8 d1ba
00000380: 69eb 25ba e7d2 92b9 5c1b 00b9 2a00 87bb
00000390: 4fe8 0abc ba6a 0dbc 52f5 09ba fd85 75bc
000003a0: f238 4238 cbf5 91ba df77 0ebc aa6a 8bb9
000003b0: 18e9 42bc fd5f aebb 1dd5 cab8 6ad5 63bb
000003c0: 1e78 7739 305c 853c a906 15bc b81e 51bb
000003d0: 73c0 84ba 9a51 9bb8 dc27 cdb9 fdf1 853c
000003e0: bd36 953c aba0 d63c 0a6d 123a a7be bf3c
000003f0: 5919 c739 c916 843a d1b8 743c a8a0 9c3a

encoder_var.4.bias f4 [16]
3.006618e-07 -1.4464372e-07 -1.3778259e-07 -2.8986977e-07 -6.041718e-08 2.0843542e-08 -2.8633866e-07 -1.9744783e-07
-3.7635104e-08 1.8905577e-07 2.281684e-07 -1.7207469e-07 7.885069e-07 -2.4012817e-08 -3.6181845e-08 6.0771015e-09
00000000: a56a a134 5d4f 1bb4 64f1 13b4 669f 9bb4
00000010: b2be 81b3 6f0b b332 16ba 99b4 0c02 54b4
00000020: 3ca4 21b3 41ff 4a34 74fe 7434 88c3 38b4
00000030: c8a9 5335 be44 ceb2 5c66 1bb3 c0ce d031

encoder_var.5.weight f4 [16]
0.023927651 0.03830228 0.038089495 0.0370823 0.03592754 0.029108182 0.033881035 0.022518001
0.03404531 0.0016264947 0.03403015 0.036263283 0.052140087 0.017508198 0.04011289 0.0135550555
00000000: ec03 c43c dae2 1c3d bb03 1c3d 9ce3 173d
00000010: c228 133d 4874 ee3c d7c6 0a3d ac77 b83c
00000020: 1873 0b3d 1b30 d53a 3363 0b3d cf88 143d
00000030: d890 553d 5a6d 8f3c 6a4d 243d 0616 5e3c

encoder_var.5.bias f4 [16]
0.0060860803 0.034947835 0.034219634 0.032780506 0.0320517 0.0063773994 0.032073136 0.010735446
0.03340852 0.00062191504 0.03634877 0.036877505 0.007727143 0.0075013675 0.028438892 0.003167605
00000000: be6d c73b 7625 0f3d e329 0c3d da44 063d
00000010: a548 033d 81f9 d03b 1f5f 033d b9e3 2f3c
00000020: 5fd7 083d 0308 233a 73e2 143d de0c 173d
00000030: f933 fd3b 08ce f53b aef8 e83c 9897 4f3b
