dice_ml/utils/sample_trained_models/adult-margin-0.344-validity_reg-76.0-epoch-25-ae-gen.pth (torch_old, 35079 bytes, 78 tensors)

encoder_mean.0.weight f4 [20, 30]
00000000: 0f80 5b3e ba75 68bd c45d 1abc c8d3 503d
00000010: 9072 be3c 4da2 44bd 0a2e 5fbc e09a 783c
00000020: e101 b53b 2a5e b43d de46 383c b986 80bb
00000030: c8e4 9abd 5650 abbd 277b b9bd 7890 d3bc
00000040: 5e58 15bc a6f6 a6bd 8eb7 9ebb 46ad 093d
00000050: 2764 4c3d dc63 a0ba 97ba 15bd c764 e93b
00000060: 88f6 8a3c 7a3f 6cbc 4717 593d 45f9 51bd
00000070: 92a9 56bd f2e1 96be 692d 07be 680f 893d
00000080: b818 573c 6661 353d 170b 963d df21 1fbd
00000090: d6df 30bd dfc0 183d 053e a53c 7c65 1c3d
000000a0: a9ad 9dbb 927a 973a b1a0 1ebe 3b9b b13c
000000b0: db52 debc 4ca7 de3c 0dde 9cbc eed6 483e
000000c0: 1ca6 9ebb 6105 123d c162 6a3d adcf 2a3c
000000d0: 3a80 f03c f2d2 1abd 394c 273d dddd 6abd
000000e0: 9a20 2cbc 57e0 313d 0a17 823d 5c8b 7cbe
000000f0: 68d3 483f 3d8e 3cbe 16fb fbbb 16ce b63c
00000100: 465a 753b 79d1 003c 2f44 4e3d 1c6e b23d
00000110: 290e a03d 9b10 843d fe5c a03d 8465 3d3d
00000120: 86b9 933d b619 833d 0d3c 943c f68b 203d
00000130: 7a4e 593d e20c 403e 109d 16b9 de05 e83d
00000140: 89ac 933d 16ef dd3d 3d10 d33d 3de7 d13d
00000150: 8a9f d63d af4b fdbd f51b 05be aa5a 79bd
00000160: c5fd 65bd 0231 d5bb 96ef 6cbf d4c3 083d
00000170: 87c2 d73b 735b a0bb b07c 3aba 62bb 11bc
00000180: bee4 e9ba b1a4 b5bc 6175 c9bc 74c9 29bc
00000190: 2c73 d4b9 49a7 a3bb ab6c b8bc 7f32 c6bc
000001a0: c7ce 243d b955 1a3d 88ef 823d 7109 c53c
000001b0: 7448 223d 70ba 223c 0da6 b83c ab3e 8f3c
000001c0: 90ae f83b 5493 823b 34c2 8e3c 968e 713d
000001d0: d840 443d 6313 523c 137d 2a3c 1b21 e6bd
000001e0: 3086 37bf 0b03 1cbf f924 86bb 1f9f cb3c
000001f0: ce22 07bc b2f5 213c d94f 323d 21b7 f63c
00000200: adb2 72bc 3530 9bbc 328c cebc c89a 153c
00000210: dcb5 4dbc 8164 2cbc a07b c23c 8e3e 91bb
00000220: 7cd2 113d b032 543c b478 e33b 59ea 2abd
00000230: 458e a4bd 5e01 24bd cec7 2bbd 0305 13bd
00000240: 026d dfbc 68c7 62bb 5fde d13c 1cda e33c
00000250: 1c66 913c 0e32 30be 0a3a 663f 9f71 c43d
00000260: 2d57 923d 070a 633d 0303 6e3d 8bf3 a13d
00000270: 5e97 8b3c 9590 bd3c 8598 863c bc09 043c
00000280: 4cd8 6b3d fc3f 28bc 7d47 eb3c e11d 103d
00000290: e751 dc3c eba1 663c 6cdf 763c 7907 e93c
000002a0: d696 123d 506b a2bc 84a1 9bba e7a6 cfbc
000002b0: 1370 39bc 1dfb 3fbc 4cd2 c5bc b2f2 23bc
000002c0: f9bf a2bc cdb2 313d 31bb 383d b7bb e73d
000002d0: 2174 3b3f 0aa1 39be 209f 4dbd 5423 83bd
000002e0: 42de 55bd 3d2a bdbc 2f50 ab3d 05d7 8e3d
000002f0: 0152 df3d 8dc9 7f3d c49a 473d 2078 1c3d
00000300: 54b1 8e3d 4a10 583d 22a7 613d 615d 733d
00000310: 898e 903d 7dd9 c43c 12cd a23d f942 50bd
00000320: 418d 1fbd c490 96bc 94cd 51bd 0ac7 16bd
00000330: 267d 19bd 68f0 8ebd c9fe 8ebd 1f70 4ebd
00000340: 9a3a f9bc 171d 7d3e 1d8a 1c3f 57d1 bdbd
00000350: 393a 27bd 2b1e 843c 5f71 17bd d573 08bd
00000360: 5087 63bd b037 55bd 56db 83bd e231 67bd
00000370: 70cc 8abd 03bf 3dbd ae15 6dbd c8fd 3abd
00000380: db2f 143d 970f 073d e3c9 f13c f826 583d
00000390: e1f3 a03c f169 243d de9e 21bc 5d5f 463d
000003a0: 613a 0a3d c668 013d 1d21 f73c 7e3a 7b3d
000003b0: 51a6 763d bdf1 023d a290 db3c 0a10 ca3e
000003c0: 2759 423f d33a dfbd 9296 b23c b230 a1bc
000003d0: dacd d23c ee09 a53c 0312 3c3d cb13 473d
000003e0: 6387 e13c 3567 403d 04ca c83c 9c3c 143d
000003f0: adb6 843d a664 713d b99c ab3d 548d d63d
0.21435569 -0.056752898 -0.0094217695 0.05098322 0.023247987 -0.048006345 -0.013621816 0.015173644
0.0055239056 0.08807023 0.011247365 -0.00392231 -0.07563168 -0.08364932 -0.090566926 -0.025825724
-0.009115307 -0.08152513 -0.004843659 0.033612512 0.0499002 -0.0012236792 -0.0365549 0.0071226093
0.016963258 -0.014419431 0.053000715 -0.051263113 -0.05240781 -0.29469258 -0.13200916 0.06692392
0.013128452 0.04428234 0.07326334 -0.03885066 -0.043182217 0.03729331 0.020171175 0.03818272
-0.0048119617 0.0011556915 -0.15490986 0.021680465 -0.027139118 0.027179383 -0.01914885 0.19613239
-0.004841579 0.03564966 0.057223085 0.01042549 0.029358018 -0.03779883 0.040844176 -0.05734049
-0.01050582 0.043426838 0.063520506 -0.24662536 0.7844758 -0.18413635 -0.007689844 0.022315066
0.003743784 0.007862442 0.050357994 0.08712408 0.07815201 0.0644848 0.07830237 0.04623939
0.0721312 0.06401388 0.01809504 0.039195977 0.053053357 0.18754914 -0.00014363625 0.11329244
0.07210643 0.10836618 0.103058316 0.10249183 0.104796484 -0.12367951 -0.12998946 -0.06087748
-0.056150217 -0.0065060863 -0.9255308 0.03338988 0.0065844688 -0.004893714 -0.0007113917 -0.008894773
-0.001784466 -0.022173258 -0.024592103 -0.010362972 -0.000405216 -0.004994307 -0.022512754 -0.024194
0.04023626 0.037679408 0.06393343 0.024052354 0.039619878 0.0099321455 0.022540117 0.017485937
0.007589169 0.003984848 0.017426588 0.05897387 0.047913402 0.012822005 0.010405797 -0.11236783
-0.7168913 -0.60942143 -0.004093763 0.024856148 -0.008248044 0.0098852385 0.04353318 0.03011662
-0.014813107 -0.018943885 -0.025213335 0.009131141 -0.012555566 -0.010522009 0.02374059 -0.004432506
0.035601124 0.012951538 0.006941879 -0.041727398 -0.08034948 -0.040040366 -0.041938595 -0.03589345
-0.027273659 -0.0034603719 0.02561873 0.027813964 0.017748885 -0.17206594 0.8993231 0.09591984
0.07145534 0.055429485 0.05810834 0.0790778 0.017039951 0.023140231 0.016430149 0.0080589615
0.057579324 -0.010269161 0.028720612 0.035184745 0.026894523 0.01407669 0.015067916 0.028445946
0.03578838 -0.019826561 -0.0011873697 -0.02534814 -0.0113182245 -0.011717585 -0.024148129 -0.010006594
-0.01986693 0.04338341 0.045100395 0.11315101 0.73224074 -0.18127838 -0.05020058 -0.06403223
-0.052213915 -0.02309143 0.08364903 0.069746055 0.10904313 0.062448073 0.04873158 0.038200498
0.069674164 0.05274991 0.05509103 0.059415225 0.070584364 0.024029488 0.0794927 -0.05084512
-0.03895307 -0.018379577 -0.051221445 -0.036810912 -0.037472866 -0.069794476 -0.0698219 -0.050399896
-0.030423451 0.24718128 0.61148244 -0.09268444 -0.04082701 0.016127666 -0.036973353 -0.03331359
-0.055548966 -0.05205506 -0.064383194 -0.056444056 -0.067772746 -0.04632474 -0.057882003 -0.04565218
0.03617845 0.032973852 0.029515212 0.05277154 0.01964754 0.040140096 -0.009864537 0.04843079
0.03374708 0.03159406 0.030167157 0.06133508 0.060217205 0.03196882 0.026802365 0.39465362
0.75917286 -0.10899892 0.021800313 -0.01967654 0.025732923 0.020146336 0.045915615 0.04860286
0.027530378 0.046973426 0.024510391 0.036190614 0.06480155 0.058933876 0.08379502 0.10476175

encoder_mean.0.bias f4 [20]
00000000: c030 dab3 6e96 3035 4d59 8d36 aad5 0837
00000010: 6224 48b6 5ed4 fdb6 20b2 23b7 690a 89b7
00000020: 60e2 3534 fcd6 93b6 5421 59b5 7532 02b8
00000030: 841e ce35 44b2 e235 9c31 a935 3e02 0d36
00000040: aa9e 9d35 2487 fc35 570a c535 a55d 1e36
-1.01602836e-07 6.5784013e-07 4.2125234e-06 8.155979e-06 -2.98235e-06 -7.5647104e-06 -9.75703e-06 -1.633652e-05
1.6939293e-07 -4.405969e-06 -8.08873e-07 -3.1041407e-05 1.5357077e-06 1.6890194e-06 1.260592e-06 2.1011942e-06
1.1743589e-06 1.8814794e-06 1.4680653e-06 2.3598343e-06

encoder_mean.1.weight f4 [20]
00000000: ae6e 203e 5e45 3c3e 3bf6 fa3e 8654 1b3f
00000010: f8d8 113f be19 193f 5812 003f 0f87 273f
00000020: 7026 f03e 0d60 e13e 512d ec3e b92d 233f
00000030: 1e36 153f 3443 103f 2242 ed3e 9c37 cb3e
00000040: 1eee b13e 5165 603e ff65 aa3e cde3 c43e
0.15667221 0.18385836 0.49015984 0.6067585 0.56971693 0.59804904 0.5002799 0.6544046
0.46904325 0.44018593 0.46128324 0.6374164 0.582857 0.56352544 0.46339518 0.39690864
0.34751981 0.21913649 0.33280942 0.38455048

encoder_mean.1.bias f4 [20]
00000000: 9529 4abe bba6 e6bd 38ba 95bd e334 80be
00000010: 5c20 0abf 943a f2bb 204a 293d 21d8 ad3d
00000020: 9dc2 96bc 0acf a93d 82b8 7bbe 4b57 b6be
00000030: 1cf0 903e ddec f6be fa3c f9bc ba22 90be
00000040: 421f 84be 5427 f6bd e0f9 ecbc df28 f5be
-0.19742425 -0.1126227 -0.07310909 -0.2504035 -0.53955626 -0.007392237 0.041330457 0.08488489
-0.018403346 0.08291443 -0.24582103 -0.35613474 0.2830819 -0.48227587 -0.030424584 -0.28151494
-0.25805098 -0.1201922 -0.028927743 -0.47882745

encoder_mean.1.running_mean f4 [20]
00000000: 89f3 87be 7768 0ebd 8088 613e 3216 7cbe
00000010: d09a 16bf b168 fb3e 05ee 873e 74c6 093f
00000020: 43e9 2f3e 4ba9 c3bd d043 a63d e697 9f3e
00000030: 5b20 243e cad8 233d 4f03 0fbf 7c55 01bf
00000040: 3e10 93be c2e7 2fbe 8b11 10be e252 4bbe
-0.2655299 -0.034767594 0.22024727 -0.24617842 -0.58829975 0.4910331 0.26548782 0.5381844
0.17178826 -0.095537744 0.08118403 0.31170577 0.16027968 0.040001668 -0.55864424 -0.50521064
-0.2872333 -0.17178252 -0.14069192 -0.19855836

encoder_mean.1.running_var f4 [20]
00000000: a719 d13c adfb cf3c 3f52 8a3c dd79 e83c
00000010: 7f7a cc3c 723d ed3c c3d5 d23c c1e3 b73c
00000020: d152 573d c17f f23c 9ad1 ee3c 82fb cd3c
00000030: 4433 6b3c 6f69 af3c 9b18 e83c e128 d43c
00000040: e11e 893c afa9 1a3c 4a66 c93c 3049 f23c
0.025524927 0.025388563 0.016884921 0.028378421 0.024960754 0.028959963 0.025736695 0.022447469
0.052569214 0.029601933 0.02915268 0.025144342 0.014355484 0.02141258 0.028332045 0.025898399
0.016738357 0.00943987 0.024584908 0.029575914

encoder_mean.4.weight f4 [16, 20]
00000000: 5a9d 15bb 5710 0c3d 58a5 efbd 5a62 033e
00000010: aa81 113e 5bad 16be f085 abbd 454d d5bd
00000020: e248 ddbd 19bd 693d b24b 0abe ea1b 6bbd
00000030: 87bf c6bd 09e5 ee3d 209e a53d 3495 573d
00000040: 74c6 d63d 1294 543d 1243 843d acff 78bd
00000050: 997c 413d 9a45 a6bd 82e1 843e 7584 973d
00000060: 710e 3b3c 91a9 37be a99f 783e 1fb7 7cbc
00000070: 228b 6e3e 2c75 3cbe 8599 e13b 8f81 04be
00000080: af75 06be 5016 233c abff f1bc ef30 c1bd
00000090: d414 f9bd 2399 2bbc a9df 33bd ad9b 6d3e
000000a0: 7dcd 48bc 5aba d53c 68f1 a2bc ba3e 9a3d
000000b0: 906f 72be ae3e a4bd 88a4 0cbd 56ea 5fbd
000000c0: f311 44bd 547d d63c 6603 c43b af35 b93c
000000d0: 737d 0bbd 43e0 8abe 7116 f33d 67cb 1bbe
000000e0: 2a07 40be 154d 07be 22b8 cc3d cd2a eabc
000000f0: fecb 6fbc f918 2c3d 51e8 45be 3c3a 003e
00000100: 1b3d 773e 7216 16bd fdf0 fdbd b07e 29be
00000110: e853 0ebe de0d 8f3c 1e1e 9ebd c47b 7f3b
00000120: a8de 5bbe dc9e c83d 741e 8a3d d36a 873d
00000130: c902 763d c10d 833c 92a8 c23c cc5d 8dbd
00000140: c4c4 7f3d 7bfd 1f3c ca12 5abb a2e0 03be
00000150: aeb8 4cbd 727d c43c ca99 b6bc bedb 893e
00000160: f18e bf3c 0608 ffbd 4de5 803e 91ce 323e
00000170: ce40 a9ba a546 9abd fdc1 2fbe 3786 c5bd
00000180: e466 64bd b42a 703d 17b9 2bbe d972 9f3e
00000190: 80ab c1bd 4122 d2bd 3979 6cbd 98a6 32be
000001a0: 79fd 1a3e a51e 77be a841 f3bd 0a36 b6bd
000001b0: 7aad 8bbd 68d9 2b3c e4c7 a5bd c841 0cbd
000001c0: a857 77bd 6334 2f3e 1d23 65bd fe82 993b
000001d0: d813 b53d 99df d83d 79f5 013d e601 69bd
000001e0: 2767 2d3d bb84 cf3c 01d7 c33d 0d9f 383d
000001f0: ef8e b83b 96e0 c83e 2287 57bc 4fcb 0cbd
00000200: 9f61 ef3b 6f72 d9bd 0abe 963d d87b 903d
00000210: a4ce 973d 86bd 85bd faaf 963c 1a11 273d
00000220: dffa 64bc bc81 0ebc 7dbd cabc 633d 353e
00000230: a653 203d a907 1a3b fa79 cdbd 1f21 6d3e
00000240: 379d 213e ac04 f5bd a023 bebd b208 ddbd
00000250: b7aa fabd 4da1 5e3d ef0c b2bd b661 a6bd
00000260: 3964 d8bd 21d1 483d debc 233e 74d0 f23d
00000270: 4eca 7e3d e3fb d1bc ad5d bd3d ac42 e5bc
00000280: 5fc0 473d 2130 f93c 0292 ca3d b5e1 d0bd
00000290: 7662 26be 52dc 853d 3a61 6a3d 2031 8fbd
000002a0: b456 de3d 0b1b 5abe ae2c 1a3e 04b6 7f3e
000002b0: b0e1 083e 42c1 2cbe 0e40 a7bd 104c f6bd
000002c0: 2697 c6bd 3654 8fb9 9e8d 06be f660 d83c
000002d0: 6792 00bc f6fc df3c f5bf 48be f432 dc3d
000002e0: 5e1c 323e c573 75bc 8bc0 1ebe 7b98 4abe
000002f0: 72ab 4bbe 1763 203c dfb3 99bd fc57 d23d
00000300: 3389 49be 7cf0 e93d 05a8 bebc 9ebc 9c3d
00000310: 66ff 763d ff11 783d 9708 423d bfa3 c6bd
00000320: d50e 56bd 0ae5 8dbd 89ec 9d3d 2d59 fabd
00000330: 3c51 d4bd 9521 4c3e 96b2 233d fd1f 92bc
00000340: 5f7c 283d bc68 e6bd 45ad e13d 7123 a43e
00000350: f934 833d 9f8f 84be fac6 7bbe 6b5e 9bbd
00000360: 832b dabd 11a7 11bd 2f41 0fbe 575a 993c
00000370: 201f b8bd 8e02 22bd 663f 1cbe 8ea2 1bbe
00000380: 8620 ba3d 1acb 1c3d be5e 34be 9c47 40be
00000390: 60c3 e8bd ba06 073e e83d b43b 882f ba3d
000003a0: cd4e 83be da39 0d3e 69ef 38bd ad51 023e
000003b0: 250c 043e 6a1b 523d 884a 9a3d b383 fbbc
000003c0: 976b 8a3d 40e9 103d 3de7 ebbc fade 053d
000003d0: d2a3 f83d ea97 053d 8b9a 78bc 75bb 8dbc
000003e0: e845 b03c 6936 263e 07b8 59bd 4ab0 14bd
000003f0: 4570 853e 41fb 1e3e 21f0 133e 448a 4d3e
-0.0022829385 0.03419527 -0.11701459 0.12830487 0.14209619 -0.14714567 -0.08375156 -0.104151286
-0.10804917 0.057065103 -0.13505438 -0.057399668 -0.097045 0.11664779 0.080868006 0.052632526
0.10487071 0.051899023 0.06458105 -0.060790703 0.047237966 -0.08118744 0.259533 0.07398311
0.011417017 -0.17935778 0.24279656 -0.015424519 0.23295262 -0.18404073 0.006884756 -0.12940048
-0.1313083 0.00995405 -0.029540857 -0.094331615 -0.12162176 -0.010473522 -0.04391447 0.23203917
-0.0122560235 0.026089836 -0.019890502 0.075314954 -0.2367537 -0.08019768 -0.034336597 -0.05466684
-0.04786868 0.026182808 0.0059818504 0.022608606 -0.034055185 -0.27124223 0.11869515 -0.1521431
-0.18752733 -0.13212998 0.09996058 -0.028584862 -0.014636038 0.042016003 -0.19326903 0.12522215
0.24144404 -0.0366425 -0.123994805 -0.16552234 -0.13899195 0.017462667 -0.07720588 0.0038983682
-0.21471655 0.09795925 0.0674409 0.06612172 0.06006125 0.01599777 0.023762021 -0.06902656
0.06244351 0.009765024 -0.003327536 -0.1287866 -0.04998081 0.023985598 -0.02229013 0.26925462
0.02338359 -0.12452702 0.25174943 0.17461611 -0.001291299 -0.075330056 -0.17163844 -0.0964474
-0.055762187 0.058634475 -0.16769825 0.3114231 -0.09456539 -0.1026044 -0.057732794 -0.17446363
0.15135755 -0.24132784 -0.11877757 -0.08897026 -0.068201974 0.010488845 -0.08094767 -0.03424242
-0.06038633 0.17109828 -0.05594169 0.004684805 0.088416755 0.10589523 0.03172824 -0.056886576
0.042334702 0.025331846 0.09562493 0.045073558 0.0056322734 0.39233845 -0.013154777 -0.034373578
0.0073053385 -0.106175296 0.07360466 0.07054871 0.074124604 -0.06530289 0.018394459 0.040787794
-0.013975828 -0.008697923 -0.024748558 0.17699198 0.039142273 0.00235031 -0.10033031 0.23157166
0.15782629 -0.11963782 -0.09284139 -0.10792674 -0.122395925 0.054353047 -0.08693873 -0.08124106
-0.10565991 0.049027566 0.15990016 0.118561655 0.06220465 -0.025632804 0.09246383 -0.027985893
0.048767444 0.030418457 0.0989113 -0.101993 -0.16248497 0.065361634 0.05722163 -0.06991792
0.10856381 -0.21299379 0.15056106 0.24971777 0.13367343 -0.16870597 -0.08166514 -0.120262265
-0.09696798 -0.00027337827 -0.1313996 0.026413422 -0.007847405 0.0273423 -0.19604476 0.10751906
0.17393634 -0.014981215 -0.15503137 -0.19784729 -0.1988962 0.00978925 -0.07505011 0.10270688
-0.19681244 0.11422822 -0.023273477 0.076531634 0.06030216 0.060564037 0.047371473 -0.09699201
-0.05226024 -0.06928451 0.07711131 -0.1222404 -0.10367057 0.19934686 0.039965235 -0.017837519
0.041134235 -0.11250445 0.11019377 0.3205829 0.06406588 -0.25890824 -0.24587622 -0.07586368
-0.106528305 -0.035559718 -0.1398971 0.018719835 -0.089903116 -0.039553218 -0.1525856 -0.15198728
0.090882346 0.03827963 -0.17614266 -0.18777317 -0.1136539 0.1318616 0.005500544 0.09091097
-0.25646058 0.137916 -0.045150194 0.1272647 0.12895258 0.051295675 0.07533747 -0.030702448
0.067588024 0.035378695 -0.028796786 0.03268335 0.12140621 0.03261558 -0.015173565 -0.0173013
0.021517709 0.16231693 -0.053154018 -0.036300935 0.26062217 0.15525533 0.1444707 0.20072275

encoder_mean.4.bias f4 [16]
00000000: 9038 2fb6 4131 84b6 2706 c636 20f3 ea34
00000010: 58cb 7834 5bbd 8b36 3aec 5336 75ad 2836
00000020: d9d3 1536 9490 2837 ea02 7fb6 5fa6 2136
00000030: ef71 f435 3782 14b6 04f6 6735 80e2 9fb5
-2.6109956e-06 -3.9396405e-06 5.901576e-06 4.3762793e-07 2.3170776e-07 4.1645667e-06 3.1578952e-06 2.5134916e-06
2.2326042e-06 1.00472425e-05 -3.7999657e-06 2.408771e-06 1.8212576e-06 -2.2129514e-06 8.6412206e-07 -1.1912343e-06

encoder_mean.5.weight f4 [16]
00000000: 4571 e33e d226 e03e 5617 ba3e 24d3 1a3f
00000010: b344 2e3f a356 113f ff72 043f 89d7 073f
00000020: e0ec 273f 2ec9 1c3f 2752 1f3f 8a59 223f
00000030: 188c bf3e 19f5 0d3f 1740 e33e 1874 113f
0.44422355 0.43779618 0.3634593 0.60478425 0.68073577 0.5677282 0.5173797 0.53063256
0.6559582 0.61244476 0.6223473 0.63417876 0.3741157 0.55452114 0.44384834 0.5681777

encoder_mean.5.bias f4 [16]
00000000: e366 58bd 877c b1be e27b 71bd 3664 73be
00000010: 3f22 a1bb 613e 2fbe 6a9c 9fbe 631f 95bd
00000020: d21e 4bbd 7077 8fbe afd9 963c cf53 bcbe
00000030: 950f 12be ea97 bf3d 27b7 3ebe 0be5 2ebe
-0.052832495 -0.3466532 -0.058956034 -0.23768696 -0.0049174125 -0.1711364 -0.31174022 -0.07281377
-0.04958994 -0.2802081 0.018414347 -0.3678269 -0.14263757 0.09355147 -0.18624555 -0.1707956

encoder_mean.5.running_mean f4 [16]
00000000: 9b8c c9bd a598 cfbc 8d0e 6ebd 5bc8 35be
00000010: fb94 163d a613 3abe d66c 153e 0605 98bd
00000020: e53f f93c d36b 41be 7e57 8f3c 747c 38be
00000030: 8521 593e e26b 803d 2d34 dabd 5703 07be
-0.098412715 -0.025341341 -0.058119345 -0.17752211 0.036763173 -0.18171558 0.14592299 -0.07422833
0.030425975 -0.18888788 0.017497774 -0.18016225 0.21204193 0.06270577 -0.10654483 -0.13184868

encoder_mean.5.running_var f4 [16]
00000000: 1b58 ee3d b740 a83c 1bdc 883c b33c 233e
00000010: eaad ff3d 3da0 913d 7082 be3d 6426 063e
00000020: 4cbd 083e 0ece 0f3e 6105 173e 6069 e73d
00000030: 4632 ed3c a14c 1b3e 995b 713d a34f 0f3e
0.116378985 0.020538671 0.016706517 0.15941124 0.12484343 0.07110641 0.09302223 0.13100582
0.13353461 0.14043447 0.14748146 0.112993956 0.028954636 0.1516595 0.058925245 0.13995223

encoder_mean.8.weight f4 [14, 16]
00000000: fe37 5bbe 1989 bb3d 1de4 6cbe f0a5 c5bd
00000010: f6cb bd3d 09ff f4bd 52f9 7bbe 6604 3fbe
00000020: b18f 9a3d f3c5 f6bd 5992 d83d eb18 2bbd
00000030: 5630 04be fa93 ec3d 8daf 64bd 7a18 48be
00000040: 0410 133e 9ebb b2bc ffea 7e3d dca8 093e
00000050: 1e72 cbbd 484c 843d 46ae a8bd c895 1f3e
00000060: 560a a9bd d656 043e 8959 f0bd deb7 263e
00000070: 4d90 793d 647a efbd a4a0 f63c 5c64 123e
00000080: 8220 133e 380a 81bd 181e 733d f678 613d
00000090: f9be 21be eb04 1c3e 47d8 ee3c 81b2 a53d
000000a0: e9b4 3ebe 9dff a43d ae62 47be d49b 8c3d
000000b0: d733 00bd ff30 2ebe 4918 fa3c 9f3c a43d
000000c0: b42c 6bbd cb2e 1b3e b4ab 1d3d 49d4 12be
000000d0: 5778 3dbe 102d d83b 30f5 a03e 60d8 15be
000000e0: 9885 1abd 30b8 6fbc 70e4 223d b85f 47bc
000000f0: 4ffe 2a3e b625 8b3d fae8 94ba 5389 b7bc
00000100: 2d6c 7dbe 64fb f73d 9821 38be 20aa 38be
00000110: 6cd8 b63d f021 01be 97d7 593c 11eb 89be
00000120: ee71 f93d 5cfa a9bd e2f5 803d 5ee9 70bd
00000130: 1eef 783d b6e1 b83d 9164 89bd 4f92 2bbe
00000140: 7711 903b cd6d c4bd 9900 afbc 9407 6fbe
00000150: 38d8 a0bd 2cf8 893e 02ee a53c 1f95 dabd
00000160: 6c3d 16be 3ba6 85be df02 dbbd 5a2e 3abe
00000170: 9a11 f03d 6c89 b3bd 70a1 58be 1f17 22be
00000180: 1672 bfbd 22c6 bbbd b3b4 7dbe 5599 14be
00000190: 3c12 073b c704 fcbc 17a0 74be 5569 87bd
000001a0: 7e33 cfbd 2f77 48be f860 b7bd 2bc3 10be
000001b0: ac79 323d a77f 27bd 99f1 00be 6596 d7bd
000001c0: 8eea 6f3d 3973 29bd 6007 7d3c b3fc ef3d
000001d0: 7afb 1bbe 9390 d13d 5022 13bd ad4d d53d
000001e0: edcb c3bd e5d7 3f3e afaa 4dbe 61a9 783e
000001f0: 1abe bdbc 8f31 41be 5293 913c 689a d23d
00000200: 6c9e 7d3d 2a32 c4bd be7e 6dbe 3f00 883d
00000210: a2d2 003f 8f27 7e3e c79d 08be 4a55 e03c
00000220: 5f4c 12be f6a6 1c3e cb98 1cbe 8070 2a3e
00000230: e59a ba3d f876 f3bd 8766 063e b01a 3e3d
00000240: 6f6d 62be b3b8 c03b 9920 1dbe 7073 39be
00000250: 41b1 a93d 125a f0bd b62c 0abe 27d0 7cbe
00000260: ac41 373e cf06 ccbd 64dd 0b3e 2e8e adbd
00000270: 1694 c43c 8528 a13d 41e0 8cbd 0491 87be
00000280: 92e9 163d 7fc9 4bbc 505b a2bd 7187 513e
00000290: 6b02 80bd 614b 583c f47a b83b ef2d ccbb
000002a0: d7df c3bd a2b1 173e 2847 0bbe f7b6 943e
000002b0: 8f75 ed3d 5b5c 1fbe a8cc 653e 64b1 ce3d
000002c0: b185 523c 8c2c 843e e5bd df3a 3475 c1bd
000002d0: 7265 fc3b 61ab d53c 6506 b93d e33f efbd
000002e0: 550c 343e 7fe8 323d ae62 a13d 013c 313c
000002f0: bc05 2d3e f6da da3d b718 053d be81 6ebd
00000300: 9731 e8bc a7a4 513e 778d c53d f045 b43c
00000310: 3e57 1b3e 314e afbb 05d6 583d 8ed2 1ebb
00000320: 7a37 f63d 3bc2 733b e734 403e 57c8 31bd
00000330: 78a6 693e 65c7 aa3b 67f1 193d e3a0 bfbc
00000340: 1d91 77bc 64e4 22be 068c 403d a3fb 14be
00000350: 583a 5dbd bd07 943d b718 09be ee25 50bd
00000360: 2ffa 1ebe 2498 12be a552 11be efbb 80be
00000370: 4ef7 e2bd 778e 9bbd d4a8 52be 6294 91bd
-0.21408078 0.09157009 -0.23133893 -0.09650791 0.09267418 -0.119627066 -0.24606827 -0.18654022
0.07546938 -0.120494746 0.105747886 -0.04177181 -0.12909064 0.11551662 -0.05583148 -0.19540587
0.14361578 -0.021817978 0.06223583 0.13443321 -0.099338755 0.06459862 -0.08236365 0.15584481
-0.082539245 0.1292375 -0.117358275 0.16281077 0.06092863 -0.11693266 0.030105896 0.14296097
0.1436787 -0.06300777 0.05935487 0.055046998 -0.15795507 0.15236251 0.029155863 0.080906875
-0.18623699 0.08056567 -0.19471237 0.06865659 -0.03129944 -0.17010878 0.030529158 0.08019375
-0.05741568 0.15154569 0.038493827 -0.14338793 -0.18502937 0.0065971687 0.31437063 -0.14633322
-0.03772506 -0.014631316 0.039768636 -0.012168817 0.16698574 0.06794302 -0.0011360936 -0.022404348
-0.24748297 0.12108496 -0.17981565 -0.18033648 0.08927998 -0.12610602 0.0132960295 -0.26937154
0.121799335 -0.082997054 0.062968984 -0.058816306 0.060774915 0.09027426 -0.06708635 -0.16755031
0.004396613 -0.09591255 -0.02136259 -0.23342735 -0.078537405 0.26947153 0.020255093 -0.10672974
-0.14671868 -0.26103386 -0.10693907 -0.18181744 0.11722107 -0.087664455 -0.21155334 -0.15829132
-0.09347932 -0.0916865 -0.24775963 -0.14511617 0.0020610234 -0.030763997 -0.23889194 -0.06611887
-0.10117243 -0.19576715 -0.08954042 -0.1413695 0.043573067 -0.040893223 -0.12592162 -0.10526732
0.0585733 -0.04136965 0.015443653 0.117181204 -0.1523265 0.102326535 -0.035921395 0.10415206
-0.0956038 0.18734701 -0.20084642 0.24283363 -0.023161937 -0.18866561 0.017770443 0.10283357
0.06191866 -0.095798805 -0.2319288 0.06640672 0.503214 0.24819778 -0.13341437 0.027384419
-0.14286946 0.15298066 -0.15292661 0.16644478 0.09111575 -0.11887926 0.13125049 0.04641217
-0.22112058 0.005881393 -0.15344466 -0.18110442 0.082857616 -0.117359295 -0.13493618 -0.24688779
0.17896146 -0.09962236 0.13658673 -0.08474384 0.023996394 0.078690566 -0.068787105 -0.26477826
0.036843844 -0.012438177 -0.07927573 0.20461823 -0.06250461 0.0132015655 0.0056298915 -0.0062310616
-0.095641784 0.14813855 -0.13601363 0.2904584 0.11594688 -0.15562575 0.22441351 0.10092428
0.012849257 0.25815237 0.0017070143 -0.09446183 0.007702523 0.026082696 0.09034423 -0.11682107
0.1758283 0.043678757 0.0788015 0.010817529 0.16896719 0.10686295 0.032494273 -0.0582292
-0.028343959 0.20472966 0.09646123 0.022006005 0.15169999 -0.0053498973 0.05293848 -0.0024234387
0.120223 0.0037194628 0.1877018 -0.04340395 0.22817409 0.005211758 0.037583735 -0.023392146
-0.015110281 -0.15907437 0.047008537 -0.14549117 -0.05401072 0.072280385 -0.13388334 -0.050817423
-0.15525125 -0.1431585 -0.14191683 -0.25143382 -0.11082326 -0.075955324 -0.20572215 -0.0710838

encoder_mean.8.bias f4 [14]
00000000: 52f4 14b6 ead4 e9b5 1d9d 7a35 48fb 8b36
00000010: 9c72 0c36 071c 9eb6 672e 8835 a287 9435
00000020: 9718 2436 6955 ba36 b079 19b4 23e4 1736
00000030: 9342 bc36 0a65 a0b5
-2.2195932e-06 -1.7421819e-06 9.336089e-07 4.171776e-06 2.0928337e-06 -4.7120297e-06 1.0146294e-06 1.1066334e-06
2.4452218e-06 5.553175e-06 -1.4293505e-07 2.2633546e-06 5.610587e-06 -1.1950335e-06

encoder_mean.9.weight f4 [14]
00000000: b9d1 173f 89e9 003f f474 1d3f a7a3 c83e
00000010: d774 203f f8e5 3d3f da2f 1a3f 1f8f 183f
00000020: 76fc 1c3f 902a 203f 5de1 053f b70e e43e
00000030: 905e f33e ef43 273f
0.59304386 0.50356346 0.6150658 0.39187357 0.62678283 0.7417903 0.60229266 0.59593385
0.61322725 0.62564945 0.52297 0.44542477 0.47533083 0.65338033

encoder_mean.9.bias f4 [14]
00000000: ce58 c0bc 90f6 b73d b2b9 a2bb 6a8a 94bd
00000010: 2ec1 af3d d80f a0be 3c4a 66bd 6f98 dcbc
00000020: 7620 203d 23cf ca3d ad03 1d3c 3b1f 2fbe
00000030: 11cf 3cbe fbbd fabc
-0.023479845 0.08982575 -0.0049659843 -0.07252963 0.08581768 -0.31262088 -0.05622314 -0.026928155
0.039093457 0.099027894 0.009583396 -0.17101757 -0.18438365 -0.030608168

encoder_mean.9.running_mean f4 [14]
00000000: 24c0 c5bd 8f47 003c e74e bebd b845 9cbc
00000010: 854f 92bd c2a3 37be 81d8 49be a4c4 8dbd
00000020: 894e 903d 8105 91bd 3490 72bc ad61 cc3d
00000030: dee4 173e 4867 4bbe
-0.096557885 0.007829561 -0.09292393 -0.019076213 -0.071440734 -0.17933562 -0.19711496 -0.06922272
0.070462294 -0.07081128 -0.0148048885 0.09979568 0.148334 -0.19863617

encoder_mean.9.running_var f4 [14]
00000000: 6070 953d 7f2e cf3d 15ec 1d3e 1c7b a63c
00000010: e698 ef3d 2a05 2f3d 5e8b 213d 6361 163e
00000020: 3928 0d3d ea0c f83d b2c1 ad3d 85fd 973d
00000030: 7e74 a53d c380 a13d
0.072968245 0.1011629 0.1542209 0.020322375 0.11699085 0.042729534 0.03943955 0.14685588
0.034462187 0.12111838 0.0848421 0.07421402 0.0807886 0.078858875

encoder_mean.12.weight f4 [12, 14]
00000000: 8d0a 0c3d 9266 05bd f5c8 c2bd 6501 213e
00000010: 33df 953d 2f8e 52be d0f2 8fbe 90df 273c
00000020: 01ec 863e b930 b0bc cb0d 12be ff3f 483d
00000030: 1999 8f3d 06e4 94be 4777 74be c5c0 543d
00000040: b66d 193e e010 8ebd 494c 50be 8e0d 71be
00000050: 059b 3cbe b43e af3d 5658 4a3e 3d0c 38be
00000060: bc61 c13d 3cca 6abd 6dda de3c d681 fabd
00000070: a92d 013c 8cf8 9bbd 47be d3bd 2130 2a3e
00000080: 26e7 d03c ae24 61be 7cf1 6dbe 8d62 05be
00000090: a8a4 303e 1273 4a3d 0dd4 a6bd f86b d03d
000000a0: 7786 ab3d 3cca 8fbe 194a 06be 578b b5bc
000000b0: d3a3 ce3d 5190 e9bd c530 b0bd 73a5 c33e
000000c0: 9806 d93d 1a23 d53c d150 44be d86b a8bd
000000d0: 715f 17be 7250 b6bc a86e 813d 0878 c43d
000000e0: 2b12 98be 46c5 933d ce11 fd3c 2fa2 64bd
000000f0: c3a0 87be d1f9 52be fb7d 16be d493 ca3d
00000100: 4c20 d13d 7a7a 86be be53 1a3e e053 cabc
00000110: 7589 1a3c 5da3 e4bd 78d5 833d 7465 7abe
00000120: e259 7cbe 44f4 58bd 1814 9a3d 96d3 03be
00000130: ad50 1e3c 9e2c 9abe 41cb 083d a81b 2d3d
00000140: 280f 59be 82bc 16be 425f 0fbe 79fc dcbd
00000150: 4c55 a33d 31f8 9c3d bc52 f33d 7a96 9b3d
00000160: 6004 be3d 654c a7be fe1f b0be 17c2 d03d
00000170: 5c22 d03d c1c0 1c3d ec29 2d3e a805 803d
00000180: 2d7f 163d d864 babe 814f 8dbe b596 c03d
00000190: 6274 9f3d f808 41bd 484f 90be b09d 3fbe
000001a0: c69d 1dbd aeb9 993d b81d e83c 8512 93be
000001b0: 789c c43d f8ba 893d db99 7dba c1e3 9cbc
000001c0: 7586 4b3d fd96 62be bda6 9cbe 1ccf 083e
000001d0: 1b4a aabc e563 2bbe 83e3 c3bd 93dd 88be
000001e0: 2dd0 f73d 2c82 4c3c cac5 3bbe f750 fb3d
000001f0: 46ff 853d a7c2 1fbe 4172 c43d 10a7 36be
00000200: 7f26 4cbe 0212 a6bd a188 023d 8e97 6cbe
00000210: b784 e63d 5773 63be a6cc f93c e874 fb3c
00000220: 939e f5bd 6a3f 67be e986 63be 0f9a 36bd
00000230: 1185 70be fc2d 813d 8e78 103d fb7a a2bd
00000240: 6877 77be 9bb5 5dbe 4e5b cbbd 8dc2 ca3d
00000250: c5c2 883d 1e64 64be df64 f13d 85ab 053d
00000260: e01a ddbc 2d51 27bd 6316 a6bd 24df 19be
00000270: 6329 34be 5dea ae3d 8c39 313d 34a6 23be
00000280: 2cc0 1cbe 24e2 24be c9f8 fa3d 085c 0c3e
00000290: e557 b9bd 8c32 4a3e 4b70 473e 85e8 3cbe
0.03418975 -0.03256852 -0.09510986 0.15723188 0.073179625 -0.20562051 -0.2811494 0.010246173
0.26351932 -0.021507608 -0.14263074 0.048889156 0.07011623 -0.29080218 -0.23873626 0.05194165
0.14983258 -0.069368124 -0.203416 -0.23540327 -0.1841851 0.085568815 0.1976026 -0.17973419
0.094424695 -0.057321772 0.027203763 -0.122317955 0.007884421 -0.07615766 -0.10339027 0.16619922
0.025500845 -0.21986648 -0.2323665 -0.13025875 0.17250311 0.049426146 -0.08145914 0.101768434
0.083752565 -0.2808398 -0.13114204 -0.022161169 0.10089841 -0.11404479 -0.08603052 0.38212165
0.10596961 0.026017714 -0.19171454 -0.082236946 -0.14782502 -0.022255156 0.06319934 0.09593207
-0.2970136 0.07215361 0.030892279 -0.055818733 -0.2648984 -0.2060311 -0.14696495 0.09891477
0.10211238 -0.26265317 0.15071008 -0.024698198 0.009432186 -0.111639716 0.064372 -0.24452764
-0.24643663 -0.052967325 0.07523364 -0.12873682 0.009662789 -0.30112165 0.033396963 0.042262703
-0.21197188 -0.14720348 -0.14001182 -0.10790343 0.079752535 0.07664526 0.11881015 0.075970605
0.09278178 -0.32675472 -0.34399408 0.1019327 0.101628035 0.038269762 0.16910523 0.06251079
0.036742378 -0.36405063 -0.2759972 0.09403745 0.0778587 -0.047127694 -0.28185487 -0.18712497
-0.038480543 0.07506119 0.028334484 -0.28725067 0.096001565 0.067251146 -0.00096741103 -0.01915157
0.049688775 -0.2212791 -0.3059596 0.13360256 -0.02078729 -0.16737325 -0.09564879 -0.26731548
0.12100253 0.012482207 -0.1833717 0.12271302 0.0654283 -0.15601598 0.09592105 -0.17837167
-0.1993656 -0.081089035 0.03186858 -0.23104689 0.11255782 -0.22211967 0.030493092 0.030695394
-0.11993136 -0.22582784 -0.22219433 -0.044580515 -0.23488261 0.06307599 0.03527122 -0.07933613
-0.24166644 -0.21651308 -0.09929524 0.09900389 0.06677774 -0.22303817 0.11786818 0.032634277
-0.026990354 -0.0408489 -0.08109739 -0.15026528 -0.17593913 0.08540795 0.04326777 -0.1598137
-0.15307683 -0.16101891 0.12254483 0.13706982 -0.09049968 0.19745845 0.1947643 -0.18448074

encoder_mean.12.bias f4 [12]
00000000: 3e54 03b5 8d93 a6b5 6aa0 36b6 1aa1 14b5
00000010: 7afa 5136 263b 0436 6c50 5333 44e6 a5b4
00000020: 365d 7336 abf7 0ab7 cb1f 72b6 991f e134
-4.892389e-07 -1.2410907e-06 -2.7213487e-06 -5.536873e-07 3.1289223e-06 1.9703962e-06 4.920041e-08 -3.0901185e-07
3.6264078e-06 -8.283106e-06 -3.6079316e-06 4.1932506e-07

encoder_mean.13.weight f4 [12]
00000000: 643d 613f 0040 5c3f fa73 543f 061d 8f3f
00000010: 1ca6 783f 7c20 813f e27a 733f 44e5 773f
00000020: 9ed1 653f 3626 933f 898b 633f a104 543f
0.879843 0.86035156 0.82989466 1.1180732 0.9712846 1.0088038 0.9510938 0.96834207
0.89772975 1.1496036 0.8888479 0.82819563

encoder_mean.13.bias f4 [12]
00000000: 19e2 913d 3380 613e e4b1 973d bd3f 833e
00000010: 8b3e f63d 3d4f c13c 9218 8c3e c6d7 2c3e
00000020: 04bf 2c3d 5549 97bc 81e3 363e e928 f03d
0.07123203 0.2202156 0.07406977 0.25634566 0.12023648 0.023597354 0.27362496 0.16879186
0.042174354 -0.018467585 0.17860223 0.11726553

encoder_mean.13.running_mean f4 [12]
00000000: 64f5 c4bd 78ad 10be 889e 02be 092c 3bbd
00000010: 5811 5bbe 5d30 75be 6cf5 35bc cfaf 36be
00000020: 626a 63be 1c86 42be 5282 2cbe 9717 dcbd
-0.09617117 -0.14128673 -0.12755787 -0.045696292 -0.21393335 -0.2394423 -0.011105876 -0.17840503
-0.2220855 -0.18996471 -0.16846588 -0.10746687

encoder_mean.13.running_var f4 [12]
00000000: f51e 8b3d 4201 0d3e 91d4 803d bc2f 783d
00000010: df70 273e f63c a73d 1f6d d53d 1d99 133e
00000020: 1afe ac3d 2697 623d d13d ef3d 69cd c83d
0.06793014 0.13770011 0.06290544 0.060592398 0.1635165 0.08165924 0.10421204 0.14413877
0.084469035 0.055319928 0.116817124 0.09804804

encoder_mean.16.weight f4 [10, 12]
00000000: c88d 38bb 54be 8d3b 43f6 d0bb 85e1 053c
00000010: 1f8a bc3b 7dd0 48bb be70 f9ba c8f7 03bc
00000020: cb05 33bc ac58 e93b dd29 003c 8e67 78bb
00000030: 4343 d0bd 275b 41bd 5d5a 073d 7e6f 0dbf
00000040: 9088 2cbe 5f6e 253f 50d0 86bc 381b c7be
00000050: 42ea ae3e 4d7c 3c3f f9db 6cbe bd8f 2b3c
00000060: acd2 933c 14d5 e33b 7833 2abd 3dec 963a
00000070: 7a1e 93bc 7d0a 943d 62bc d43a 2fff 20bd
00000080: a572 90bb 62a3 eebc a481 203d 693f cf3c
00000090: 5047 fdbd a6eb 47be 7c7c 41be f8fd 393f
000000a0: 6ac6 10be 1725 47be 1383 c9be 5bc7 c93d
000000b0: 3a2f 92be 4c7d 58be 7492 32bc 0db2 06be
000000c0: 1a64 8fba 092d 303a 5548 6c3b 2462 703c
000000d0: bbd6 02bc d1fa df3b 7a29 e8bb 1732 abbc
000000e0: 9978 f13c 77d8 b93c 6400 41bc 7547 4c3c
000000f0: 523e 993a 020e 53bc b9ba 49bc 1032 94bc
00000100: a020 27bc 3d44 f93b ef01 eb3c bc56 42ba
00000110: 38a8 6b3c 64f8 babc 4d7e 58bc 708b 08bc
00000120: 4b86 f7be 3eb2 3bbe 63df d4be c1a2 3c3f
00000130: 0946 3abe 489c 3d3e 26d2 37bf 1856 ffbc
00000140: 2534 bcbe 7787 943e 9ba7 18be bbc0 bbbe
00000150: 2ed0 3cbe 68d8 0d3e 2c25 c1bd f8bf 18be
00000160: 27ef 443e 14ab 853e f9c6 a6bd e43b 56be
00000170: e745 db3d 0e28 9d3e a399 2f3c d6e0 15be
00000180: 26d7 dbbe a482 d23e daf5 fcbe 610e e43c
00000190: 7504 e93e 9ea7 42be c049 51be e21a b13e
000001a0: 15da b0be be85 f03d aa0b eb3e ce58 f2be
000001b0: 744f 2e3e 124c 1c3f 400e c83d 0b13 5bbe
000001c0: 07f7 213f cf60 10bf 6970 a43e 2c4a 193f
000001d0: aa37 adbe ce1f 0fbf affa 203f d5cd f3bd
-0.002816068 0.0043256674 -0.006377013 0.008171444 0.00575377 -0.0030641847 -0.0019030792 -0.008054681
-0.010926674 0.007121166 0.007822481 -0.003790352 -0.10169079 -0.04720607 0.03304516 -0.5524825
-0.1684897 0.6462154 -0.016456753 -0.38887954 0.341631 0.7362717 -0.23130788 0.010471282
0.018044792 0.006952891 -0.04155299 0.0011514496 -0.017958868 0.07228563 0.0016230459 -0.039305862
-0.004408198 -0.029130641 0.039186135 0.025298791 -0.123671174 -0.19523486 -0.18895143 0.7265315
-0.14138189 -0.19447742 -0.39357814 0.09852477 -0.28551656 -0.21141547 -0.010899175 -0.13153858
-0.0010939867 0.0006720578 0.0036053855 0.014671836 -0.007985766 0.0068353196 -0.0070850225 -0.020897908
0.02947645 0.022686226 -0.011779878 0.012468209 0.0011691547 -0.012881758 -0.012312585 -0.018090278
-0.0102006495 0.0076070116 0.028687445 -0.0007413437 0.014383368 -0.02282352 -0.013213706 -0.008334026
-0.48344645 -0.18329713 -0.4157668 0.7368584 -0.18190779 0.18516648 -0.71805036 -0.031168982
-0.36758533 0.290096 -0.14907686 -0.3667048 -0.18438789 0.13852084 -0.09430918 -0.1491698
0.19231854 0.26107085 -0.0814342 -0.20921284 0.10706692 0.30694622 0.010717782 -0.1463655
-0.42937583 0.41115296 -0.4940632 0.027838888 0.45511213 -0.19009253 -0.2043829 0.34590822
-0.34541383 0.11744259 0.45907336 -0.47333378 0.17022496 0.61053574 0.09768343 -0.21393983
0.6326756 -0.5639772 0.32117012 0.598788 -0.3383153 -0.55907905 0.6288251 -0.11904494

encoder_mean.16.bias f4 [10]
00000000: f40a 28bb 894c 793d 5fa5 19bc 683e 913e
00000010: d80e d3bb 0dc9 3f3c 4d15 073f abdc 0bbd
00000020: dce8 2abd 3333 1ebf
-0.0025641294 0.060864005 -0.009377806 0.28367925 -0.0064409785 0.011705649 0.5276688 -0.034145992
-0.04172598 -0.61796874

encoder_var.0.weight f4 [20, 30]
00000000: 0c2e 80b9 2a0e b23a 6900 c7ba 55a3 053b
00000010: 88d4 9ebb b68b 283b 6c3d c2ba 8b29 ffb9
00000020: 9fd9 cfba f89c 1c3a 20df 043a 36b2 f6b9
00000030: 6f18 753b adb3 cf3a 687a 98ba 00ba 85bb
00000040: e84d dcb8 da49 3e3a b4ec 6bb9 655f 65ba
00000050: b1e1 c83a 58ef 9fba 9029 07b9 0644 373b
00000060: 8c5d d4ba 3016 ac38 f0c0 f6b8 2ccd 043b
00000070: be8c 0bbb 21f5 553b 76e9 c53a 7fa0 85ba
00000080: 8df0 0d3a 7aae a3b7 6aca 0f39 c57c c2b8
00000090: 073d b739 ef61 bf39 1d38 0f39 a256 2c39
000000a0: cf36 b6b9 d8c5 1fb9 f7c7 5eba 7084 3539
000000b0: 26ed deb6 2a20 2a37 76fc 97b8 ba46 d6b7
000000c0: 4d9c 3c3a e6ea 82ba 5012 6738 5b0c 1f3a
000000d0: 80d1 a4b7 d243 9439 a044 45ba af0e 2a3a
000000e0: a6b8 28ba ba6c 4439 453b 4eb9 d369 8d3a
000000f0: f712 97b6 243c 8836 0426 2c37 18a2 3d36
00000100: 3d3c 40b7 4012 a036 2ad9 f8b6 8fd4 adb6
00000110: 2dca a235 6f08 b436 318f 74b6 0f07 91b5
00000120: 2e85 0436 989c 9b35 4b33 8834 65da 82b6
00000130: 2b4a f6b5 fc77 7636 fa60 a7b5 8881 4e36
00000140: d599 1436 b47d ee36 6ec2 5eb6 116d ec34
00000150: 3e15 49b6 8c3f 0436 a988 cbb5 eb51 eb36
00000160: 61a7 f7b6 14c4 e6b6 a11a a7bc 485d 50bd
00000170: 430b f8bb d007 bc3c 9466 473a 7f79 17bc
00000180: ee0a a0ba b42a bf3b a9ec 2cbc 440e 0abc
00000190: 1e94 64bb c451 5cbb 65c7 453c 67fd 983b
000001a0: 64ca d4bb 501f 4abb 2113 44bc b0d0 643c
000001b0: 439d 383b e65b 34bc 2258 b03c b857 9039
000001c0: c9be ddba cec9 793c 9bcc 08bc 9e5b 36bb
000001d0: 7c38 343b 2a15 a23b fed4 a4bb 4295 94bb
000001e0: fce2 adbb c146 f2bc fffe d1bb f9c6 3b3c
000001f0: 55d3 04bb b4af 06ba baad e53a 79aa 41ba
00000200: 5824 a5bb 6c73 43bb c9ec ffba 4401 2c3b
00000210: 0c1d 8c3b b50c 033b ec60 aaba bfbf b3bb
00000220: 0dd0 fdba 6f73 823b 538b 8d3b f468 bbbb
00000230: 1332 373c c0b0 913b 0000 28b9 578d c1ba
00000240: 7d2f 5cbb 1e93 3abb 5a3a 393b 732d 3a3b
00000250: 4048 33bb 6cb7 58bb de78 17bb 3174 95bb
00000260: f62a e6ba 984a a33b ec09 36ba 6b4b 8eba
00000270: 7063 7db9 9140 923a a19d d0ba 9044 1bbb
00000280: 1c60 6dba fcda 933a bdeb bdb9 4ab5 da3a
00000290: 819a 61b9 bafb a3ba 8e13 9c3a be23 2c3a
000002a0: 2713 033b 540b 4cbb 9dc1 8e3b 445e 9b39
000002b0: 1707 303a 3101 66b9 e565 07ba 5597 13bb
000002c0: d64f 073b ac38 3c3b 7f57 4dbb ecd3 dabb
000002d0: 5b80 ee36 2723 5837 cd22 9434 b40e 0536
000002e0: 5e3c 80b5 e43e 90b4 ff49 b4b6 92a4 d6b5
000002f0: f222 4ab5 5ba3 0637 fe9b 8635 68d3 2a35
00000300: 3875 2037 27b9 27b5 ce50 bb35 78da b536
00000310: d92d 84b5 1261 df36 089c 45b6 979a 1036
00000320: 4b8c 6436 7532 70b5 55f3 beb5 9767 4e36
00000330: c455 27b5 4971 f035 a37d 0db6 1964 0037
00000340: eafc 20b7 16e4 2135 50df ceb3 b28a 27b7
00000350: a6ab 3b35 961a 2537 ad52 7cb6 a695 cb35
00000360: 9eb3 4435 8f8e a934 3b17 5e35 c14f 3a36
00000370: 04d8 e034 41eb d134 21ae 3fb6 afe4 3236
00000380: 3ab6 12b6 b50e 0137 1db7 1635 345a e936
00000390: efad ea35 7021 0837 f087 1a37 4c4c 82b6
000003a0: cd6f 1d37 72bc f136 4423 d6b5 ef9d dd36
000003b0: 9d7c f0b6 120e 9bb5 e8a9 c635 724a 82b4
000003c0: 59ea 9fb7 b6d2 9735 a756 3536 fb73 9634
000003d0: d4bc ceb6 3410 0536 64e9 6bb5 f6b7 f8b6
000003e0: ea39 9636 9b2f a2b6 0133 fe35 ac4c 34b5
000003f0: 4304 27b5 20a9 e636 c2f0 56b7 8715 fc36
-0.0002444837 0.0013584543 -0.0015182617 0.0020391543 -0.004847113 0.002571804 -0.001481933 -0.00048668342
-0.0015857703 0.0005974318 0.00050686486 -0.00047053554 0.0037398597 0.0015846394 -0.001163316 -0.004081011
-0.00010504929 0.00072589295 -0.00022499525 -0.00087498716 0.001532605 -0.0012202067 -0.00012890087 0.002796413
-0.0016202196 8.205732e-05 -0.000117661315 0.0020263894 -0.0021293606 0.003264733 0.0015099484 -0.0010194926
0.0005414568 -1.9512361e-05 0.00013712948 -9.273881e-05 0.0003494995 0.00036503325 0.00013658447 0.00016435471
-0.0003475458 -0.00015237124 -0.0008498425 0.00017310842 -6.6437233e-06 1.0140278e-05 -7.2472656e-05 -2.5543723e-05
0.00071949215 -0.0009988218 5.5091747e-05 0.000606721 -1.964788e-05 0.0002827929 -0.00075251795 0.00064871734
-0.0006436206 0.0001873252 -0.0001966777 0.0010788984 -4.5023585e-06 4.060117e-06 1.026085e-05 2.8257546e-06
-1.1458117e-05 4.770496e-06 -7.416257e-06 -5.180547e-06 1.2128781e-06 5.3654e-06 -3.6442182e-06 -1.0805396e-06
1.9747054e-06 1.1593975e-06 2.5369295e-07 -3.8997264e-06 -1.8350014e-06 3.6726697e-06 -1.2470693e-06 3.077179e-06
2.214326e-06 7.1075865e-06 -3.319375e-06 4.4037782e-07 -2.9963699e-06 1.9706522e-06 -1.5164452e-06 7.0130823e-06
-7.380659e-06 -6.8773606e-06 -0.02039844 -0.05087021 -0.007569702 0.022952944 0.0007606533 -0.0092452755
-0.0012210289 0.005833948 -0.010554471 -0.008426253 -0.0034878324 -0.0033618072 0.012071465 0.00466888
-0.0064938534 -0.0030841418 -0.011967451 0.013965771 0.0028169907 -0.011008238 0.0215264 0.00027531176
-0.001691782 0.015245868 -0.008349563 -0.0027825604 0.0027499488 0.0049463706 -0.0050302735 -0.0045343945
-0.0053065997 -0.029574754 -0.0064085717 0.011461013 -0.0020267565 -0.0005137876 0.0017523088 -0.0007387768
-0.005039733 -0.0029823435 -0.0019525524 0.0026245872 0.0042759236 0.0019996588 -0.0012998856 -0.0054855044
-0.0019364372 0.003981046 0.0043195873 -0.0057192985 0.011181372 0.004446119 -0.00016021729 -0.0014766854
-0.003359764 -0.0028469036 0.002826354 0.0028408438 -0.0027356297 -0.0033068312 -0.0023112814 -0.0045609702
-0.0017560411 0.0049832575 -0.00069442275 -0.0010856217 -0.00024165004 0.0011158158 -0.0015916118 -0.002369199
-0.0009055154 0.0011280472 -0.00036224528 0.0016686108 -0.0002151523 -0.0012510933 0.0011907683 0.00065666053
0.002000043 -0.0031134682 0.0043565766 0.00029634137 0.00067149237 -0.00021934953 -0.0005165025 -0.002252062
0.002064695 0.0028720303 -0.003133267 -0.006678095 7.1078953e-06 1.2882788e-05 2.759247e-07 1.9827103e-06
-9.554312e-07 -2.686785e-07 -5.3730323e-06 -1.5992139e-06 -7.5301716e-07 8.025057e-06 1.0029178e-06 6.363757e-07
9.564035e-06 -6.248178e-07 1.3956103e-06 5.4196535e-06 -9.84811e-07 6.6572184e-06 -2.944611e-06 2.1547655e-06
3.4056309e-06 -8.948039e-07 -1.4226922e-06 3.075669e-06 -6.2337153e-07 1.7914364e-06 -2.1083767e-06 7.6527e-06
-9.595629e-06 6.030908e-07 -9.633243e-08 -9.986268e-06 6.991271e-07 9.840956e-06 -3.759905e-06 1.5168232e-06
7.327707e-07 3.1582428e-07 8.273525e-07 2.7762583e-06 4.1880423e-07 3.9100453e-07 -2.8562574e-06 2.6657178e-06
-2.1861765e-06 7.692423e-06 5.614582e-07 6.954442e-06 1.748498e-06 8.114017e-06 9.210766e-06 -3.883184e-06
9.38396e-06 7.2042976e-06 -1.5954506e-06 6.604699e-06 -7.1670643e-06 -1.1552495e-06 1.4801599e-06 -2.4268553e-07
-1.9063404e-05 1.1311702e-06 2.702154e-06 2.8024064e-07 -6.161261e-06 1.9827976e-06 -8.788395e-07 -7.412392e-06
4.4770904e-06 -4.8335182e-06 1.8939319e-06 -6.71668e-07 -6.221855e-07 6.874223e-06 -1.281145e-05 7.5126914e-06

encoder_var.0.bias f4 [20]
00000000: b82a a8b2 14be de30 456b 8830 2d5d 43b2
00000010: 6d57 52b2 8626 fab1 7083 f12e 0836 cfb1
00000020: 48e9 eab1 488c 81b3 38d9 bc31 8726 a231
00000030: 0633 12b2 dd3d eeb2 a87c 9f31 138a 2030
00000040: 5b35 ccaf 1aed 7eb2 ea51 7931 56e9 8eb1
-1.95772e-08 1.6206649e-09 9.92579e-10 -1.137168e-08 -1.2243487e-08 -7.280337e-09 1.0982759e-10 -6.0306355e-09
-6.8368173e-09 -6.0325476e-08 5.496215e-09 4.7192006e-09 -8.50992e-09 -2.7734979e-08 4.641681e-09 5.8403876e-10
-3.7145295e-10 -1.48386565e-08 3.6280832e-09 -4.159271e-09

encoder_var.1.weight f4 [20]
00000000: 74d8 4c3c a0d7 17ba 28c5 74b7 0af3 ee3c
00000010: f940 993c b7c4 f83b d8c1 0536 caef 8ab7
00000020: b3b1 dfb7 1b43 323d 4c48 d63b 4262 4a39
00000030: 3b3e 683d 3b2b 7a3c 6ff3 f9b5 d595 0eb7
00000040: ecb7 8037 4f9c 453c d329 dd3b b81c 1537
0.012502778 -0.00057923235 -1.4589437e-05 0.029168624 0.01870774 0.0075918096 1.9931376e-06 -1.6562542e-05
-2.666642e-05 0.043521028 0.00653938 0.00019300825 0.056699973 0.015269096 -1.8622794e-06 -8.498745e-06
1.5344434e-05 0.012061193 0.0067493706 8.887779e-06

encoder_var.1.bias f4 [20]
00000000: f603 8e3b 7c3a 023a 81fa a6b6 e0f8 46bc
00000010: 6082 bdb9 693b 963b 60a0 7db5 8805 b437
00000020: b864 3137 689c d63c e20c cd3b 161d cfb7
00000030: 74ac 7d3b b8b5 a2bb d60c f8b5 2d7e f536
00000040: f14d d2b7 4413 343a 04bb 363b fd08 8536
0.0043339683 0.00049678213 -4.976348e-06 -0.012144297 -0.00036146026 0.004584719 -9.448322e-07 2.1460248e-05
1.05734725e-05 0.026197627 0.0062576393 -2.4689867e-05 0.0038707526 -0.00496551 -1.8481176e-06 7.316258e-06
-2.5070245e-05 0.0006869326 0.0027882466 3.9647553e-06

encoder_var.1.running_mean f4 [20]
00000000: 58b9 6bbb 2ab9 ca3a 843d 3935 2281 f6bc
00000010: 4db6 a6bc 76ce 28bc cd1f 2137 d879 0a37
00000020: a016 adb6 dd7d 64bd fae8 963b 7ce3 9c38
00000030: 2ec8 34bd a51d 05bd 40a4 0ab6 a0c8 55b8
00000040: 96ab 89b7 d79d 0a3c f0cf 993b bd02 37b4
-0.0035968628 0.001546656 6.900739e-07 -0.030090872 -0.0203506 -0.01030313 9.603752e-06 8.25381e-06
-5.1584357e-06 -0.055784095 0.0046054097 7.481032e-05 -0.04413622 -0.032498974 -2.0659209e-06 -5.0970004e-05
-1.6411574e-05 0.0084604835 0.0046939775 -1.70442e-07

encoder_var.1.running_var f4 [20]
00000000: 4cd5 4c39 e7ef 0e37 e3de dc30 c269 d339
00000010: 1cbf fc38 2f45 6838 3eca 2f31 cd09 0132
00000020: 4f52 7131 e7b8 b139 318b 8137 e72b 6332
00000030: 53b9 a339 e6b2 8539 69d5 5f30 653a f132
00000040: ca39 8231 d4a0 ee38 16e6 8637 2063 5b31
0.00019534415 8.519716e-06 1.6070455e-09 0.00040323852 0.00012051893 5.5377543e-05 2.5580813e-09 7.511017e-09
3.5116903e-09 0.00033897834 1.5442814e-05 1.3223121e-08 0.0003122786 0.00025501027 8.14302e-10 2.8082647e-08
3.790068e-09 0.00011378681 1.6081187e-05 3.192504e-09

encoder_var.4.weight f4 [16, 20]
00000000: 923c 2d39 777a 36b9 daff 60b7 cc91 873b
00000010: a009 b73a d206 b63a 06ea 08b6 165a 2d36
00000020: 6a99 623a f2cc dc3b 36e8 01ba d49a 6e37
00000030: cc28 d73b a0b8 af3a 0d49 5fb6 3aff 1c36
00000040: 05cf 2537 8649 80ba a9bf 07ba 06c7 b7b5
00000050: c7a7 653b 8aa0 c938 f6ad c7b6 6761 4d3c
00000060: 883a 0b3c 17c0 303b 0f64 8836 97c4 0736
00000070: 672d 24b6 5c17 ae3c 22b0 7ebb 520e 7637
00000080: b734 ee3c e93a e03b 1c35 0036 b0a8 e036
00000090: 506a 1a35 4ce3 a7bb 3fe3 39bb 8657 05b4
000000a0: c05f 1439 76b0 18b9 bbe2 17b6 8502 873b
000000b0: 994f 1e3b 59d9 5c3a 72bb 2db5 543d 2eb6
000000c0: 1eb5 dab5 df61 c43b c181 39ba b4dc acb5
000000d0: d7dc 0b3c bacd 9b3a ba16 6435 5601 46b7
000000e0: baa0 e335 0204 fcba 0f32 49ba e1c4 3eb5
000000f0: 5e13 4139 8468 06b9 92f8 a436 9e0e 24ba
00000100: a1e3 8538 26ae cc38 1b14 46b7 4b10 55b5
00000110: 9751 88b5 eeb8 4739 b514 8cb8 6812 1033
00000120: 943c 4338 e377 e638 d297 8133 e843 2bb6
00000130: cd73 c8b6 e869 24b8 a29f 33b8 25ba 35b6
00000140: e283 9136 6cc3 2e36 f08f deb2 bfef 0e36
00000150: d4c2 e535 e21c 35b6 094d 8736 cb9a 5d35
00000160: 3ac2 a2b6 376c 1237 a8f3 57b6 557a 9a35
00000170: cad8 4237 386e ef36 3619 0c34 1a8a 9a34
00000180: 1299 24b5 be00 4d36 5f51 4db6 e48a 5133
00000190: 3201 c8b6 a70f aab7 ac16 ffb4 c463 f736
000001a0: 38cd bcb6 467b a736 1a6f 58b5 5b29 61b4
000001b0: 1238 f7b5 f1e6 44b7 5cbf f6b4 16eb d0b5
000001c0: e03d beb6 890f 1eb7 fba1 4735 cbd6 86b6
000001d0: 1d15 cdb5 1aa4 dcb5 efe6 1f35 b28e 5fb4
000001e0: b968 8d3b fb87 ceb8 fd13 8a36 88d7 823c
000001f0: 3224 193c e0f4 8c3b 0b70 1bb7 5a26 a136
00000200: 5c18 a935 a26d 9d3c c0ad 87bb e570 cf37
00000210: 982a d63c e501 793b 8a65 3d34 6443 0f36
00000220: 9c29 9037 b37f 05bc d779 60bb adab 5437
00000230: 0a3b 5639 464c 8fb8 a73e 91b5 4749 ff37
00000240: fbd0 54b6 0dcd 9a37 cc25 05b7 6f47 a935
00000250: 244d 26b5 adbb 8739 3f70 18b8 baad d235
00000260: f82c 2538 8c05 aeb5 7532 7eb5 815c 5ab7
00000270: 9c49 2cb6 8af6 bab7 9e74 abb7 b9af 21b6
00000280: 18bc a636 a955 5db6 1d81 2036 ca12 9536
00000290: 3612 8735 6c95 5db7 ca64 9534 bf36 57b6
000002a0: 958e 3836 75bb 04b9 e060 6833 988d 25b5
000002b0: 7da3 7737 dde3 8a35 4a76 c035 c9a2 1eb7
000002c0: fc0a e636 e7c3 45b5 a485 efb3 a3d1 6336
000002d0: 516b 503b d2b9 623a 4544 58b6 0147 3e3c
000002e0: d67e 1d3c 50b5 113b 301b 7c36 3d6d a4b6
000002f0: e4ad b436 5e70 983c 1d09 29bb 1f99 a537
00000300: 34a3 c43c 2628 15bb 97c0 5cb6 f1bd 8737
00000310: b90a 0ab6 1809 abbb ab0d feba f5a3 34b5
00000320: 13c4 15b6 bcfa d834 cb41 5cb5 04f9 9835
00000330: 8505 4435 85bc 62b5 b86c 4eb5 c4ca 3335
00000340: 292b 5c36 58d2 3837 62a1 8835 b3d7 aab5
00000350: 6e6b 18b7 21ec ddb6 6605 1fb6 f61e c736
00000360: 1453 aab5 322f 9834 ae61 bcb3 5029 c135
00000370: de5d 59b7 2fa1 27b7 98c3 a6b5 f811 f933
00000380: b497 dc35 0090 8736 282b 88b6 3ca2 9d34
00000390: b4ed 9db5 441d aeb6 705a 98b6 127b f3b5
000003a0: 416e b5b5 76d4 f735 3ad0 efb3 3c2e 81b5
000003b0: 8a11 2fb5 46fe 8336 6a74 b036 41f9 82b5
000003c0: 5138 8a3b d93d b7b9 3c5c b4b6 5f8b 633c
000003d0: 1033 393c 6f3c 843b 1672 8eb6 a1af eb35
000003e0: d366 0537 7aa1 b33c 1436 86bb 702c 3737
000003f0: 46e3 f43c 5fb7 013c 305d 21b6 ec4c a3b6
0.0001652113 -0.00017402494 -1.34110105e-05 0.0041372534 0.001396466 0.0013887531 -2.0401799e-06 2.5831446e-06
0.00086440763 0.0067382986 -0.00049555616 1.4221954e-05 0.0065661427 0.0013406463 -3.327211e-06 2.3394373e-06
9.882967e-06 -0.0009787537 -0.0005178401 -1.3692486e-06 0.003504263 9.6143296e-05 -5.950914e-06 0.01253543
0.008497842 0.0026969963 4.064764e-06 2.0230998e-06 -2.4464332e-06 0.021251373 -0.0038862308 1.4666077e-05
0.02907787 0.00684296 1.91044e-06 6.695358e-06 5.7524176e-07 -0.0051235314 -0.002836421 -1.2418431e-07
0.0001415005 -0.00014561586 -2.2632728e-06 0.0041201734 0.002415633 0.00084247213 -6.472029e-07 -2.5963718e-06
-1.6294978e-06 0.0059931125 -0.0007076525 -1.2879232e-06 0.008536539 0.0011886873 8.496969e-07 -1.1802031e-05
1.6959596e-06 -0.0019227269 -0.0007675001 -7.106701e-07 0.00018413129 -0.00012818171 4.9165183e-06 -0.00062582816
6.3843334e-05 9.759916e-05 -1.1806401e-05 -7.937239e-07 -1.0156535e-06 0.0001904701 -6.679577e-05 3.3544353e-08
4.654804e-05 0.00010989585 6.0346466e-08 -2.5520512e-06 -5.9739455e-06 -3.919928e-05 -4.2825595e-05 -2.7079452e-06
4.33669e-06 2.604177e-06 -2.5909657e-08 2.12992e-06 1.7118532e-06 -2.6987914e-06 4.0322816e-06 8.255417e-07
-4.850587e-06 8.727474e-06 -3.2179323e-06 1.1509497e-06 1.1613776e-05 7.135586e-06 1.3047688e-07 2.8785217e-07
-6.131751e-07 3.0547812e-06 -3.0594745e-06 4.8787925e-08 -5.9606036e-06 -2.0272868e-05 -4.7513947e-07 7.372788e-06
-5.626727e-06 4.9913388e-06 -8.0627944e-07 -2.0969803e-07 -1.8419253e-06 -1.1736281e-05 -4.5960303e-07 -1.5565627e-06
-5.6696445e-06 -9.421151e-06 7.436899e-07 -4.0185164e-06 -1.5279835e-06 -1.6439037e-06 5.956817e-07 -2.0820406e-07
0.0043154624 -9.848174e-05 4.1150474e-06 0.015971914 0.009347009 0.0043016523 -9.264807e-06 4.8026386e-06
1.2598571e-06 0.019217316 -0.0041405857 2.4728894e-05 0.026143357 0.0037995514 1.7638936e-07 2.1347887e-06
1.7185514e-05 -0.008148122 -0.003425231 1.2676156e-05 0.00020430624 -6.8329784e-05 -1.0821576e-06 3.0432491e-05
-3.1712104e-06 1.8453715e-05 -7.936218e-06 1.2612271e-06 -6.1952073e-07 0.00025889036 -3.634416e-05 1.569678e-06
3.9380946e-05 -1.2965625e-06 -9.46958e-07 -1.301535e-05 -2.5672844e-06 -2.2287732e-05 -2.0439093e-05 -2.4093154e-06
4.9690825e-06 -3.2981427e-06 2.3917012e-06 4.4427334e-06 1.0063584e-06 -1.32074165e-05 2.7826746e-07 -3.2069363e-06
2.750113e-06 -0.00012658334 5.4104817e-08 -6.1673336e-07 1.4760412e-05 1.0348118e-06 1.4339541e-06 -9.455435e-06
6.855813e-06 -7.3673294e-07 -1.1153614e-07 3.394766e-06 0.0031802247 0.0008648905 -3.2226246e-06 0.011613608
0.00961276 0.0022233315 3.7566751e-06 -4.900298e-06 5.3846616e-06 0.018608268 -0.0025792785 1.9740835e-05
0.024003603 -0.0022759526 -3.2894657e-06 1.6181702e-05 -2.0569844e-06 -0.00521959 -0.0019382735 -6.7293814e-07
-2.231686e-06 4.0415568e-07 -8.205213e-07 1.1397356e-06 7.302372e-07 -8.446589e-07 -7.6899187e-07 6.697776e-07
3.2807677e-06 1.1016229e-05 1.0179758e-06 -1.2728764e-06 -9.084919e-06 -6.6138023e-06 -2.3695989e-06 5.9342665e-06
-1.2690166e-06 2.8346545e-07 -8.7722e-08 1.4391644e-06 -1.2956063e-05 -9.991504e-06 -1.2424889e-06 1.15982346e-07
1.6435429e-06 4.0400773e-06 -4.05814e-06 2.936157e-07 -1.1766592e-06 -5.189011e-06 -4.5404813e-06 -1.8140729e-06
-1.3517639e-06 1.8464768e-06 -1.1167181e-07 -9.624705e-07 -6.5218103e-07 3.9337056e-06 5.258761e-06 -9.758297e-07
0.004218139 -0.0003495056 -5.3751555e-06 0.013888209 0.011303678 0.0040355246 -4.245211e-06 1.7559979e-06
7.951358e-06 0.021927584 -0.004095802 1.0917996e-05 0.029893529 0.007917254 -2.4045112e-06 -4.8667334e-06

encoder_var.4.bias f4 [16]
00000000: f482 6232 4169 1bb4 39e6 e633 a8fe 9831
00000010: fc3e cf30 6033 ea2e b1ed 1b35 c69b c031
00000020: c4d7 c4b1 f227 b4b3 0df7 08b2 33c1 1c30
00000030: 5629 52b5 3076 e8b0 68c8 c030 5432 7ab1
1.3184707e-08 -1.4473791e-07 1.0752087e-07 4.4527333e-09 1.5079133e-09 1.0650214e-10 5.8087886e-07 5.605645e-09
-5.7288805e-09 -8.389169e-08 -7.972415e-09 5.702702e-10 -7.829125e-07 -1.6913813e-09 1.4026798e-09 -3.6408396e-09

encoder_var.5.weight f4 [16]
00000000: 8d90 423c 7451 303d 9c0b 793c bb85 3d3b
00000010: ed22 2b38 c3ca 7638 1dfa 323d a2df 033b
00000020: ec41 9639 ba5b 263d 3b60 8538 6091 1739
00000030: f181 3b3d 85c8 be36 0b38 eb3c 38d7 823a
0.011875284 0.04304643 0.015200522 0.002891882 4.0802104e-05 5.8839807e-05 0.043695558 0.002012231
0.00028659345 0.04061482 6.3598585e-05 0.00014454639 0.04577822 5.685785e-06 0.028713247 0.0009982353
