dice_ml/utils/sample_trained_models/adult-margin-0.165-validity_reg-42.0-epoch-25-base-gen.pth (torch_old, 35035 bytes, 78 tensors)

encoder_mean.0.weight f4 [20, 30]
-0.62450725 0.027489826 0.0002894132 0.05291823 0.004618819 0.005245526 0.051808048 0.047749028
0.0069921743 0.05376335 0.03095952 0.028101372 0.068730205 0.056558866 0.009303966 0.017543538
0.02833518 0.031963263 -0.015634902 0.033374447 0.017036233 0.055002265 0.040753417 0.03236115
0.043828104 0.013644672 0.035497546 0.055360258 0.04994745 0.07538174 0.6704438 -0.0008923122
0.047233175 0.08059474 0.03630745 0.052150954 0.017985035 0.003952789 -0.024229966 0.019586574
0.035703823 -0.00019860877 0.03317259 0.025243953 0.06484887 0.05879406 0.062451717 0.051202763
0.043563165 0.038083866 0.01861634 0.02219732 0.023661153 0.026647635 0.029169917 0.016652834
0.035332095 -0.016406888 -0.019982103 0.38113055 -0.31170818 -0.78877586 0.010691598 0.01875559
0.0024568315 -0.016204005 0.052800268 0.06983839 0.04943696 0.05263986 0.06747356 0.045498196
0.031942386 0.053494588 0.07551761 0.07324051 0.07526354 0.09210015 0.018216642 0.029576622
-0.032912288 0.021587698 0.012109715 0.024402592 0.021977073 0.014869393 0.018039888 0.07142959
0.092989594 0.028491853 0.64232075 -0.0039389115 -0.02831965 -0.05056092 -0.01677722 -0.019401135
0.061646804 0.06512832 0.044732414 0.062151268 0.05776122 0.046035085 0.06697606 0.05816011
-0.09146672 -0.09657253 -0.07726506 -0.08865758 -0.095854156 0.12123506 0.1549003 0.12809163
0.12148388 0.11699457 0.117263496 -0.038765628 -0.05103123 -0.051470138 -0.05500049 0.38239402
-0.4081808 -0.69479394 0.03212177 -0.006789027 0.041956395 0.033396717 0.042561054 0.026746253
0.017915836 0.052031696 0.073884316 0.080763 0.050959222 0.040865336 0.054485176 0.04396327
0.04638664 0.030104203 -0.007378962 0.041036714 0.09811668 0.046252567 0.050600093 0.051660098
0.04449772 0.07511428 0.065562345 0.066497035 0.043844305 0.13253511 -0.4266463 -0.35769972
-0.031885233 0.008683166 -0.013014294 0.019255687 -0.006910487 -0.016945688 -0.038368814 0.010398884
-0.0161714 -0.010410922 0.0057598474 -0.023923906 0.04570856 0.0074656666 0.07414617 0.007977944
0.022813983 0.059427988 0.012611574 0.06165183 0.058282785 0.083132066 0.049482264 0.03641438
0.013984763 0.003253416 -0.0063839327 0.061790448 -0.78378624 -0.013956655 0.021266576 -0.013952624
0.032113142 0.0040477887 -0.040530555 -0.059407994 -0.05098386 -0.04541923 -0.03446874 0.00253447
-0.055761963 -0.053244397 0.08402198 0.07489836 0.065804325 0.06978119 0.047615554 0.03307206
0.06259139 0.024551407 0.018690748 0.021716781 0.02728021 -0.08700447 -0.093904145 -0.008724727
-0.019234663 -0.19335105 0.24487996 -0.117232904 0.017197907 -0.014004385 -0.0318182 0.0036429828
0.0014397552 0.029903654 0.005102804 0.0054672756 -0.03712568 -0.016417865 0.04444842 -0.008952398
-4.8788585e-05 0.018054174 -0.030165648 -0.06700951 0.064812474 0.03392274 -0.007958372 -0.024822721
0.04545814 0.060589097 0.01753592 0.05925101 0.0070183733 -2.847526e-05 0.018883292 0.1946501
-0.58141446 -0.18472996 0.013674909 -0.061511993 0.020360798 0.006512974 0.017378686 0.02518451
0.0066214446 0.025505677 0.05428636 0.026356928 0.027346479 0.038682286 0.04120898 0.044325378
00000000: b5df 1fbf 5832 e13c 62bc 9739 c9c0 583d
00000010: 7659 973b a9e2 ab3b ad34 543d 7c94 433d
00000020: 9c1e e53b f536 5c3d d29e fd3c d934 e63c
00000030: 6cc2 8c3d 45aa 673d a96f 183c 77b7 8f3c
00000040: 2e1f e83c e9eb 023d c414 80bc a5b3 083d
00000050: 928f 8b3c 0e4a 613d 0eed 263d 208d 043d
00000060: 1985 333d e78d 5f3c e065 113d 70c1 623d
00000070: b395 4c3d be61 9a3d 34a2 2b3f 0fea 69ba
00000080: 9377 413d db0e a53d 1fb7 143d 3d9c 553d
00000090: 5a55 933c 6686 813b ec7d c6bc 0674 a03c
000000a0: 2c3e 123d a341 50b9 fbdf 073d 68cc ce3c
000000b0: 7ccf 843d 0ad2 703d 5fcd 7f3d fdb9 513d
000000c0: 4a6f 323d d4fd 1b3d 4b81 983c 27d7 b53c
000000d0: 09d5 c13c 244c da3c c0f5 ee3c 866b 883c
000000e0: 63b8 103d bd67 86bc 82b1 a3bc 8b23 c33e
000000f0: 3798 9fbe 37ed 49bf d02b 2f3c 53a5 993c
00000100: cb02 213b 43be 84bc 1845 583d 6e07 8f3d
00000110: 697e 4a3d e59c 573d 942f 8a3d 515c 3a3d
00000120: 05d6 023d 241d 5b3d faa8 9a3d 1fff 953d
00000130: c523 9a3d 019f bc3d 113b 953c ac4a f23c
00000140: 09cf 06bd afd8 b03c d367 463c f2e7 c73c
00000150: 4309 b43c c19e 733c 63c8 933c ad49 923d
00000160: 5471 be3d bf67 e93c 226f 243f fc11 81bb
00000170: 9cfe e7bc f818 4fbd 6170 89bc 21ef 9ebc
00000180: 5c81 7c3d ff61 853d 5639 373d 5492 7e3d
00000190: 0797 6c3d 498f 3c3d bf2a 893d 4c39 6e3d
000001a0: e752 bbbd d2c7 c5bd 253d 9ebd 1b92 b5bd
000001b0: 2f4f c4bd 164a f83d 2f9e 1e3e 742a 033e
000001c0: 8acc f83d d99a ef3d d827 f03d b5c8 1ebd
000001d0: 1f06 51bd 5ad2 52bd 3248 61bd 26c9 c33e
000001e0: 13fd d0be 04de 31bf 1e92 033d 7c76 debb
000001f0: 78da 2b3d ffca 083d 8054 2e3d f51a db3c
00000200: 3bc4 923c 301f 553d a950 973d 1267 a53d
00000210: 9eba 503d 6962 273d d92b 5f3d d412 343d
00000220: ebff 3d3d 179d f63c 38cb f1bb 1d16 283d
00000230: 66f1 c83d 5573 3d3d 0b42 4f3d 8a99 533d
00000240: 3e43 363d 84d5 993d 8d45 863d 992f 883d
00000250: 1696 333d 49b7 073e 6271 dabe 6b24 b7be
00000260: 179a 02bd d643 0e3c e839 55bc 1abe 9d3c
00000270: 5e71 e2bb afd1 8abc 9e28 1dbd 1560 2a3c
00000280: e279 84bc 9292 2abc 1abd bc3b 11fc c3bc
00000290: e638 3b3d 8da2 f43b f2d9 973d ecb5 023c
000002a0: 64e4 ba3c c36a 733d c6a0 4e3c a186 7c3d
000002b0: eeb9 6e3d 2541 aa3d eaad 4a3d 3f27 153d
000002c0: 5920 653c 4337 553b 4f30 d1bb fb17 7d3d
000002d0: 37a6 48bf 74aa 64bc 3e37 ae3c 8c99 64bc
000002e0: 1289 033d 50a3 843b 5e03 26bd cc55 73bd
000002f0: 74d4 50bd 8409 3abd 182f 0dbd 5a19 263b
00000300: a866 64bd cc16 5abd b713 ac3d 5064 993d
00000310: 6bc4 863d 71e9 8e3d 8708 433d 9276 073d
00000320: ea2f 803d 0820 c93c 571d 993c 64e7 b13c
00000330: bf7a df3c 662f b2bd d150 c0bd 28f2 0ebc
00000340: 0392 9dbc d1fd 45be d0c1 7a3e ce17 f0bd
00000350: a0e2 8c3c a672 65bc cd53 02bd 1cbf 6e3b
00000360: 2bb6 bc3a 82f8 f43c 6c35 a73b d526 b33b
00000370: 1911 18bd c27e 86bc 8c0f 363d 14ad 12bc
00000380: 58a2 4cb8 59e6 933c f31d f7bc 483c 89bd
00000390: 67bc 843d 92f2 0a3d d563 02bc 0559 cbbc
000003a0: 5132 3a3d 462c 783d 7da7 8f3c 30b1 723d
000003b0: 62fa e53b 28de eeb7 22b1 9a3c 5b52 473e
000003c0: 94d7 14bf da29 3dbe ba0c 603c 00f4 7bbd
000003d0: b0cb a63c c96a d53b bf5d 8e3c bf4f ce3c
000003e0: b4f8 d83b 48f1 d03c 605b 5e3d 7cea d73c
000003f0: b905 e03c 5171 1e3d bfca 283d 878e 353d

encoder_mean.0.bias f4 [20]
-8.267651e-06 3.6212261e-06 -4.3389173e-06 -1.3719453e-05 -4.471013e-06 -1.0710983e-06 5.1671545e-06 -1.5377151e-07
1.4358677e-06 -1.8644567e-05 4.695622e-07 2.2401396e-06 7.712569e-06 2.5343867e-05 2.0773751e-07 -9.862519e-06
5.858152e-06 5.0435665e-07 -9.554994e-07 -1.1323759e-06
00000000: 4ab5 0ab7 3104 7336 0497 91b6 9a2c 66b7
00000010: b605 96b6 a8c2 8fb5 8561 ad36 641c 25b4
00000020: 0ab8 c035 e766 9cb7 2318 fc34 4e55 1636
00000030: 3b65 0137 8a99 d437 740e 5f34 3277 25b7
00000040: 2491 c436 2063 0735 b63e 80b5 24fc 97b5

encoder_mean.1.weight f4 [20]
0.44605786 0.5306793 0.47565508 0.67731297 0.5995681 0.25285757 0.63581395 0.14313677
0.4024469 0.6668577 0.45678478 0.28461045 0.24179097 0.3538292 0.11033261 0.54105765
0.46186832 0.3542502 0.3657807 0.21791252
00000000: b261 e43e 99da 073f 1089 f33e 6264 2d3f
00000010: 4c7d 193f 8c76 813e b4c4 223f 7292 123e
00000020: 850d ce3e 30b7 2a3f b2df e93e 76b8 913e
00000030: 0d98 773e 1a29 b53e 10f6 e13d c182 0a3f
00000040: 017a ec3e 4860 b53e 9c47 bb3e 7624 5f3e

encoder_mean.1.bias f4 [20]
-0.06260615 0.27773216 -0.32175976 0.25766233 -0.4543867 0.124039404 -0.09437298 -0.05275906
-0.21221173 0.022324452 -0.54622334 -0.1376731 0.16050482 -0.23158647 -0.1745929 -0.36641484
0.03468596 0.20386308 -0.052195303 -0.23942828
00000000: a737 80bd e932 8e3e b2bd a4be 51ec 833e
00000010: 60a5 e8be 5f08 fe3d 9f46 c1bd e219 58bd
00000020: 084e 59be c5e1 b63c 4bd5 0bbf 2dfa 0cbe
00000030: 605b 243e 0125 6dbe 7bc8 32be ba9a bbbe
00000040: dd12 0e3d 7cc1 503e beca 55bd b02c 75be

encoder_mean.1.running_mean f4 [20]
0.12224239 0.69970757 -0.10054515 0.5033592 0.043410633 -0.101004034 -0.4332765 0.25229716
0.06263552 0.605036 0.06322795 -0.10476647 -0.35102397 -0.1719208 -0.13909288 -0.31372833
0.55063677 0.26695526 0.06162938 -0.29034474
00000000: 385a fa3d 0920 333f 9eea cdbd 26dc 003f
00000010: 59cf 313d 34db cebd 6bd6 ddbe 182d 813e
00000020: 0d47 803d a4e3 1a3f a87d 813d ce8f d6bd
00000030: 6ab9 b3be 020c 30be 5d6e 0ebe 00a1 a0be
00000040: 88f6 0c3f 5cae 883e 176f 7c3d 11a8 94be

encoder_mean.1.running_var f4 [20]
0.017240668 0.021701569 0.01580537 0.02020055 0.017830264 0.010072856 0.022823982 0.010350846
0.018092353 0.019426722 0.01652108 0.009611054 0.013613498 0.012153349 0.014249296 0.014290556
0.016099665 0.017401101 0.010677281 0.008461055
00000000: 4d3c 8d3c 7dc7 b13c 437a 813c a07b a53c
00000010: c610 923c 9f08 253c 5cf9 ba3c 9896 293c
00000020: 6a36 943c ca24 9f3c 3757 873c af77 1d3c
00000030: 260b 5f3c d71e 473c e175 693c f022 6a3c
00000040: 72e3 833c c18c 8e3c c3ef 2e3c 3da0 0a3c

encoder_mean.4.weight f4 [16, 20]
-0.026703551 -0.15991251 0.20217842 -0.23197648 0.09486971 0.05304822 -0.217651 -0.07061699
0.074821405 -0.06610265 0.08196725 0.015472511 0.06355286 0.17056423 0.041045815 0.13687761
-0.104136735 -0.123189926 -0.059352316 0.10583005 0.075696394 -0.052539647 -0.06928809 -0.043642197
0.051051367 0.048440352 0.091744736 -0.06439431 0.04709299 -0.15435357 -0.0345791 -0.019834641
0.09172262 -0.058273397 0.08795934 -0.023730021 -0.105250016 -0.060459297 -0.007604827 0.10845495
0.09002272 -0.012140455 -0.021601012 0.3302921 -0.035717793 -0.085645586 0.1167383 -0.01777632
0.05679064 -0.0032756394 0.21181367 0.011850439 -0.057022247 -0.037303288 0.010857294 -0.02849301
-0.08144148 -0.0439027 -0.0052108252 0.021115331 -0.26853055 -0.103930004 -0.017871406 -0.104155846
0.16310924 0.014525523 0.20004816 -0.030421447 -0.0048659462 -0.08781017 -0.015771456 -0.08067135
0.0786956 0.060909268 -0.0040184883 0.11171324 -0.013362501 -0.12450097 -0.09863135 -0.048522726
-0.09089894 0.0050316537 -0.11963002 -0.0038430532 -0.09339589 -0.17925942 -0.10934305 0.021047743
-0.077328525 0.37630102 0.28930953 0.036367383 -0.16545828 -0.15764722 -0.049236022 -0.07278284
0.049842756 0.0046040504 0.027439393 0.009246279 0.1048998 -0.16690865 0.020758236 -0.17172782
0.12598842 -0.00039919215 0.10058201 -0.013060043 0.09511521 -0.10490426 -0.073666096 -0.06849548
0.02958161 -0.018191112 0.030773928 0.11130277 -0.06618495 -0.11886913 -0.06660897 0.030181553
0.21615727 -0.15371905 0.0618042 -0.17616493 0.25572753 -0.037230264 0.07328514 -0.06668348
0.08758967 -0.1591779 -0.08242234 -0.053062964 -0.05066831 0.045747984 0.039521653 0.10176688
-0.074851796 -0.13337117 -0.08235805 0.093649805 0.0067545027 -0.13238393 0.17789328 -0.15017012
-0.09817896 0.018452425 0.15098754 -0.0646138 0.057884216 -0.21707158 0.12288174 -0.11678755
0.023347745 0.055250555 0.00026686318 0.1602479 -0.12476518 -0.21026671 -0.19420008 0.04467357
0.07203714 -0.2187786 0.094987206 -0.25348812 0.30457744 0.06528502 -0.01931771 -0.022951756
0.0697194 -0.23847373 0.097807385 -0.041312877 0.0019668029 0.172185 -0.024800312 0.1939596
-0.1787687 -0.19238296 -0.12602426 0.039001275 -0.14590243 0.0059188446 0.09653054 0.037625093
0.007829469 -0.009355393 -0.22925575 0.03411873 -0.16759077 0.08265816 -0.008717392 0.10236783
-0.07908039 0.048071906 -0.062164754 0.03728213 0.13788202 0.123352855 0.15623634 -0.13962425
-0.05335153 0.005055414 0.2877555 0.0031387517 -0.1169644 -0.0824835 0.038189024 -0.044723265
-0.042698503 -0.055427626 0.014879304 -0.038081355 0.08064847 -0.0028311883 0.09751925 -0.2023564
-0.06523576 -0.03653313 -0.04066044 0.027219545 0.03213672 0.47788852 -0.07973594 -0.074390434
-0.050436296 -0.019637778 0.007146886 -0.025319899 -0.0065873284 -0.0633077 0.16824889 4.355682e-05
-0.007705814 -0.03131637 -0.0013883933 -0.041065607 -0.086688876 -0.08972917 -0.038455006 0.022774624
-0.16520454 -0.034646828 -0.009267351 -0.06006434 0.019589653 -0.06463124 -0.17263223 0.061319444
-0.08044273 0.07343787 0.09160269 0.16265886 -0.13115452 0.0056083594 0.0009735368 0.040909782
00000000: 68c1 dabc 1bc0 23be dc07 4f3e 3e8b 6dbe
00000010: 0d4b c23d 1749 593d e7df 5ebe a49f 90bd
00000020: f73b 993d d360 87bd 72de a73d 6a80 7d3c
00000030: 0028 823d 64a8 2e3e a81f 283d a529 0c3e
00000040: a445 d5bd 004b fcbd 6a1b 73bd 6dbd d83d
00000050: b606 9b3d d033 57bd eae6 8dbd 29c2 32bd
00000060: 3d1b 513d 6469 463d aae4 bb3d 2ae1 83bd
00000070: 94e4 403d dd0e 1ebe d0a2 0dbd 427c a2bc
00000080: 12d9 bb3d 16b0 6ebd 0724 b43d 7665 c2bc
00000090: 528d d7bd 2ba4 77bd ea31 f9bb a11d de3d
000000a0: d55d b83d c2e8 46bc 9bf4 b0bc 0c1c a93e
000000b0: d24c 12bd f466 afbd 7d14 ef3d a59f 91bc
000000c0: 4d9d 683d 1cac 56bb afe5 583e 5828 423c
000000d0: 2990 69bd 55cb 18bd cbe2 313c 2c6a e9bc
000000e0: caca a6bd 51d3 33bd 92bf aabb 0ffa ac3c
000000f0: d67c 89be 41d9 d4bd 0e67 92bc a94f d5bd
00000100: 1c06 273e 76fc 6d3c 6dd9 4c3e 6636 f9bc
00000110: 8472 9fbb d2d5 b3bd 2433 81bc 0537 a5bd
00000120: 292b a13d ff7b 793d 86ad 83bb e9c9 e43d
00000130: 64ee 5abc 5dfa febd 3cff c9bd c4bf 46bd
00000140: 3929 babd 92e0 a43b 9500 f5bd bcdb 7bbb
00000150: 5846 bfbd c88f 37be 40ef dfbd 516c ac3c
00000160: 6b5e 9ebd 87aa c03e 6120 943e f7f5 143d
00000170: e56d 29be 466e 21be b6ab 49bd 2b0f 95bd
00000180: eb27 4c3d 93dd 963b 94c8 e03c b47d 173c
00000190: b5d5 d63d 1aea 2abe 2d0d aa3c 6bd9 2fbe
000001a0: 1c03 013e aa4a d1b9 f1fd cd3d caf9 55bc
000001b0: c3cb c23d 0bd8 d6bd 40de 96bd 5c47 8cbd
000001c0: 2255 f23c 8705 95bc 9b19 fc3c b5f2 e33d
000001d0: fa8b 87bd a971 f3bd 496a 88bd 4e3f f73c
000001e0: 5558 5d3e 8768 1dbe 6726 7d3d 9464 34be
000001f0: b8ee 823e c37e 18bd 8516 963d 5991 88bd
00000200: 3762 b33d 88ff 22be 0bcd a8bd 8d58 59bd
00000210: 9389 4fbd 3d62 3b3d 75e1 213d 276b d03d
00000220: e64b 99bd 7492 08be 56ab a8bd 78cb bf3d
00000230: e054 dd3b a78f 07be a829 363e 32c6 19be
00000240: 0d12 c9bd 8a29 973c 7a9c 1a3e 3d54 84bd
00000250: 0018 6d3d 0348 5ebe 6ca9 fb3d 502e efbd
00000260: c543 bf3c 684e 623d c5e9 8b39 0718 243e
00000270: e384 ffbd 2850 57be 63dc 46be a2fb 363d
00000280: 3588 933d 7f07 60be a788 c23d 32c9 81be
00000290: 93f1 9b3e 27b4 853d 2d40 9ebc 5205 bcbc
000002a0: 0bc9 8e3d 7532 74be 3d4f c83d b137 29bd
000002b0: 7ae5 003b 4451 303e 062a cbbc 589d 463e
000002c0: 240f 37be 0a00 45be 810c 01be cdbf 1f3d
000002d0: 7267 15be def2 c13b ceb1 c53d c51c 1a3d
000002e0: 2c47 003c 5d47 19bc 05c2 6abe 15c0 0b3d
000002f0: ea9c 2bbe ae48 a93d 64d3 0ebc 3aa6 d13d
00000300: e6f4 a1bd 0ce7 443d 78a0 7ebd 26b5 183d
00000310: f230 0d3e 6ca0 fc3d 6bfc 1f3e a9f9 0ebe
00000320: 2287 5abd e3a7 a53b b054 933e 84b3 4d3b
00000330: 088b efbd 1ced a8bd 186c 1c3d be2f 37bd
00000340: a0e4 2ebd 1408 63bd 53c8 733c 32fb 1bbd
00000350: 062b a53d 758b 39bb 2cb8 c73d 8436 4fbe
00000360: 539a 85bd c3a3 15bd 908b 26bd 86fb de3c
00000370: cba1 033d cead f43e 994c a3bd 035a 98bd
00000380: 4a96 4ebd 68df a0bc 6d30 ea3b ad6b cfbc
00000390: 84da d7bb 78a7 81bd 7049 2c3e c8b0 3638
000003a0: 0e81 fcbb 9845 00bd c0fa b5ba 6934 28bd
000003b0: f089 b1bd edc3 b7bd ff82 1dbd d991 ba3c
000003c0: 612b 29be d5e9 0dbd 16d6 17bc 0606 76bd
000003d0: 7b7a a03c 625d 84bd 81c6 30be 192a 7b3d
000003e0: 28bf a4bd 9866 963d 319a bb3d 0b90 263e
000003f0: 5f4d 06be 54c6 b73b f334 7f3a 0491 273d

encoder_mean.4.bias f4 [16]
6.857164e-07 -7.013093e-07 -3.1491193e-06 -1.5829007e-06 3.851196e-06 -1.896909e-07 -1.2046267e-07 -1.8212104e-06
-2.0092234e-06 -3.0029898e-06 -2.5781549e-06 -7.734145e-07 1.3334973e-06 -4.111712e-06 -7.3669736e-07 1.1198201e-06
00000000: 1212 3835 9c41 3cb5 7555 53b6 0e74 d4b5
00000010: 8639 8136 d6ad 4bb4 8758 01b4 5070 f4b5
00000020: 32d6 06b6 f986 49b6 5d04 2db6 a49c 4fb5
00000030: 9efa b235 56f7 89b6 75c1 45b5 ba4c 9635

encoder_mean.5.weight f4 [16]
0.5715684 0.33860284 0.37777954 0.44156295 0.66653126 0.54822046 0.63765764 0.6390883
0.7798248 0.51418984 0.2846792 0.41950646 0.5009074 0.51231253 0.39517614 0.3963491
00000000: 4f52 123f 5a5d ad3e 526c c13e 8a14 e23e
00000010: cba1 2a3f 2d58 0c3f 883d 233f 4a9b 233f
00000020: 99a2 473f f2a1 033f 79c1 913e 8dc9 d63e
00000030: 783b 003f ea26 033f 8754 ca3e 45ee ca3e

encoder_mean.5.bias f4 [16]
-0.30707565 -0.03159201 -0.23716454 -0.2460258 0.018105056 -0.23910344 -0.18104187 -0.0034531492
-0.15924709 0.0902254 -0.20668685 -0.20516805 0.04616035 -0.17512302 -0.0027069682 -0.16502012
00000000: 0539 9dbe a066 01bd 43db 72be 30ee 7bbe
00000010: 0e51 943c 88d7 74be 0a63 39be 3b4e 62bb
00000020: ab11 23be 18c8 b83d b8a5 53be 9317 52be
00000030: a312 3d3d 7353 33be 6467 31bb 09fb 28be

encoder_mean.5.running_mean f4 [16]
-0.21248884 -0.062940374 0.10816497 -0.111718886 -0.014393273 -0.14343345 -0.15409401 -0.2260995
-0.2515494 0.03068736 -0.047933646 0.07067081 0.01244559 -0.020971475 0.00944418 0.084409125
00000000: ad96 59be e2e6 80bd 9985 dd3d dfcc e4bd
00000010: c3d1 6bbc 38e0 12be d2ca 1dbe a186 67be
00000020: 15cb 80be 0f64 fb3c 1256 44bd dcbb 903d
00000030: 97e8 4b3c 5fcc abbc c3bb 1a3c b1de ac3d

encoder_mean.5.running_var f4 [16]
0.11119304 0.044442464 0.023390267 0.056187574 0.098113686 0.11980151 0.15127139 0.18412928
0.27275196 0.063007705 0.007609623 0.021221032 0.06576168 0.028545128 0.08771808 0.022147952
00000000: 2db9 e33d 4d09 363d f29c bf3c f124 663d
00000010: d4ef c83d 7e5a f53d e3e6 1a3e 638c 3c3e
00000020: 25a6 8b3e 2f0a 813d 255a f93b bbd7 ad3c
00000030: 0fae 863d 79d7 e93c 89a5 b33d 9f6f b53c

encoder_mean.8.weight f4 [14, 16]
0.19891746 0.028170994 -0.061748713 0.22685076 -0.14335996 -0.015610626 0.31087685 -0.15274858
0.049143814 -0.059710305 0.05372401 -0.026259035 -0.080391064 -0.015931906 -0.035499178 -0.0011703091
0.050940424 -0.22126552 -0.043829195 -0.112980776 0.007454307 -0.24528262 -0.122275665 -0.058021236
-0.045599576 0.09702396 -0.17760064 0.07922691 0.08211653 -0.042911235 0.06826927 0.07691331
0.16811907 0.023036849 0.024312522 0.15868287 -0.017821962 0.1961319 0.096717775 0.007687283
0.06601592 -0.1750372 0.06041112 -0.040198322 -0.07879747 0.011904458 -0.10053175 0.012729863
0.28619817 -0.03958778 -0.012940599 0.18789454 -0.0201867 0.09041872 0.09933162 0.15527436
0.0975132 -0.11256038 -0.05703761 -0.05685325 -0.099662766 0.015443946 -0.07163136 -0.026807722
-0.049023222 0.014344594 0.013542867 0.0667297 -0.14710677 0.036149055 0.071056224 0.10884993
-0.045897778 -0.12788343 0.03691983 -0.16240756 -0.17614058 -0.16783156 -0.16552204 -0.18891329
0.18653193 0.07097108 -0.05743812 0.17426154 -0.04431726 0.17224841 0.06188426 -0.030482855
0.077485904 -0.1511617 0.12162133 -0.014459571 -0.11555397 0.012526593 -0.07716441 0.02039548
-0.021374715 -0.04671166 0.25082535 0.020325411 -0.057227213 -0.07836923 -0.12644678 -0.031154992
-0.051492922 0.1330446 -0.03359361 0.15801865 0.12708366 0.14886244 0.004349484 0.084976144
-0.021804515 -0.11839659 -0.06423912 -0.12738091 -0.008807805 -0.16725236 -0.11587756 -0.017477065
-0.05499409 0.16411047 -0.09512729 0.07495554 0.058442924 -0.099562526 0.15098841 0.11581948
-0.004010345 0.019016773 0.19861409 -0.028117482 -0.029090509 -0.037200857 -0.1524656 -0.08935372
-0.09072558 -0.05340459 -0.006113352 0.17665736 0.1484688 0.15331112 0.10806175 0.15344028
0.18778837 -0.026148092 -0.09623445 -0.109372675 0.42921585 -0.047428966 -0.08916305 0.4238554
-0.16041553 -0.044413734 0.048767343 -0.11464107 -0.065324716 -0.14421682 -0.06817504 -0.056004945
-0.1934317 -0.03998505 0.111909196 -0.11244416 -0.08158556 -0.11575641 -0.12629694 -0.009099033
0.50714153 0.022113664 0.14624773 0.19541186 0.03233526 0.21931143 0.067168035 -0.017470807
0.039578963 -0.15829259 -0.056416404 -0.033605054 0.08979672 -0.18478498 -0.15646005 -0.17283061
-0.14353834 0.20497061 -0.017260458 0.042331282 0.09618147 -0.017618889 0.093702175 0.08026968
0.06755259 0.03148107 0.019449662 0.088443525 -0.18010217 0.045010146 0.120207585 0.058691524
0.045287985 -0.093394645 -0.020256506 -0.15843086 -0.14402913 -0.11927785 -0.21772431 -0.158863
-0.052380554 -0.10704031 0.14955765 -0.043440577 0.009084036 -0.008867802 -0.13732971 -0.15505634
-0.11269458 0.027897347 -0.053923387 0.16859096 0.03140918 0.14989065 0.13157365 0.119898655
00000000: 05b1 4b3e dbc6 e63c 38ec 7cbd 914b 683e
00000010: f4cc 12be b6c3 7fbc 402b 9f3e 206a 1cbe
00000020: 064b 493d cb92 74bd b50d 5c3d 301d d7bc
00000030: 12a4 a4bd a183 82bc 9667 11bd 0f65 99ba
00000040: e8a6 503d 6e93 62be 3e86 33bd 7762 e7bd
00000050: 4243 f43b 5e2b 7bbe aa6b fabd ada7 6dbd
00000060: 9fc6 3abd 7fb4 c63d f1dc 35be b841 a23d
00000070: b62c a83d b1c3 2fbd c2d0 8b3d ba84 9d3d
00000080: 6827 2c3e c6b7 bc3c 0e2b c73c c37d 223e
00000090: 5dff 91bc cdd6 483e f813 c63d 9be5 fb3b
000000a0: 5b33 873d f43c 33be a771 773d ffa6 24bd
000000b0: 9160 a1bd ea0a 433c 97e3 cdbd ea90 503c
000000c0: 9188 923e cc26 22bd ce04 54bc 6d67 403e
000000d0: 945e a5bc 732d b93d 606e cb3d 3e00 1f3e
000000e0: 00b5 c73d 0e86 e6bd 45a0 69bd f4de 68bd
000000f0: fe1b ccbd 9b08 7d3c 76b3 92bd de9b dbbc
00000100: 93cc 48bd 9705 6b3c e7e2 5d3c 95a9 883d
00000110: 28a3 16be 0811 143d ed85 913d b6ec de3d
00000120: 4fff 3bbd e0f3 02be 3f39 173d 2b4e 26be
00000130: 325e 34be 09dc 2bbe 9c7e 29be 7c72 41be
00000140: 3a02 3f3e 4959 913d 3c44 6bbd 9e71 323e
00000150: 0486 35bd e361 303e 5a7a 7d3d 2eb7 f9bc
00000160: eeb0 9e3d 22ca 1abe 9b14 f93d d6e7 6cbc
00000170: 8fa7 ecbd 573c 4d3c 6008 9ebd 6c14 a73c
00000180: 071a afbc ba54 3fbd 2e6c 803e 7a81 a63c
00000190: 1567 6abd 0c80 a0bd 447b 01be c138 ffbc
000001a0: 3eea 52bd d83c 083e 7499 09bd a4cf 213e
000001b0: 3822 023e 656f 183e 1e86 8e3b f907 ae3d
000001c0: 629f b2bc e979 f2bd cd8f 83bd 2470 02be
000001d0: 9d4e 10bc 3444 2bbe 3751 edbd 102c 8fbc
000001e0: 7c41 61bd 930c 283e 19d2 c2bd 4a82 993d
000001f0: d961 6f3d 70e7 cbbd b59c 1a3e c332 ed3d
00000200: 3669 83bb 10c9 9b3c 7e61 4b3e a256 e6bc
00000210: 384f eebc ed5f 18bd f11f 1cbe 15ff b6bd
00000220: 55ce b9bd c5be 5abd 8352 c8bb abe5 343e
00000230: 3508 183e 97fd 1c3e 7b4f dd3d 731f 1d3e
00000240: 984b 403e 8634 d6bc 9116 c5bd c8fe dfbd
00000250: 2ec2 db3e e044 42bd 1e9b b6bd 9303 d93e
00000260: f843 24be 2deb 35bd 44c0 473d f0c8 eabd
00000270: f7c8 85bd 93ad 13be 5b9f 8bbd 7165 65bd
00000280: f612 46be 5dc7 23bd a630 e53d 2049 e6bd
00000290: 5516 a7bd b211 edbd fc53 01be 1c14 15bc
000002a0: 07d4 013f b727 b53c f7c1 153e 0c1a 483e
000002b0: fa71 043d 2d93 603e 658f 893d f01e 8fbc
000002c0: 8d1d 223d 7417 22be e314 67bd 74a5 09bd
000002d0: 58e7 b73d 4638 3dbe 1037 20be 82fa 30be
000002e0: b7fb 12be d1e3 513e ce65 8dbc 9163 2d3d
000002f0: cafa c43d 7d55 90bc ede6 bf3d 6e64 a43d
00000300: 0359 8a3d 4bf2 003d e654 9f3c e121 b53d
00000310: b46c 38be 8f5c 383d 652f f63d 8666 703d
00000320: e57f 393d b145 bfbd f9f0 a5bc b33b 22be
00000330: 5f7c 13be f247 f4bd 1ff3 5ebe fbac 22be
00000340: fe8c 56bd f337 dbbd a425 193e bfee 31bd
00000350: 35d5 143c 424a 11bc 29a0 0cbe 17c7 1ebe
00000360: 6acc e6bd fa88 e43c c5de 5cbd 1ca3 2c3e
00000370: eaa6 003d ef7c 193e 3ebb 063e 6d8d f53d

encoder_mean.8.bias f4 [14]
1.8126902e-06 -1.4416622e-07 6.7975486e-07 -2.6783575e-06 2.5510965e-06 2.285552e-06 -2.5293625e-07 -5.618567e-06
-1.2279497e-07 -1.0212103e-05 -1.2593988e-05 -2.433956e-06 1.1398216e-07 2.3478376e-06
00000000: 904b f335 1ccc 1ab4 6678 3635 d5bd 33b6
00000010: 8133 2b36 7c61 1936 4bcb 87b4 1f87 bcb6
00000020: a0d9 03b4 a654 2bb7 c44a 53b7 0c57 23b6
00000030: 5bc6 f433 8b8f 1d36

encoder_mean.9.weight f4 [14]
0.5712533 0.54751074 0.4692609 0.52620447 0.5860633 0.48987028 0.49299118 0.5125936
0.4557809 0.566891 0.521557 0.60843796 0.6123623 0.52601546
00000000: a83d 123f aa29 0c3f f742 f03e 56b5 063f
00000010: 3f08 163f 47d0 fa3e 5769 fc3e 5639 033f
00000020: 1d5c e93e c51f 113f c284 053f 97c2 1b3f
00000030: c7c3 1c3f f3a8 063f

encoder_mean.9.bias f4 [14]
-0.07726913 0.17617954 -0.022531273 -0.09493854 0.058189023 -0.035640422 -0.07006563 0.26720917
0.042504176 -0.14506756 0.05283449 0.16932422 0.078592174 0.005912863
00000000: 473f 9ebd 6968 343e 8193 b8bc 236f c2bd
00000010: 9d57 6e3d b1fb 11bd 927e 8fbd a4cf 883e
00000020: dc18 2e3d 978c 14be fa68 583d 5463 2d3e
00000030: eff4 a03d b1c0 c13b

encoder_mean.9.running_mean f4 [14]
-0.036710024 -0.04285622 -0.0068645095 0.030837938 -0.15242171 -0.020785213 0.045276977 -0.00936796
0.014412918 0.08862645 0.092130296 -0.017524218 -0.11341913 -0.011747188
00000000: 405d 16bd 018a 2fbd aeef e0bb d89f fc3c
00000010: 7014 1cbe c045 aabc 5a74 393d 127c 19bc
00000020: 2924 6c3c c981 b53d cfae bc3d f38e 8fbc
00000030: 4a48 e8bd 4777 40bc

encoder_mean.9.running_var f4 [14]
0.04871974 0.043990012 0.049890976 0.06428761 0.12500684 0.05490155 0.054732352 0.043059178
0.052474305 0.0154905645 0.017602956 0.10709636 0.127515 0.068209656
00000000: 5a8e 473d df2e 343d 7b5a 4c3d 39a9 833d
00000010: cb01 003e 73e0 603d 082f 603d d25e 303d
00000020: 4cef 563d 23cc 7d3c 1334 903c 5655 db3d
00000030: 4b93 023e 81b1 8b3d

encoder_mean.12.weight f4 [12, 14]
0.057325374 0.05966768 -0.04925749 -0.078974314 -0.16938147 -0.08143006 0.07919318 0.09788154
0.104283296 0.21160598 0.11365438 -0.014118948 -0.19998974 0.078554474 -0.19194674 0.037196767
-0.19988501 -0.17805563 0.023570253 -0.18243882 -0.23846531 0.018806443 -0.19623335 -0.17430176
-0.13048632 -0.0337395 0.04326973 -0.14748071 0.018920371 -0.21924733 0.0158709 0.15185204
0.048888627 0.112757295 -0.013082242 -0.21349552 -0.070229284 0.105501436 0.084304556 -0.24504398
0.067926586 -0.10285153 0.25110942 0.083911225 -0.07794548 0.16224073 -0.17638132 -0.001413453
0.03176753 0.05073503 0.02103216 0.23773685 0.18861203 -0.019431125 -0.20485015 -0.026818842
0.050703995 -0.08125198 0.07707126 0.035379387 0.10756706 0.029425893 0.17597173 -0.09670778
0.128682 0.28809094 0.21008733 -0.002198266 0.13199219 0.14287478 0.05205389 -0.19645762
0.095745094 0.0046453746 0.024188116 0.11669075 -0.0020489742 -0.17701301 -0.092693314 0.10953225
0.08206124 -0.23177741 0.04779804 -0.095930554 -0.049756035 0.018291967 -0.17215376 -0.026273457
-0.25216523 -0.11691634 0.05555071 3.2818178e-05 0.09922089 0.022122774 -0.08341888 0.058443997
-0.2696436 0.11668129 0.019437771 -0.005177857 -0.13390039 -0.04029938 -0.264201 -0.18919028
0.14401811 0.029268108 0.006288327 0.16222557 0.055546224 0.10294109 -0.27943963 0.1376603
-0.19622077 -0.01568848 -0.13588436 -0.25212407 0.19066937 -0.09057796 -0.088274494 -0.0146395415
-0.13023493 -0.1111974 -0.08154769 -0.062689126 0.09006642 -0.13089776 0.08441726 -0.20046727
-0.004282129 0.049659003 0.0057016513 0.075928695 0.005063387 -0.17460573 -0.17703027 0.08733382
0.077406175 -0.2440872 0.057561025 -0.16124088 0.11974012 -0.23771007 0.10540597 0.02942572
0.06894869 0.095526956 -0.014445302 -0.21256265 -0.07839306 0.14228505 0.1273627 -0.18696192
-0.029510519 -0.06810642 0.08782207 -0.21419819 0.11065315 0.087708086 0.022406604 0.06970275
0.06386309 -0.19939609 -0.04273866 0.14076811 0.12842113 -0.20197278 0.02599069 -0.052701566
00000000: 03ce 6a3d 1966 743d 39c2 49bd 49bd a1bd
00000010: 5672 2dbe cec4 a6bd 0930 a23d 1e76 c83d
00000020: 7b92 d53d 3daf 583e a1c3 e83d 2953 67bc
00000030: 1cca 4cbe 2be1 a03d b08d 44be a35b 183d
00000040: a8ae 4cbe 3754 36be 6716 c13c 3ed1 3abe
00000050: 4030 74be f80f 9a3c 65f1 48be 297c 32be
00000060: 359e 05be 6e32 0abd 9a3b 313d 2f05 17be
00000070: e5fe 9a3c 5f82 60be b103 823c 1a7f 1b3e
00000080: 713f 483d 4ced e63d e656 56bc 929e 5abe
00000090: 5fd4 8fbd 2311 d83d dea7 ac3d cfec 7abe
000000a0: 181d 8b3d d3a3 d2bd 6a91 803e a6d9 ab3d
000000b0: e1a1 9fbd 6f22 263e 4e9d 34be 9d43 b9ba
000000c0: ab1e 023d 89cf 4f3d a34b ac3c 4a71 733e
000000d0: 8323 413e 062e 9fbc 3dc4 51be 30b3 dbbc
000000e0: feae 4f3d 7067 a6bd 89d7 9d3d fae9 103d
000000f0: 1e4c dc3d 920e f13c ef31 343e bb0e c6bd
00000100: 37c5 033e a880 933e 2221 573e c910 10bb
00000110: f628 073e c44d 123e 7636 553d 302c 49be
00000120: 0116 c43d 3a38 983b 2826 c63c 8ffb ee3d
00000130: 1548 06bb e642 35be fed5 bdbd 7252 e03d
00000140: b90f a83d 0f57 6dbe e1c7 433d 3d77 c4bd
00000150: fccc 4bbd 09d9 953c 1349 30be 6f3b d7bc
00000160: cd1b 81be d671 efbd 2489 633d 40a6 0938
00000170: 5234 cb3d d23a b53c 85d7 aabd f962 6f3d
00000180: ba0e 8abe 9af6 ee3d f63b 9f3c 03ab a9bb
00000190: 2f1d 09be f610 25bd 5a45 87be 19bb 41be
000001a0: 7c79 133e acc3 ef3c 4f0e ce3b 761e 263e
000001b0: 7084 633d c7d2 d23d b612 8fbe d2f6 0c3e
000001c0: 19ee 48be 2185 80bc 4525 0bbe 6816 81be
000001d0: d53e 433e f080 b9bd 42c9 b4bd b0da 6fbc
000001e0: 4e5c 05be 76bb e3bd 7a02 a7bd 2863 80bd
000001f0: be74 b83d 100a 06be f5e2 ac3d 4b47 4dbe
00000200: 1a51 8cbb 3d67 4b3d ebd4 ba3b 8180 9b3d
00000210: c5ea a53b d8cb 32be 6c47 35be 13dc b23d
00000220: 2187 9e3d fff1 79be 1cc5 6b3d 541c 25be
00000230: 4f3a f53d 456a 73be 16df d73d 350e f13c
00000240: f934 8d3d a3a3 c33d fdab 6cbc 06aa 59be
00000250: 8a8c a0bd 2cb3 113e 5e6b 023e f272 3fbe
00000260: 0bc0 f1bc 617b 8bbd 0fdc b33d c556 5bbe
00000270: 1e9e e23d 4ca0 b33d 0e8e b73c 51c0 8e3d
00000280: a7ca 823d 7d2e 4cbe bc0e 2fbd 8425 103e
00000290: d480 033e f4d1 4ebe 6dea d43c 99dd 57bd

encoder_mean.12.bias f4 [12]
-1.1275783e-06 -9.279094e-06 2.5762233e-08 -1.0157393e-06 -4.6331945e-07 -1.5602954e-07 1.5024693e-07 7.3882384e-06
-4.327912e-06 -1.2323007e-08 -1.6681988e-06 1.3622877e-06
00000000: 4c57 97b5 68ad 1bb7 c04b dd32 8954 88b5
00000010: 24be f8b4 1389 27b4 9053 2134 7ce8 f736
00000020: 7b38 91b6 28b5 53b2 e0e6 dfb5 d9d7 b635

encoder_mean.13.weight f4 [12]
0.83146334 1.2560915 0.90900886 0.74404764 0.7593445 0.90730816 0.92825544 0.8417306
1.2058743 0.9298926 0.87832016 0.8366826
00000000: c8da 543f 9bc7 a03f ceb4 683f e879 3e3f
00000010: 6764 423f 5945 683f 26a2 6d3f a87b 573f
00000020: 175a 9a3f 710d 6e3f 97d9 603f d530 563f

encoder_mean.13.bias f4 [12]
0.15699862 0.15998647 0.13320494 0.20120016 0.4068957 0.129963 0.15974797 0.11160187
0.1598518 0.121473595 0.10185743 0.12499226
00000000: 3fc4 203e 7ed3 233e e066 083e 6a07 4e3e
00000010: a254 d03e 0515 053e f994 233e 858f e43d
00000020: 31b0 233e 26c7 f83d a19a d03d f1fb ff3d

encoder_mean.13.running_mean f4 [12]
0.023790117 -0.24091052 -0.16690308 0.041505076 0.16921112 -0.14873667 -0.13672303 -0.08085444
-0.1627344 -0.22135767 -0.14330702 -0.09823595
00000000: 7ee3 c23c 3fb1 76be a4e8 2abe 3a01 2a3d
00000010: ae45 2d3e 6d4e 18be 1f01 0cbe 0397 a5bd
00000020: d9a3 26be 96ab 62be 13bf 12be ee2f c9bd

encoder_mean.13.running_var f4 [12]
0.09025553 0.12380816 0.16069269 0.046247076 0.06979709 0.120984964 0.10021825 0.13121076
0.078546524 0.16019815 0.12424833 0.10541329
00000000: e4d7 b83d 228f fd3d a08c 243e 936d 3d3d
00000010: c7f1 8e3d f7c6 f73d 3a3f cd3d 1d5c 063e
00000020: 00dd a03d fc0a 243e e975 fe3d ece2 d73d

encoder_mean.16.weight f4 [10, 12]
0.06932575 -0.12233874 0.013431699 -0.019967392 -0.0334991 0.05144878 0.03764304 -0.05406971
0.09087194 -0.07087333 -0.028236449 0.014393266 -0.30481613 0.8835103 -0.093224265 -0.3829273
-0.5396288 -0.07462436 -0.16757262 -0.23172432 0.7913157 0.12999032 -0.16601038 -0.17891529
-0.0947937 0.18314838 -0.07659922 0.034837697 0.024710227 -0.046000388 -0.053087983 0.06443783
0.049380686 0.057292458 0.016354084 -0.07577589 0.36999986 -0.38867813 -0.292431 0.43155816
0.2352736 -0.27293044 0.28976646 0.42432866 -0.6249508 -0.33411327 -0.2177996 -0.040151224
-0.030880662 -0.4901161 0.3890635 0.13499758 0.50507385 0.3297156 -0.3162054 -0.07159348
-0.4051011 0.53612274 0.49468055 0.4357513 0.14989504 -0.35354018 -0.08427473 0.012974475
0.10525142 0.0599613 0.1098277 0.03278927 -0.3044427 -0.16734707 -0.00070968794 0.08868211
-0.054286916 0.3902264 -0.33253634 -0.07654742 -0.3021173 -0.25696206 0.23095834 0.05200022
0.14088075 -0.19647427 -0.30162534 -0.23995976 0.009677135 0.008206867 -0.014385745 -0.011048138
-0.0016484235 0.021667458 -0.00046659808 -0.0072502894 0.009090793 0.00027873943 0.009111769 -0.0051610093
-0.41993016 -0.08857828 0.43948847 -0.28864887 0.26503694 0.5650406 -0.5025523 -0.53572375
0.25050673 0.48608142 0.4203871 0.46517393 -0.0044686645 -0.04942676 0.033973105 -0.0032603932
-0.019552616 -0.012620222 0.030161645 -0.00017874787 0.02735659 0.02088473 -0.024569172 -0.01647284
00000000: a9fa 8d3d bc8c fabd a110 5c3c a892 a3bc
00000010: 5a36 09bd f5bb 523d 972f 1a3d 3378 5dbd
00000020: 111b ba3d 0926 91bd 2050 e7bc bcd1 6b3c
00000030: dc10 9cbe bb2d 623f 5dec bebd 0c0f c4be
00000040: 1d25 0abf a8d4 98bd 2898 2bbe 2449 6dbe
00000050: aa93 4a3f 2f1c 053e a0fe 29be 9235 37be
00000060: 3323 c2bd 408b 3b3e 0de0 9cbd f9b1 0e3d
00000070: 1a6d ca3c e76a 3cbd c972 59bd fbf7 833d
00000080: 6743 4a3d 7fab 6a3d 00f9 853c 6430 9bbd
00000090: 9f70 bd3e d200 c7be 84b9 95be 31f5 dc3e
000000a0: 90eb 703e 8abd 8bbe 455c 943e 9b41 d93e
000000b0: c7fc 1fbf e510 abbe dc06 5fbe 9c75 24bd
000000c0: 71f9 fcbc 7ff0 fabe 5533 c73e ce3c 0a3e
000000d0: 854c 013f 7cd0 a83e ade5 a1be 9a9f 92bd
000000e0: 6969 cfbe 573f 093f c546 fd3e cb1a df3e
000000f0: 167e 193e 3803 b5be 3b98 acbd e492 543c
00000100: 0e8e d73d fb99 753d 58ed e03d 0b4e 063d
00000110: eadf 9bbe 085d 2bbe 5a0a 3aba f79e b53d
00000120: f55b 5ebd c1cb c73e 3442 aabe e5c4 9cbd
00000130: 1eaf 9abe 8890 83be 5880 6c3e 2ffe 543d
00000140: 0b43 103e 8d30 49be a36e 9abe 03b8 75be
00000150: d98c 1e3c 1876 063c 30b2 6bbc 4003 35bc
00000160: ea0f d8ba f47f b13c bca1 f4b9 d693 edbb
00000170: 8df1 143c c623 9239 8749 153c af1d a9bb
00000180: 1601 d7be 8768 b5bd a204 e13e c9c9 93be
00000190: ecb2 873e 80a6 103f 44a7 00bf 3125 09bf
000001a0: 6b42 803e aadf f83e fa3c d73e 472b ee3e
000001b0: e06d 92bb b773 4abd 6227 0b3d 52ac 55bb
000001c0: cf2c a0bc 0cc5 4ebc 8e15 f73c 446e 3bb9
000001d0: ed1a e03c 7416 ab3c 4a45 c9bc 0df2 86bc

encoder_mean.16.bias f4 [10]
0.026561577 -0.09962655 -0.05209195 0.34102422 -0.5006933 0.2198124 0.33037692 -0.013241735
-0.50535774 0.0128111
00000000: aa97 d93c 0109 ccbd 5e5e 55bd ba9a ae3e
00000010: 702d 00bf 8016 613e 2a27 a93e ddf3 58bc
00000020: 205f 01bf a6e5 513c

encoder_var.0.weight f4 [20, 30]
-0.0008857377 -0.0007250264 0.0006295833 0.00053404673 3.4750607e-05 -0.0005376207 0.00011703043 -0.0004534935
-0.0005607362 0.00063800847 0.00045913606 8.4729865e-05 -0.00054506556 -0.00031296827 -0.00014732918 0.00057834317
0.00017332351 0.0005351221 -0.00032304545 -0.000586474 0.00058769603 3.170591e-05 -0.00049408764 -6.046296e-06
0.0008273979 0.0009872696 -0.0009980154 9.47011e-06 -9.932723e-06 0.00073363184 -0.008041319 -0.009825582
0.001970025 -0.001037118 0.00019714853 -0.002868069 0.0065445937 -0.0049940934 0.006795627 -0.005467973
0.0056678453 0.0018920559 -0.0029214479 0.0014826895 -0.0042836424 0.007375908 -0.0037261383 0.001378798
-0.0052497764 -0.0077661993 -0.0014450639 0.004537329 0.00221699 -0.0015869385 0.004392898 0.0008103155
-0.0008186769 -0.0021782198 0.0021782578 -0.03800592 0.00024642117 -0.0005416611 0.00013976498 0.000247882
-0.0006094321 -0.00025886158 -0.0002528334 0.00018411844 1.2841224e-05 0.00016636998 -5.8641584e-05 -6.288251e-05
0.00049366197 -0.0003868622 0.00038437982 3.2249285e-05 -7.85832e-06 -0.00046852848 -0.00017272822 0.0004235101
0.00023448668 -0.00016249878 2.544019e-05 -4.449056e-05 -1.1389677e-05 -0.00011184423 0.00011100596 1.4714469e-05
-1.0122078e-05 0.00014621226 -0.00052108883 -0.00022285263 0.0002854043 0.0003609234 -0.00025990367 -0.000103688864
-0.00015020104 2.5659334e-05 -4.5352204e-05 -1.9914209e-05 0.000119202654 -3.1759973e-05 -0.00019693177 5.1184034e-05
-0.00083327317 0.000604789 8.392993e-06 -8.592926e-05 -0.00024107419 -0.00038438485 0.00035033707 -7.5858134e-07
-0.00044042114 7.594493e-05 0.00024498388 -0.00016453117 0.00019162541 0.0002785797 -0.00023908567 -0.00038647748
0.00028095942 -0.00011825389 0.000116470765 0.00014599584 -0.00019110946 0.00028449198 -2.274323e-05 -2.137499e-05
-6.3609776e-05 -0.0001756377 6.551101e-05 -4.3497446e-05 9.760628e-05 -3.930797e-06 0.00013254552 -0.00019991313
6.428153e-05 0.00040258592 0.00011220311 -0.000101773985 0.0001529625 7.729047e-05 -4.71183e-05 -2.4844194e-05
-0.00021673183 -0.00015745191 0.00015390062 0.00032472043 -0.00028667797 -8.462313e-05 0.00046962604 -0.00034706978
-0.00072805904 7.8665325e-05 -0.00018949797 -3.330227e-05 0.00022668345 -0.00016763856 -0.00047578927 -8.918723e-06
-0.0002724742 -8.738972e-05 -0.00053550646 0.00040111056 0.0002513381 0.00069187814 -2.7645696e-05 -0.0009831032
-4.1579668e-05 0.0014310897 5.05043e-05 -0.0005312775 0.000113263 0.00024839918 0.00048772557 -7.935669e-05
0.00015049402 -0.0013402122 0.0013442582 4.0397746e-05 0.0004623045 0.0005005021 0.00020165349 -0.0005660359
-0.00037127535 0.00013434865 -0.0001916843 0.00029910117 -2.3774026e-05 0.0003261422 0.00016477391 0.00010916886
-0.00035968487 -0.00069524505 -0.00026757477 8.591314e-05 -0.00024803434 8.4749045e-05 -0.00040911292 -0.00013522686
-0.0005367006 9.467205e-05 0.0001717355 -9.896619e-05 -0.00040453422 0.00040589276 -0.00040206854 0.00023935748
-0.0002397392 0.0003666787 -0.02262681 -0.00852253 0.0014022089 -0.0015299217 0.0026341924 -0.0032519654
0.002618373 -0.003414822 0.0034702097 -0.00714458 0.0070316037 0.006762184 -0.004641279 0.00032022712
-0.009663563 0.009960889 -0.004302739 0.0009660221 -0.0039151045 -0.003726535 -0.0014391282 0.0021385248
0.0031461236 -0.001876265 0.001902194 -0.0036128573 0.0034999251 -0.003019703 0.0030185976 -0.030582031
0.00023889824 9.3846946e-05 8.906292e-06 -0.0008946726 0.00020469267 -7.880863e-05 0.00025939668 -0.00077621004
2.540474e-06 -0.00041095022 0.0002939716 0.00024718003 -0.001069281 0.0003817385 -6.283606e-05 -0.0004099987
00000000: da30 68ba b30f 3eba 9f0a 253a 45ff 0b3a
00000010: 2ec1 1138 1def 0cba 3c6e f538 dec2 edb9
00000020: 5ffe 12ba 0640 273a 33b8 f039 00b1 b138
00000030: bbe2 0eba e415 a4b9 607c 1ab9 f49b 173a
00000040: 2dbe 3539 7047 0c3a 6d5e a9b9 9bbd 19ba
00000050: 9d0f 1a3a f6fb 0438 a985 01ba 4ae1 cab6
00000060: bce5 583a 4567 813a d7cf 82ba d0e1 1e37
00000070: b8a4 26b7 3351 403a bdbf 03bc 7afb 20bc
00000080: 891b 013b e8ef 87ba a8b9 4e39 37f6 3bbb
00000090: 0874 d63b 7ea5 a3bb daad de3b af2c b3bb
000000a0: 55b9 b93b dcfe f73a c375 3fbb ce56 c23a
000000b0: cc5d 8cbb 9ab1 f13b 3a32 74bb c9b8 b43a
000000c0: 5106 acbb 9a7b febb 4c68 bdba e0ad 943b
000000d0: ec4a 113b d200 d0ba 4df2 8f3b 5a6b 543a
000000e0: 7a9c 56ba 77c0 0ebb 1ac1 0e3b 18ac 1bbd
000000f0: 1732 8139 43fe 0dba e08d 1239 29f6 8139
00000100: 4cc2 1fba d0b7 87b9 b98e 84b9 eb0f 4139
00000110: a370 5737 9a73 2e39 ecf5 75b8 cadf 83b8
00000120: 1869 013a c4d3 cab9 9686 c939 6843 0738
00000130: 3ad7 03b7 d4a4 f5b9 611e 35b9 900a de39
00000140: 8ae0 7539 6f64 2ab9 6468 d537 609b 3ab8
00000150: 4a16 3fb7 ea8d eab8 dfcb e838 2ade 7637
00000160: fed1 29b7 8e50 1939 ae99 08ba 8cad 69b9
00000170: 51a2 9539 523a bd39 ae43 88b9 8973 d9b8
00000180: 497f 1db9 003f d737 8f38 3eb8 700d a7b7
00000190: 70fc f938 0336 05b8 787f 4eb9 70ae 5638
000001a0: 0470 5aba b48a 1e3a a1cf 0c37 ec34 b4b8
000001b0: dcc8 7cb9 4387 c9b9 72ad b739 50a1 4bb5
000001c0: 53e8 e6b9 a044 9f38 2e71 8039 0086 2cb9
000001d0: 0eef 4839 560e 9239 12b3 7ab9 21a0 cab9
000001e0: bc4d 9339 13ff f7b8 c441 f438 7616 1939
000001f0: 8e64 48b9 de27 9539 b7c8 beb7 714e b3b7
00000200: 3d66 85b8 632b 38b9 f562 8938 0771 36b8
00000210: f9b1 cc38 4ae5 83b6 ebfb 0a39 c69f 51b9
00000220: e2ce 8638 2b12 d339 964e eb38 7e6f d5b8
00000230: 8f64 2039 0117 a238 e4a0 45b8 8068 d0b7
00000240: 8242 63b9 ad19 25b9 6260 2139 3d3f aa39
00000250: 444d 96b9 b277 b1b8 2438 f639 ebf6 b5b9
00000260: 37db 3eba 20f9 a438 f9b3 46b9 0aae 0bb8
00000270: e0b1 6d39 22c8 2fb9 5b73 f9b9 a0a1 15b7
00000280: deda 8eb9 0045 b7b8 3b61 0cba 264c d239
00000290: 07c6 8339 285f 353a aee8 e7b7 78db 80ba
000002a0: d465 2eb8 6793 bb3a 94d4 5338 6e45 0bba
000002b0: 9c87 ed38 933b 8239 6bb5 ff39 4c6c a6b8
000002c0: eecd 1d39 0faa afba d231 b03a c070 2938
000002d0: 7661 f239 2134 033a f272 5339 0762 14ba
000002e0: bca7 c2b9 f1df 0c39 ddfe 48b9 aed0 9c39
000002f0: 556e c7b7 11fe aa39 29c7 2c39 96f1 e438
00000300: 1694 bcb9 1b41 36ba 4749 8cb9 442c b438
00000310: 9b0a 82b9 4cbb b138 357e d6b9 afcb 0db9
00000320: 5eb1 0cba ab8a c638 e613 3439 128c cfb8
00000330: aa17 d4b9 01ce d439 bacc d2b9 09fc 7a39
00000340: 8062 7bb9 c83e c039 dc5b b9bc 15a2 0bbc
00000350: 53ca b73a a787 c8ba 6aa2 2c3b ed1e 55bb
00000360: 0299 2b3b 35cb 5fbb 756c 633b 151d eabb
00000370: 5e69 e63b 5095 dd3b df15 98bb 28e4 a739
00000380: ec53 1ebc ff32 233c fefd 8cbb a53c 7d3a
00000390: 474a 80bb e238 74bb 21a1 bcba 7e26 0c3b
000003a0: 322f 4e3b 02ed f5ba 0a53 f93a b0c5 6cbb
000003b0: 005f 653b 36e6 45bb aad3 453b 2b87 fabc
000003c0: c280 7a39 b2cf c438 3c6c 1537 7688 6aba
000003d0: c5a2 5639 1046 a5b8 a2ff 8739 937a 4bba
000003e0: 037d 2a36 ce74 d7b9 3320 9a39 f197 8139
000003f0: 1e27 8cba 1324 c839 dac6 83b8 18f5 d6b9

encoder_var.0.bias f4 [20]
-2.8029302e-08 1.1008119e-07 -1.3717292e-07 1.4705064e-07 8.0033914e-08 1.03642435e-07 -1.5959817e-07 1.4299815e-07
-1.613712e-07 2.2121951e-07 2.2933399e-07 1.2987056e-07 -5.7067698e-08 -2.5209349e-07 4.1351903e-08 3.455858e-08
3.7573933e-08 8.988088e-08 -1.2358106e-09 -1.4783332e-07
00000000: 16c5 f0b2 c665 ec33 ce49 13b4 f9e4 1d34
00000010: 1cdf ab33 0892 de33 035e 2bb4 088b 1934
00000020: 6145 2db4 5b88 6d34 d93e 7634 8c72 0b34
00000030: 991a 75b3 7757 87b4 e69a 3133 906d 1433
00000040: fa60 2133 8904 c133 38d9 a9b0 1dbc 1eb4

encoder_var.1.weight f4 [20]
0.002819781 0.03515425 -0.000513196 0.00079109776 0.0009891624 -0.00012548892 0.001333345 0.037287284
0.001767833 0.08738663 -0.00042240502 0.018284876 0.008189327 0.024861554 0.0010695583 0.0030022266
-0.00047412034 -0.0050612474 0.012744103 0.00015304121
00000000: 13cc 383b e7fd 0f3d 0088 06ba ac61 4f3a
00000010: c8a6 813a ad95 03b9 a2c3 ae3a 8dba 183d
00000020: a2b6 e73a c3f7 b23d 3e76 ddb9 2aca 953c
00000030: 872c 063c 75aa cb3c 6c30 8c3a 01c1 443b
00000040: 5b93 f8b9 d2d8 a5bb a4cc 503c b079 2039

encoder_var.1.bias f4 [20]
-0.0016486566 0.0028436112 -0.00025079344 -5.899631e-05 0.00090439426 0.0023767434 -0.0001619658 0.0076600052
5.6740493e-05 -0.047858898 0.0005809715 0.007898552 0.0031500899 0.009138986 0.00071433117 0.0010994276
0.0013334089 0.003637154 -0.0018390726 0.00012477892
00000000: bc17 d8ba e15b 3a3b ed7c 83b9 ce72 77b8
00000010: df14 6d3a 23c3 1b3b 5dd5 29b9 c800 fb3b
00000020: a4fc 6d38 b107 44bd 564c 183a ee68 013c
00000030: bd71 4e3b afbb 153c f441 3b3a ab1a 903a
00000040: c7c5 ae3a 515d 6e3b 090d f1ba 16d7 0239

encoder_var.1.running_mean f4 [20]
-0.0009840231 -0.04518892 0.00043038008 -0.0017139082 4.9427217e-05 -0.0002084752 -0.00033857033 -0.039785676
-0.0016607415 -0.039442442 0.0014080987 -0.017574575 -0.005014488 -0.021899762 -0.00029199416 -0.00014387092
-0.0010470408 0.00013891868 0.002202526 0.00087193423
00000000: 56fa 80ba 0418 39bd a3a4 e139 37a5 e0ba
00000010: 1250 4f38 239a 5ab9 2482 b1b9 4ef6 22bd
00000020: 3dad d9ba 668e 21bd f48f b83a 8ef8 8fbc
00000030: 9350 a4bb 2167 b3bc cb16 99b9 0edc 16b9
00000040: dc3c 89ba b3aa 1139 4158 103b 8492 643a

encoder_var.1.running_var f4 [20]
9.942403e-06 0.00028546748 3.0703886e-06 5.380128e-06 2.4865778e-06 2.7194863e-05 5.282529e-06 0.00020906384
7.322401e-06 0.00056536077 5.7423827e-06 0.00023372563 8.305257e-05 0.000124642 1.4445282e-06 3.5640718e-05
5.5661144e-06 1.790272e-05 0.00020600134 1.8997421e-06
00000000: 4cce 2637 ccaa 9539 e00c 4e36 f386 b436
00000010: 15df 2636 8620 e437 9440 b136 2638 5b39
00000020: f2b2 f536 b834 143a b1ae c036 3f14 7539
00000030: 822c ae38 55b2 0239 9ce1 c135 ee7c 1538
00000040: 8fc4 ba36 cc2d 9637 1002 5839 a4fa fe35

encoder_var.4.weight f4 [16, 20]
0.00033095325 -0.00040099525 0.00020516608 9.854464e-05 -1.3264194e-06 0.00046830522 -2.3069806e-05 -0.00054527563
6.948415e-05 0.015747994 0.0005026472 0.00041357332 -0.00035403145 -0.0011103257 -6.465278e-05 0.00050726696
-0.00011882105 0.00037085442 0.00039320166 8.413099e-06 -0.00013268732 3.7947124e-05 -9.692011e-05 7.6555254e-05
-0.00023577949 -9.809048e-05 -1.4876946e-05 -0.00014610689 -9.180797e-05 1.8373687e-05 0.0001148706 2.7782335e-07
-0.00022814475 -0.000104478786 -2.6634386e-06 -0.00011378499 3.429824e-05 0.0003539522 2.0326892e-05 9.801311e-05
0.00017240425 -0.0018312581 0.0004173891 0.0003218738 3.453729e-05 -0.00073842553 -0.00028002774 -0.0015361693
-0.00016554925 0.010035998 -8.3033636e-05 -1.30031785e-05 -0.0007882548 -0.0015334897 0.0001688682 0.00015096625
0.00018081276 0.00080102106 -0.00051176857 -3.463847e-06 -0.00015789902 -0.0013093186 -0.00018263627 -0.00013085318
0.00016124571 -0.0004835841 -0.00041821538 -0.0004893393 -0.00060276134 0.013897905 -0.00023095858 0.0010441047
-0.00024686244 0.00013235059 -0.00031307188 0.00013516497 9.8388795e-05 0.000558933 0.00034501782 -3.3481498e-05
-0.00092174654 -0.0029974354 0.00022609404 0.00012054432 0.00013972621 -0.00063759665 -0.0003207045 -0.0020367282
-0.00012272253 0.0141256545 -9.1773916e-05 -0.00035573903 -0.000440345 -0.0011510391 -6.309247e-05 -0.00015534216
-0.00036201635 0.00035858204 5.024147e-05 0.00036099067 0.0016359114 0.028938036 -0.00012158246 -0.0003941138
-0.0005428247 -0.0018682759 -0.00059753214 0.03366129 0.0005321847 0.022125438 0.00018141982 0.0062980484
0.0023449915 0.020084918 0.00019553759 0.00026571465 0.0005279327 0.0019997123 -0.0049734525 -4.8604576e-05
0.0013053328 0.01810797 8.1065125e-05 0.00033915497 -9.206547e-05 -0.0009355166 -0.00010221273 0.017907266
0.0002713722 0.013360529 0.0005313881 0.008381907 0.0041754204 0.012337153 1.0787661e-05 0.00035707926
4.0371353e-05 0.0004836453 -0.0018003996 -0.0002533242 -0.0004523394 -0.0031878708 0.00029697304 0.00016059272
0.00040123667 -0.00036218934 0.00014076021 -0.003778155 6.828188e-05 0.050172742 0.00031302858 0.0005226142
-0.00046416224 -0.0044062543 0.0001908262 0.0009739612 0.00014686384 0.0010652794 0.00015670544 0.000561012
2.7932821e-05 -4.337164e-05 -3.412444e-05 4.346627e-05 -1.6177844e-05 5.678469e-06 -5.0555565e-05 -5.15751e-05
-6.473095e-05 -6.209886e-05 8.647559e-06 -6.0361777e-05 1.4646304e-05 0.00010185367 4.9383994e-05 4.3199393e-06
4.0993e-05 -0.00014228535 -1.751485e-05 9.3278424e-05 -0.00028385333 -4.914582e-06 -1.581847e-05 1.7861716e-05
0.00014257593 -0.0001418771 -2.2985998e-05 0.00024892486 -0.00013046701 -0.00091211306 -6.0293747e-05 0.00028766764
0.00017894733 -0.0005237571 1.2391936e-05 -0.0003180228 -1.7931305e-05 0.00023931182 -8.834389e-05 3.7063633e-05
-0.0001420164 5.504378e-05 -5.6007437e-05 -0.00015014061 -2.370992e-05 9.3753704e-05 -5.8409787e-05 -0.00010017643
-6.312316e-05 -7.7383505e-05 5.2604893e-05 -2.1577911e-05 5.322016e-05 -0.0002092039 4.9998007e-06 -0.00012649091
-6.7703704e-06 -4.024678e-05 -3.0532417e-05 4.3934942e-05 0.00027243167 0.014585764 -0.0002748774 -0.0001240637
9.305696e-06 -0.0006722586 0.00015567985 0.016811252 0.00039250084 0.013915449 -0.00010929015 0.004063315
0.0022223545 0.011827483 7.9367666e-05 1.2859964e-06 0.00011363036 -0.000114648356 -0.000340882 0.00012346475
-0.00032612233 0.007909567 0.0003000587 0.00016653017 0.00018321328 -0.00027216936 -0.00011830696 0.0055713174
4.9477836e-05 0.037372015 3.219189e-05 0.002983959 0.0022963628 0.0061303605 0.000351477 0.000991464
00000000: cb83 ad39 ac3c d2b9 da21 5739 c0a9 ce38
00000010: 6c07 b2b5 dd86 f539 0886 c1b7 d4f0 0eba
00000020: 05b8 9138 f001 813c 15c4 033a dfd4 d839
00000030: 4c9d b9b9 5988 91ba 3296 87b8 1cfa 043a
00000040: 912f f9b8 3d6f c239 a226 ce39 fc25 0d37
00000050: fb21 0bb9 6a29 1f38 9641 cbb8 4a8c a038
00000060: 933b 77b9 edb5 cdb8 ff97 79b7 4534 19b9
00000070: 0789 c0b8 3121 9a37 afe6 f038 c027 9534
00000080: 243a 6fb9 9f1b dbb8 87bd 32b6 da9f eeb8
00000090: 74db 0f38 a992 b939 ab83 aa37 638c cd38
000000a0: 6ac7 3439 d306 f0ba 04d5 da39 2cc1 a839
000000b0: 22dc 1038 e692 41ba b0d0 92b9 4a59 c9ba
000000c0: 4a97 2db9 076e 243c 5822 aeb8 3a28 5ab7
000000d0: e2a2 4eba 60ff c8ba 3612 3139 b24c 1e39
000000e0: 8e98 3d39 9dfb 513a 3528 06ba 7074 68b6
000000f0: b291 25b9 719d abba 0d82 3fb9 a235 09b9
00000100: 1114 2939 8f89 fdb9 eb43 dbb9 0147 00ba
00000110: a102 1eba 0ab4 633c 792d 72b9 57da 883a
00000120: 516d 81b9 97c7 0a39 cc23 a4b9 12bb 0d39
00000130: 1556 ce38 5c85 123a 82e3 b439 7c6e 0cb8
00000140: 5da1 71ba 9f70 44bb a813 6d39 bdcc fc38
00000150: 7883 1239 6324 27ba 3b24 a8b9 a17a 05bb
00000160: 14af 00b9 4a6f 673c bf76 c0b8 7c82 bab9
00000170: 1bde e6b9 77de 96ba 8350 84b8 58e3 22b9
00000180: 03cd bdb9 1100 bc39 5eba 5238 5943 bd39
00000190: 146c d63a 760f ed3c 16fa feb8 0fa1 ceb9
000001a0: 594c 0eba f0e0 f4ba b4a3 1cba 6ce0 093d
000001b0: 5082 0b3a 6840 b53c 833b 3e39 dc5f ce3b
000001c0: 6eae 193b 2089 a43c 3909 4d39 9e4f 8b39
000001d0: f764 0a3a 9b0d 033b 58f8 a2bb c4dc 4bb8
000001e0: b317 ab3a 2a57 943c 8201 aa38 9cd0 b139
000001f0: 4613 c1b8 753d 75ba 0b5b d6b8 42b2 923c
00000200: f646 8e39 1fe6 5a3c da4c 0b3a 4454 093c
00000210: f7d1 883b c521 4a3c a7fc 3437 5e36 bb39
00000220: 6954 2938 c691 fd39 63fb ebba 99d0 84b9
00000230: f727 edb9 99eb 50bb 0cb3 9b39 c864 2839
00000240: 135d d239 3be4 bdb9 0899 1339 ec9a 77bb
00000250: 8e32 8f38 ef81 4d3d fc1d a439 0c00 093a
00000260: cd5a f3b9 5762 90bb 8518 4839 6e51 7f3a
00000270: 76ff 1939 d8a0 8b3a 4c51 2439 e110 133a
00000280: 4751 ea37 f2e9 35b8 d720 0fb8 8d4f 3638
00000290: a8b5 87b7 ad89 be36 a00b 54b8 5852 58b8
000002a0: 2ac0 87b8 123b 82b8 fc14 1137 f72c 7db8
000002b0: 66b9 7537 469a d538 a921 4f38 fff3 9036
000002c0: e6ef 2b38 6f32 15b9 dbec 92b7 799e c338
000002d0: 26d2 94b9 f0e7 a4b6 e8b1 84b7 bed5 9537
000002e0: 6f80 1539 d8c4 14b9 0ed2 c0b7 2182 8239
000002f0: f9cd 08b9 df1a 6fba ebe3 7cb8 19d2 9639
00000300: cfa3 3b39 be4c 09ba f6e6 4f37 4cbc a6b9
00000310: 2f6b 96b7 c7ef 7a39 4445 b9b8 c674 1b38
00000320: 3dea 14b9 cfde 6638 87e9 6ab8 106f 1db9
00000330: aae4 c6b7 a39d c438 08fd 74b8 d015 d2b8
00000340: fd60 84b8 f448 a2b8 13a4 5c38 3602 b5b7
00000350: b638 5f38 bf5d 5bb9 f6c3 a736 a5a2 04b9
00000360: 0a2d e3b6 a7ce 28b8 ef0f 00b8 c946 3838
00000370: 29d5 8e39 21f9 6e3c 6c1d 90b9 1917 02b9
00000380: a91f 1c37 833a 30ba fe3d 2339 c0b7 893c
00000390: 92c8 cd39 a0fd 633c b432 e5b8 8f25 853b
000003a0: eca4 113b 0fc8 413c 3172 a638 809a ac35
000003b0: d64c ee38 5e6f f0b8 68b8 b2b9 5176 0139
000003c0: 66fb aab9 2197 013c 3251 9d39 9a9e 2e39
000003d0: f11c 4039 f4b1 8eb9 911b f8b8 998f b63b
000003e0: 6c86 4f38 6613 193d c705 0738 868e 433b
000003f0: 937e 163b 31e1 c83b 7246 b839 03f4 813a

encoder_var.4.bias f4 [16]
4.373577e-07 -2.1302522e-07 1.6524507e-07 2.570399e-08 5.0641624e-08 -7.952309e-08 -4.9398125e-08 -8.3403044e-08
-2.691883e-07 -1.4903712e-07 4.81059e-07 3.255965e-07 1.470606e-08 9.585437e-08 -5.580334e-08 9.7763376e-08
00000000: fccd ea34 edbb 64b4 386e 3134 accb dc32
00000010: 0e81 5933 48c6 aab3 d029 54b3 4f1b b3b3
00000020: f584 90b4 0307 20b4 1f22 0135 a4cd ae34
00000030: f0a5 7c32 7fd8 cd33 6cac 6fb3 fcf1 d133

encoder_var.5.weight f4 [16]
0.020601528 0.0022336543 0.015927933 0.019741712 0.023075948 0.05444219 0.034197967 0.05857078
0.0019545953 0.0046117967 0.001671771 0.031182526 0.044501793 0.008991367 0.006090942 0.039072786
00000000: 89c4 a83c 8062 123b 4c7b 823c 5fb9 a13c
00000010: c509 bd3c c6fe 5e3d 2b13 0c3d eae7 6f3d
00000020: ab18 003b 8e1e 973b 541f db3a 7f72 ff3c
00000030: 8347 363d 8750 133c 8696 c73b c90a 203d
