dice_ml/utils/sample_trained_models/adult-margin-0.165-validity_reg-42.0-epoch-25-base-gen.pth (torch_old, 35075 bytes, 78 tensors)

encoder_mean.0.weight f4 [20, 30]
00000000: 296b 3d3f 019d 953d 6620 033d 4ada 1e3d
00000010: 18fa c93c 701b 0b3d a584 633d fe87 5f3d
00000020: 8ca3 fe3c 92cf 7d3d 7de3 323d d93c c13c
00000030: 9c4b 713d b465 6b3d b4d9 2ebd eabb 33bd
00000040: b8e1 f3bc 1844 f0bc e6e1 0cbd f8d4 6e3c
00000050: 420e a43c 28a7 ce3c 5a3b f43c d5b1 3f3c
00000060: 3ed6 273c d6ee 73bd 9925 52bd 3bcd 833d
00000070: 8db0 833d ab52 ab3e b11d d9be 0d54 5bbf
00000080: 1fea dd3b 88b4 5fba 9c8f 513c 28b4 03ba
00000090: 5b78 543b a6ec bc3c b3b1 bc3d c895 143d
000000a0: fbdb 3e3d 62cc 643d f649 5f3c ed98 273d
000000b0: 9431 54bd 3ff5 7dbd b8d9 48bd 62e5 97bd
000000c0: 23b6 51bd 5161 d13c d1e7 b93c 6dbc d33c
000000d0: 522d d93c 2a9a 0c3d e516 183d 3be4 91bb
000000e0: b710 c1bb db41 663d 9e53 6b3d ea73 fb3d
000000f0: 2bb1 a2be e625 c9bd 3fa8 50bc f00e 5abc
00000100: 3680 883c a411 ec3b b29c 713c ada3 dd3c
00000110: 9a52 723c 8f92 003d 6fbb d13c f2df cf3c
00000120: 4398 81bc b923 8c3c 0a70 733d 5e8d 983d
00000130: f4b3 303d 262c f6bd 1d8d 8e3d 6f27 f63c
00000140: bdcd 96bc 0632 a63c 758b 173d 4f79 7a3d
00000150: 2dad b03c d8a1 2dbd ea12 17bb 3984 2a3d
00000160: 6cf7 db3c a67e 0f3d b124 373f eb3b eb3c
00000170: 8428 4c3d 618c fc3c d70b 8b3d 3011 893d
00000180: 286c a23d 6402 b93d dbb5 d53d 9b8a ac3d
00000190: 11c4 9d3d 01a7 bf3d 4585 a63d 069f b03d
000001a0: 44da 963d 847e 883d 8b20 933d b36d 973d
000001b0: da66 443d b2d7 9e3d bb41 ac3d 01d0 b23d
000001c0: ec92 893d 9b00 a03d 3804 a93d 2c68 f23c
000001d0: 2809 0f3d c4e5 853d 3744 8e3d 4129 693d
000001e0: 65c3 b4be 4da1 6bbd 15b1 31bb 07ab bbbc
000001f0: 8e11 61bc aa6b f23b 7a02 583c 3d17 313c
00000200: 687a 66bd a2e5 e03c a88e febc 0300 24bd
00000210: f78b b33c 460b 823d ba6b 423d 1052 b5bd
00000220: e660 653d 36e9 563d f624 d13d f349 15bd
00000230: d927 30bc ab0f e83a 2a9b cfbc ddee f539
00000240: b503 843b da7c 20bd 40a8 223d 4342 78bd
00000250: 1d92 b8bc 7e6d 463c 6d74 2e3f b4c3 9f3d
00000260: 2323 faba 6256 31bc 58fc cfbb 9815 713b
00000270: 4c3c ca3c 7fd2 bf3c 1c9d 173d 7b10 2e3d
00000280: 500a 4dbc 16f1 7c3d dd9e b13c 4c18 f03c
00000290: c5d7 f83c 728a 423d 33a3 4c3d 9371 5b3d
000002a0: bfa9 b23c 7b10 833c 3b24 24bd 68dc 553c
000002b0: f0a3 643a 10ce 403c da7a a63b 00d0 a7bd
000002c0: 83b1 c1bd 2ccd abbd 9bb3 93bd d425 63be
000002d0: 0e71 313f e2b1 27bd df65 3ebc 481f ba3c
000002e0: 29da da3a d224 8ebb 6ede c53b 4ea5 78bc
000002f0: 88a7 debc b8b6 40bc 4243 5fbb aad7 113c
00000300: 60cf 46bc 3269 b7bb d6dc b13b f26a 95ba
00000310: 09d6 3b3c ca31 573c 2c41 c93b 1d88 ec3c
00000320: 8a64 083c 9343 f53c 0caf 9c3c de24 8b3c
00000330: 649b 0a3c dbe2 1c3d b1f5 fe3c 5ef3 373c
00000340: fae7 a93b 6a4b 29bd c952 e83e 22f9 debc
00000350: c87c 83bb 31be 523c a624 013c eebb b73a
00000360: 26cb 693c ed04 b73c a555 953c 3e42 3c3c
00000370: 8038 013c 47b8 963c 841a af3b 27bb 4ebc
00000380: 0f4e 713b 9dee 103c dbd9 d03c 6d3e dfbd
00000390: aedd 263d 3a9b 033d 84a3 153c 18ba 0c3d
000003a0: 9e1b 163c 5486 143c ef63 1d3c c726 973c
000003b0: bef6 893c 7e80 8a3b dd9d 3d3c f167 eebd
000003c0: 56d5 b7be aa20 5fbf 843d aa3d 0910 703d
000003d0: 1d32 bf3d 93cc ae3d 9764 b93d e94a 983d
000003e0: 3685 75bd f2da ab3d 6bc0 593d db3d 573c
000003f0: 28d5 b93d 5718 b43d c787 aabc 302a cebc
0.7399164 0.07305337 0.03201332 0.038782395 0.024655387 0.033961713 0.05554642 0.05457305
0.031083845 0.061965533 0.04367398 0.023588585 0.058909997 0.05747004 -0.042688087 -0.04388038
-0.029770717 -0.029329345 -0.03439512 0.014577143 0.02002633 0.02522619 0.029813457 0.011700113
0.01024395 -0.059553944 -0.051305387 0.06435629 0.06430159 0.33461508 -0.42405465 -0.85675126
0.006772294 -0.0008533676 0.012790587 -0.0005024099 0.003242037 0.023062062 0.09213581 0.036275655
0.04659651 0.055858977 0.0136284735 0.040917326 -0.051805094 -0.062001463 -0.049035758 -0.07416798
-0.05119909 0.0255591 0.022693546 0.025846684 0.026510868 0.03432671 0.03713121 -0.004452256
-0.005891885 0.05621515 0.05745279 0.12277968 -0.31775793 -0.09821682 -0.0127354255 -0.013309225
0.016662698 0.0072042514 0.014746832 0.027055586 0.014790202 0.03138977 0.02560207 0.02537534
-0.015819674 0.017106878 0.05943302 0.07448839 0.043140367 -0.120201394 0.06960509 0.0300481
-0.01840865 0.020287525 0.03699823 0.061150845 0.021566952 -0.042390674 -0.0023052045 0.041630004
0.026851378 0.03503289 0.7154036 0.028715095 0.049843326 0.030828657 0.06789368 0.066927314
0.079307854 0.09033659 0.10435077 0.084248744 0.07703412 0.09358025 0.08130888 0.08624081
0.073658496 0.06664756 0.071839415 0.0739397 0.04794965 0.07755984 0.084109746 0.0873108
0.06717476 0.078126155 0.08252758 0.029590689 0.03492084 0.06537965 0.06946605 0.05692411
-0.35305324 -0.057526875 -0.0027113606 -0.0229087 -0.0137370955 0.0073980885 0.013184184 0.010808763
-0.05626908 0.027453247 -0.031073883 -0.040039074 0.021917326 0.063498065 0.047466017 -0.08853543
0.056000613 0.0524685 0.10212128 -0.036447477 -0.010751688 0.0017704865 -0.025342543 0.00046908009
0.004028762 -0.039181568 0.039711237 -0.060610067 -0.02253061 0.012111066 0.681464 0.07800999
-0.0019083958 -0.010823818 -0.0063472204 0.0036786553 0.024686955 0.023415802 0.037015066 0.042496186
-0.012514666 0.061753355 0.021682197 0.02930846 0.030376324 0.047495313 0.049960326 0.05357511
0.021809457 0.01599907 -0.040073615 0.013053037 0.00087219384 0.011767879 0.005080563 -0.0819397
-0.09457686 -0.08388743 -0.072119914 -0.22182399 0.6931313 -0.040941127 -0.011620968 0.022719994
0.0016697097 -0.0043378854 0.0060384786 -0.01517613 -0.027179495 -0.011762314 -0.0034067188 0.008901516
-0.012134403 -0.005597257 0.005427937 -0.001139967 0.011464604 0.013134429 0.0061418023 0.028873498
0.008324752 0.029939448 0.019126438 0.016985353 0.0084599 0.038302284 0.031123014 0.011227457
0.0051851245 -0.041331686 0.4537566 -0.027218405 -0.004012678 0.012862728 0.007882273 0.0014017799
0.014269626 0.022341216 0.018229315 0.011490403 0.007887006 0.018398417 0.005343737 -0.012617863
0.0036820208 0.008845952 0.025494507 -0.10900579 0.040738754 0.032130457 0.009133223 0.03435716
0.009161858 0.009065229 0.009606346 0.018451108 0.016841289 0.0042267432 0.011573282 -0.11640919
-0.3590495 -0.87159216 0.083125144 0.058609042 0.0933573 0.08535113 0.09052389 0.07436163
-0.059941493 0.0839137 0.05316202 0.013137306 0.090738595 0.08793705 -0.020816697 -0.025166601

encoder_mean.0.bias f4 [20]
00000000: 789c b7b6 01b4 1136 480f e234 64e6 43b6
00000010: 6213 58b4 e9d3 cd35 d7f0 c0b6 6a2b 0836
00000020: 9f28 c2b7 4259 aeb4 e6bb f835 0657 d7b6
00000030: d4cb 41b6 931c 0434 f8f2 b0b3 9efe 3a36
00000040: 5e70 c232 ac3d eab5 7d6d bbb5 5201 af37
-5.4720404e-06 2.171146e-06 4.21069e-07 -2.919137e-06 -2.0123619e-07 1.5335364e-06 -5.7500833e-06 2.029085e-06
-2.3145518e-05 -3.247497e-07 1.8532126e-06 -6.41763e-06 -2.8877885e-06 1.2303853e-07 -8.2398344e-08 2.7864367e-06
2.2635671e-08 -1.7452307e-06 -1.3964451e-06 2.086224e-05

encoder_mean.1.weight f4 [20]
00000000: 1806 0d3f 06ef 143f 8daa fc3d f0cd 133f
00000010: 0acd 553e 16e7 ac3e c427 033f 9cca 4f3e
00000020: 0d84 143f fb77 a73d fc15 963e a00e 083f
00000030: a9dc 893e 5112 0f3f 4b4f 7b3e 8bbe bc3e
00000040: 330a 7c3d c0ce 473e 3f3a 483e 3ffb 103f
0.55087423 0.5817722 0.123372175 0.5773611 0.20878997 0.33770055 0.5123255 0.20292133
0.58013994 0.08177181 0.29313648 0.53147316 0.26926163 0.55887324 0.24541967 0.36864123
0.061533164 0.19512463 0.19553469 0.5663337

encoder_mean.1.bias f4 [20]
00000000: 8184 a63e d822 95be 18f5 a1bc 6ffe 4f3e
00000010: ce77 90bd a46a 793e d3fb 3cbe e4e1 913d
00000020: 7ead babe 6b47 88bd 3a58 84bc ffc5 ab3e
00000030: bc6f 60be 04fe fbbc 84fd 96bd 678d 00be
00000040: 3d4a f7bc 2ad6 043c da4c 02be 702f aabe
0.32522967 -0.29128146 -0.01977019 0.20311902 -0.07054101 0.24357086 -0.18455438 0.07123163
-0.3646049 -0.06654247 -0.016155351 0.33549497 -0.21917623 -0.030760773 -0.07372573 -0.1255394
-0.030186767 0.008107701 -0.12724629 -0.33239317

encoder_mean.1.running_mean f4 [20]
00000000: 98f0 1d3f 8921 8dbe 41c7 fbbc 246f 283f
00000010: 5c68 fdbd 51d8 9ebd 3b33 473e 34cd de3c
00000020: aac0 9fbe 5210 12bd c177 4c3e 090e 073f
00000030: 529a e13d 33fc 1f3e 6057 4bbd 810d 2abe
00000040: b2c0 3abd 654a aa3d 3672 7fbe 9e1a 94bd
0.6169524 -0.27564648 -0.03073466 0.6579459 -0.123734206 -0.07756103 0.19453137 0.027197458
-0.3120168 -0.035660096 0.19967557 0.5275579 0.110157624 0.1562355 -0.049643874 -0.16606714
-0.045593925 0.08314971 -0.24945912 -0.07231639

encoder_mean.1.running_var f4 [20]
00000000: e40d b93c 1061 b23c 06bb fa3b 79c9 933c
00000010: 8718 633c b355 bd3c 6bac 913c 0cfa 9e3c
00000020: 27a0 9d3c 24aa 943b bf0d 443c bce9 a13c
00000030: 47b9 393c f417 b73c da10 503c f8c7 913c
00000040: 3e07 783b fc2f 6d3c df0c 563c 3865 8c3c
0.022589631 0.021774799 0.0076516895 0.018040406 0.013860828 0.023112154 0.01778241 0.019406341
0.019241406 0.004536884 0.011966168 0.019764774 0.0113356775 0.022350289 0.01269933 0.017795548
0.0037846114 0.014476772 0.013064592 0.017138109

encoder_mean.4.weight f4 [16, 20]
00000000: ad49 10be afa4 2d3c 2e13 7ebc 26b1 a1bd
00000010: 2413 c73d 41e2 0cbe 5be3 9dbd c512 e1bd
00000020: 01f0 953a 6b38 02bd 60bd f7bc e6a6 10be
00000030: 054e 42bc 0569 04bd a8cf 173e cf66 393e
00000040: d642 f93b fbd1 62bd 2e24 1fbe f0c9 0ebd
00000050: 2d6d 4abe 4739 893d 2b0d 2f3c ad40 a5bd
00000060: 1741 44bc ba73 3fbe 07cc 1dbc aea4 e9bd
00000070: b2cc 063e bcf8 a23b 7f43 dabc 0f45 48be
00000080: 5100 8cbc bfc3 85bd 6e1d 1a3c d787 a4bc
00000090: 018a 923c 0b4f 82bd 2cde 2fbd 86bf 733e
000000a0: a526 0b3d 4d1b 95bd 5645 a4bb de5c 243e
000000b0: b726 38bd 8bdd 7eb9 e2c5 013e 9a93 2e3d
000000c0: 3746 68bd bf81 413d 7127 d03d 3490 bf3d
000000d0: a33e 06bc a6de 6e3e f4f7 ebbd 22d6 15be
000000e0: 26d8 80bb 6e5d c73c 0541 efbd c8ed 5fbc
000000f0: b02c 4d3d 3fdd 8dbd c842 d4bd 7e29 633b
00000100: 3d37 55bd e9e3 253e f148 2c3e d0af 3e3d
00000110: 3cc8 9cbb 8b6d 103c fd91 543d 77ec 0ebd
00000120: 2fd6 463e aa50 55bc 93c0 1bbd 0ea9 cebd
00000130: 950c 9dbc c6bc 853d ba72 5a3c 92a1 e63c
00000140: e232 35be 9d95 cd3d bca3 88bb e0f3 bcbd
00000150: d81e 833c 5c9f 2ebe b33a 67bd fb0d d1bd
00000160: 0c8b 003e 6939 33bc f2e9 b7bc fd10 3cbe
00000170: db47 f23b 0e24 69bd 392b 1d3d 3110 143d
00000180: c9d7 253c 93e8 bebc 5f8f 88bd 49f6 373e
00000190: b6fd b7bd 1c16 b5bc 413d 513c 3576 3cbe
000001a0: 748e 6dbb 55f8 bebd 54ba 32bd 8cdd c4bd
000001b0: 7152 f43d 2aa8 ddbb ed6e 8dbd d6a6 5cbd
000001c0: 2de8 d2bc 4cbd 02be aa52 ff3c 0317 4e3c
000001d0: ccf0 68bc 35d2 6bbd 5799 b5bd 55b4 363e
000001e0: a40b 8dbd 0550 81bd be02 74bc 6a29 0abe
000001f0: 098a 4f3c 2c39 b7bb fea1 97bb 9737 273d
00000200: c4ec b2bc b8f1 b1ba cbe0 0ebd b7c4 cf3e
00000210: c2b7 ddba 60ef 043c 23fa d6ba 2e8f 3fbd
00000220: fa73 02bb 8749 16bd 093e b23d 16b2 a23d
00000230: e2ab 8ebd d781 7fbe aaec 0dbe 5c95 90bd
00000240: 13cf 273b 3e09 093b 7d62 54bd 2c11 46bb
00000250: bb60 25be 419a ff3c d1ae 91bd d045 24bd
00000260: e091 703b df63 cd3e 69ff a73d 6a54 aa3d
00000270: bdde 49bd b63b b83b 95b5 09bd 93e2 2f3e
00000280: 60bb 8cbd a210 123d bc89 4c3c dc55 7bbd
00000290: 17cd b03c b518 00bd f76d 00bd 76a5 43bc
000002a0: b4d6 a63e 7450 433d 0a85 29bd da44 aabd
000002b0: 5bf3 72bd dbd6 0cbd ae29 a2bc f4c2 a5bd
000002c0: ea4a 113b 6df1 543a 0edf eebc 87c3 813e
000002d0: 14bc 94be 70bf 21be 68b7 acbd ac2a 8e3d
000002e0: 7420 d9bd 4fc5 353d 32ef 603e f5b4 b83d
000002f0: 5a76 1fbe 1c28 cd3c dbe3 d93d 68e3 ad3d
00000300: af10 1e3e 5fe1 56be a257 ddbd 65f9 2bbd
00000310: a459 e1bc ba60 e83d f641 f23c 45c8 593e
00000320: d479 4f3d ca51 1cbe 491a 8abd 2b78 6a3e
00000330: b0c4 f1bc 0a43 67bd a584 aebd 0d02 c73c
00000340: 56f0 dcbd 7471 a03b 4905 213e cf1a a8bd
00000350: c922 ec3d 9432 0abd dcef 0fbd a8b7 c3b9
00000360: da7b e5bc 766c 673d 40aa d3bc c818 213e
00000370: 893f 2ebe 9669 8c3d e2ff c8bc 6ed4 f6bd
00000380: a3a1 443d e38c 31be 83c6 a1bc 084a eebd
00000390: 407f fcbb 4fa5 88bc 6cea 0fbd a9c9 2cbe
000003a0: ad7e 80bc 2ee6 f0bc 2e3c b03d 7783 f63d
000003b0: 3851 d43c 37f8 adbd d51c 16be a2af 1c3d
000003c0: 102c 1ebe c1b8 fbbc 30d5 513b 4550 cabd
000003d0: b05f 923c 1800 00be 4131 42bc dae2 8cbd
000003e0: e4bd 5c3e 7651 473b ebea 4abd cde2 1fbe
000003f0: 8e70 60bc 1ce4 c7bd d484 1cbd 897a 85bd
-0.14090605 0.010598346 -0.0155075025 -0.078951165 0.09720448 -0.13758184 -0.0770938 -0.10989908
0.0011439325 -0.031792086 -0.030241668 -0.14126167 -0.011859422 -0.032326717 0.14825308 0.18105625
0.0076068444 -0.055376034 -0.15541145 -0.03486055 -0.1976821 0.06700378 0.010684292 -0.080689766
-0.011978409 -0.1869649 -0.009631163 -0.11408363 0.13164023 0.004973499 -0.026643513 -0.19557594
-0.017089995 -0.06531476 0.009406431 -0.020084305 0.017888071 -0.063627325 -0.04293649 0.23803529
0.0339724 -0.07280598 -0.0050131483 0.16051051 -0.044958796 -0.00024305859 0.12673143 0.042621233
-0.056707587 0.047242876 0.10163773 0.093536764 -0.008193645 0.23327121 -0.11521903 -0.14632466
-0.003932017 0.024336543 -0.11682323 -0.013667531 0.050091445 -0.06926965 -0.103643 0.0034662182
-0.052054632 0.16200222 0.168247 0.046554387 -0.004784612 0.00881518 0.051897038 -0.03489348
0.19417642 -0.01301972 -0.03802545 -0.100908384 -0.019171039 0.06530146 0.013333017 0.028153215
-0.17695192 0.10038302 -0.0041699093 -0.09226203 0.016005918 -0.17052978 -0.056452464 -0.10207745
0.12553042 -0.010938981 -0.022450421 -0.18365856 0.0073938197 -0.05691915 0.0383713 0.036148254
0.010122248 -0.02330426 -0.06667971 0.17965044 -0.089839384 -0.02210527 0.012770952 -0.18404467
-0.0036248239 -0.09324709 -0.043634728 -0.09612569 0.11929787 -0.0067644315 -0.06905923 -0.053870045
-0.025745476 -0.12767524 0.031167347 0.012578729 -0.014217567 -0.057573516 -0.08867138 0.17842229
-0.06886986 -0.06314091 -0.014893232 -0.1349236 0.0126671875 -0.005591532 -0.0046274653 0.0408245
-0.021841414 -0.0013576066 -0.034882348 0.4057977 -0.0016915726 0.008113712 -0.0016401451 -0.046767406
-0.0019905553 -0.036691215 0.087032385 0.079441234 -0.06966378 -0.24951874 -0.13859811 -0.07059738
0.0025605604 0.002091005 -0.05185174 -0.0030222638 -0.16150181 0.031201484 -0.07113422 -0.04010564
0.0036708042 0.40115258 0.082030125 0.08316882 -0.049284685 0.0056223525 -0.033620436 0.17176275
-0.068716764 0.035660394 0.01248401 -0.06136118 0.02158217 -0.031273562 -0.03135487 -0.011941304
0.3258568 0.047684148 -0.04138664 -0.08313914 -0.059314113 -0.03438459 -0.019795265 -0.08093825
0.0022169896 0.00081231334 -0.029159095 0.25344488 -0.29049742 -0.15795684 -0.084334195 0.06941733
-0.10601893 0.04437762 0.21966246 0.0901889 -0.15572491 0.02504354 0.10639163 0.0849064
0.15436052 -0.2098441 -0.1080773 -0.041985888 -0.027508564 0.11346574 0.029572468 0.21267803
0.050653294 -0.15265575 -0.06743295 0.22897403 -0.029512733 -0.056460418 -0.08521394 0.02429297
-0.10788028 0.004896337 0.15724672 -0.08208238 0.11530072 -0.03373964 -0.035140857 -0.00037330133
-0.028013159 0.05649992 -0.025838017 0.1573211 -0.17016424 0.068560764 -0.024536077 -0.120522365
0.04800571 -0.173389 -0.019747978 -0.11635214 -0.007705599 -0.016680388 -0.03513567 -0.16873802
-0.015685404 -0.029406633 0.08605228 0.12036794 0.025917634 -0.08494609 -0.14659436 0.038253434
-0.15446496 -0.030727746 0.0032017939 -0.098785914 0.017867893 -0.12500036 -0.011852563 -0.06879206
0.21556813 0.0030413545 -0.04954044 -0.15613861 -0.01369871 -0.09760305 -0.038212612 -0.06517512

encoder_mean.4.bias f4 [16]
00000000: 98bf 2936 4fab 0e36 cca2 f535 9c23 4c36
00000010: 53fe 4eb5 8a23 25b5 66e5 e435 833a 25b5
00000020: bfdb 2936 bf7e 0836 2447 e535 7d63 01b6
00000030: 1826 eab6 e141 e4b6 3043 1137 ca46 9fb6
2.5294485e-06 2.1259364e-06 1.8301303e-06 3.0419096e-06 -7.711107e-07 -6.1519006e-07 1.7054087e-06 -6.1552436e-07
2.5310871e-06 2.0339355e-06 1.7082534e-06 -1.9280408e-06 -6.978178e-06 -6.802599e-06 8.658317e-06 -4.74681e-06

encoder_mean.5.weight f4 [16]
00000000: ff21 033f 8016 073f b027 f73e 4f2b c83e
00000010: dc5c 053f fc9e e73e 69af c93e 6562 a43e
00000020: 9ff8 dd3e 0083 c43e 4cd1 c43e ca22 0e3f
00000030: dd89 ea3e e7d4 c73e c9a3 de3e 8f9e 063f
0.5122375 0.5276871 0.48272467 0.39095542 0.5209482 0.45238483 0.3939164 0.3210632
0.43353745 0.38381195 0.3844093 0.55521834 0.45808306 0.3902962 0.43484333 0.5258569

encoder_mean.5.bias f4 [16]
00000000: bcc8 85be dfc4 9fbe 4a08 553e 6877 f23c
00000010: 85d8 93be 52b5 3ebe b2c2 82bd 7cfe e2be
00000020: 2125 17be 420c a1bd 0f74 1b3b 6e8e 99be
00000030: 9a22 8ebe 2233 3c3e 354d a4be 041b 043e
-0.2612971 -0.31204888 0.20803943 0.029597953 -0.2887613 -0.18623856 -0.063847914 -0.4433478
-0.14760257 -0.07863666 0.00237203 -0.29991478 -0.27760774 0.1837888 -0.32090154 0.1290093

encoder_mean.5.running_mean f4 [16]
00000000: c3d6 57be 12ea 81be ac00 243e 1970 bf3d
00000010: b180 64be d1e4 45be 29d8 b73d 785d 04bc
00000020: 3414 a4bd 4528 49bd 02f5 7f3d 1dc6 78be
00000030: 64df 61be 2934 073e 1354 03bd 4ae8 723e
-0.21078019 -0.25373894 0.16015881 0.09347553 -0.22314717 -0.19325568 0.08976776 -0.008078925
-0.08011666 -0.04911067 0.062489517 -0.24294324 -0.22057873 0.13203491 -0.0320626 0.23721424

encoder_mean.5.running_var f4 [16]
00000000: ebe8 c93d 39b6 f73d 8657 d43d bd14 123d
00000010: 00f0 e83d a7fa a53d bf53 bc3c 8f28 9e3c
00000020: 4db4 363d 6e83 a33c 1bd3 013d 42d0 e43d
00000030: 9c13 b83d 1d39 773d 43bc 353c a2eb fb3d
0.09858879 0.12095303 0.10368256 0.03566431 0.11373901 0.08104449 0.022989152 0.01930645
0.044605542 0.019960131 0.031695466 0.111725345 0.08988115 0.0603572 0.011092248 0.12300803

encoder_mean.8.weight f4 [14, 16]
00000000: dc8c 413e 74c9 f73d ad12 0bbe a8ec c13d
00000010: 34c4 513d 9ca4 083e ba5c 05be 29ee 883d
00000020: 4bbd 0abe ee31 6b3d 1ce4 a4bd 2e00 1a3e
00000030: e668 043c bd70 14be c3c9 303d e52a ccbd
00000040: c1eb 14be 2c8c 77bd e000 893d a57e 573d
00000050: d589 08be 5128 07be 2d01 a73d f2c1 c03c
00000060: e7cd 97bd fdb6 093e 7828 193d 9ba2 09be
00000070: c1fc cabc a2cb be3d da40 63bd f1d8 c93d
00000080: ff33 21bd 899a 22bd 5168 ad3d 62b5 363e
00000090: f842 5bbd a77b 5abd 3120 293e f008 ac3b
000000a0: a57d 93bd a095 aa3d 32be d33d 4dc6 87bc
000000b0: 7335 33bc bb99 7b3d 1956 683d 5c0a 2a3d
000000c0: f52a 5bbe 0c79 8c3d e554 2a3d 4c46 6e3d
000000d0: e282 0b3e 972b b13d 7757 063e 45d9 743e
000000e0: 9f63 283e 77ab 1abe eb84 723e 599b aa3d
000000f0: a896 3a3e b055 9ebc ddaa 163e 8c05 78be
00000100: 892c f73d bb59 5c3d 9cd1 babd 9b3e b9bd
00000110: c7f3 b8bc a5eb 713d 4c5b d1bc 5d4a fb3b
00000120: 1cff 843e 303b 81bc 5c82 c6bd 5cad 5dbe
00000130: dd3a 253e 0ed5 2bbd 8acf 463e ad24 35bd
00000140: 4d78 073e 2c60 023e b275 a4bd cc53 bc3d
00000150: 8774 3a3e c923 103e 2222 1dbd 78cc 673d
00000160: c263 723b bd5b 1abe 5c5f 73bd f0ad 2d3e
00000170: 929e 563d 4145 fabd 7e7a f93c 2d08 c1bd
00000180: 2c9e 163a 5c56 163e 0d46 31bd b5a6 26be
00000190: 0e9c 233e 8844 083e a643 b8bd 9287 c53d
000001a0: ef27 9fbe 5eaf 393e 1468 0bbd 68e5 8f3c
000001b0: af8b 5e3e 4697 a5bd 0b9a f9ba d227 a13e
000001c0: 5838 8abc c45c 2cbe 98ba 393d 0f76 d33c
000001d0: 2bf4 18be 90ae fbba 6f5e 9b3d eaba 083e
000001e0: 1ef2 b13c 5da6 743d 3e4f ee3d e4f4 06bd
000001f0: 6756 94bd 14c2 d03d 2cec 49bc aad1 cb3d
00000200: 9dde 3cbd 573f 2bbd 5cf9 b7bc 2e8e 563e
00000210: 315f 9cbd 403b 9fbd 4657 663d 803c e83d
00000220: e109 b2bd 2efb f43d 21ca 7a3c 1dea 6abd
00000230: 9670 79bd c60b d7bc b836 33be aac0 283e
00000240: 242c fdbc 5b74 1ebd 9454 31bd c39b 6a3d
00000250: 48d0 91bc 4cc3 eabc b4e4 ffbd eb98 00bd
00000260: 1d2b 7abd 851e 243e 4fc3 5fbd 4403 0fbd
00000270: 55eb fcbc b1db b1bc e2e0 a03d 3aab 8cbb
00000280: e2cb 263e 9e81 563e 04b2 2fbe 1aa9 143e
00000290: 210f 063e bbeb f63d 7b31 3cbd db24 53bc
000002a0: 82d1 f23b a11a d9bd 74f4 45bd 9339 1d3e
000002b0: 7386 a53d 0bce dabd 99bc 173e f32f b7bd
000002c0: 5427 133e 9bd2 6b3d 0666 0cbe b87c 3c3d
000002d0: d15d c63d a644 f83d 6041 04be 79dc 343d
000002e0: f2ed 5dbb 2465 99bc 997f f0bd 4d26 343e
000002f0: ffc4 033d 4e3e 1ebe cb4b 2e3d ec50 05be
00000300: 9d0f 95bd 9698 22be 66f3 98bd a3f4 0cbe
00000310: 7487 16be 1260 eb3c 375f efbd 8c6e 0a3e
00000320: fdb7 c1bd bceb debd 421a eebd 9597 cfbd
00000330: 1f08 07be b180 efbd 08dd 0abe 61a2 febd
00000340: 05b8 52bc cda0 2cbc 84cf 9f3c 948b 473e
00000350: dd95 48bd 85d3 78bd ebea 4e3d 27a6 8a3e
00000360: a239 b2bd aa23 f73d a016 d7ba 24c4 2cbd
00000370: 4d74 64bd 5c38 0c3e fde7 ed3d add2 623d
0.1890139 0.12098971 -0.13581343 0.09468967 0.051212505 0.13344043 -0.13023654 0.066860504
-0.13548772 0.057420664 -0.08051321 0.15039131 0.00808165 -0.14496131 0.043161165 -0.09969119
-0.14543058 -0.060436413 0.0668962 0.052611012 -0.13333829 -0.13198973 0.08154521 0.02352998
-0.0741232 0.1344871 0.03739211 -0.13440935 -0.024778726 0.093161836 -0.05548177 0.098558314
-0.039356228 -0.039698157 0.084671624 0.1784263 -0.053530663 -0.05334058 0.16516186 0.005250089
-0.07201699 0.0832932 0.10339011 -0.01657405 -0.010938036 0.061425906 0.056722734 0.041513786
-0.21403106 0.06859025 0.041584868 0.05817251 0.13624147 0.08650892 0.13119303 0.23911007
0.16444252 -0.15104471 0.23683517 0.083304115 0.18221533 -0.019327968 0.14713617 -0.24220866
0.12069041 0.05379651 -0.09122011 -0.09045144 -0.02257718 0.05906262 -0.025556229 0.007668777
0.25975883 -0.015775293 -0.09692833 -0.21648163 0.16135736 -0.04195123 0.19415107 -0.04422443
0.13229485 0.12731999 -0.08030261 0.091956705 0.18208514 0.14076151 -0.03836263 0.05659148
0.003698573 -0.15074058 -0.059417114 0.16960883 0.05239732 -0.122202404 0.030453917 -0.094253875
0.00057456153 0.14681381 -0.043279696 -0.16274531 0.15977499 0.13307393 -0.08997278 0.096449986
-0.31085154 0.18133304 -0.034034804 0.017565444 0.21732973 -0.08085494 -0.0019043101 0.31475693
-0.01687257 -0.16832262 0.045343965 0.02581313 -0.14936893 -0.0019201804 0.07586371 0.13352552
0.021721896 0.05972897 0.11636208 -0.03294839 -0.072430424 0.101932675 -0.012324374 0.099520996
-0.046110738 -0.041808452 -0.022457771 0.20952675 -0.07635344 -0.07774973 0.056235574 0.113396645
-0.086932905 0.11961971 0.01530698 -0.057352174 -0.060898386 -0.026250731 -0.17501342 0.16479746
-0.030904837 -0.038685184 -0.04329355 0.057277452 -0.017799512 -0.028657578 -0.124947935 -0.031395834
-0.061076272 0.16027267 -0.05462962 -0.034915224 -0.030873934 -0.021711202 0.07855393 -0.0042928727
0.16288713 0.20947883 -0.17157751 0.14517632 0.13091709 0.12056681 -0.045945626 -0.012887205
0.007410229 -0.10600782 -0.04832883 0.15353994 0.08082285 -0.10683831 0.14818038 -0.089446925
0.14370471 0.057573896 -0.13710794 0.04601738 0.09685863 0.12122469 -0.12915564 0.04415557
-0.003386375 -0.018724985 -0.11743087 0.17592736 0.032170292 -0.15453455 0.04255275 -0.1301915
-0.072783686 -0.1587852 -0.074682996 -0.13765197 -0.14700109 0.028732333 -0.11688083 0.13518733
-0.09458921 -0.108848065 -0.11626102 -0.10136334 -0.13186692 -0.11694468 -0.13560879 -0.12433315
-0.0128612565 -0.010536385 0.01950813 0.19486839 -0.048971046 -0.060748596 0.050517004 0.2707989
-0.08702399 0.12067349 -0.0016409941 -0.04217924 -0.055774976 0.13693374 0.11616514 0.055376697

encoder_mean.8.bias f4 [14]
00000000: f489 3cb6 2e95 b8b3 e6ca 51b5 f7b0 f4b6
00000010: a863 2137 44b6 2936 eba7 4037 eef5 8cb4
00000020: 8847 0134 cc83 1036 2c76 b834 1e09 ab36
00000030: 7fc3 d3b6 ba8b da35
-2.8094482e-06 -8.595303e-08 -7.8153823e-07 -7.292368e-06 9.619551e-06 2.5289055e-06 1.1483188e-05 -2.625597e-07
1.2040084e-07 2.1534388e-06 3.4358652e-07 5.0972585e-06 -6.3110488e-06 1.6282931e-06

encoder_mean.9.weight f4 [14]
00000000: c0e6 f33e 3960 d23e dfaf 9e3e 219c d33e
00000010: ac7e f53e 5ae2 db3e 18df bf3e 7bc1 c33e
00000020: 93c8 a53e e8c5 553e 5b57 f43e 6705 083f
00000030: aaf9 393f 464d b53e
0.47636986 0.41089037 0.30993554 0.41330054 0.47948205 0.4294613 0.37474895 0.3823355
0.32379588 0.20876276 0.47722897 0.53133243 0.7264658 0.35410517

encoder_mean.9.bias f4 [14]
00000000: b1d2 8ebd 6079 643d 44ac ec3d 2660 d43d
00000010: acd5 e1bd f8f2 a8bc f24e 37bd 7b03 3a3e
00000020: 1bd5 e43c 54ed 2cbe ce9e a4bc 028b 37bd
00000030: bb1b a9be 5f4d a0bc
-0.0697378 0.055779815 0.115562946 0.10369901 -0.11027083 -0.020623669 -0.044753022 0.1816539
0.027933648 -0.16887408 -0.020095255 -0.044810303 -0.3302897 -0.019568143

encoder_mean.9.running_mean f4 [14]
00000000: cdae 82bd 0909 453d 587d d03d cc58 0b3d
00000010: 1813 26bd 5967 06bd c5d8 523d b23c 8e3d
00000020: e64c 513d 006a 22bd 1e57 ddbc de87 aebd
00000030: 5183 40be 2d95 9b3d
-0.06380997 0.04810432 0.101801574 0.03402023 -0.040545553 -0.032813404 0.05147626 0.069451705
0.051098727 -0.03965187 -0.02701908 -0.08522008 -0.18800093 0.075968124

encoder_mean.9.running_var f4 [14]
00000000: e5d4 333d 5338 413d f978 4b3d c4a3 763c
00000010: 2e3b 013d 62a6 1d3d 4d8f 213c 6f45 263d
00000020: 3280 203d 1c3b f83b 0298 3f3d 417f 8c3d
00000030: e89a 493d 9cef 183d
0.043904204 0.047172856 0.049675915 0.015053693 0.03155058 0.038488753 0.009860826 0.04059356
0.039184757 0.0075754058 0.046775825 0.06860209 0.049219996 0.037337884

encoder_mean.12.weight f4 [12, 14]
00000000: bc9a dcbc 706d f0bd a3f9 d8bd 4cb4 893d
00000010: a8c0 2a3e f331 433d e963 d63d 8b1d 3ebe
00000020: 037f 32bc 63bf 363c 8e31 753d f433 493d
00000030: 9b70 7cbe f592 483c 6954 b63c 1853 dcbd
00000040: ee77 07be 577e d83d 0d53 243e 3f57 863d
00000050: d483 c83d 7d51 2dbe f74e d8bc 9466 aebc
00000060: 060f d03c b1ee a33d 1e44 8abe fd9e 91bb
00000070: 2575 6abe 1e0e 58bd 88a2 77bd 3c74 60bd
00000080: f215 803c 3c57 6cbe 3f71 a5bd a409 f6bc
00000090: 70a0 86bd 9758 46be d187 6dbe 9b3f 1cbe
000000a0: 8723 23be f3e0 e7bd 2407 2a3d 27c6 11be
000000b0: af5a 18be 4c5a 453d 8269 dc3d 65c2 933c
000000c0: 3240 ce3d d43f 3bbe f128 0abd 6915 16bd
000000d0: dd08 323d fdc1 893d 9dda 92be f330 0c3d
000000e0: 93e3 59be 1980 153d 0edc 733d b060 cd3d
000000f0: 5035 89bc dc58 f2bd 51d5 b33d 4bed 343d
00000100: 21dd 2f3d 14b1 48bc fbb6 8bbd 5f65 5fbe
00000110: 13bd 57be 08b4 6b3d 90d1 72be 6160 94bb
00000120: 0ec0 2dbd 34f6 1fbd 7cff 413a 32fa 62be
00000130: e42c 80bd a961 83bb 6e9a bfbc 3ba0 07be
00000140: e506 54be 059d 35be 4a79 97be a5ad b0bd
00000150: 57ae 54be dcd5 a0bd 8a8c cdbd 8382 cabd
00000160: ccc2 83bd b81e 67be 067b e8bd 06ef d8bb
00000170: b428 f5bd 1b87 2cbe dd9e 68be 9c35 f1bd
00000180: 7be5 dfbd 827a 31be 3b9e 28be 7443 933d
00000190: dec9 b63d 62dd ad3d a22c 9abd 6c4e 6cbd
000001a0: 52b1 c03d 11fe 183d 25bc d63d b991 263d
000001b0: 01aa 14bd 1925 42be 98b9 31be 2b2b ca3d
000001c0: 2cb3 3dbd a087 f53d ed14 5bbc 8062 6b3e
000001d0: a75c 2a3e 6920 11bc 1c5d 4c3e 603a d33d
000001e0: f25c f33d ba51 aa3d 0b15 4b3d 790a adbc
000001f0: 2590 31be 05ba de3d 6e84 4dbe e4cd 033c
00000200: f6d7 923d 83e1 d13d 8863 ffbc 65e5 adbd
00000210: 6f55 123e 6917 cd3c f486 c53d 0458 a8bd
00000220: 087d abbd c6a9 64be 0157 5fbe 3695 9c3d
00000230: 8345 be3b d8a1 efbd 23ac 19be f34e 19be
00000240: 9486 55be cf76 bcbc 814f 87bd d359 3cbd
00000250: aa3c 10be 41f1 c9bc 3651 29bd a85e 3e3c
00000260: 47cf 6f3e b840 acbc f21d 163d f4c6 09be
00000270: 8e46 1abe ee1b 1dbe 857f 4dbe 1e3e 29bc
00000280: de6f 84bd a087 88bd 378e 04be 706e 923b
00000290: 5da2 efbc ef7e 063d 7692 653e e2ee 403d
-0.026929252 -0.117396235 -0.105944894 0.06723842 0.16675055 0.047655057 0.10468275 -0.18565957
-0.01089454 0.011154029 0.059861712 0.049121812 -0.2465233 0.012242069 0.022257047 -0.107580364
-0.13229343 0.105709724 0.16047306 0.065596096 0.09790769 -0.16925617 -0.02640484 -0.021289147
0.025397789 0.08004511 -0.27005094 -0.0044440017 -0.2289625 -0.05274784 -0.060457736 -0.05479835
0.015635464 -0.23080152 -0.080782406 -0.030033894 -0.0657357 -0.19369732 -0.23196341 -0.15258639
-0.15931521 -0.113222025 0.041510716 -0.14235745 -0.14878343 0.048181817 0.107623115 0.01803703
0.10070838 -0.18286067 -0.03373045 -0.036641512 0.043465484 0.067264535 -0.28682414 0.03422637
-0.21278219 0.036499117 0.059536032 0.10028207 -0.016749054 -0.11833355 0.08780921 0.044171613
0.042935494 -0.01224925 -0.0682201 -0.21816014 -0.2106822 0.057544738 -0.23712754 -0.004528091
-0.042419486 -0.039053157 0.0007400436 -0.22165754 -0.06258562 -0.0040094447 -0.023389068 -0.13244717
-0.20705755 -0.1773568 -0.29584724 -0.0862687 -0.2076963 -0.078532904 -0.10036571 -0.098881744
-0.06433639 -0.22570312 -0.1135159 -0.0066202907 -0.11970654 -0.16848414 -0.22716852 -0.11777803
-0.10932442 -0.1733189 -0.1646661 0.071906 0.08925222 0.08489491 -0.07528044 -0.057691976
0.09408821 0.03735167 0.104851045 0.040666316 -0.03629494 -0.18959464 -0.17355955 0.09871515
-0.04631345 0.11988759 -0.013371688 0.22986794 0.16636907 -0.008857825 0.19957393 0.103138685
0.11882962 0.08316369 0.049580615 -0.021123158 -0.17340143 0.10875324 -0.20070049 0.008044694
0.071700975 0.10248091 -0.03117539 -0.08491019 0.14290403 0.025035577 0.09644881 -0.08219913
-0.08373457 -0.22330388 -0.21810533 0.07645647 0.0058066263 -0.11700791 -0.15007071 -0.14971523
-0.20852119 -0.023005871 -0.06606961 -0.0459841 -0.14085642 -0.024651172 -0.041337214 0.0116192475
0.23418914 -0.021026954 0.03664965 -0.13454801 -0.15065977 -0.15342686 -0.20068176 -0.010329751
-0.064666495 -0.066664934 -0.12944876 0.0044687316 -0.029252226 0.032835897 0.22419152 0.047102816

encoder_mean.12.bias f4 [12]
00000000: f5fd bf34 8366 df35 60b0 19b6 bcad 0e36
00000010: fdb9 8db5 4570 d935 ec4d 17b6 0bd1 2e36
00000020: 8cf1 c1b6 40e2 a435 7fd7 8937 0696 7535
3.57613e-07 1.664463e-06 -2.290144e-06 2.1260776e-06 -1.0559448e-06 1.6200435e-06 -2.254611e-06 2.60497e-06
-5.779968e-06 1.22848e-06 1.643202e-05 9.1487925e-07

encoder_mean.13.weight f4 [12]
00000000: 5627 583f 7993 583f 5a75 9e3f 4b8f 703f
00000010: bf61 5e3f cfcc 873f d245 a33f 09f4 473f
00000020: 81f9 493f 4300 5f3f b876 a73f e035 a63f
0.8443502 0.84600025 1.2379563 0.9396865 0.868679 1.0609378 1.2755682 0.78106743
0.7889634 0.87109774 1.3083105 1.2985191

encoder_mean.13.bias f4 [12]
00000000: f1fb 003e ae77 e53d d442 77be 5b76 943d
00000010: fdc9 f13d 0e11 53bd f34a 4bbe 5ae5 223e
00000020: 8608 d43e e41b f43d 5e17 583c e50f 96bc
0.12596108 0.11204468 -0.24146587 0.07249137 0.11806104 -0.051529936 -0.1985281 0.15907803
0.41412753 0.11919382 0.013189165 -0.018318126

encoder_mean.13.running_mean f4 [12]
00000000: f111 28bd 0c23 0fbd b29c 61be 44b0 76bd
00000010: 2beb 86bd c2af 4bbe f1ce 72be ac17 83bc
00000020: e72a ff3d 2753 7bbd a4fb ebbd 27b9 dabd
-0.041032735 -0.034945533 -0.22032431 -0.060226694 -0.065878235 -0.19891265 -0.23711754 -0.016002499
0.12459355 -0.061358597 -0.11522606 -0.10679846

encoder_mean.13.running_var f4 [12]
00000000: c398 013d 2d71 1f3d a4fa 153d 3f0b ff3c
00000010: 2839 0c3d ea3a fc3c 8a6a 4d3d 0969 353d
00000020: 147f 5f3d da0e 183d 566b 353d f979 2b3d
0.031639826 0.038926292 0.036615983 0.031133292 0.034234196 0.030789811 0.05015043 0.044289622
0.05456455 0.03712354 0.044291817 0.04186437

encoder_mean.16.weight f4 [10, 12]
00000000: 8659 893b e0e5 8fbc 8ccd 6dbc 94d8 2c3c
00000010: 6216 a03c d7f3 dcbc 742d 8bbb 19c7 a73c
00000020: 3258 9bbc e3fa 3e3c 82a0 553b ba9b cb3c
00000030: e3e3 f8bd e8b2 38be 6c71 99be 83bc 92bd
00000040: ab0f 5f3d db4b 7ebe ed6e 5bbe 45ff 243e
00000050: d819 a0bd 63bb e23d 6815 7a3e a947 9f3e
00000060: 00db bdb6 754a ea3b a2d0 3d3b a86d 26bb
00000070: 9a69 4c3b d820 06bc 06a2 d13b 8cd7 47b9
00000080: f7be 113c a88f a4bb c513 96bb 3823 36bb
00000090: ca77 95be abda 83be eb7a 6f3e b5f8 88be
000000a0: ed34 843e 0f59 bd3e db9b 2c3e ebaa 2c3e
000000b0: 4b61 dc3d 37b6 7f3e 2c3f 18be 67e5 24be
000000c0: 85a1 e53e 673a fc3e 1f7c 80bf 19a1 003f
000000d0: e862 a83c d68f 37bf bdf4 8bbf b094 0b3e
000000e0: dd9e cc3e eef4 923d 06d1 01bf 120c dfbe
000000f0: 6c2d e1be f87f d6be 04ad bd3e 1b19 c6be
00000100: 6570 0f3d 6cd7 043e 131c f93e 9468 d83d
00000110: d25d 29be 499e 033d 05f9 003f 6e08 d63e
00000120: 0ffe 3d3e 9709 613c 610d ebbe 13db 773e
00000130: 209a 0fbe bb16 babe 5d4c 96be 717e f3bc
00000140: 0ed0 813d b745 06be 3e16 093e 6be1 0c3e
00000150: 68ff 6abd cafe c3bd 7364 25be 3079 fdbc
00000160: 7598 ca3c 7480 28be 44f0 01be 6a29 833d
00000170: 6113 a6bc 33b0 153d d4db 093e d54e 283e
00000180: ea8c 61be a00c 80be ea1a c03d da33 9cbe
00000190: 7abc 263f dd02 903e 5da2 0abe 6905 223f
000001a0: c5bc 173f 81ec 293f 48d8 59bf 5a64 60bf
000001b0: 7a8e a23c a349 aa3c d2d3 223d 3153 aa3b
000001c0: dcc1 bc3c dd2c 903d c017 883c 4ad8 93bc
000001d0: 4cdc 56bc 0f4f 85bc 3684 febc ed0c d6bc
0.00419158 -0.017565668 -0.014514338 0.010549683 0.019541923 -0.02697174 -0.004247362 0.02048068
-0.018962953 0.011656496 0.003259689 0.02485453 -0.12152841 -0.18036997 -0.29969347 -0.07164862
0.0544583 -0.24833624 -0.21429034 0.16113003 -0.07817429 0.110708974 0.24422228 0.3110936
-5.658134e-06 0.0071499893 0.0028963466 -0.002539495 0.0031190873 -0.0081865415 0.0063974885 -0.00019058416
0.008895627 -0.005022008 -0.0045799934 -0.0027791988 -0.29192954 -0.25752768 0.23386733 -0.26752248
0.2582163 0.3698201 0.16856329 0.16862075 0.10760745 0.24971853 -0.14867848 -0.16103135
0.44849792 0.49263307 -1.0037879 0.50245816 0.020554975 -0.7170385 -1.0934063 0.13630939
0.39964953 0.07175623 -0.5070957 -0.43563896 -0.43979967 -0.41894507 0.37046063 -0.3869103
0.035019297 0.12972802 0.4865423 0.10566822 -0.16539696 0.032133374 0.50379974 0.41803306
0.18553947 0.013735197 -0.45908645 0.24204664 -0.14023638 -0.36345467 -0.29355136 -0.029723378
0.063385114 -0.13112532 0.13387391 0.13757865 -0.05737248 -0.095700815 -0.161516 -0.030941576
0.0247309 -0.16455251 -0.1268931 0.064043835 -0.020272912 0.03654499 0.13462764 0.16436322
-0.2202641 -0.25009632 0.093801335 -0.3050831 0.6513134 0.28127185 -0.13538499 0.63289505
0.59272414 0.663765 -0.85095644 -0.87653124 0.019843329 0.020787066 0.03975279 0.0051979055
0.023041658 0.07039807 0.016612887 -0.01804747 -0.013114046 -0.01627305 -0.031068902 -0.02612921

encoder_mean.16.bias f4 [10]
00000000: 952c ecbb abb3 033d 8851 f03a 22a0 17be
00000010: 4e19 223f 9715 aebe f98a 393e d211 0c3d
00000020: a06e d03b d1e7 cfbc
-0.007207463 0.032153767 0.0018334845 -0.1480718 0.6331986 -0.34000847 0.1811942 0.034196682
0.006360844 -0.025379093

encoder_var.0.weight f4 [20, 30]
00000000: 3aca 1fb9 8ae1 fdb9 cae4 ccb9 bfd7 3539
00000010: c619 8b39 d071 2438 795b 1cb9 6c26 1638
00000020: 3eb2 a438 0fe2 02ba 566d 12b8 8ec1 4b37
00000030: 9b58 62b9 a3aa 0239 e0a9 383a b5ba 02ba
00000040: 0c40 01b9 40d9 5b3a fc77 2936 b931 b839
00000050: aae3 0e39 765d e5b7 eb73 0bb9 fdc4 73b9
00000060: 2a58 65b7 56f8 d438 f4da d0b8 c3d8 7fb9
00000070: 97c2 8039 1809 7239 ca64 9d39 8ff3 aa38
00000080: 484b 52b9 a16a 6ab9 aa00 f638 e234 053a
00000090: c68d 98b9 a260 e5b9 d975 c0b8 23e4 51b8
000000a0: e0e9 84b5 41eb c8b8 5583 e738 6015 6739
000000b0: b39e d338 63e7 1bb9 fdb2 fa38 49f7 6239
000000c0: 7ded 0cb9 10d9 273a 136d 3eb9 e9e5 c7b9
000000d0: 0004 2ab9 95cb 98b8 7bbc 0dba 3c29 ab39
000000e0: 2a50 abb9 c61b d3b7 3aab 85b7 9758 cb38
000000f0: fac8 83bb 568c 10bc 5240 df3a 5f59 cb3a
00000100: 5719 0cbb 9f53 803a c887 623b c064 44b6
00000110: 520d fd3a 30cc 7bb7 381b 2a3b 6ec8 343a
00000120: fc76 aabb 31b6 1eba 4e78 683b 2c72 9a3b
00000130: de8f 7eba a1ac 1bbc a989 973b fd5d 33bb
00000140: 320d c33a 9bd5 5bbb 893a 663b 6436 3a3b
00000150: 8c29 a039 ba8a 38bb c465 383b 6376 0f3b
00000160: 651b 14bb 8ae8 40bc 1213 19bb 946c 12bc
00000170: 6881 603b e885 39b9 2e66 0d3a e547 47bb
00000180: 5a6c 913b c26e bb3a fae4 803a 4a1d 8dba
00000190: 20de cf3a f999 303b ee7b b13a 89c7 c5bb
000001a0: b03a 51ba 702d 583b 0ed6 1e3b 7601 dcbb
000001b0: 2a9b 76b9 4feb 85bb 9aa8 1fba a1c9 fbb8
000001c0: 1e72 723b 937c 883b fc80 d9b9 c0d9 c138
000001d0: 5496 c3b8 5940 d6ba f28c d73a 7f62 e7bb
000001e0: d236 bbbb 733c df3b 7440 21bb e6a3 95ba
000001f0: 961c 123b b0f9 8637 7cec 45ba cd0e 9d39
00000200: b850 8bb8 2e81 f839 adc6 7cb9 053e fbb9
00000210: 1a46 3dba 69d1 8d3a e4c0 47bb 9213 71b9
00000220: 2289 8e3a 2b66 063c 1008 9ebb a979 e33a
00000230: 57fe 83ba 5936 53ba 3eb3 acba 65ae 88bb
00000240: 49a3 813b d667 3d3b 04b9 1cbb fa0f 26ba
00000250: 09d6 2b3a ebb0 a33b e66e 8bba a308 09ba
00000260: 2ee6 27b9 1aeb cc39 034a 11b8 26d8 a638
00000270: b158 db38 4af3 9ab7 afe0 04b9 3c96 9639
00000280: 8bc5 d038 701e a6b9 7b46 96b9 a298 3939
00000290: 86bd 36b9 7052 e5b9 583f 1338 c971 a73a
000002a0: dc63 eeb9 3d18 d4b9 b833 d939 cde5 8d39
000002b0: 1145 88b7 4cec e4b9 9f86 b939 ae29 8eb8
000002c0: e6a5 a738 2f7a e238 6e67 e1b8 802b a3b7
000002d0: 3042 983b 59bb 88bd ae93 723a d863 6c3b
000002e0: 5602 01bb e6bf 78ba 99c9 02bb a8bc 91b7
000002f0: 703c ee3b 2c11 c8ba 8616 a4bb f413 203c
00000300: b2a4 d1bb 664a 1dbb 5200 babb a7ee 0cbb
00000310: 3d5d ff38 e48e 12bb f2f3 2c3c 1551 5ebb
00000320: c231 2c3b faef 193b f63b ac3b 1021 90b9
00000330: 0dc1 a5bb 222e ccba b935 cc3a 9910 883a
00000340: 56fc 87ba 8019 0ebd 3b37 a7bb 2293 d9bc
00000350: 4aa2 743a 0b7d 803b de27 25ba 6db4 a2bb
00000360: 30d0 073a 1481 bdba 988c d83a e15b d0bb
00000370: 8546 883a 2636 ac3b 1104 50bb 8299 d13b
00000380: 124a d83b 9ef8 613b 5173 233b 7d8c 40bc
00000390: cb5c e13a a180 5bbb 544a 4d3b dddc ad3a
000003a0: b0c8 a53b ba53 99ba 14f0 beba e47e cd3b
000003b0: 3a72 cdbb 79ee 793b d255 72bb 36f5 b2bc
000003c0: bd42 92bb 7b6b d6bc 34a3 e83a 67d3 19bb
000003d0: 8891 3dba b591 0e3b 1df9 db3b a040 7238
000003e0: 3c91 9d3a 3ce9 18bc bd34 593b bebc b43b
000003f0: 6407 023b dee7 43bb 010d 983b bcd5 b03b
-0.00015238757 -0.0004842396 -0.00039080373 0.00017341877 0.0002653135 3.9206643e-05 -0.00014911396 3.579857e-05
7.8533296e-05 -0.0004992792 -3.491094e-05 1.2144808e-05 -0.00021586048 0.00012461333 0.00070443563 -0.0004986928
-0.00012326258 0.000838656 2.5252803e-06 0.0003513226 0.00013626987 -2.7342448e-05 -0.00013299256 -0.0002324767
-1.3669991e-05 0.00010155204 -9.958996e-05 -0.00024399445 0.00024559043 0.00023082306 0.00030020467 8.151598e-05
-0.00020055205 -0.00022355701 0.00011730318 0.00050814275 -0.0002909733 -0.0004375028 -9.177224e-05 -5.0041952e-05
-9.902833e-07 -9.5805626e-05 0.00011039401 0.0002203784 0.00010090824 -0.0001486815 0.00011954268 0.0002164516
-0.00013439912 0.0006402889 -0.00018160445 -0.00038127534 -0.00016213953 -7.285845e-05 -0.0005406809 0.00032646384
-0.00032675389 -2.5166093e-05 -1.593457e-05 9.6962955e-05 -0.004021761 -0.008822521 0.0017032719 0.0015514306
-0.0021377408 0.0009790546 0.0034565795 -2.926492e-06 0.0019306338 -1.5008307e-05 0.0025956165 0.00068963214
-0.0052021723 -0.00060543703 0.0035472098 0.0047133174 -0.0009710769 -0.009501607 0.0046245647 -0.0027369254
0.0014881252 -0.0033544067 0.0035130105 0.0028413767 0.00030548533 -0.002815886 0.002813683 0.0021890632
-0.0022599336 -0.011774192 -0.0023357314 -0.00893702 0.003425682 -0.00017692859 0.0005393949 -0.0030407843
0.0044379653 0.0014299976 0.0009833865 -0.0010766175 0.0015859045 0.0026947244 0.0013540962 -0.0060357493
-0.00079814624 0.0032986067 0.0024236473 -0.0067140413 -0.00023518191 -0.004086889 -0.0006090492 -0.00012006169
0.0036994289 0.004165241 -0.00041485566 9.243516e-05 -9.3263254e-05 -0.0016346081 0.0016445203 -0.007061302
-0.005713322 0.006812626 -0.0024605067 -0.0011416643 0.002229487 1.6090315e-05 -0.00075501925 0.000299564
-6.6430715e-05 0.00047398492 -0.00024106605 -0.0004792066 -0.0007220224 0.0010819855 -0.0030479962 -0.00022990842
0.0010874609 0.00820307 -0.0048227385 0.0017354983 -0.0010070306 -0.00080571097 -0.0013175977 -0.00417118
0.0039562327 0.0028901002 -0.002391399 -0.0006334778 0.0006555026 0.0049954555 -0.0010637909 -0.0005227422
-0.0001601211 0.00039085076 -3.4639623e-05 7.9557576e-05 0.00010459254 -1.847152e-05 -0.00012672202 0.00028722163
9.955008e-05 -0.00031684665 -0.00028662742 0.00017699835 -0.00017427476 -0.00043739704 3.5106525e-05 0.0012775
-0.00045469298 -0.0004045385 0.00041428 0.0002706483 -1.6244625e-05 -0.00043663604 0.0003538625 -6.778851e-05
7.9940815e-05 0.00010799278 -0.00010748101 -1.945137e-05 0.004646562 -0.06676359 0.00092535734 0.0036070254
-0.001968523 -0.00094890443 -0.0019956587 -1.7373197e-05 0.0072703883 -0.0015263907 -0.005007568 0.009770382
-0.006397807 -0.0024000644 -0.0056763077 -0.0021504553 0.000121767145 -0.0022363001 0.010556208 -0.003392284
0.0026274775 0.0023488984 0.0052561713 -0.00027490454 -0.005058414 -0.0015577713 0.0015579975 0.0010380923
-0.0010374885 -0.034692287 -0.0051030195 -0.026559416 0.0009332044 0.0039211563 -0.0006300191 -0.004965356
0.00051808637 -0.0014458024 0.0016521392 -0.006358609 0.0010396993 0.0052554784 -0.0031740705 0.0063964734
0.0066006267 0.0034480463 0.002494056 -0.011752245 0.0017193792 -0.0033493417 0.003132482 0.0013264675
0.005059324 -0.0011697926 -0.0014567398 0.00627123 -0.0062697204 0.0038136526 -0.0036977422 -0.021845441
-0.004463522 -0.026174298 0.0017748834 -0.0023471953 -0.00072314637 0.0021754329 0.006713046 5.7757483e-05
0.0012021433 -0.009332951 0.0033143007 0.005515664 0.001984083 -0.0029892842 0.004640222 0.005396573

encoder_var.0.bias f4 [20]
00000000: 72fd 5db2 7da7 9db2 dfc1 9eb4 f0d8 d431
00000010: 348a 03b4 a03b 6734 9851 df33 5049 d731
00000020: f029 5c31 460c b433 1847 60b4 9427 efb3
00000030: d619 ccb2 89bd 47b4 6403 b133 c775 5cb4
00000040: 72a6 3934 403a be33 fb3f 0eb3 a860 57b4
-1.292152e-08 -1.835337e-08 -2.9570853e-07 6.194675e-09 -1.2250604e-07 2.1535243e-07 1.03990885e-07 6.265658e-09
3.2038052e-09 8.384136e-08 -2.088749e-07 -1.1136504e-07 -2.3760474e-08 -1.8602272e-07 8.2428215e-08 -2.0531944e-07
1.729002e-07 8.85816e-08 -3.312014e-08 -2.0058599e-07

encoder_var.1.weight f4 [20]
00000000: 0333 243b 0767 403b 9654 7f3c 7ff7 4d3c
00000010: 94ad 763c dcd2 273b d1ee 743d 9dc6 ec3c
00000020: 17d6 d43c f097 153c b675 9f3b b401 4d3c
00000030: 78a5 9f3c 0df9 043b df78 263c 50fb e43c
00000040: 1c6f 6e3c fa73 583b 23c2 9d3b 450a 4e3b
0.002505482 0.0029358284 0.015584132 0.012571215 0.015056033 0.002560786 0.059798066 0.0289033
0.025980992 0.009130463 0.004866327 0.012512613 0.019488081 0.0020290047 0.010160654 0.027951866
0.014552858 0.0033028112 0.0048144027 0.0031439227

encoder_var.1.bias f4 [20]
00000000: 49bf 8939 c491 cbb9 a669 c53b 8840 d2ba
00000010: 462e 123c 9421 773a 5023 80b9 d758 733c
00000020: 69ee 2e3c 5833 ed39 c6fd 503a aee5 0a3c
00000030: 282b ab3b 9af7 373a 6002 2c3b 7d4e 953b
00000040: 8773 aa3b c820 da3a 324c 833a 0405 1d3a
0.00026273195 -0.0003882778 0.006024557 -0.001604096 0.008922165 0.0009427306 -0.00024440372 0.014852724
0.010676959 0.00045242417 0.00079723855 0.0084776115 0.0052236505 0.00070177915 0.0026246533 0.0045564757
0.00520176 0.001664185 0.0010017215 0.0005989822

encoder_var.1.running_mean f4 [20]
00000000: a624 9b3a 5c15 c03a 5460 4bbc 9432 7bbc
00000010: 6ab9 223c b31b 4e3a be8a 63bd 54ca 07bd
00000020: dfdb 08bd 9c39 393b c56b 9639 2468 2bbc
00000030: fba4 bbbc c12a 83ba e921 c63b 3048 15bd
00000040: 0f03 62bc a2f6 c73a 8d52 d239 c309 663a
0.0011836484 0.0014654803 -0.012413103 -0.015331883 0.0099319015 0.0007862404 -0.055552237 -0.03315194
-0.03341281 0.0028263098 0.00028690524 -0.010461841 -0.022905817 -0.0010007248 0.006046523 -0.036445796
-0.013794675 0.0015255997 0.00040115826 0.00087752583

encoder_var.1.running_var f4 [20]
00000000: 3d09 3536 c555 a636 5bff 8638 dbb5 4a38
00000010: 872c 9d38 90aa 3e36 99d4 5d39 ccbf e238
00000020: 6975 3939 88d6 aa37 79cb 5237 5bd1 0f38
00000030: 39e1 bf38 7231 1736 43d2 eb37 af11 1939
00000040: bc53 b737 c598 f336 4722 1c37 c79e 5936
2.697648e-06 4.9571704e-06 6.4371816e-05 4.832992e-05 7.494637e-05 2.8411487e-06 0.00021155401 0.00010812245
0.00017686714 2.0365478e-05 1.256435e-05 3.4288834e-05 9.149541e-05 2.2529534e-06 2.8112094e-05 0.00014597805
2.1854292e-05 7.259749e-06 9.306305e-06 3.242794e-06

encoder_var.4.weight f4 [16, 20]
00000000: a6a0 1db9 310e 3eb8 5be0 bbba 6cac 95ba
00000010: d470 143a e0fd 1c39 19aa d5ba 56f8 e3ba
00000020: 083b b2ba b92c 2a3a ebac df39 6b8b 73ba
00000030: 38d1 aeba 0d5b 5439 8804 293a 880f dcba
00000040: cbd0 e0b9 3028 aa38 6d7e bd39 b3f4 2d39
00000050: fda6 38b9 187e 3fba f2f1 9f3b 0d87 8e3b
00000060: 344f cbbb a421 2aba 16c8 aa3c bb09 4b3c
00000070: a461 253c 29b7 2dbb 01fd daba c6fc ad3b
00000080: fda8 fe3b 4b5a a239 d24c 70bb f306 1a3c
00000090: 3aba a73b 4fdc 5eba b929 bbba 5af0 71b9
000000a0: f44b 30b9 1f1c b0b9 e453 653b e0f3 5b3b
000000b0: f06f c4bb 1ecb 0bba 7708 b33c 9837 2a3c
000000c0: 4a7d 133c 86b9 dbba 6881 c2ba ebc7 8a3b
000000d0: 092c df3b e52d 013a dce7 51bb eb21 023c
000000e0: 0bab 983b 731c 55ba da8e e4b9 1767 30b9
000000f0: 1e3c 25b9 3093 eeb8 09ee 313b de91 313b
00000100: 2b72 85bb 8083 ebb9 db39 6b3c 28bd 063c
00000110: 6b5e d23b 6b81 7bba 99bd 74ba be36 3d3b
00000120: 7267 b33b 80f7 71b8 894e 3dbb 002a e53b
00000130: 8b47 683b 0af0 0bb9 0d17 3eba c398 afb9
00000140: ef20 d136 57b8 f6b8 2aa0 1a3a b001 27b9
00000150: fa28 8ab8 3d6f e237 ad5d 8039 7c7c 2c38
00000160: e3d5 9339 bc53 50b8 ce13 02b9 6ff3 5739
00000170: 9024 84b8 8bca 92b7 8b6c 9eb8 390d a539
00000180: 8b6d b8b7 c16d bab8 f49f bd38 7bc8 0838
00000190: 93c0 bbb9 f052 14ba 1141 7a3b 12f9 193b
000001a0: a5c5 63bb 532e d7b9 b33b 3d3c e45b c93b
000001b0: 0c16 a93b c59d d4ba f7d6 95ba 148e 293b
000001c0: d6cf 7f3b c844 4f38 d0e0 28bb c2a2 ae3b
000001d0: dd85 263b a41b 26ba 0645 31ba bdb0 48ba
000001e0: fe5d 86b8 554c d2b8 32a7 b13a 8b18 9a3a
000001f0: a1c0 e0ba cd81 47b9 a6fd ae3b 5b9d 4e3b
00000200: cc29 2b3b df3a 82ba c0b1 0cba fafe 903a
00000210: bb03 003b 40df b2b8 06b3 8bba 45a6 383b
00000220: 1473 ac3a 07b9 2cb9 d1df 14b9 ee62 32b9
00000230: 3d28 c037 0c82 78b8 7439 f439 2d88 d539
00000240: efca 4cba 72ec f1b8 7e8b 123b 27f3 a23a
00000250: b22e 703a 0831 e0b9 48fd 59b9 7a91 b739
00000260: d042 303a 83df 2eb9 5b9d ffb9 2970 893a
00000270: e840 ca39 4f17 fcb7 ad50 0bb9 cf93 9bb8
00000280: d68a 9e38 8036 12b8 5699 0438 9349 c238
00000290: ccdb 74b9 44b9 fa38 2968 a239 ee0c ae38
000002a0: eea0 fd37 00d9 d3b7 9cce 8f37 06d9 0e39
000002b0: 04cd 4539 2d4e 4539 76b8 3138 11e7 c839
000002c0: 98f0 15b8 5779 3db9 1374 f238 7219 9eb8
000002d0: 9ce9 fdb9 43c2 17ba 1e4e b43b bb12 a73b
000002e0: 0887 36bc 4960 77ba 888a dd3c d452 743c
000002f0: afc3 3d3c 0b72 25bb 3287 1fbb e2a2 013c
00000300: cb0d 1e3c dfc0 dc39 e760 bebb 63b6 363c
00000310: 727b d93b ced1 a7ba 5fbb dfba 5cd8 23ba
00000320: 16ce 1bb9 4084 c0b8 851f 3d3a 5782 453a
00000330: b9a7 abba 249f 47b9 2e5b 683b 76a0 103b
00000340: 1cf7 db3a ac65 84b8 4d8a 87b9 fa2b 573a
00000350: 424c bf3a 9a34 d638 21b7 61ba 38c2 d33a
00000360: 72f3 753a f820 a3b8 7671 bdb7 f547 3538
00000370: 6b08 62b7 c350 89b8 f150 f8b8 76db 8ab7
00000380: f93f 0eb8 8ca1 b538 3e7c e8b7 13e1 0a39
00000390: 7e5e 31b7 1f53 a137 6240 21b6 dec4 72b8
000003a0: b44a b537 eed7 4237 acf3 0038 e842 93b7
000003b0: 73e6 04b8 0294 1238 7a53 0e37 c07e 8cb3
000003c0: 85fe 5037 82c9 70b9 209a 973b d03a b83b
000003d0: ec1d bcbb c3f7 eeb9 a6d8 f73c 3bd6 a73c
000003e0: 4705 553c c8a4 34bb def9 20bb 7d3b 083c
000003f0: b105 713c b53e 0939 7824 8eb9 1f45 453c
-0.00015032533 -4.5312747e-05 -0.0014333831 -0.0011419184 0.00056625647 0.00014971895 -0.0016301303 -0.0017392735
-0.0013597915 0.00064916495 0.00042662708 -0.0009290489 -0.0013337499 0.00020251815 0.00064475136 -0.0016789297
-0.00042880172 8.113717e-05 0.00036143084 0.00016589723 -0.00017609815 -0.0007304861 0.004881137 0.0043495954
-0.00620451 -0.0006489998 0.020847362 0.012392457 0.01009408 -0.0026506877 -0.0016707481 0.005309674
0.00777161 0.0003096632 -0.0036666882 0.009401071 0.0051186355 -0.00085014565 -0.0014279402 -0.00023073089
-0.00016812963 -0.00033590288 0.003499263 0.003356211 -0.0059947893 -0.0005332696 0.021854622 0.010389231
0.009002039 -0.0016763664 -0.0014839591 0.004235258 0.0068106693 0.0004927798 -0.0032029068 0.007942657
0.004659062 -0.00081295444 -0.00043593982 -0.00016823072 -0.00015758022 -0.0001137614 0.0027149937 0.0027095
-0.004072448 -0.00044920668 0.014357056 0.008223809 0.006419947 -0.0009594175 -0.00093361136 0.002887174
0.005474978 -5.768938e-05 -0.0028885922 0.006993532 0.0035443034 -0.00013345495 -0.00072513596 -0.00033492417
6.2325194e-06 -0.0001176453 0.00058985 -0.0001592699 -6.587985e-05 2.6993099e-05 0.00024483856 4.112393e-05
0.00028197383 -4.9669048e-05 -0.00012405144 0.00020594684 -6.301061e-05 -1.7498873e-05 -7.554245e-05 0.00031481104
-2.198552e-05 -8.8896144e-05 9.042016e-05 3.261164e-05 -0.00035810898 -0.00056581106 0.0038185755 0.0023494405
-0.0034755256 -0.0004104251 0.011549878 0.0061449874 0.005160099 -0.0016221335 -0.0011431862 0.0025872039
0.0039033792 4.9416703e-05 -0.0025768764 0.005329461 0.0025409379 -0.0006336516 -0.00067622995 -0.00076557306
-6.407125e-05 -0.00010027798 0.0013553856 0.0011756582 -0.0017147252 -0.00019026473 0.005340296 0.0031526897
0.0026117442 -0.0009935758 -0.0005367063 0.0011062317 0.0019533474 -8.529285e-05 -0.0010658212 0.0028175276
0.0013156855 -0.00016472126 -0.00014197758 -0.00017012257 2.2906921e-05 -5.9248923e-05 0.00046582113 0.00040727985
-0.0007812222 -0.00011535817 0.0022360976 0.0012432084 0.00091622316 -0.0004276114 -0.00020789087 0.00035012868
0.0006723823 -0.00016677198 -0.0004875463 0.0010485697 0.000385768 -3.0051595e-05 -0.00013286127 -7.4185074e-05
7.559887e-05 -3.485987e-05 3.1614058e-05 9.264345e-05 -0.00023351534 0.000119554374 0.00030976653 8.299375e-05
3.0234889e-05 -2.5254209e-05 1.7143138e-05 0.00013623023 0.00018863758 0.00018816507 4.237188e-05 0.0003831913
-3.574844e-05 -0.00018069647 0.0001156108 -7.538767e-05 -0.00048429973 -0.000578914 0.0055024764 0.0050986684
-0.011140592 -0.000943665 0.027043596 0.014912326 0.011582299 -0.0025244977 -0.0024342057 0.007912369
0.009646843 0.0004210537 -0.0058098915 0.011151883 0.0066370303 -0.0012803616 -0.0017069391 -0.00062501966
-0.00014858725 -9.179907e-05 0.00072144746 0.0007534376 -0.001309625 -0.00019037403 0.0035454738 0.0022068298
0.0016782018 -6.313188e-05 -0.0002585225 0.0008208152 0.001459487 0.00010214113 -0.0008610357 0.0016155904
0.00093822845 -7.7785866e-05 -2.258339e-05 4.3220778e-05 -1.347261e-05 -6.547712e-05 -0.00011840638 -1.6553076e-05
-3.3915017e-05 8.660843e-05 -2.771441e-05 0.00013244552 -1.0572023e-05 1.9231402e-05 -2.4028345e-06 -5.7880643e-05
2.1611668e-05 1.1613576e-05 3.0744515e-05 -1.7554921e-05 -3.1685875e-05 3.4946956e-05 8.4832955e-06 -6.542314e-08
1.2457026e-05 -0.00022963251 0.0046265274 0.0056222454 -0.0057408717 -0.00045579494 0.030254673 0.020487895
0.0130017465 -0.0027564038 -0.0024562995 0.008314964 0.01471083 0.00013088698 -0.00027111522 0.0120404055

encoder_var.4.bias f4 [16]
00000000: 4053 d234 ea5e ae34 4842 48b4 be97 84b4
00000010: 03a9 e532 0310 8d34 f8a3 d6b3 6a62 0334
00000020: 685a b333 464c d035 d5c4 adb4 d9e1 3233
00000030: 1c91 24b5 b43a c9b3 6f07 64b4 de81 fb33
3.917612e-07 3.2479085e-07 -1.8650564e-07 -2.4697323e-07 2.6735966e-08 2.6274947e-07 -9.994977e-08 1.2236129e-07
8.351782e-08 1.5519406e-06 -3.2366975e-07 4.1649262e-08 -6.130592e-07 -9.37047e-08 -2.1236859e-07 1.1711721e-07

encoder_var.5.weight f4 [16]
00000000: ce6a 513c 1f61 0e3d fffc 033d 1682 cb3c
00000010: 5e33 3e3b c0c5 ae3c 260b 693c 81dc 1c3c
00000020: e609 c83b 6602 303d aa5c 523c 586a 103b
00000030: decf 683d 268d 1b3c 6ca1 943c 5ad6 a43c
0.012781812 0.03476059 0.032223698 0.024842303 0.0029022316 0.021334529 0.014223849 0.009574057
0.0061046956 0.042971037 0.012839476 0.0022036042 0.056838863 0.009494102 0.018143378 0.020121742
