dice_ml/utils/sample_trained_models/adult-margin-0.165-validity_reg-42.0-epoch-25-base-gen.pth (torch_old, 34923 bytes, 78 tensors)

encoder_mean.0.weight f4 [20, 30]
000000 25 8d a6 3e 3a eb 40 be 30 31 37 3d 7e 37 99 bc
       0.3252956 -0.18839732 0.044724643 -0.018703219
000010 df 10 f3 3c 44 ee 51 3d 7c a2 f5 3c ed ae bb ba
       0.02967113 0.05125262 0.029984705 -0.00143191
000020 b2 6f 25 3b 41 e4 bd 3c 48 f7 25 bc 1d 41 57 3d
       0.0025243578 0.023180129 -0.010129757 0.05255233
000030 a1 4f 13 3d 3b f2 49 bd de c8 01 bd d1 00 92 bc
       0.035964612 -0.049303275 -0.031685703 -0.017822655
000040 0f a1 ac 3c b4 0f 7d bd 11 72 51 3d eb 8b 6e 3b
       0.021072892 -0.061782554 0.051134173 0.0036399316
000050 8f 26 92 bc 19 7b 95 ba f4 4e 94 bc cb db b3 bc
       -0.017840652 -0.0011404484 -0.018104054 -0.021955391
000060 5b 60 b4 bb da 92 22 bd 6b c6 0c 3c 9c 54 e5 3c
       -0.0055046505 -0.03969083 0.008592228 0.027994446
000070 5c fa 14 3c f3 62 28 3e 88 13 09 3f f6 72 8b 3d
       0.009092893 0.16443996 0.5354543 0.068090364
000080 b1 32 11 3d 79 57 7c 3d df 45 47 3d 6e 37 13 3d
       0.035448734 0.061606858 0.04865062 0.035941534
000090 15 91 25 3d 50 35 68 3d c1 65 c3 3d 6c c5 2f 3d
       0.040421564 0.056691468 0.095408924 0.042912886
0000a0 f1 c5 29 3d 24 4f 4d 3d 25 67 37 3d 15 37 3b 3d
       0.041448537 0.050124303 0.0447761 0.045706827
0000b0 d0 fd 3e 3d 81 19 fa 3c 13 83 fd 3c 14 2c 2a 3d
       0.046628773 0.03052974 0.03094629 0.041545942
0000c0 ea c3 35 3d 43 25 e1 3c ee 15 c7 3c 1e aa 00 3d
       0.04437629 0.027483588 0.02430245 0.031412236
0000d0 b9 d6 0b 3d a8 ed 87 3c 4c 82 be 3c 8c 87 81 3b
       0.034140322 0.016592816 0.02325549 0.003952926
0000e0 6a a3 61 3c 2d 1c 81 3d 36 c6 6b 3d 4c 0d 3a 3e
       0.013771871 0.06304202 0.057562076 0.18169135
0000f0 19 e6 01 3f 00 af a2 3c 50 0d 85 3d 61 17 bf 3d
       0.50741726 0.019858837 0.0649668 0.09330631
000100 ee 6f b3 3d 65 1b 81 3d 84 7a a0 3d a2 91 a5 3d
       0.08761583 0.06304053 0.07835868 0.08084418
000110 ea 6a b1 bc e4 35 a0 3d 0c 0c a1 3d 1b c2 8c bd
       -0.021657426 0.07822779 0.07863626 -0.0687296
000120 17 b1 a9 3d 2a 94 b9 3d 52 ad 7d 3d 52 d1 89 3d
       0.0828573 0.09061463 0.06193287 0.06729378
000130 38 45 92 3d e3 7b 90 3d 73 b8 3f 3d 9b 55 7c 3d
       0.07142109 0.070548795 0.046806764 0.061605077
000140 39 61 f4 3c a0 70 02 be 66 f9 70 3d f2 34 71 3d
       0.029831516 -0.12738276 0.058831595 0.058888383
000150 f0 57 64 3d 7c 76 c7 3c 1c 4b d8 3c 92 05 a0 bc
       0.055747926 0.02434849 0.026403002 -0.019533906
000160 36 96 82 bc a5 0f 84 3e 17 31 18 3f 05 7a b5 3c
       -0.015940767 0.25793186 0.59449905 0.02215291
000170 ba 5e 78 bd 39 1b b5 bd e4 9d 8b bd 5e ae 74 bd
       -0.060637213 -0.08843083 -0.068172246 -0.059736602
000180 10 18 1b 3d 82 dd cb 3c fc ba 45 bc 5a 4a 07 3d
       0.037864745 0.024885897 -0.012068506 0.03302989
000190 0c 89 e3 3c 4e 60 be bb 0b 08 cf 3c 63 d2 1e 3d
       0.02777531 -0.0058098203 0.02527239 0.03877486
0001a0 bb f4 69 bd 3f 16 6d bd 0a 98 6c bd db 38 22 bd
       -0.05711816 -0.057882544 -0.057762183 -0.039605003
0001b0 55 f6 65 bd b3 ce ec bc b6 0e 11 bd 4e 24 fa bc
       -0.056143124 -0.028907156 -0.03541442 -0.03053489
0001c0 e2 db 12 bd 8f a3 19 bd a9 dc 51 bd 4d 04 bd bc
       -0.035854228 -0.037509497 -0.05123583 -0.02307334
0001d0 8d d4 d2 bc 83 fb a8 3d 82 55 ae 3d b4 94 d8 3e
       -0.025736118 0.08251097 0.08512403 0.4230095
0001e0 c4 fb 8f 3d ae ed d0 3d 42 35 49 bd ed cf e3 bc
       0.07030442 0.10201584 -0.049123056 -0.027809108
0001f0 fe 20 05 bd d3 00 24 bd f4 a2 d5 3c fb 60 8a bb
       -0.032502167 -0.04003985 0.026078679 -0.0042229868
000200 8a 15 14 3d f7 3d 04 bd 6c 2b be 39 e3 44 77 3d
       0.036153354 -0.032285657 0.00036271976 0.06036843
000210 18 79 cb 3b 15 81 44 bc 25 e1 a8 bd ca 39 95 3d
       0.006209504 -0.011993666 -0.08246068 0.07286413
000220 e5 bf 00 3c 53 f9 2b 3d 36 7d fe 3c 7f f6 aa 3c
       0.007858251 0.04198582 0.031065565 0.020869492
000230 79 89 d1 3c 75 e8 28 3d 3f f7 00 3d 0f a8 e6 bb
       0.025578247 0.041237313 0.031485792 -0.007039077
000240 99 d1 cd 3b 89 cc 36 3d ce d7 16 3c d6 25 c5 bc
       0.0062810895 0.044628654 0.009206725 -0.024065893
000250 a8 54 d8 bc 79 b8 ed be b9 a1 14 3f db 84 91 bc
       -0.026407555 -0.46429804 0.5805927 -0.017763546
000260 0c 9a a4 bc 32 b1 c8 bc 66 13 76 bc e5 09 36 bc
       -0.020092987 -0.024498556 -0.015019273 -0.0111107575
000270 04 61 78 bb ec 0a c9 3c 53 9f 5f 3c 14 e8 81 3c
       -0.0037899623 0.02454134 0.013648826 0.015857734
000280 6b 85 d0 3b b4 b7 46 3d b1 b3 12 bc 14 69 95 3c
       0.006363561 0.048515037 -0.008953975 0.018238582
000290 ea c0 04 bb 42 c0 02 bc 36 20 16 bc 74 cd 68 3b
       -0.0020256587 -0.007980408 -0.009162953 0.003552285
0002a0 dc f3 18 3a c2 39 46 3b b9 94 65 3c 18 3c 73 39
       0.0005834678 0.0030246829 0.014012509 0.00023196673
0002b0 65 0d c8 bb eb 19 00 3b bb 59 49 3c bc 68 d9 bd
       -0.0061051124 0.0019546698 0.01228946 -0.106156796
0002c0 94 18 ec bd f5 4f 11 bd 77 ae 0b bd c3 cf c5 3e
       -0.115281254 -0.035476644 -0.03410193 0.38635072
0002d0 5b b8 ac be 05 4c 4e bf fb 20 68 bd c6 c0 7a bd
       -0.33734402 -0.80584747 -0.056672078 -0.061219
0002e0 0e 2d 0e bd 07 7e 8a bc d8 4e 16 bc 77 cc e6 3c
       -0.034710936 -0.016905798 -0.009174071 0.028173668
0002f0 c0 35 bd bc 04 66 49 3c c6 b8 0f 3d f5 0f 73 3c
       -0.023096919 0.012292389 0.035088323 0.014835347
000300 e3 ae c4 3c f8 31 11 3d c9 d0 b0 bc 04 dd d0 3b
       0.024009174 0.035448045 -0.021583932 0.0063740034
000310 14 a9 b8 3c 74 61 e0 3b 76 76 30 bc 0f 58 b0 3c
       0.02254156 0.006847555 -0.010770431 0.021526365
000320 28 61 07 3d 90 21 79 bb 50 f9 13 3c 4b 36 94 3c
       0.03305164 -0.003801439 0.009031609 0.018092295
000330 24 36 f9 3c 9c 25 7c bd 81 e1 3e bd 69 ee da 3c
       0.030421324 -0.061559305 -0.046601776 0.026725011
000340 e2 31 9e 3c 29 35 c8 3d 66 70 ef 3e 21 a0 a6 be
       0.019310895 0.097757645 0.4676544 -0.32544044
000350 e0 d1 db 3c 0a c3 db 3d ef 5d 02 3d 24 ad 10 3d
       0.026833475 0.1073056 0.031827863 0.03532137
000360 89 7e 4f 3d 13 3d 41 3d 8d f1 17 bd 21 fe fa 3c
       0.050657783 0.047177386 -0.037095595 0.030638756
000370 4e 81 fb 3c 5c 24 c0 3d 79 fe 83 3c 63 21 17 3d
       0.030701306 0.09381935 0.016112553 0.036897074
000380 76 12 58 bb 76 28 4a 3c 7c b2 1b 3c 2a 4b 3f 3b
       -0.0032969988 0.012338748 0.009503003 0.0029189088
000390 ea 6e bf ba 65 53 b3 bc 43 e9 c3 bd a0 35 b6 bc
       -0.0014605199 -0.021890352 -0.095659755 -0.022242367
0003a0 de 5c e2 3a 5b 88 06 bc 77 c8 b0 3b 40 d9 f9 3c
       0.0017270108 -0.008211221 0.005394991 0.0304991
0003b0 54 96 ff 3c 30 62 37 bb 79 d4 20 bb 65 c8 a7 3e
       0.031199612 -0.0027982108 -0.0024540706 0.32770076
0003c0 fe 47 cf be 91 d8 4d bf b8 14 fe 3c fd 5d 91 3c
       -0.40484613 -0.8040858 0.031015739 0.017745012
0003d0 d1 37 98 3c 68 0a c4 3c 57 be 44 bc 94 6c 09 3d
       0.018581303 0.023930743 -0.012008271 0.033550814
0003e0 05 95 9d 3d f5 c9 62 3c d9 e3 af bc 37 3c f0 3c
       0.07694439 0.013842096 -0.02147095 0.029325588
0003f0 f1 23 b5 3c bb 33 2f 3c 17 08 33 3b 67 3b 5f 3d
       0.022111865 0.010693486 0.0027318054 0.05450001

encoder_mean.0.bias f4 [20]
000000 78 40 fe b5 8c c0 d9 35 c2 a0 a1 b6 76 c8 89 b5
       -1.8943238e-06 1.6223798e-06 -4.8168886e-06 -1.0265637e-06
000010 de 27 bf b5 bd 13 46 36 1c cc e2 b6 c8 22 25 b7
       -1.4242212e-06 2.9515788e-06 -6.7590863e-06 -9.8428645e-06
000020 bb db 6c 36 6f 5e d3 36 40 d5 11 b4 9c f3 20 b6
       3.529464e-06 6.2992835e-06 -1.3581757e-07 -2.3983657e-06
000030 e6 f2 e6 35 24 4e 76 b6 bb 82 01 b8 e9 e6 31 b6
       1.7207028e-06 -3.670234e-06 -3.087775e-05 -2.6509463e-06
000040 e0 b0 40 b3 aa a7 22 37 99 f4 a8 34 1f a6 fe b7
       -4.486435e-08 9.69499e-06 3.1470407e-07 -3.0356516e-05

encoder_mean.1.weight f4 [20]
000000 60 ee 63 3e f3 1b e6 3e 2a dc 02 3f f7 72 24 3f
       0.22258902 0.449432 0.51117194 0.6423792
000010 b8 86 cb 3e 94 ff f1 3e b6 da 07 3f 4a 0c dc 3e
       0.3975122 0.47265303 0.530681 0.42978126
000020 2e 77 08 3f da eb 13 3f 4c ae 5e 3e 67 ad e3 3e
       0.53306854 0.57781756 0.21746176 0.44468233
000030 47 e2 0a 3f d2 d0 c5 3e a8 dc 3a 3f 88 0b a5 3e
       0.5425152 0.3863588 0.72992945 0.3223536
000040 a3 40 50 3e 3b a3 f6 3e c9 7a f2 3e 66 54 39 3f
       0.20337157 0.4817141 0.47359303 0.72394407

encoder_mean.1.bias f4 [20]
000000 23 54 90 bd 67 d4 a7 bd 03 29 39 3e 4b d9 08 3e
       -0.07047298 -0.081948094 0.18082051 0.1336414
000010 68 e9 40 be fc 2e 81 3b 94 b7 b5 be 80 a6 e4 be
       -0.18839037 0.0039423686 -0.35491621 -0.4465828
000020 ca d7 c7 be 45 1a 7d be 99 28 5f be d7 18 65 3c
       -0.3903182 -0.24717052 -0.2179283 0.013982973
000030 b1 ea ac be e9 f4 be bd 6e 5d a0 3e 21 dd 36 be
       -0.33772805 -0.09324057 0.3132128 -0.17857791
000040 ec fa bb 3c 20 0a 7f bc 89 c8 7a be e3 b4 f4 be
       0.022946797 -0.015566379 -0.2449056 -0.47794256

encoder_mean.1.running_mean f4 [20]
000000 68 23 40 3e 1e 02 10 3f 55 38 28 3f 0b d4 f6 3e
       0.18763506 0.5625323 0.65710956 0.4820865
000010 aa 20 c1 be 7e 30 bc 3e 34 01 a6 be a3 0f d2 3e
       -0.37720233 0.36755747 -0.32422793 0.41027555
000020 76 e5 c3 be 2f e5 45 3e bb 9c f3 bd 85 f5 15 3f
       -0.38261002 0.19325708 -0.11895128 0.5857776
000030 f6 d4 85 be 63 ad ca bd d5 cf 13 3f 41 4c 80 be
       -0.2613904 -0.09896352 0.57739 -0.25058177
000040 5f 87 95 3d b0 fe d0 3e 62 2d ca be 6d 9e 02 bc
       0.073012106 0.4081931 -0.3948775 -0.007972342

encoder_mean.1.running_var f4 [20]
000000 a7 2b 32 3c 2d 06 38 3c 57 0e 83 3c 4d 24 a7 3c
       0.010874665 0.011231941 0.015998049 0.020403052
000010 ba c9 c2 3c 0a 8a 92 3c 2d da 90 3c 0b fe 73 3c
       0.023777831 0.017888088 0.01768216 0.0148921115
000020 02 dc 8f 3c 4e bf b4 3c c1 30 12 3c 01 b4 4e 3c
       0.017560963 0.022063877 0.008922757 0.012616158
000030 22 f7 83 3c 6a a9 7e 3c 36 4c 76 3c 28 57 6f 3c
       0.016109053 0.015543321 0.015032819 0.014608182
000040 6a 6d 25 3c 6b 31 7d 3c 12 88 96 3c fc 3b aa 3c
       0.010096887 0.015453677 0.01837543 0.020780556

encoder_mean.4.weight f4 [16, 20]
000000 75 03 6e bc 7b 84 0f bd d1 17 71 bd b9 cf 20 3e
       -0.014527191 -0.035038453 -0.058860604 0.1570424
000010 a8 02 fc ba 01 37 c6 bd 39 33 b9 bc 71 84 d3 3c
       -0.0019226866 -0.0967846 -0.022607433 0.025819989
000020 21 5a 84 3d 0a 74 e8 bd 6f 7c 05 3e 5f 4f 02 be
       0.06462503 -0.11350258 0.13035749 -0.1272559
000030 87 4b 03 3d 88 a3 3f bd 55 bd a7 3e ea 29 4a ba
       0.03205445 -0.046786815 0.32761636 -0.0007711934
000040 44 28 7e bc ad d5 51 be 47 d9 e6 3d 9e bc 18 3e
       -0.01551253 -0.20491667 0.11271911 0.14915702
000050 5e 47 9d 3d ee f2 bf 3d 99 10 e1 3d 81 87 e0 3d
       0.07679628 0.09372507 0.10989494 0.10963345
000060 bc 1a 44 bd f0 82 de 3d b4 f1 d4 bc fe 59 30 3e
       -0.04787706 0.10864818 -0.02599416 0.1722183
000070 2b ce 73 bd 88 3a e6 bd eb 5d 46 3d ff 6c 88 3d
       -0.05952279 -0.11241633 0.04842941 0.06661414
000080 6f 3c 9e bd 9c 0b 8b bd d3 14 91 3d 13 bb 90 bd
       -0.077263705 -0.06789324 0.0708405 -0.070669316
000090 4f 4d 40 bd bb e6 36 3e 6f 9a 0f be 91 fc 09 3d
       -0.046948727 0.17861454 -0.14023755 0.03368813
0000a0 36 ce 57 3d fe 22 30 3d bb 28 ef 3c ce f8 fa 3c
       0.052686892 0.04300212 0.029194226 0.030636217
0000b0 18 93 bd bc 13 c6 95 3d 46 95 b7 bd 83 4a 1a 3e
       -0.023141429 0.0731317 -0.089640185 0.15067486
0000c0 c0 91 ac bd 5f 80 08 be 5a 64 36 3d 1d 87 87 3d
       -0.08426237 -0.1333022 0.044529296 0.06617568
0000d0 05 89 1e be 19 d3 b1 bc b4 0f b1 3e d2 b0 0c bd
       -0.15481956 -0.021707105 0.34582293 -0.034348316
0000e0 3b ec 6a bd d1 7f fe 3d 1f 3d 4c be 94 e4 fb 3d
       -0.057354193 0.12426723 -0.19945191 0.12299457
0000f0 15 98 34 3d 55 e4 8e 3d 82 f4 c7 3d 58 5d db 39
       0.04409035 0.06977145 0.09763433 0.00041840482
000100 db d0 f6 bd b2 08 29 3e e8 99 0e bb ba 46 b4 bd
       -0.12051555 0.16507223 -0.0021759216 -0.088025525
000110 bc dc 13 bd 5e 50 e4 bd 34 d6 90 bc 1d 54 bd 3d
       -0.03609918 -0.11148141 -0.017680265 0.09244559
000120 46 da f1 bd 42 b9 b9 bd ae c6 05 3e ab a7 bd bd
       -0.118092105 -0.09068538 0.13064072 -0.09260496
000130 84 93 10 bd c6 4a 03 3d 60 ae 24 be 5c a6 93 3d
       -0.035296932 0.03205373 -0.16082144 0.07209465
000140 34 16 46 3d c7 2a 5d 3e b0 f5 49 3d fe 1f 99 bd
       0.04836102 0.2159835 0.04930657 -0.07476805
000150 84 b3 f0 bd f7 d8 45 3e 7c d4 c0 3d c3 6e 35 bd
       -0.1175299 0.19321047 0.09415528 -0.044295084
000160 71 a7 cc bc 00 d5 fe bd 3d 26 90 bd 35 a7 b7 3d
       -0.024982186 -0.1244297 -0.070385434 0.08967439
000170 7d 77 61 bc c9 ae 94 bd 37 10 43 bd df 45 b9 bc
       -0.013761398 -0.072599 -0.047622886 -0.022616325
000180 78 79 dc bc ac ee 10 3e aa 3e 35 bd 59 ca 4c bd
       -0.02691339 0.14153546 -0.044249214 -0.04999766
000190 2b 2f 63 bb d4 9d 98 bd 89 b5 35 be cf 65 18 be
       -0.0034665565 -0.07451978 -0.17745031 -0.14882587
0001a0 f9 e7 8c bd f0 f3 1d be c2 7e 8d 3e 9e 2c a0 bc
       -0.06880183 -0.15425086 0.2763577 -0.019552525
0001b0 b1 02 7c 3e a9 30 24 3e 02 e4 a6 bc 03 cb 89 bd
       0.24610402 0.16034187 -0.020372394 -0.067281745
0001c0 de df 47 3e cc 8d 2d 3d 5f 70 c7 bd bf dd 29 bd
       0.19518992 0.042371556 -0.0973823 -0.04147124
0001d0 04 24 83 3d 32 01 8a bd ce be c7 bd b5 55 b5 3e
       0.06403354 -0.06738509 -0.0975319 0.35416952
0001e0 6c 54 d3 bb 34 27 1d bd 0c 92 88 3c 35 e2 43 3e
       -0.006449273 -0.038367465 0.016671203 0.1912926
0001f0 bc 2c 55 bd 80 af 93 bb 64 fa 92 3d d0 42 91 bb
       -0.052044615 -0.004507005 0.071766645 -0.0044330135
000200 62 0d bc 3c e8 b9 24 be eb 8c de bc 39 b1 10 3e
       0.0229556 -0.16086543 -0.027166804 0.14130105
000210 ee b5 fe ba a6 89 c2 bd 43 03 22 be e7 8e 99 bd
       -0.0019432881 -0.094989106 -0.15821557 -0.074979596
000220 04 29 b7 bd d8 2f 9c 3c ae e2 e3 bd 29 ab 81 3e
       -0.0894337 0.019065782 -0.1112722 0.25325897
000230 c7 0a 24 bd cc 64 f2 3d e3 87 5a be d4 86 56 be
       -0.04004934 0.11835632 -0.21340899 -0.2094987
000240 e1 b2 e6 3c 27 f2 60 bd f3 9b 7e 3e c5 21 c5 bc
       0.028161468 -0.054918434 0.24864177 -0.024063954
000250 5a 3f 8c 3e ca 8e cf 3c 85 17 29 bb 86 c0 b0 bc
       0.27392083 0.025336642 -0.0025801372 -0.021576177
000260 08 1d 51 3e 9d 45 8b 3d b8 f6 86 be 68 f6 20 3d
       0.20421231 0.06800387 -0.26360106 0.03929749
000270 c3 07 92 3d 1b b0 97 bd 8d 2b 98 3c 18 86 5f 3e
       0.07130387 -0.07406636 0.018575454 0.21828496
000280 d0 54 88 3d 45 e1 2f bd 34 67 02 3e 1c 4a 02 3e
       0.06656802 -0.042939443 0.12734681 0.12723583
000290 37 00 e6 bd dd e3 ae bc 22 00 42 bd 15 12 f6 3d
       -0.1123051 -0.021348888 -0.047363408 0.120151676
0002a0 27 d2 6f bd 52 3b 23 be 1c 95 c8 3c 28 92 7f 3d
       -0.058550026 -0.15940598 0.024485163 0.062395245
0002b0 fb 75 68 bd 68 6c dc bd e2 b3 62 3e 9e 75 94 bd
       -0.05675314 -0.10762864 0.22138932 -0.07248996
0002c0 90 8f 83 bd a4 46 22 bd a0 18 be bd 9d 56 ce 3d
       -0.06423867 -0.03961815 -0.092820406 0.10075114
0002d0 92 a9 54 3d a8 84 83 bd 0b 68 df bb 22 01 8b 3e
       0.051919527 -0.064217865 -0.006817823 0.27149302
0002e0 9f e6 48 bd 98 25 95 3d 1a 96 91 bc c0 9b 2f 3e
       -0.049048062 0.07282561 -0.01777177 0.17149258
0002f0 1b e5 43 3c cf 9a b5 3c 45 ee b4 3d 29 38 89 bc
       0.0119564785 0.022168545 0.08834509 -0.016750412
000300 b2 6e 8b 3b 70 d0 14 3c f2 41 70 bc 6d f2 8d bd
       0.0042551393 0.0090828985 -0.01466416 -0.06931005
000310 c7 c3 1c bb c2 89 a7 3d d5 3c df bb 18 35 2c 3e
       -0.0023920403 0.08180572 -0.0068126717 0.16817129
000320 ed 54 3a 3d 74 fa 20 3e c9 97 13 bc bc 2d ad 3d
       0.045491148 0.1572054 -0.009008356 0.08455989
000330 15 e1 ac bd 8e 4a e2 3d ec 1e aa bc d5 ce 40 bc
       -0.084413685 0.110493764 -0.020766698 -0.011768063
000340 3b d1 6b bd fa cc 26 be ab 26 5e 3d 68 73 9f 3d
       -0.057572585 -0.1628913 0.054236095 0.07785684
000350 1f 94 d3 bd 81 fa c5 bd 6f 7c 94 3c 5d 6f c4 bd
       -0.10330986 -0.096669205 0.01812574 -0.09591553
000360 7c 29 49 bd 09 91 36 3d d6 d4 ed bd a2 6e f7 3d
       -0.04911183 0.04457191 -0.11612861 0.120816484
000370 11 0d cc 3b 3d 2a df bd d6 ab 64 bd f6 d3 2d bd
       0.0062271436 -0.10896728 -0.055827938 -0.04243847
000380 4a 7f 29 bd 27 b3 b1 bd ce 57 5b 3e c1 08 b3 bd
       -0.041381158 -0.08676749 0.21420214 -0.08741904
000390 f1 4a cd 3d d1 d0 13 be 75 98 a7 bc d9 58 57 bd
       0.100240596 -0.14435126 -0.02045844 -0.052574966
0003a0 a0 68 51 3e c7 2d 97 3d 83 0b 6a bc 1a 4f 25 be
       0.20450068 0.07381778 -0.014284971 -0.16143456
0003b0 8c b9 24 bc 06 9b bc bc fd fe 42 bd b1 a4 9c 3e
       -0.010054003 -0.02302314 -0.047606457 0.305944
0003c0 6f d0 5c 3d 48 fe 56 3d f3 c1 b4 bb ed 37 0b 3e
       0.053909715 0.052488595 -0.0055162846 0.13595553
0003d0 57 9a 0d be 65 bd 20 3e 2f 19 2c 3d 3b de af 3d
       -0.13828407 0.15697248 0.042016204 0.08587309
0003e0 a1 a6 0a bd bc d6 ea bd 8e 45 05 3c 49 15 51 3d
       -0.033850316 -0.114667386 0.008134259 0.05104569
0003f0 cf c1 89 bd 55 65 ac bd 38 ea aa 3d 49 64 e0 bd
       -0.06726419 -0.08417765 0.08345455 -0.10956628

encoder_mean.4.bias f4 [16]
000000 bf b5 a4 b6 af 59 32 36 20 14 f1 34 64 98 60 b4
       -4.908739e-06 2.657627e-06 4.490439e-07 -2.0917065e-07
000010 1a 9d 51 b6 be 01 b9 37 5d 09 08 b5 2a 0d e8 b5
       -3.1234872e-06 2.205453e-05 -5.0677573e-07 -1.7289178e-06
000020 d4 b1 80 35 21 d3 01 35 59 11 9f 35 a0 c2 79 34
       9.588498e-07 4.836348e-07 1.1851472e-06 2.3260736e-07
000030 dc c2 9e b4 58 57 8f 35 e8 99 84 b5 7d 2f b0 35
       -2.9571572e-07 1.0679751e-06 -9.879559e-07 1.3126843e-06

encoder_mean.5.weight f4 [16]
000000 a1 69 a6 3e 15 01 f0 3e 84 e9 3c 3f 41 e5 e5 3e
       0.32502463 0.46875826 0.73793817 0.4490147
000010 06 60 db 3e b5 02 35 3f 7a 7a de 3e 75 89 2b 3f
       0.42846698 0.70707256 0.43452817 0.6700662
000020 3b 75 c2 3e b7 9b f8 3e cd f5 cb 3e 50 1e 1b 3f
       0.37980065 0.485563 0.3983597 0.6059313
000030 28 52 f1 3e 46 ae 10 3f 42 b7 f0 3e ed 31 24 3f
       0.47132993 0.5651592 0.47014815 0.6413868

encoder_mean.5.bias f4 [16]
000000 fb d9 85 be 6f 92 63 3e 25 b9 61 3e 9d cd 4c 3e
       -0.26142868 0.22223829 0.22043283 0.2000031
000010 c9 95 f1 3d 4f 95 5b be 36 e0 39 3d 9c e3 62 be
       0.117961474 -0.21443675 0.04537984 -0.22157139
000020 21 e5 64 3e fa b6 76 be 46 17 d4 3d 59 45 c6 bd
       0.2235303 -0.24093238 0.103560016 -0.09681196
000030 37 50 4f 3e a6 5d 2f be 5e 12 db bd 8b 6e 43 bc
       0.20245443 -0.17125568 -0.10696863 -0.011928211

encoder_mean.5.running_mean f4 [16]
000000 0c ae cf 3d 3e 5b 11 3e e0 7c 35 3e 9b d2 c1 3d
       0.10140619 0.14194962 0.17723417 0.09463998
000010 01 62 22 3d 06 f9 d2 bd 88 70 e2 bb b5 69 29 be
       0.039644245 -0.10301404 -0.0069103874 -0.1654423
000020 bf 1b 05 3e 47 c4 d5 3d fb 96 2d 3d ba 0a 54 bd
       0.12998866 0.104378276 0.042380314 -0.051768042
000030 4d 38 e2 3d f4 df 96 3e 20 21 0c 3e 58 c0 80 bb
       0.11045895 0.29467738 0.13684511 -0.003929179

encoder_mean.5.running_var f4 [16]
000000 a7 9d c9 3c e3 98 f1 3d 8d 9c 24 3e 65 88 af 3d
       0.024611307 0.11796739 0.16075344 0.08570937
000010 9f 99 03 3d 89 58 14 3e d4 41 dd 3c 8c 97 2f 3e
       0.032128926 0.14486898 0.027008928 0.17147654
000020 6b 49 cd 3d 0a 57 eb 3c 4d f9 73 3d c6 6d 2e 3d
       0.10023769 0.028728027 0.059563924 0.042585157
000030 28 ac dc 3d 76 8c e2 3d b9 14 8b 3d 80 ea 8a 3d
       0.10775024 0.11061947 0.06791062 0.067830086

encoder_mean.8.weight f4 [14, 16]
000000 8f ad 05 be 45 8c b8 bd ed 01 84 bd 49 82 42 3d
       -0.13054489 -0.09011129 -0.0644568 0.04748753
000010 80 f8 db 3d f0 04 0d be 90 ad 09 3e 3f 54 81 be
       0.10740757 -0.13771415 0.13445115 -0.25259587
000020 9f d4 4b 3e 88 6f 89 be a6 46 97 3d 44 ab 05 3d
       0.19905327 -0.26842904 0.07386522 0.032634035
000030 8f 46 01 3e 04 69 90 be 0c 7c eb bd 95 0a 4b be
       0.12624572 -0.2820512 -0.114982694 -0.19828255
000040 6d 7c 48 3d be 89 32 be a0 cb 65 be 7e eb 1b be
       0.048946787 -0.17435357 -0.22440958 -0.15226552
000050 76 2b b6 bc dd ce 55 3e 26 8e 69 bd 24 aa 43 3e
       -0.02223752 0.20879693 -0.05702033 0.19107872
000060 76 91 0d be fe 89 2a bb 35 02 0a be 3f ba 84 3e
       -0.1382502 -0.002602219 -0.13477404 0.25923344
000070 d4 fe 1f be fb ef 8f 3d 20 49 b4 bd 2c ba c0 3d
       -0.15624553 0.070281945 -0.0880301 0.094105095
000080 a1 4d 35 3e a8 a0 17 3d 5a 0a e1 bc 7f 36 90 3d
       0.17705394 0.037018448 -0.027470756 0.07041644
000090 12 3e 55 3e 5f 17 a5 bd 7c c3 33 3d 77 f8 42 bd
       0.20824459 -0.08061098 0.0438876 -0.047600236
0000a0 83 c1 ab 3c 5e bb dc 3c 49 48 a6 3d ed c8 12 be
       0.020966297 0.026944812 0.08119256 -0.1433446
0000b0 cb f8 80 3d 14 b1 a9 3c 8b c2 4b 3e 2c 11 db bc
       0.062974535 0.02071432 0.19898431 -0.026741587
0000c0 5d de 01 be c5 9b 91 3e ae f3 2c ba 2d a9 f7 3d
       -0.12682481 0.28439155 -0.00065975904 0.120928146
0000d0 4b 76 3c bd ad db e3 bd da f1 f4 3d 4b d6 50 be
       -0.04601125 -0.11125884 0.11960192 -0.20394246
0000e0 0b 82 c3 bc 4f b8 89 be 8b bd 7d bb ba 7c 97 bc
       -0.02386572 -0.2689843 -0.0038717713 -0.018492091
0000f0 0a 4c c3 3d 79 9c 46 be 41 09 6a be d1 28 99 bd
       0.09535988 -0.19395627 -0.22855093 -0.07478488
000100 f9 a5 08 be a0 d2 39 be 94 b5 5d be f7 3a 19 be
       -0.13344564 -0.18146753 -0.21651298 -0.149639
000110 f0 df a1 bc aa 5b 66 3e 21 ce 2a bd 93 41 92 3e
       -0.019760102 0.22495905 -0.041700486 0.28565654
000120 40 63 06 be d2 0c a3 bd bc 86 cc bd 5b 77 97 3e
       -0.13123798 -0.0796143 -0.09986636 0.29583248
000130 98 ac 7a bd 68 95 90 bc 87 53 b9 bd e5 94 35 3c
       -0.061199754 -0.017649367 -0.09049135 0.0110828625
000140 92 0f 9b 3d 98 46 94 3d ce dd 89 bd 78 77 be 3d
       0.07571329 0.07240027 -0.06731759 0.093001306
000150 34 92 1a 3e 34 ed 13 be de cb 3e 3d 3c 41 23 b9
       0.15094835 -0.14445955 0.04658114 -0.00015569193
000160 bf 16 96 3d d0 9f aa 3d d7 ee 00 3e ff d4 42 be
       0.07328557 0.08331263 0.1259111 -0.19026564
000170 53 19 c9 3d 86 4f 1e 3d b7 b4 d8 3d 83 7c a1 3d
       0.09819283 0.03865006 0.105813436 0.07885077
000180 7f e9 42 3d 31 46 b1 bd 15 3e fe 3e 7a e6 94 bd
       0.04758596 -0.08655966 0.4965674 -0.072705224
000190 44 ea c8 bd d8 86 6d 3c c9 d5 d5 bd 52 5f 99 3c
       -0.098103076 0.014497481 -0.10441167 0.01872221
0001a0 d9 aa 51 bd 58 a4 e0 bd 20 5f e7 bd 69 36 8b bd
       -0.051188324 -0.10968846 -0.112974405 -0.06797487
0001b0 8e 32 dc bd 02 96 75 3c 32 03 19 be 1e 22 bd bd
       -0.1075183 0.014989378 -0.14942625 -0.09235023
0001c0 19 6f 9d bc 52 fe c2 3d ea 8b a8 3c 49 aa da 3d
       -0.019218015 0.09521164 0.020574529 0.106770106
0001d0 be da d9 3d b8 68 05 be 55 3b f9 3d 16 f9 85 be
       0.10637425 -0.13028228 0.1216952 -0.261666
0001e0 e2 ff d2 3d b1 af f3 bc 9f 1b be 3d 43 c1 47 3c
       0.10302712 -0.029746862 0.09282612 0.012192073
0001f0 ff f3 80 3d b4 64 72 be 9f 26 29 3d 4e bb f0 bc
       0.062965386 -0.23671228 0.041296598 -0.029386189
000200 93 5c 69 bc 9a 38 69 3d 41 c5 72 3d 7d 3c 9e 3d
       -0.014243263 0.056938745 0.059270147 0.07726381
000210 63 f1 04 bd c7 42 48 be 27 e9 a5 3d 1d 92 7a be
       -0.032456767 -0.19556724 0.08101111 -0.244698
000220 c1 e3 da 3d 6f 50 75 bd 07 a7 3e 3e c6 c5 06 3c
       0.10687972 -0.05989116 0.18618403 0.008225864
000230 07 a0 02 3e ff e3 5a be fd 3c 5b bd 53 d9 a8 bd
       0.12756358 -0.21376036 -0.05352496 -0.08244576
000240 ff 88 ea 3d de f8 4b 3c e2 59 9d bc cd f8 64 3d
       0.11451911 0.012449471 -0.019207899 0.055901337
000250 b8 22 b1 bc 33 8b c1 bd 3c 56 f7 3d 04 ca 8d bd
       -0.021623 -0.09450378 0.12076995 -0.06923297
000260 d1 c3 15 3b 92 23 a2 3d 41 65 d9 bb 05 36 9c bd
       0.0022852311 0.07916941 -0.006634385 -0.07627491
000270 04 89 8c 3d 38 3b 20 bd 02 93 9d bc 1d 8b b8 3e
       0.06862071 -0.039118975 -0.019235138 0.36043635
000280 83 93 80 3c 62 7f 14 be 2d bf c5 bd 92 22 dc bd
       0.01569534 -0.14501718 -0.096556045 -0.10748781
000290 8e ea 7f be a6 52 f5 bd 44 e0 2c be 01 38 ea bd
       -0.2499182 -0.119786546 -0.16882426 -0.11436463
0002a0 c4 ed af bd 08 4a 21 3e 98 4a 46 be e3 c1 3a be
       -0.08590272 0.15750897 -0.19364393 -0.18238024
0002b0 e7 06 fc bd 4d 79 07 3e 2e fc 95 3d bb 10 6e bd
       -0.12306004 0.13229866 0.0732349 -0.058121424
0002c0 30 a7 96 3d 6e 9c 0a 3e 5a 1e 3e bd aa 4a 89 3d
       0.07356107 0.13536236 -0.046415664 0.06703694
0002d0 ca 3d 26 3e 4f 24 e2 bd 2b cb cb 3c 56 44 e2 bb
       0.16234508 -0.110420816 0.024877151 -0.006905119
0002e0 b8 d3 3a 3d 4f 2c 4d 3d 5f 3e ce 3d c5 94 29 be
       0.045612067 0.050091084 0.1007049 -0.16560657
0002f0 07 f5 b3 ba 4a 7f e8 3c 24 c3 f7 3d 17 ac ce 3d
       -0.001372964 0.028381009 0.12097767 0.10091417
000300 dc b3 f4 bd a1 b8 cc bd aa 52 18 be 59 11 83 bd
       -0.11948368 -0.09996153 -0.14875284 -0.06399793
000310 f4 6d 82 be de 6b c9 3d 4d fc 99 bd c6 a7 16 3e
       -0.25474513 0.09835027 -0.07518826 0.14712438
000320 b1 4d 77 3c 21 1c ce bd 15 bf 28 be 6a 8b 75 3e
       0.015094207 -0.10063959 -0.16479142 0.23978963
000330 a3 b7 bb bd bf 28 f2 bd 83 75 3a be 1b f7 cc bd
       -0.09165885 -0.11824178 -0.1820889 -0.10008069
000340 99 db 1b 3e b7 ce 16 3d b5 21 05 bd d1 f9 8a bc
       0.15220489 0.036818232 -0.03250285 -0.016964825
000350 1a 7a 81 bd de 08 4e bb 17 5f 38 3e cd 5d d1 bd
       -0.06322117 -0.003143839 0.18005024 -0.10222969
000360 21 94 14 3d a9 90 52 3e 8f e2 8e 3d 7c d4 c2 bc
       0.03627408 0.20562996 0.06976806 -0.023782961
000370 bc 8e 13 3d 80 9c 4e bd b9 b7 b2 3d a3 90 b9 3e
       0.036024794 -0.05044222 0.087264486 0.36243162

encoder_mean.8.bias f4 [14]
000000 b8 61 71 36 cc 06 8a 36 e2 4e 49 b5 4a ee 33 b6
       3.5968678e-06 4.1135117e-06 -7.4993125e-07 -2.681178e-06
000010 7c ee 5e 35 2b bd 36 36 d2 26 e3 36 02 07 9d 36
       8.3048485e-07 2.7230224e-06 6.7696465e-06 4.6797804e-06
000020 4a d0 7a 36 f0 3a 62 b5 0d ac bc 36 bc 82 9e b5
       3.7374143e-06 -8.4277326e-07 5.622866e-06 -1.1809966e-06
000030 5c 82 92 b6 04 93 22 b5
       -4.366315e-06 -6.056364e-07

encoder_mean.9.weight f4 [14]
000000 1a 5f ec 3e ae ad 26 3f 89 12 cf 3e 2f ff fd 3e
       0.46166307 0.65108764 0.4044383 0.49608752
000010 5f fe 1c 3f 14 c2 da 3e 27 63 f0 3e 6b 8b ec 3e
       0.6132564 0.42726195 0.46950647 0.46200117
000020 b2 72 07 3f 06 0a ce 3e 0c 72 53 3f a5 a9 bb 3e
       0.52909386 0.40242022 0.82595897 0.36652866
000030 27 b2 40 3f f1 b5 c8 3e
       0.7527184 0.3920131

encoder_mean.9.bias f4 [14]
000000 d1 62 b2 bc 2f d9 f8 bd 0a 58 74 3c 7c 7c 4c 3d
       -0.021775635 -0.121507995 0.014913568 0.049923405
000010 21 f6 ea bd 01 55 2c 3b b0 f7 89 be 02 57 16 3e
       -0.114727266 0.0026295783 -0.26946783 0.14681628
000020 3b 40 25 3e 56 d9 8e 3d 0e ce f3 bd 37 37 6b 3c
       0.16137783 0.06975047 -0.11904536 0.014356426
000030 02 33 a7 3d aa 74 d2 3d
       0.08164026 0.10276158

encoder_mean.9.running_mean f4 [14]
000000 ba 0b 6c bd 65 ff 54 be 1b 0c b4 3d 14 68 42 bb
       -0.05762837 -0.2080055 0.087913714 -0.0029664086
000010 d6 3e 3a be bf cc f4 3d 8b f6 ee 3b 86 e2 6c 3d
       -0.18188033 0.11953115 0.007292574 0.057833217
000020 2f 79 22 3d 71 a3 e9 3d c8 68 a4 be b3 5b 01 3e
       0.03966635 0.11408127 -0.32111192 0.12632637
000030 16 73 7e be d2 98 f1 3d
       -0.2484859 0.11796726

encoder_mean.9.running_var f4 [14]
000000 07 6c 86 3d ef f5 bc 3e 6a 8e b4 3d da e0 32 3d
       0.06563573 0.36906382 0.08816226 0.043671466
000010 10 89 c5 3e d7 d1 c4 3d e7 6b ea 3c fc 0f 89 3d
       0.38581133 0.09610336 0.028615905 0.06692502
000020 7c e3 9f 3d f7 41 14 3d 46 91 05 3e 33 96 9c 3d
       0.07807061 0.03619572 0.13043699 0.07645836
000030 ff 5c a9 3e 48 d3 58 3d
       0.33078763 0.05293587

encoder_mean.12.weight f4 [12, 14]
000000 45 32 6a be c3 cc a9 3d 70 25 ed bd 5f 23 50 be
       -0.22870739 0.08291008 -0.11579406 -0.20325993
000010 55 c1 8d 3d f4 ad a9 bd 40 9c 0b be a9 aa 7d be
       0.06921641 -0.08285132 -0.13633823 -0.24772133
000020 fd f5 54 be e1 05 b0 3d e0 40 8e be a0 e1 ee bd
       -0.20796962 0.08594871 -0.2778387 -0.11664128
000030 b6 81 38 bd 94 1a 97 3a dc 66 e0 3d a7 85 78 be
       -0.045045577 0.0011528307 0.10957119 -0.24269734
000040 f2 46 19 bd c3 d2 b5 3d 3c ab 8d be e6 17 58 bd
       -0.037421174 0.0887809 -0.27669704 -0.052757166
000050 e4 78 37 bd d9 f8 3d 3d e2 90 ff 3b 29 f6 e0 bd
       -0.044793025 0.046379898 0.007799254 -0.10984451
000060 69 c1 9a be bf 6e 32 bd f8 b1 aa bd f3 b2 de bd
       -0.30225685 -0.043562647 -0.08334726 -0.108739756
000070 9e d9 72 bd e9 32 88 3e 3c 97 7c 3b ac ff 60 bc
       -0.059289567 0.2660134 0.003854229 -0.013732832
000080 ed 47 2b 3d 84 10 dd 3d cd d2 37 3e 10 f4 d0 3d
       0.04181664 0.10794166 0.17951508 0.10202801
000090 48 35 59 3d 0d bf 2e 3e 7a 76 86 be 9f 43 97 3d
       0.05302933 0.17065068 -0.26262265 0.073859446
0000a0 11 5c d5 3e 12 35 5a 3e 23 27 ed 3d 8a 11 69 be
       0.41671804 0.21309307 0.1157973 -0.22760597
0000b0 f6 3f 58 be 39 91 82 3d 92 5c 80 be be 90 55 be
       -0.21118149 0.06375355 -0.25070626 -0.20855996
0000c0 ac b4 07 be 74 7a 4a 3d ba 8c a7 3d 70 0c 06 be
       -0.13252515 0.049433187 0.08181138 -0.13090682
0000d0 30 2f 3a be 45 1e 2f be 7b c6 5b bd fd 50 c9 bd
       -0.18182063 -0.1710139 -0.053656083 -0.098299004
0000e0 3b ab 95 be fd 06 e3 bc 74 73 b6 bd df a9 80 be
       -0.292322 -0.027713293 -0.0890874 -0.251296
0000f0 16 b6 de 3d ae 58 ac bd 91 17 04 be da 04 59 be
       0.10874574 -0.08415352 -0.12899615 -0.21193257
000100 55 6c 68 be ce 5a 39 3e ee 45 a1 be 69 30 28 bd
       -0.22697575 0.18101045 -0.31498665 -0.041061793
000110 c4 e7 ea 3b cb f1 9b 3d bf 21 8e 3d 95 58 81 be
       0.007168742 0.07614478 0.0694003 -0.25262895
000120 cc bc 58 bd a2 71 63 3d 60 7d 87 be 85 88 9d bd
       -0.052914426 0.05552829 -0.2646284 -0.07692055
000130 31 7b 40 bd 17 e4 46 3c ce 8d 17 3d 20 c4 94 bd
       -0.046992484 0.012139342 0.03700047 -0.072639704
000140 14 2a 93 be 8d 67 7f bd 99 ce b3 bd 76 c7 a8 bd
       -0.2874304 -0.062354613 -0.0877964 -0.08241169
000150 5b 35 8f bc 7c 0c 0d be 92 ed ba 3d 8f 02 03 bc
       -0.017481497 -0.13774294 0.09127344 -0.0079962155
000160 d0 ba fe bb 5f f6 40 3d f5 ad 23 3e 40 e5 53 3d
       -0.0077737346 0.047109958 0.15984328 0.0517323
000170 93 61 ae 3c ae bf 81 3d f9 ea 57 be 8a 2d ac 3d
       0.021286761 0.06335388 -0.21085729 0.084071234
000180 ad 80 82 be 59 81 0b 3e 6c 4e 0a bb 3a f4 28 3d
       -0.25488797 0.13623561 -0.0021103872 0.041248538
000190 36 06 49 3e d6 f9 72 3d 07 ce b5 bc 05 ad a0 3d
       0.19631276 0.059320293 -0.022192968 0.07845501
0001a0 c9 be e4 3d 4a 8a 37 3d 8d 9f 6f 3d 54 20 39 3e
       0.11169202 0.044809617 0.05850177 0.18078738
0001b0 26 8d f7 bd 3e 39 b0 3d 34 42 7f be a8 3e 38 3e
       -0.12087469 0.08604668 -0.24927598 0.17992651
0001c0 6f a4 81 3c 02 22 87 bd 81 06 70 3d a9 71 f7 ba
       0.015825478 -0.06598283 0.058599953 -0.0018878478
0001d0 19 bd 34 ba 6b 09 0d 3d bc 28 1d 3e d4 36 48 3c
       -0.0006894633 0.03443281 0.1534757 0.012220103
0001e0 48 45 5d 38 73 b7 ce 3d df 4f 60 be 2e c4 9e 3d
       5.275503e-05 0.10093584 -0.21905468 0.07752262
0001f0 fa f5 7e be be c8 ef 3d 8c 47 c6 3c 24 f2 ae bd
       -0.2489852 0.117082104 0.024204038 -0.085422784
000200 05 79 32 3d 46 69 5b bc b9 20 a9 bd 75 7d 8d 3d
       0.043572444 -0.013391798 -0.082581945 0.06908695
000210 88 40 f7 3d 41 65 87 3d 32 54 3e 3d 0e c2 1b 3c
       0.12072855 0.066111095 0.046467014 0.009506715
000220 9c 4a 5c be 06 92 cc 3d c6 9e 68 be b0 16 db 3c
       -0.21512836 0.09988789 -0.22716817 0.026744217
000230 04 c7 ee 3a fc c4 73 be a9 11 62 be aa 60 63 3c
       0.001821727 -0.23805612 -0.2207705 0.013878027
000240 cc 2d 83 be 78 57 5c be a0 40 80 be fa 1c bf 3b
       -0.25620878 -0.21517742 -0.25049305 0.0058323117
000250 5c 3d 8f 3b 12 f1 0c be 1e 43 28 3c b8 d9 77 be
       0.0043713283 -0.13763836 0.010269908 -0.24204147
000260 18 c9 f7 39 6a 43 a2 bd 1c ee 61 3d c7 d8 49 be
       0.00047261338 -0.079230145 0.05515872 -0.197116
000270 88 c4 27 ba 0f 4d 76 3d 81 b1 25 be c4 a7 d8 3d
       -0.000639983 0.060132083 -0.16180994 0.10578874
000280 d4 36 b4 3d 3a 8c 09 3d bb 5b d9 3b a0 67 af bc
       0.0879952 0.033580996 0.0066332496 -0.021411717
000290 fa 70 80 be 11 f5 99 bc 9e e9 d2 bd e2 60 14 bd
       -0.25086194 -0.018793615 -0.10298465 -0.036225207

encoder_mean.12.bias f4 [12]
000000 62 0f 4c b6 bb 36 d4 36 7b ea 55 35 63 5a 44 b6
       -3.0407323e-06 6.324464e-06 7.96899e-07 -2.9258888e-06
000010 bb 30 fe 36 44 ea 39 36 e0 47 05 b6 07 b6 30 b6
       7.575463e-06 2.7703509e-06 -1.9860381e-06 -2.6331998e-06
000020 48 e9 16 b6 9e 40 c9 b5 05 61 87 b6 7c 54 ff b5
       -2.248753e-06 -1.4994473e-06 -4.034608e-06 -1.9023569e-06

encoder_mean.13.weight f4 [12]
000000 64 f1 87 3f 19 ac 60 3f d7 b3 5e 3f 33 e7 8d 3f
       1.0620542 0.877626 0.86993164 1.1086181
000010 26 14 80 3f 8b 7b 75 3f 9d 8c 5b 3f b8 11 42 3f
       1.0006149 0.95891637 0.85761434 0.75808287
000020 59 d6 4f 3f 92 d0 46 3f fd e9 b6 3f 63 d4 39 3f
       0.81186444 0.77662003 1.4290158 0.725897

encoder_mean.13.bias f4 [12]
000000 95 32 e5 bd 9b df 90 3e 8e 05 c8 3e 73 5e 98 3d
       -0.111912884 0.28295597 0.39066738 0.0743989
000010 a6 31 04 bd 53 31 78 3e b0 f1 99 3d 73 29 49 3e
       -0.03227391 0.24237566 0.07516801 0.19644718
000020 3c 5b bd 3d f6 1e a5 3d d9 6c 88 bd 39 ac 9c 3e
       0.09245917 0.08062546 -0.06661386 0.30600145

encoder_mean.13.running_mean f4 [12]
000000 46 47 a5 be 52 c7 46 be 0a be 82 3e d4 ff 4a be
       -0.3228094 -0.19411972 0.25535613 -0.19824153
000010 86 11 99 be 88 40 58 be 19 99 ae bd 73 51 4c 3d
       -0.29896182 -0.21118367 -0.08525295 0.049882364
000020 07 70 af bd 5b 1b bd bd e8 94 5a be 3e 33 eb bd
       -0.085662894 -0.09233733 -0.21345866 -0.11484383

encoder_mean.13.running_var f4 [12]
000000 c5 c2 84 3d b1 e6 90 3d b6 43 02 3e 95 f9 aa 3d
       0.06482462 0.07075251 0.12721142 0.08348385
000010 90 5e 67 3d 0a b9 6f 3d 96 4b 89 3d f1 ca e9 3d
       0.056486666 0.058526076 0.0670387 0.11415661
000020 00 8e 4e 3d 14 ed 5b 3d 3b 88 e9 3d 7a 8b 49 3d
       0.05042839 0.053692892 0.11402937 0.04920528

encoder_mean.16.weight f4 [10, 12]
000000 ea 77 b6 be ec 5e aa 3e 4d 36 5d be 08 70 0c 3f
       -0.35638362 0.33275545 -0.21602745 0.54858446
000010 71 9d bb be 1d ef e6 3e 19 ca 31 bd cc 22 04 be
       -0.36643556 0.45104304 -0.043405626 -0.12903899
000020 e9 ab d7 bd 44 4a 9e 3d 4b 2e 98 3e a0 8c 6e 3e
       -0.10530836 0.07729009 0.2972282 0.23295832
000030 14 c0 ea 3e 09 0e f8 be 00 00 bc 3e cd fe 25 bf
       0.4584967 -0.48448208 0.3671875 -0.6484192
000040 9c 13 09 3f 34 4c f1 be ee fe df 3d bc 63 ed 3d
       0.53545547 -0.4712845 0.10937296 0.115912884
000050 a3 8d 29 3d 40 b5 80 b9 46 0d da be 7d 6b 7b be
       0.04139484 -0.00024549104 -0.42588252 -0.24552722
000060 00 57 8b be b6 98 99 3e d2 2e 0f bf 6a c3 02 3f
       -0.27214813 0.29999322 -0.5593082 0.5107943
000070 82 ff b4 be 6a 83 9e 3e 0a b9 ab be 25 e0 a0 be
       -0.35351187 0.30959636 -0.3353961 -0.3142101
000080 3b ec 8e be c4 2a 4a be 7c 21 72 3f d7 ac 4a bd
       -0.27914605 -0.19742876 0.94582343 -0.04948124
000090 c8 38 45 bd 2e 1b f9 39 fa 01 0a 3e 40 b3 81 37
       -0.048149854 0.0004751323 0.13477316 1.5461468e-05
0000a0 7b b7 be bb d4 13 b1 bc a9 16 f5 bc 84 03 1b bd
       -0.0058202124 -0.0216159 -0.029918032 -0.03784515
0000b0 c7 e9 56 3c 63 be 0f bd 62 c0 ad bd 1e 1c a1 bb
       0.01311726 -0.035093676 -0.0848396 -0.004916682
0000c0 f8 39 6e 3c d0 84 08 bc 46 ea 41 bc 33 b3 11 3a
       0.014540188 -0.008332446 -0.01183564 0.0005558014
0000d0 da 70 87 3c 19 28 bb 3b d0 3f b6 3c ce 46 c7 3c
       0.016533304 0.005711567 0.022247225 0.024325754
0000e0 79 5e 37 bc b7 08 a8 bc 23 0e 8e 3d fa 03 55 3b
       -0.011191958 -0.020511968 0.0693629 0.003250359
0000f0 94 d0 d9 3b 54 e0 db bb 3a a5 0a bd bd f2 c2 bc
       0.006647179 -0.0067100916 -0.03384898 -0.023797387
000100 fe 15 b2 bb 67 73 2c bd 32 f3 2e 3d 34 6b a9 3b
       -0.0054347506 -0.042102244 0.042712398 0.0051702503
000110 cf 1c 12 bc 42 69 ee 3a b5 51 2d 3b 52 da 22 bc
       -0.008918001 0.0018189328 0.0026446406 -0.009939747
000120 97 2d e1 3e 41 0c 96 be 25 83 d0 3d b9 02 b5 bd
       0.43980095 -0.29306224 0.10181264 -0.0883841
000130 91 1d 09 3e 82 e4 60 be 82 53 89 be fa 74 fb bd
       0.13390185 -0.21962169 -0.26821524 -0.12278171
000140 62 e8 88 be 7f 10 0f be 5b f6 13 3e 51 7b 8a be
       -0.26739794 -0.13971137 0.14449446 -0.27047208
000150 2b f9 fc 3a 49 28 2c 3a 18 e3 f5 3a d4 c5 44 bc
       0.0019300332 0.0006567282 0.0018759696 -0.0120100565
000160 f3 02 d6 ba 40 d6 6a 39 c7 95 02 3c 3f 5f 27 3c
       -0.0016327783 0.00022395793 0.00797028 0.0102155795
000170 53 df 87 bb 38 b7 dd 3b 04 49 88 bb ee cc be 3b
       -0.0041464954 0.006766226 -0.0041590948 0.0058227694
000180 b9 fc 0e bf d6 4f de 3e bb e3 af bc 0f 84 d8 3d
       -0.55854374 0.43420285 -0.021470895 0.10572063
000190 76 3c ef be 5c 17 dc 3e 92 83 e4 3e b2 2e e6 3e
       -0.46725816 0.42986572 0.4463163 0.449575
0001a0 4c 87 fa 3e 9c 86 1a 3f 1f ae d3 be 26 0c 05 3f
       0.48931348 0.6036165 -0.4134378 0.5197166
0001b0 d2 05 02 be de 87 ef 3d 72 51 84 be a0 f4 93 3e
       -0.12697533 0.116958365 -0.25843388 0.28897572
0001c0 ef ba d6 bd d5 36 02 3e 1f ee 46 be 27 b8 5e be
       -0.104848735 0.1271623 -0.19426773 -0.21749936
0001d0 f1 d2 84 be a7 d6 1e be a9 0b 1f 3f 11 ae a1 bd
       -0.25942186 -0.15511571 0.62127167 -0.07894529

encoder_mean.16.bias f4 [10]
000000 61 a4 d5 be 9f 8a cb 3e 7b 15 55 bd 10 c6 2c 3d
       -0.41726974 0.39754197 -0.05202244 0.042181075
000010 41 e5 27 bd 3b bf 11 3d 03 2f bc 3e 86 10 c6 3a
       -0.040990118 0.035582762 0.36754617 0.0015111126
000020 36 96 4b bf 1b 4b 7d 3c
       -0.7952608 0.015459801

encoder_var.0.weight f4 [20, 30]
000000 76 6a 78 bb 77 fb 57 b9 96 9a a0 3a 3f 20 83 3b
       -0.0037905253 -0.00020597676 0.0012253101 0.004001647
000010 af 6b fa ba ae 41 23 bb f4 a3 9a bb 3d e0 0f ba
       -0.0019105579 -0.0024910974 -0.0047192518 -0.0005488431
000020 22 d1 27 3a 76 20 99 3a 04 be de ba ea 81 86 ba
       0.00064017077 0.0011682648 -0.0016993885 -0.0010262106
000030 27 10 af ba 72 de 0f 3a 0e 78 a1 3a 9e 38 cb bb
       -0.0013356254 0.0005488164 0.0012319104 -0.0062018177
000040 16 e2 61 b9 9d f4 18 3b 35 11 5d bb b0 4a b8 39
       -0.00021541896 0.002333916 -0.003373218 0.0003515086
000050 b9 2a 85 3b 46 32 a7 3a df 98 1d ba 1d a1 21 ba
       0.004063931 0.0012756072 -0.0006011854 -0.00061656703
000060 11 1d 19 bb bc 37 7c 3b 10 01 77 bb 40 f4 82 3b
       -0.0023363272 0.0038485369 -0.0037689842 0.003996402
000070 28 bb 85 bb e5 d2 94 3b 7d 0c 1c bc 2f 93 99 bb
       -0.0040811487 0.004541742 -0.009524462 -0.004686735
000080 e1 4d 7d bb 62 40 33 bc ff 92 20 3b 42 61 b3 3c
       -0.0038651156 -0.010940643 0.002450168 0.021896962
000090 9d 33 90 bb 4f db 42 bb 99 43 3e bc 73 6e 90 bb
       -0.004400684 -0.002973277 -0.011612796 -0.004407698
0000a0 d5 3f 72 bb e2 39 24 bb 48 dd 44 bb cb dc 03 3c
       -0.0036964316 -0.0025058915 -0.003003912 0.008048247
0000b0 0c be 95 ba ff 8b ab 3c 61 93 b0 ba 67 af f9 bb
       -0.0011424436 0.020940779 -0.0013471657 -0.0076197865
0000c0 b0 99 1d bc 73 34 0c 3b 4a 3a 2d bc 68 34 c9 3b
       -0.0096191615 0.0021393567 -0.010572979 0.0061402805
0000d0 4b 61 26 3b 30 7c 3f bc 74 c6 8a 3c c7 37 11 3c
       0.002538758 -0.011687323 0.016940333 0.008863396
0000e0 8c dc 10 bc 2e 03 74 bc 60 5f 76 3c 15 ce 39 bd
       -0.008841645 -0.014893336 0.015037388 -0.04536255
0000f0 4d ee a9 3b a0 b8 26 bb b4 06 6c ba 38 e7 41 bb
       0.0051858784 -0.0025439635 -0.00090036844 -0.002958728
000100 29 92 fc ba c6 53 09 3c 6c b2 e6 3b 66 59 2e 3b
       -0.0019269633 0.00838179 0.0070403125 0.0026603579
000110 95 9d 5f bb 8f bd 63 3a f3 45 c5 3b c0 5a 64 38
       -0.0034121026 0.0008687609 0.0060203015 5.4443954e-05
000120 99 20 50 ba f6 00 9b bb 23 1f 77 bb 64 5b fe 3b
       -0.0007939428 -0.004730339 -0.0037707768 0.0077623595
000130 63 76 50 ba 2a 12 33 bb a9 c5 2f ba 33 46 dd 39
       -0.00079522113 -0.002732406 -0.0006705174 0.00042204707
000140 f1 e4 3d bb ac b4 a9 ba f2 60 5c 3b 44 d1 96 bb
       -0.002897557 -0.0012947521 0.003362712 -0.004602583
000150 3c 86 5b 3b d0 25 9a 3a e0 35 9a ba 29 36 c3 bb
       0.0033496758 0.0011760537 -0.0011765324 -0.005957384
000160 19 ad c3 3b 75 8a 4c bb 7e 9a cc ba 44 35 46 3a
       0.0059715626 -0.0031210457 -0.0015610007 0.0007561038
000170 d4 26 b7 3a e8 22 d4 37 ce d9 57 3b 40 59 8f bb
       0.0013973364 2.5288624e-05 0.0032936218 -0.004374653
000180 75 64 13 bc cb 00 f0 ba 02 d9 94 3a 72 d7 ae 3a
       -0.008996119 -0.0018310783 0.0011356177 0.0013339354
000190 11 06 68 ba 7c 6d 43 bb ee 79 60 3a 06 b0 e5 3a
       -0.00088510016 -0.0029819896 0.0008563091 0.0017523773
0001a0 f3 13 5d b9 05 2d 28 bb 18 41 ad 39 ce 57 63 3b
       -0.00021083634 -0.00256616 0.0003304563 0.0034689787
0001b0 42 29 2d b9 ed 21 da 3a 18 c1 53 b8 6a 6d 12 36
       -0.00016513935 0.0016642191 -5.0486153e-05 2.1819383e-06
0001c0 2a 64 23 bb e3 f0 9f 3b 59 20 7a bb 31 8b 29 ba
       -0.0024931529 0.004881011 -0.0038166253 -0.00064675795
0001d0 34 3c 08 3a 10 8a 8a 39 0c 8b 9d b9 68 b1 ab 3b
       0.0005196959 0.00026424276 -0.00030048972 0.0052396543
0001e0 d0 ed c9 3b 6e 5a a4 3b a1 2c 59 ba 8c 60 87 bb
       0.0061623827 0.005015663 -0.00082845433 -0.0041313823
0001f0 d1 49 b2 bb 7c e5 58 3c 0d 26 9d 3c ab 4a 84 bc
       -0.0054409285 0.013238307 0.019183183 -0.016148886
000200 af 84 a7 3c 07 73 ae ba ca 44 87 3c 90 93 81 3a
       0.02044901 -0.0013309427 0.016512293 0.0009885896
000210 ef cb de b9 f5 9f ad bb 54 19 8d bb b9 34 51 3b
       -0.00042495082 -0.0052986094 -0.004305998 0.0031922294
000220 24 78 21 39 9c fa 42 b9 ed 17 eb ba cf b4 57 3a
       0.00015398912 -0.00018594641 -0.0017936208 0.00082285417
000230 ff e9 6e bb ea 01 3a 3a 6c ea 90 3a 37 13 25 3b
       -0.003645539 0.0007095622 0.0011056191 0.0025188455
000240 b0 a3 38 bb 9b 12 21 3a ea de 23 ba bf a8 0c bc
       -0.0028173737 0.0006144435 -0.00062511733 -0.008585154
000250 21 c2 0c 3c d2 c7 c4 3c 04 db 04 3b 6e 6f df 3b
       0.008591206 0.024021063 0.0020272145 0.0068187034
000260 36 ed 6c bb 0f c9 30 3b 53 1c bc ba 83 85 75 3b
       -0.003615213 0.002697531 -0.0014351703 0.0037463612
000270 08 c3 8d 3b 90 b7 2e 3c 54 0c d9 39 27 e1 56 3b
       0.004326228 0.010663882 0.0004139865 0.003278801
000280 a9 79 81 bb 26 13 a5 3b 14 81 8e bb 33 b2 30 bb
       -0.0039512706 0.005037683 -0.0043488834 -0.0026961684
000290 fa 5a 26 3c bb 03 5b bc a8 78 7f b9 11 d2 d4 3a
       0.010153526 -0.013367589 -0.00024363643 0.0016236921
0002a0 6f cb 9c 3b b0 81 bf ba 8c 24 11 3b 04 cf 6e bb
       0.0047849934 -0.0014610793 0.0022147028 -0.003643931
0002b0 6e e2 51 3c 60 6e 13 bc a9 a2 3a bb 67 fc 65 3b
       0.012810333 -0.008998483 -0.00284783 0.003509307
0002c0 4e bb 5b bb 0a f3 e7 bb 62 c2 e4 3b a8 e1 ac 3c
       -0.003352839 -0.007078533 0.00698118 0.021103695
0002d0 eb e9 cd bb 9b 6e a1 3b 20 5a 68 bc 56 1c d6 bb
       -0.0062839887 0.0049265153 -0.014181644 -0.0065341396
0002e0 f7 28 97 3c 10 72 c3 bb 51 99 3c bc 07 a0 c7 3c
       0.01845215 -0.005964525 -0.011511163 0.0243683
0002f0 8f ff 9f bc 12 f8 2a bb a2 68 b1 3c 40 11 0d ba
       -0.01953104 -0.0026087803 0.021656338 -0.00053812936
000300 58 88 03 bc 32 85 6b bc 3a 37 f4 3a f6 59 50 3c
       -0.008028112 -0.014375018 0.0018632181 0.012716761
000310 9f 5b 90 39 f4 c3 f7 bb 7c 7b b1 bb 78 52 53 bb
       0.00027534083 -0.007561201 -0.005416332 -0.00322452
000320 a0 9f da bb 81 33 b2 ba 2b 94 b3 3c 98 a7 8a 3b
       -0.006671861 -0.0013595672 0.021921238 0.0042314045
000330 16 51 8a bc 6e 86 e3 3b 70 32 e3 bb 4f b1 ff bb
       -0.016884368 0.0069435155 -0.006933503 -0.0078031193
000340 82 84 01 3c c1 f6 5d bd de 70 96 bc ab b9 3a bc
       0.0079051275 -0.0541904 -0.018364366 -0.011396806
000350 a8 9f 5c bb c1 82 5b 3c de ae df 3b 01 ef 8c bc
       -0.0033664498 0.013397873 0.0068262657 -0.01720381
000360 ac 72 f5 bc 86 53 20 3d 42 b6 15 bc ef 73 86 3a
       -0.029961906 0.039142154 -0.009137692 0.001025794
000370 cd 55 a1 bc cc 7d 8d 3b 09 16 67 bb 22 05 25 3c
       -0.019694233 0.0043179747 -0.0035260937 0.010072025
000380 f3 f4 1b bd f6 45 38 3d d6 88 ec b9 10 9f b7 38
       -0.0380754 0.044988595 -0.00045115378 8.755748e-05
000390 e4 b4 0c bc 3d 3a bd bb 4e 79 5b 3c fb fd 40 3c
       -0.00858805 -0.005774765 0.0133956205 0.011779304
0003a0 b0 a7 b6 3c ce 57 0c 3b 80 55 f8 bc b8 33 fc 3a
       0.022296757 0.002141464 -0.030314207 0.0019241488
0003b0 0e d1 fc ba e3 cf c5 3b ea e2 c5 bb 32 19 af bd
       -0.0019288377 0.006036745 -0.006039013 -0.085497275
0003c0 4e b2 23 bb 98 11 38 3a 40 55 e2 3a 62 37 43 ba
       -0.0024978104 0.00070216646 0.0017267838 -0.00074469124
0003d0 2c 56 49 bb c5 c4 d7 3a de 29 97 bc 41 f7 56 3c
       -0.0030721528 0.001646184 -0.018452581 0.013120473
0003e0 50 2f a1 ba e7 6f af 3b 5f 04 f4 bb ac c2 98 3b
       -0.0012297425 0.005353916 -0.00744681 0.0046618786
0003f0 46 49 5d bb 5f 2f cb 3b a3 94 0b bb d5 71 64 3c
       -0.0033765598 0.0062007154 -0.0021298311 0.013943155

encoder_var.0.bias f4 [20]
000000 1a ac ae 35 b2 d0 86 b5 e7 00 a6 35 c1 63 9e 35
       1.3014098e-06 -1.0044516e-06 1.2368226e-06 1.180095e-06
000010 96 e7 a1 34 7b 43 3d 36 38 93 e5 b4 f7 44 0d 35
       3.0157088e-07 2.8202473e-06 -4.276169e-07 5.262695e-07
000020 a5 72 cc 35 1e 61 0b b6 87 59 e5 b5 84 c5 dd b4
       1.523255e-06 -2.0769144e-06 -1.7087885e-06 -4.130817e-07
000030 22 5d 2e 36 d9 33 f9 b5 68 0e 06 b6 bf 69 11 35
       2.598223e-06 -1.8567035e-06 -1.9975942e-06 5.417059e-07
000040 7c 3e 0b 35 a2 29 3d 36 16 d6 9a b5 23 d9 cd b5
       5.187246e-07 2.8187428e-06 -1.1536201e-06 -1.5336885e-06

encoder_var.1.weight f4 [20]
000000 f7 1a 86 3b 28 1a 90 3c 07 33 aa 3b d6 46 f6 3b
       0.00409257 0.017590597 0.005194071 0.0075157685
000010 de e4 65 3c 37 5d dc 3b 49 db 00 3d 66 3a 2a 3d
       0.014031617 0.0067249793 0.031459127 0.0415596
000020 a5 5a ee 3c 10 3a 98 3b 1d b6 b3 3d 6c e1 5a 3b
       0.029095957 0.0046455935 0.0877497 0.0033398522
000030 51 da c9 3b 68 5e 8f 3a 4a 99 cb ba d6 90 91 3d
       0.0061600585 0.001093817 -0.0015533355 0.071077034
000040 08 8b 77 3b cc 39 44 3c 91 14 13 3c 5a 59 82 3c
       0.0037772078 0.0119766705 0.008977071 0.015911747

encoder_var.1.bias f4 [20]
000000 02 44 04 bc 54 30 85 3a 1a 8a 8c 3b 42 d2 b8 bb
       -0.008072855 0.0010161498 0.004288924 -0.005640299
000010 a7 b4 51 3c cc 3a db bc 79 2b 40 bc fd 44 38 bd
       0.0127994185 -0.026761435 -0.011729115 -0.044987667
000020 06 96 16 bc 82 80 6a 3b 26 12 27 bc e2 56 16 bb
       -0.009191042 0.0035782163 -0.010197198 -0.002293997
000030 cc 92 e3 b8 28 e1 5c 3a 00 32 d9 ba 48 25 c4 bc
       -0.000108515465 0.0008425885 -0.0016570687 -0.023943558
000040 41 c1 93 3c c6 17 2e 3c d4 63 a5 3b 09 fc 08 bc
       0.018036487 0.010625785 0.005047301 -0.008360871

encoder_var.1.running_mean f4 [20]
000000 08 41 04 3c 70 09 61 bd 5a 7d 33 3b 3c 49 1e 3c
       0.008072145 -0.05494064 0.0027387948 0.009661015
000010 be 07 cc 3c 83 d1 c7 3c c7 d4 09 bd 89 44 77 bd
       0.024906036 0.024391895 -0.033650186 -0.060368095
000020 a5 8f 04 bd 86 50 3f 3b 67 a0 b1 bd a9 18 d8 3b
       -0.032363553 0.0029192283 -0.086731724 0.0065947366
000030 d0 95 22 bc c7 49 c6 bb f2 e5 90 bc 18 a3 18 bd
       -0.009923413 -0.0060512754 -0.017687771 -0.037264913
000040 ae 82 af bb f1 b8 19 3c ee c5 af bc 5a fe 8d bc
       -0.0053561544 0.009382472 -0.021456685 -0.017333198

encoder_var.1.running_var f4 [20]
000000 9a 6c bf 38 77 f0 e9 3a a2 23 0f 39 79 7e 34 38
       9.127818e-05 0.0017848153 0.00013650817 4.303313e-05
000010 51 3f 33 39 e6 bb 7c 39 78 9f f7 39 f3 51 c0 3a
       0.00017094357 0.0002410259 0.00047230325 0.001467286
000020 14 f3 08 3b 8e 90 9c 38 49 f5 36 3b b9 15 1a 39
       0.002089684 7.465585e-05 0.0027917197 0.00014694677
000030 9b 4a d1 39 85 ce 02 39 dd 5d dd 39 73 03 3f 3a
       0.00039919172 0.000124747 0.00042222338 0.0007286586
000040 35 9d 80 39 bc 47 19 38 ab da b0 39 e0 60 12 39
       0.0002453119 3.654485e-05 0.00033732256 0.00013959734
