dice_ml/utils/sample_trained_models/adult_2nodes.pth (torch_old, 12223 bytes, 4 tensors)

weight f4 [20, 29]
0	0xb888a662	-6.5159766e-05
1	0xb84991de	-4.8057984e-05
2	0xb71dbb38	-9.4015195e-06
3	0xb71052b8	-8.602328e-06
4	0x384a8fc2	4.8294438e-05
5	0x38b7b2ac	8.7594e-05
6	0x39396aaa	0.0001768271
7	0x38ee4817	0.00011362152
8	0xb8f35738	-0.00011603389
9	0x39258d96	0.00015788371
10	0xb986124b	-0.000255721
11	0xb67a4ae0	-3.7296486e-06
12	0x38b01554	8.396307e-05
13	0x37704a45	1.4322407e-05
14	0xb860c176	-5.3585936e-05
15	0xb9471cd1	-0.00018988854
16	0x38eee4ec	0.000113913644
17	0xb8cdb5a9	-9.8089986e-05
18	0xb70ea508	-8.502284e-06
19	0xb92f5342	-0.00016720316
20	0x389b89c0	7.416634e-05
21	0x38a4ad16	7.852369e-05
22	0x36b46702	5.3764097e-06
23	0xb8011c32	-3.0782256e-05
24	0xb511e380	-5.4347765e-07
25	0xb890223e	-6.872833e-05
26	0xb8926d38	-6.982166e-05
27	0xb9031a80	-0.00012503006
28	0xb98a173d	-0.00026338725
29	0xb65924e0	-3.2356984e-06
30	0xb8aec210	-8.3331135e-05
31	0x38f41460	0.00011638622
32	0xb98a035e	-0.0002632392
33	0xb9918a9a	-0.0002775982
34	0x3930655c	0.00016822427
35	0xb8e31df4	-0.00010829783
36	0xb90c4b11	-0.00013379405
37	0xb6aae9f0	-5.0936287e-06
38	0xb71771c8	-9.026793e-06
39	0x3944886f	0.00018742842
40	0x38f5b17e	0.00011715571
41	0xb91d64d8	-0.00015010254
42	0x39669997	0.00021991726
43	0xb926dc08	-0.00015912962
44	0x3909ab53	0.00013129161
45	0x36bd6d40	5.6453573e-06
46	0x391f2f37	0.0001518101
47	0xb92d7c68	-0.0001654491
48	0xb81cdc0a	-3.7398226e-05
49	0xb8d297f1	-0.000100418816
50	0x392c3097	0.000164213
51	0xb8768e59	-5.8783542e-05
52	0xb93fda5d	-0.00018296526
53	0x37061fb0	7.9944e-06
54	0xb8afb215	-8.3778206e-05
55	0x39908705	0.00027566418
56	0xb85eef5e	-5.3151853e-05
57	0xb7eec718	-2.8464521e-05
58	0x3807760a	3.229644e-05
59	0x385b4a56	5.22829e-05
60	0x3898281e	7.255397e-05
61	0xb994bce6	-0.000283695
62	0xb8f154c8	-0.00011507567
63	0xb8ff7ca8	-0.000121825666
64	0x38d79e04	0.000102814316
65	0x388f1f50	6.824604e-05
66	0xb916fe59	-0.00014399867
67	0xb6c7e5a0	-5.957394e-06
68	0xb62c74c0	-2.5697955e-06
69	0x38e8bf44	0.00011098248
70	0xb79d7dc8	-1.877443e-05
71	0xb830c738	-4.2147207e-05
72	0x3852d452	5.026564e-05
73	0x39097d3b	0.0001311199
74	0x38bcd88e	9.004875e-05
75	0xb8902108	-6.8726076e-05
76	0x396bc1be	0.00022483521
77	0xb89383f2	-7.034083e-05
78	0xb903d2a8	-0.00012571609
79	0x38cd4a7b	9.789035e-05
80	0xb7ef0776	-2.8494494e-05
81	0x37a90e5c	2.0153057e-05
82	0xb84292d6	-4.6389956e-05
83	0xb901590b	-0.0001233557
84	0xb8c2a7cd	-9.281896e-05
85	0x390186b4	0.0001235258
86	0xb97a5971	-0.00023875177
87	0xbf07b72f	-0.5301389
88	0xbf36c5a9	-0.71395355
89	0x3c1ef883	0.0097028045
90	0x3e1fc0eb	0.15600936
91	0xbc7770d9	-0.015102589
92	0x3ba6b26d	0.005087188
93	0x3e12c365	0.1433235
94	0xbbe540d4	-0.0069962535
95	0xbe64ce94	-0.22344428
96	0x3e9e49ec	0.30915773
97	0xbd9d86d5	-0.07691733
98	0xbe46b215	-0.1940387
99	0x3f0fd891	0.5618983
100	0x3e53dfca	0.20690838
101	0x3b15a573	0.002283421
102	0xbf01738d	-0.5056694
103	0x3b800b38	0.0039075874
104	0x3e020790	0.12698197
105	0xbc12d70d	-0.008962405
106	0x3dc37944	0.09544614
107	0x3c34d629	0.011037388
108	0xbda8da9b	-0.08244821
109	0xbc04f41e	-0.008114843
110	0x3d8038ca	0.06260832
111	0xbdadfefa	-0.084958985
112	0x3cb87736	0.022517782
113	0xbb69a851	-0.0035653303
114	0x3db636a3	0.0889714
115	0xbb7ead0a	-0.0038860464
116	0x396b3700	0.00022431836
117	0x38383c4b	4.392517e-05
118	0x39325940	0.00017008651
119	0x39239e80	0.00015603937
120	0x39600315	0.00021363453
121	0xb99a3739	-0.00029414313
122	0xb7cdc864	-2.4531219e-05
123	0xb91f5fca	-0.00015199106
124	0x3984e866	0.00025350152
125	0x390e2ada	0.00013558139
126	0x39867b26	0.00025650224
127	0xb91651ed	-0.00014335634
128	0x37f87d78	2.962233e-05
129	0x39114a64	0.0001385599
130	0x38833ee1	6.258279e-05
131	0xb8a6acf6	-7.947713e-05
132	0xb7cf0738	-2.4679684e-05
133	0x38b1e656	8.482921e-05
134	0xb949ea19	-0.00019256062
135	0xb921fb3c	-0.00015447749
136	0x374b31d0	1.2111341e-05
137	0x38573121	5.130575e-05
138	0x383c5790	4.490424e-05
139	0x394911a6	0.00019175428
140	0xb8cd0571	-9.776175e-05
141	0xb9193fc2	-0.00014614969
142	0x38ef2bb8	0.00011404551
143	0xb92099c8	-0.00015316077
144	0xb8c318a9	-9.302918e-05
145	0x37dbcdf8	2.6202746e-05
146	0x39240007	0.00015640269
147	0x38faefe0	0.00011965609
148	0x398aa17d	0.0002644173
149	0xb92db6be	-0.00016566642
150	0x38ab6dec	8.17439e-05
151	0x38e589b6	0.000109452216
152	0xb848ce4a	-4.7875837e-05
153	0x38cd1ae6	9.780172e-05
154	0x38538518	5.0430273e-05
155	0xb931c48c	-0.00016953255
156	0x393922ca	0.00017655935
157	0xb9263097	-0.00015849095
158	0xb82d6608	-4.134144e-05
159	0xb8953e57	-7.116485e-05
160	0xb9921127	-0.0002786007
161	0x38abcaf9	8.191722e-05
162	0xb8400e08	-4.5789435e-05
163	0x36e92b00	6.948947e-06
164	0x389d03db	7.4870615e-05
165	0xb8b76160	-8.7442575e-05
166	0x39068c78	0.00012831565
167	0x380f7734	3.4204873e-05
168	0xb8c07adb	-9.178157e-05
169	0xb8a236fe	-7.735005e-05
170	0xb91ab87d	-0.00014755312
171	0x386b58ee	5.611119e-05
172	0xb925e408	-0.00015820574
173	0x388d6d14	6.743721e-05
174	0x37bade74	2.2276516e-05
175	0x398170b2	0.00024688762
176	0xb9466ac7	-0.00018922529
177	0x3906ceb4	0.00012856239
178	0x38d95df5	0.00010364867
179	0x3839ff7c	4.4345375e-05
180	0x393907fe	0.00017645952
181	0x397f1b91	0.00024328964
182	0xb9911fed	-0.00027680342
183	0xb947838e	-0.00019027127
184	0xb9aa85cf	-0.00032524622
185	0xb908d567	-0.00013049469
186	0x39b0ca27	0.0003371995
187	0xb93592fe	-0.00017316264
188	0x39a521a3	0.00031496314
189	0xb9ad600a	-0.00033068686
190	0x39685cc9	0.0002215981
191	0xb88d5001	-6.738306e-05
192	0x38ef9aaa	0.000114252165
193	0xb93866d9	-0.00017585921
194	0xb6fdb3a0	-7.5608987e-06
195	0x3912d319	0.00014002285
196	0x37bd3c50	2.2558641e-05
197	0x39c78199	0.00038052796
198	0x39ef17e3	0.0004560343
199	0xb8716ac6	-5.7558318e-05
200	0xb661f9e0	-3.367306e-06
201	0x38880ab7	6.486981e-05
202	0xb8ee6cda	-0.000113689995
203	0xb907ffe2	-0.00012969927
204	0xb96f3904	-0.00022814056
205	0x38d0e53c	9.960911e-05
206	0x38e3cfa8	0.000108628825
207	0x39596cc0	0.00020735245
208	0xb8b133c5	-8.4496605e-05
209	0xb74e8c20	-1.2311182e-05
210	0xb90cbc9c	-0.00013421703
211	0xb888e058	-6.5267726e-05
212	0xb8ea357c	-0.00011167952
213	0xb6c569c0	-5.8833684e-06
214	0xb7f045ad	-2.8642675e-05
215	0xb921b9e9	-0.00015423413
216	0xb8ebda38	-0.000112463196
217	0xb93a63e8	-0.0001777556
218	0x38b945cb	8.8344874e-05
219	0x38c70efa	9.491849e-05
220	0xb8d3a30a	-0.000100916324
221	0xb613d2e0	-2.2027452e-06
222	0xb9ee9e92	-0.00045513042
223	0x3915976f	0.0001426616
224	0x38931018	7.012504e-05
225	0x37813c40	1.5406054e-05
226	0xb786db60	-1.60762e-05
227	0x38ec4fd6	0.000112682275
228	0xb954a629	-0.00020279795
229	0x37915c50	1.7328333e-05
230	0xb83dc6b0	-4.5246154e-05
231	0x3847702e	4.7549773e-05
232	0x37fbb0d8	3.0003881e-05
233	0x37f049bc	2.8644565e-05
234	0xb7d99390	-2.593713e-05
235	0x38f6c182	0.00011766238
236	0xb8a1c5d2	-7.713925e-05
237	0x39665775	0.0002196709
238	0x365255e0	3.1342424e-06
239	0xb7cb04b0	-2.4201669e-05
240	0x392a2560	0.00016226387
241	0x38cf3b72	9.881602e-05
242	0xb936681b	-0.00017395655
243	0x39d1b244	0.00039996405
244	0x392c9a95	0.00016460785
245	0xb92b87da	-0.0001635844
246	0x3748125c	1.1925204e-05
247	0xb91d9776	-0.0001502911
248	0xb7c9a218	-2.4036548e-05
249	0xb929324f	-0.00016135837
250	0x398bf657	0.00026695683
251	0xb95455ad	-0.00020249812
252	0x39025b00	0.00012431666
253	0xb929502f	-0.00016146967
254	0x395d6d90	0.00021117018
255	0xb82abb9c	-4.0705883e-05

bias f4 [20]
0	0xbabd7e96	-0.0014457281
1	0xbd4cc422	-0.049991734
2	0xbbdfaed2	-0.00682626
3	0x3f94461e	1.1583898
4	0xbd97e92e	-0.07417522
5	0xbb26cce7	-0.002545172
6	0xbe397874	-0.18112355
7	0xbb206519	-0.0024474321
8	0xbe4cbf93	-0.19994955
9	0xbd021897	-0.031761732
10	0xbbb1dcef	-0.0054279487
11	0xbd0fe9f6	-0.035135232
12	0x3f5eda11	0.8705149
13	0xbe0e90ee	-0.13922474
14	0xbb0b7844	-0.00212814
15	0xbb183592	-0.002322529
16	0xbccf7259	-0.02532308
17	0xbb0c234b	-0.002138334
18	0xbd642b73	-0.0557055
19	0xbc7af690	-0.015317574

weight f4 [2, 20]
0	0xb91ffdc1	-0.00015257952
1	0x39d565b8	0.00040702312
2	0x3975d066	0.00023442655
3	0x40040d86	2.0633254
4	0x382e3a77	4.1539282e-05
5	0x381f8658	3.803367e-05
6	0xb93c786a	-0.00017973935
7	0x398a5178	0.0002638211
8	0x37bdfba4	2.2647735e-05
9	0x386350f8	5.4196425e-05
10	0xb88c62aa	-6.694098e-05
11	0xb9877374	-0.00025835226
12	0xbd50034e	-0.0507844
13	0xb888770c	-6.5071596e-05
14	0x3826e484	3.9790306e-05
15	0xb95923f6	-0.00020708129
16	0x3817a294	3.6152618e-05
17	0x37d22690	2.5051908e-05
18	0x383f4c66	4.56091e-05
19	0xb9233328	-0.00015563949
20	0x39092b9d	0.00013081585
21	0xb94effba	-0.00019740956
22	0x39a3ee39	0.00031267272
23	0xbffcf1ce	-1.9761293
24	0x3906bdc6	0.00012849932
25	0xb909cf0f	-0.00013142473
26	0x38c275cf	9.2725844e-05
27	0xb88e5414	-6.7867484e-05
28	0xb8c23c09	-9.261823e-05
29	0x38f240ac	0.00011551505
30	0x3895ea94	7.148567e-05
31	0x385f2a26	5.3206597e-05
32	0x3d2923c2	0.041293867
33	0xb7b45f00	-2.150191e-05
34	0xb96ed105	-0.00022775315
35	0xb8fa0deb	-0.000119235214
36	0xb7d261e0	-2.5079527e-05
37	0x38fbaec8	0.00012001168
38	0xb8a19f84	-7.70679e-05
39	0x39ba62f0	0.000355504

bias f4 [2]
0	0xbf33ee63	-0.70285624
1	0x3f651e0b	0.89498967
