dice_ml/utils/sample_trained_models/adult-margin-0.369-validity_reg-73.0-epoch-25-ae-gen.pth (torch_old, 35043 bytes, 78 tensors)

encoder_mean.0.weight f4 [20, 30]
000000 6e 8c cf 3e cf bd b7 be f3 fd dd bb 93 89 86 bc
       0.40536827 -0.35887 -0.006774658 -0.016423022
000010 a1 f3 99 bc de 60 11 bd 89 44 74 bb 96 f4 ef bb
       -0.01879293 -0.03549277 -0.0037272295 -0.007322858
000020 85 93 67 bd f6 b2 e7 bb e2 6e d6 bc 85 a8 dd bc
       -0.05653717 -0.0070708944 -0.02617592 -0.027057895
000030 0a 3f e6 bb 20 b4 9a bc bc ed c6 3d c2 a5 9f 3d
       -0.007026558 -0.018884718 0.09713313 0.07795288
000040 9c 2f a2 3d f0 1e 76 bd e2 41 b4 3d a8 b3 21 3c
       0.07919237 -0.060088098 0.08801629 0.009869494
000050 33 10 8a 3b de 48 d6 bc 56 3d 21 3a 1f 8a 4c bc
       0.004213357 -0.026157793 0.00061508024 -0.0124841025
000060 e3 aa 54 3c e9 ac 03 bd b0 55 0c bd a0 b4 0f 3c
       0.012980196 -0.03214732 -0.034261405 0.008771092
000070 15 b8 86 3c 9a 38 33 bd b3 16 0e bf 48 93 d2 be
       0.016445199 -0.04375515 -0.55503386 -0.41127992
000080 b7 62 a5 3d 67 81 4e 3d 4d 0d a4 3d ab a9 9a 3d
       0.08075469 0.050416376 0.080103494 0.07551893
000090 0e ef a0 3c 97 3d b1 3c 74 c9 5a bc 2c 32 31 bc
       0.01964524 0.021635814 -0.013353694 -0.010815185
0000a0 47 75 1e 3c 15 14 d8 3c a1 15 b8 bc 1f a6 3d bb
       0.009671516 0.026376763 -0.022471251 -0.0028938127
0000b0 54 3e e9 3c 93 e0 60 3d b5 d7 dc 3c 11 7c f4 3b
       0.028472103 0.05490167 0.026958326 0.007461079
0000c0 f5 2f bf bb 4d 4c 22 bd dd 8a 25 bd 9d 11 21 bd
       -0.0058345743 -0.039623547 -0.040415633 -0.039323438
0000d0 5b 5f 4c bd 53 ce 37 bd 54 1f 42 bd 9d f7 ef bd
       -0.049895626 -0.0448745 -0.047393158 -0.1171715
0000e0 7d 31 ef bd a5 33 f3 3c fe 8e 8d 3c 34 1f 00 3e
       -0.11679361 0.029687712 0.017280098 0.12511903
0000f0 e3 4a 1d 3f 2d 67 48 bd 3c f1 09 bd e2 a4 2b 3d
       0.61442393 -0.04892652 -0.033677325 0.04190529
000100 01 c2 f1 bc a7 4e 02 bd e0 88 d3 ba 9c db a2 3c
       -0.029511454 -0.03181329 -0.0016138814 0.019880109
000110 a5 cb af bc 60 67 5c 3c 16 76 ab 3c 24 de 84 3c
       -0.02145941 0.013452381 0.020930331 0.016219206
000120 96 2d 5f bb b2 90 c6 3a 93 8a ae 3d b3 e7 b2 3d
       -0.003405427 0.0015149324 0.08522525 0.08735599
000130 d5 65 7f 3d 9a f7 a3 bd c4 18 49 3d da 40 e6 3c
       0.062352974 -0.080062106 0.049095884 0.028107096
000140 bd 82 0a bd 2e 31 e3 3c ef 23 40 3d 5a 66 bb 3c
       -0.033816088 0.027733412 0.04690927 0.022875953
000150 a3 37 f1 3c 91 04 88 bd 52 1b 88 bd d5 3d c0 ba
       0.029445475 -0.06641496 -0.06645836 -0.0014666865
000160 96 69 8a bb e0 a4 4d 3d 18 bb 2c 3f 66 f7 50 bd
       -0.0042240126 0.050206065 0.6747298 -0.051017188
000170 f0 f1 89 bd e7 95 6e bd cf 46 41 bd a8 3d 4c bd
       -0.06735599 -0.058248427 -0.04718667 -0.049863487
000180 58 c8 da 3c f8 9e b2 3c e7 5b 15 bc 69 c7 fc 3c
       0.02670686 0.021804318 -0.0091161495 0.030856805
000190 2a ba 71 3c 97 01 79 3c fc 69 c9 3c ac 86 82 3c
       0.014753858 0.015198133 0.02458667 0.015933357
0001a0 1e 27 a8 bc d2 9d b3 bc 1d b4 f3 bc ef 8d a9 3d
       -0.020526465 -0.02192584 -0.02974897 0.08279025
0001b0 c3 8e 14 bd e7 2e 61 bd 4f d5 1d bd 31 ee 91 bd
       -0.03626896 -0.05497637 -0.038533505 -0.071255095
0001c0 eb b7 43 bd a8 4b 2b bd a1 3c 82 bd 47 f9 4f bd
       -0.04778282 -0.0418202 -0.0635922 -0.05077484
0001d0 15 33 57 bd 7b a2 e7 3c 4c 2f e8 3c a8 8f 23 3c
       -0.05253895 0.028275719 0.028342865 0.009982981
0001e0 74 5b 19 bf b3 fb fb be b7 24 d5 3c 6e 0d 82 3d
       -0.5990517 -0.4921547 0.026018484 0.06350218
0001f0 e0 d1 10 3d 83 5f 0c 3d ad f4 b2 3d af 2b ad 3d
       0.035356402 0.034270775 0.087380745 0.084555976
000200 0d 17 8b 3b 32 90 99 3d 25 af 99 3d 8c c7 63 3d
       0.004244691 0.07498206 0.07504109 0.055610225
000210 b8 df 6b 3d e7 15 97 3d 9c 2c 86 3c de 84 7d 3c
       0.0575864 0.073772244 0.016378693 0.015473573
000220 01 39 16 3c 7b 9d c1 3b 64 29 3c bc e7 31 7c 3d
       0.009168864 0.0059086657 -0.011484478 0.061571028
000230 6f e3 00 3c 72 04 63 3d 4d c5 72 3d 88 f8 31 3d
       0.007866724 0.05542416 0.059270192 0.04344991
000240 7b f9 80 3d 56 1c ea 3d ef 02 c3 3d 96 77 cc 3d
       0.062975846 0.11431186 0.09522044 0.09983747
000250 b4 1b c8 3d 47 60 1b be 87 df 2b 3f 11 98 99 bc
       0.09770909 -0.15173446 0.6713795 -0.018749269
000260 57 1d bc 3d 5c 2e 33 3d 83 81 da 3d 09 39 e1 3d
       0.09185284 0.043745384 0.10669234 0.10997207
000270 23 26 88 3c af 19 08 3c bc 53 23 bb 09 f6 17 3b
       0.016619748 0.008306905 -0.0024921736 0.002318742
000280 7f e0 d1 bb d0 2b 63 bc 60 e7 94 3b 40 9b d0 3b
       -0.006404936 -0.013865426 0.0045441836 0.0063661635
000290 02 bb 0e 3c 31 01 de 3c 7a 44 dd 3c 0a 99 b2 3c
       0.008711578 0.027100177 0.027010191 0.02180149
0002a0 d7 6d 21 3c c8 46 7c 3d 70 f6 0d 3d 3f 14 6e 3d
       0.009852848 0.06159094 0.03465885 0.058124777
0002b0 38 d9 7d bd 8a d8 96 3d 88 e1 71 3d 28 ed e3 3c
       -0.061974734 0.0736552 0.059052974 0.027823046
0002c0 41 31 bc 3c f3 db 23 bd 4e 2f 6d bd 6c 3e 78 3d
       0.022972705 -0.04000468 -0.05790644 0.060606405
0002d0 87 5a 78 3e 74 16 39 3e 28 26 41 3c 83 08 d4 3a
       0.24253283 0.18074971 0.011788882 0.0016176853
0002e0 f2 cd 3c bc fc 94 3f 3c 09 1b 98 3a b7 1c 77 3d
       -0.011523711 0.0116932355 0.0011604737 0.06033012
0002f0 71 88 9c 3c e3 88 47 bc fe 99 95 3d 11 5a 93 bb
       0.01910803 -0.012178632 0.07304762 -0.0044968207
000300 3b da a3 3c ae 19 1a 3d 33 16 e9 3d 89 93 3a bd
       0.020001521 0.037622146 0.11381187 -0.045550857
000310 f6 d4 c1 3d c7 be f3 bc be 39 0b bc d8 7a 9b bd
       0.09464447 -0.029754056 -0.0084976535 -0.0759179
000320 e2 b3 5f 3c cb 17 50 3c 50 53 03 3d d4 e7 0b 3d
       0.013653727 0.012700985 0.032061875 0.034156635
000330 e0 59 a5 3d 89 76 1c 3c 59 e5 5e bd f2 1d 81 3e
       0.08073783 0.009549745 -0.05441794 0.2521816
000340 04 4f 02 be 1f 73 6a be b4 c2 28 3f ff ec 20 be
       -0.12725455 -0.22895478 0.65922093 -0.15715407
000350 84 eb 16 3d 49 c2 7a 3d 7c cc 19 3d be 1f 20 3d
       0.0368457 0.06122044 0.037548527 0.03909277
000360 24 10 ce bb 80 84 f0 bb b6 6c 85 3c f4 d5 53 bc
       -0.006288545 -0.007340014 0.016287189 -0.012929428
000370 be 69 92 3c 32 7d b3 3c 15 25 1f bc f8 e9 e4 3b
       0.017872687 0.021910284 -0.009713431 0.006985899
000380 dc f9 11 3d 51 4b 1e 3d af 05 6a 3d 53 01 e8 3c
       0.035638675 0.038646046 0.057134327 0.028320944
000390 12 fc f1 3c 52 09 36 3d b2 1b 8b 3c ae fe 57 3d
       0.029539142 0.044442482 0.01698098 0.052733116
0003a0 75 e1 52 3d 45 68 5d 3d 2f 10 3b 3d c5 0b b9 3d
       0.051484544 0.054054517 0.04566973 0.09035448
0003b0 1c 1f cd 3d 2c cc cb bd b3 d1 b9 bd 0f 47 8d 3d
       0.10015699 -0.09951052 -0.090732 0.06898319
0003c0 28 23 d8 be 1e 29 32 bf 46 62 07 3d 12 69 66 3d
       -0.42214322 -0.6959399 0.033052705 0.056252547
0003d0 f5 2c 8f 3d 56 d4 84 3c 22 3f 69 bd 18 58 0a bd
       0.06990997 0.01621453 -0.056944974 -0.03377542
0003e0 b3 a5 a4 bd e2 67 0a bd 1f 7e 71 bd 91 a8 ee bb
       -0.08039417 -0.033790477 -0.05895817 -0.0072832783
0003f0 61 a3 33 bd 2a ee 5e bd d5 27 96 3d 3c 63 8a 3d
       -0.043856982 -0.05442635 0.07331816 0.06757209

encoder_mean.0.bias f4 [20]
000000 fe 05 c9 b6 f1 dc 61 b5 c0 e0 4d 33 8d fa c7 b6
       -5.9909644e-06 -8.4140544e-07 4.793469e-08 -5.95983e-06
000010 8c 3b 1f 37 e0 d4 3c 37 7e e3 51 b4 32 d7 24 b8
       9.491003e-06 1.1255237e-05 -1.9547403e-07 -3.9301063e-05
000020 bc d1 ad 35 aa 0e a9 b4 9e 1d c4 b5 8c 33 ff b3
       1.2950545e-06 -3.1489373e-07 -1.4611758e-06 -1.1883739e-07
000030 b5 f1 2d 36 b3 ad 1f b5 48 24 33 37 81 b0 de b6
       2.59197e-06 -5.948488e-07 1.0677679e-05 -6.6366633e-06
000040 7d 5d 42 b5 f9 85 95 36 09 64 8e 36 35 37 2b 36
       -7.2406675e-07 4.4561425e-06 4.2435754e-06 2.551312e-06

encoder_mean.1.weight f4 [20]
000000 2e 7d d1 3e fb 27 de 3e c3 90 02 3f ab f1 14 3f
       0.40915817 0.43389878 0.5100214 0.58181256
000010 51 16 11 3f ca 2d e2 3e f5 0b 58 3e 8b 31 47 3f
       0.5667468 0.4417556 0.21098311 0.7780997
000020 0b 03 d2 3e a4 34 34 3e 38 7b ac 3e ed 63 96 3e
       0.41017947 0.17598206 0.33687758 0.29373112
000030 b0 ca 81 3e 03 e6 42 3e 28 a8 f3 3e a1 db 2f 3f
       0.2534995 0.19033055 0.4758923 0.686945
000040 65 92 bd 3e 76 ff 36 3f 48 01 d5 3e 0d 50 05 3f
       0.37025753 0.7148355 0.4160254 0.5207527

encoder_mean.1.bias f4 [20]
000000 99 ab 75 bd 4a d5 97 be bb f6 9f 3d 40 5e 12 3e
       -0.0599781 -0.29654914 0.07810732 0.14293766
000010 d3 ce 0b bf ad e0 94 3e 81 8d d3 bd 6d ee 5f 3d
       -0.54612464 0.29077664 -0.10329724 0.05467074
000020 84 e4 b0 be 8e ae f2 3c 13 31 3d be 55 b6 84 be
       -0.34549344 0.02962425 -0.18475752 -0.25920358
000030 ae c0 29 be f3 6d 8e bd 05 cf 2e bf 00 36 e0 3e
       -0.16577408 -0.06954565 -0.68284637 0.437912
000040 bf 1d b9 3d 63 54 eb 3e 6a 10 06 3d 64 68 91 3e
       0.09038877 0.4596282 0.032730497 0.28399956

encoder_mean.1.running_mean f4 [20]
000000 12 02 c2 bd cf 83 6f be 63 38 10 3e 4b 62 af 3d
       -0.09473051 -0.23390125 0.1408401 0.0856367
000010 cb 11 e3 bd 11 fd c5 3e e1 a3 9d bd 68 32 98 3e
       -0.11087378 0.38669637 -0.07697273 0.29725957
000020 e3 10 9f be ff a9 0c bc 9b c1 7e be e4 08 57 be
       -0.3106757 -0.008585452 -0.24878542 -0.20999485
000030 4b d5 b3 bd 43 e1 8a bc c6 b4 5e be de a6 b7 3e
       -0.08780917 -0.016953116 -0.21748647 0.35869497
000040 df 68 90 3e 5c 07 5b 3f d9 d4 6f 3e cd f5 ac 3e
       0.2820501 0.85558105 0.23421039 0.3378128

encoder_mean.1.running_var f4 [20]
000000 c2 90 a1 3c b2 9f 91 3c 77 cc eb 3c f8 f0 42 3c
       0.019722346 0.017776344 0.02878402 0.011898272
000010 46 7f 80 3c 15 c9 8a 3c 38 dc 89 3d d9 de 7c 3c
       0.015685689 0.016941587 0.067314565 0.01543399
000020 33 85 a6 3c 3e f5 51 3c 91 90 22 3c 4b 3c 7e 3c
       0.020327186 0.012814818 0.009922163 0.015517305
000030 a2 cd 16 3c 75 3d 59 3c ad 33 a4 3c 6e 29 8d 3c
       0.0092043 0.013259281 0.020044172 0.01723167
000040 7a 36 7b 3c 0f a3 3a 3d fc 21 83 3c 96 64 54 3c
       0.015332812 0.04556566 0.016007416 0.012963435

encoder_mean.4.weight f4 [16, 20]
000000 00 34 6a bd e9 c3 f6 3d 54 e9 f2 bd 1e 1b 26 be
       -0.057178497 0.12049086 -0.1186091 -0.16221282
000010 f4 a7 73 3d c1 0b 3a be 6a ba ed bc dd de 8e bd
       0.059486344 -0.18168546 -0.029019553 -0.069761015
000020 a9 ca 1d 3e 43 64 c1 bd d1 4d 1b 3e 82 d0 02 3e
       0.1540934 -0.094429515 0.15166403 0.12774852
000030 d4 9b 81 3d 1f 24 4d 3c ac c6 2c 3c c2 ed 7d be
       0.0632855 0.012520819 0.010545414 -0.24797729
000040 35 73 9e bc da 9c 21 be 30 b9 e2 bc 5d e3 83 bd
       -0.019342044 -0.1578249 -0.027676195 -0.064398505
000050 36 dd 31 bd 9d e7 7b bd 65 9d 36 bd f2 35 08 be
       -0.043423854 -0.06150018 -0.044583697 -0.13301829
000060 e5 1e d1 bc 3c 14 fb 3d 7b ef 4f ba 2a 76 1c be
       -0.025527427 0.12259719 -0.0007932109 -0.15279451
000070 03 2c 46 bd 74 db 12 bd 84 ac d1 bc 67 b2 a0 3c
       -0.048381817 -0.035853818 -0.025594957 0.019616319
000080 02 08 84 3c 10 22 70 bb 6e 23 7d 3e 17 af 5c bc
       0.0161171 -0.0036641397 0.24720547 -0.013469479
000090 a4 a0 6b 3d fa 07 24 bc 34 b0 6d 3d 10 03 a1 3e
       0.057526246 -0.010011667 0.05802937 0.3144765
0000a0 09 bf 0f bd c3 8b 10 bd de c0 61 bd a3 2c 57 bd
       -0.035094295 -0.035289537 -0.055115573 -0.052532803
0000b0 25 c2 11 bc 27 38 dc bc 5b e8 eb bc 13 e2 72 bd
       -0.008896385 -0.026882244 -0.02879732 -0.059297632
0000c0 e3 43 d5 bd 5e aa fa bc 24 c0 66 bd 2e 52 de bd
       -0.10413339 -0.030598816 -0.056335583 -0.10855518
0000d0 ec 85 91 3b 9c e4 b4 bc 34 2f be 3e d6 da d1 3e
       0.0044410136 -0.022081666 0.37145388 0.4098727
0000e0 7d 1c 78 bd d4 7a 1e bc 19 02 70 bd 65 44 56 bd
       -0.060574044 -0.009672839 -0.05859575 -0.05231132
0000f0 c6 81 dd 3d 4e 7b e4 bd d5 d4 61 3e 7b 8d 8e 3e
       0.10815768 -0.11156331 0.22053845 0.27842316
000100 cc 42 67 bd 69 0e cb 3d 9d 1d f3 3c b1 58 18 3e
       -0.056460187 0.09914858 0.029677207 0.14877583
000110 a6 2c 19 be 20 ab e8 3d ba 9d 99 bd f0 10 b5 ba
       -0.14958438 0.113607645 -0.07500787 -0.0013814252
000120 9a 86 c5 3b 0f 3d f5 bd 4a 69 bd 3e 55 34 40 3e
       0.0060280086 -0.11974537 0.36994392 0.18769963
000130 47 d8 35 3e da 9b 51 bb 0e 03 1a 3e ed 85 e6 3d
       0.17758285 -0.0031983764 0.15040228 0.11256013
000140 06 7c f5 bd f1 9d 8b 3d bf de c5 bd 94 04 2d be
       -0.11986546 0.06817234 -0.09661626 -0.16896278
000150 5d 9e 78 3e bc 88 e5 bd 13 2d 35 bd 46 c6 17 bd
       0.24279161 -0.11207721 -0.04423244 -0.037054323
000160 93 8e a7 3d c6 36 82 bc a8 f0 42 3d 43 d6 94 3d
       0.08181491 -0.015895259 0.04759279 0.0726743
000170 76 2f ef 3c 59 3d 0a 3d 22 3d 44 bd 02 ae 0e be
       0.029197436 0.033749912 -0.047909863 -0.13933566
000180 24 a3 d0 bd b2 8b 92 bd 6f 0c 9f bc 79 68 02 be
       -0.101873666 -0.07155551 -0.019415108 -0.12735166
000190 09 3b 9f bd bf 80 bd 3d b4 9f fc bd 31 e8 d0 bd
       -0.07774932 0.09253072 -0.123351485 -0.10200537
0001a0 e0 a0 2a 3e 9e b4 c1 bd 4e 95 c5 bc e8 e1 41 be
       0.16662931 -0.09458278 -0.024119046 -0.18933833
0001b0 de fa 9e 3d 9d d0 d4 bb d0 89 78 3d 19 fc c1 3d
       0.07762693 -0.006494595 0.060678303 0.09471912
0001c0 6a b5 1e 3d 01 eb cc bc 52 31 2e be 78 0b f2 bd
       0.03874723 -0.025014402 -0.17011002 -0.11818594
0001d0 5a 4f c0 bd e9 14 26 bc 1b 62 ba bd 99 66 c2 bd
       -0.09390135 -0.010136821 -0.091007434 -0.09492225
0001e0 f8 c8 1b bd 82 8c b4 3d 9d 22 bc bd 2e cc dc bd
       -0.038033456 0.08815862 -0.091862895 -0.10781132
0001f0 cf 5f 7e 3d 1d 51 a3 bd ae ec 90 bc 78 ec 91 bd
       0.06210309 -0.079744555 -0.017690983 -0.07125181
000200 10 c4 8e 3d 01 13 da bc c9 2c 3a 3c 7f 42 37 3d
       0.0697099 -0.02662039 0.011363217 0.04474115
000210 88 19 9f b9 2f d5 0c 3d a1 d1 29 3e e7 6b 19 be
       -0.00030345866 0.034382995 0.16583873 -0.14982568
000220 6d f2 ea bd 0b 0e 2a 3f 04 47 96 bd aa 83 d9 bd
       -0.1147202 0.6642768 -0.07337764 -0.10620816
000230 0a 77 f4 bd 94 c4 aa 3a 98 16 1e be df de 00 be
       -0.119367674 0.0013028556 -0.15438306 -0.12585019
000240 9e e3 34 3e 8d b3 20 be e5 e6 3f 3c e5 35 b7 bc
       0.17664954 -0.15693493 0.011712764 -0.022364566
000250 a0 32 3a 3e 2a 7a 5e bc 7e 74 95 3d 8f d4 1d 3e
       0.18183374 -0.013578931 0.0729761 0.15413116
000260 c0 b1 0f 3e e2 d9 26 3c b1 f8 0d ba f5 3b 8d be
       0.1403265 0.010183783 -0.0005415781 -0.27584806
000270 96 63 aa bd ff cb a0 be 4d ae b4 bc 7d 2c ef bc
       -0.08319776 -0.31405637 -0.02205577 -0.029196018
000280 ae 7c 93 bd 06 fb 5b 3b 33 7f 34 be 7a 6d 48 be
       -0.07201515 0.003356637 -0.17626648 -0.19573012
000290 9c a7 c8 3d d9 09 39 be 3f 36 23 3c 86 63 2d bd
       0.09797594 -0.18070163 0.009961664 -0.04233124
0002a0 48 0f 37 3e 6f 52 10 bc 7f 52 90 3c 81 cf 03 3e
       0.17876923 -0.008808716 0.017617462 0.12872125
0002b0 c2 87 3e 3d 18 57 e5 3c fc f2 85 bd c4 14 85 be
       0.046516187 0.027995631 -0.06540486 -0.25992405
0002c0 f3 73 96 bd 9a af 39 be bd 51 a9 bd 44 68 c2 bd
       -0.07346334 -0.18133393 -0.082675435 -0.09492543
0002d0 75 b4 88 3d 7d 81 70 be f3 ed cc 3d 0f fb db 3d
       0.066750444 -0.23486896 0.10006323 0.10741245
0002e0 35 79 4c be b6 75 30 3d 68 3d 10 3d c2 fd 63 3e
       -0.19968112 0.043081008 0.03521481 0.2226477
0002f0 d3 37 09 be 4c a1 9b 3d b7 75 8c bd e8 0a b5 bc
       -0.13400201 0.07599124 -0.0685839 -0.022099927
000300 6a ca 5c bd fb 8d 07 ba 6a 41 56 3c 06 da f1 3c
       -0.053903975 -0.0005170998 0.013077119 0.029522907
000310 84 69 db 3d 64 2d 66 3d c3 9b c2 3d 5c cd 30 3d
       0.10713485 0.05619563 0.095023654 0.043164596
000320 63 15 23 3c 79 1d cb bd 40 6b 7f 3c 1b 1f d0 3d
       0.009953829 -0.09917731 0.015589535 0.10162183
000330 74 7d 18 be 4f a9 5e 3d 5f 36 39 3d 80 69 86 3e
       -0.14891607 0.054360684 0.045217868 0.26252365
000340 71 a1 9a 3c 53 8f 58 3d 35 3f 09 be 0c be 50 bd
       0.01887581 0.05287106 -0.13403018 -0.050962493
000350 92 00 86 bd ce 9d b1 bd 77 03 b1 3d 3c b1 ef 3d
       -0.065430775 -0.08672677 0.08643239 0.11703727
000360 ec c6 16 3e 28 58 e9 bd 47 10 31 3e c3 b3 e9 3d
       0.1472432 -0.113937676 0.17291366 0.1141124
000370 61 25 d9 3d b2 db a1 bd 46 5f 1a 3e e0 44 51 3e
       0.106028326 -0.07903232 0.15075406 0.2043643
000380 6e c2 ea bc ef 42 3c 3d ac e4 db bc 7a 27 b9 3c
       -0.028657164 0.04596227 -0.026842438 0.022601832
000390 b2 15 b0 bd fd 13 c3 3c 83 2c 3c be f5 66 a8 bd
       -0.08597888 0.023813242 -0.18376355 -0.082227625
0003a0 be 09 18 bd ae 42 86 bd 7b 51 5e 3e 6a 0e 9f 3d
       -0.037118666 -0.06555687 0.2171077 0.07766421
0003b0 86 e0 e4 3d 3a 5b 35 3d 7a 04 2e 3e b2 89 03 3e
       0.11175637 0.044276454 0.16993895 0.12845495
0003c0 a8 23 db bd 12 6f 9f 3d e6 f2 1d be 47 67 ef bd
       -0.1070016 0.07784857 -0.1542469 -0.116896205
0003d0 42 f7 3a 3e ee fb 2a be 7a 45 19 bc ae f1 cc bd
       0.18258384 -0.16697666 -0.009354943 -0.10007034
0003e0 2f ae 8b 3d 26 77 be bc 4d 59 8e 3d 0b 92 82 3c
       0.06820332 -0.023250174 0.069506265 0.01593878
0003f0 f0 8a a6 3d 58 1e 51 3d da de 42 bd fc 66 40 be
       0.08131969 0.05105433 -0.04757581 -0.18789285

encoder_mean.4.bias f4 [16]
000000 39 86 ae 36 af 61 3a b5 40 c6 21 36 ce 33 a8 b6
       5.2012297e-06 -6.943255e-07 2.4106266e-06 -5.012821e-06
000010 64 cf f3 b2 e8 33 a8 35 ae e4 58 b5 77 06 19 b6
       -2.8383234e-08 1.2532082e-06 -8.0799043e-07 -2.280254e-06
000020 92 6c f1 b6 f2 d1 b5 35 1a f5 4a b6 68 9f 95 35
       -7.194999e-06 1.3546653e-06 -3.0243013e-06 1.1147758e-06
000030 80 d7 05 36 e4 18 3f 36 7e 1c 1b 36 68 6b d8 35
       1.9943982e-06 2.8475706e-06 2.3113384e-06 1.6124513e-06

encoder_mean.5.weight f4 [16]
000000 14 c2 1a 3f 4c 89 96 3e e2 64 cf 3e 12 0f 40 3f
       0.6045239 0.29401624 0.40506655 0.75022995
000010 5e f5 f4 3e e9 f8 1c 3f ce a5 23 3f 6b ab 22 3f
       0.4784345 0.61317307 0.6392487 0.63542813
000020 5c 3e 29 3f 40 d0 fc 3e a9 0e 07 3f a8 e7 00 3f
       0.6611078 0.49377632 0.52756745 0.5035348
000030 ed fe 18 3f 45 9b 29 3f 6d 04 bc 3e 24 6d ff 3e
       0.59763986 0.6625255 0.36722127 0.49887955

encoder_mean.5.bias f4 [16]
000000 c2 88 c9 be d0 49 32 be 10 c9 75 be 7a fb 2c 3e
       -0.3936215 -0.1741097 -0.2400248 0.16892806
000010 8f 60 6c be 87 d7 28 be 47 d5 89 be f6 95 e7 be
       -0.23083709 -0.16488467 -0.2692053 -0.452316
000020 52 11 db be df c1 0f 3e 75 de 88 3e 55 99 92 bd
       -0.42786652 0.140388 0.2673222 -0.07158152
000030 77 b4 9c be f5 cc 66 be 93 61 d9 be fc 9d b4 bc
       -0.30606434 -0.22539122 -0.42457256 -0.02204799

encoder_mean.5.running_mean f4 [16]
000000 bd 1c d7 be c8 f0 29 3d ea 6f 65 3d a0 62 e7 3e
       -0.42014113 0.041489393 0.056014933 0.45192432
000010 ec e0 9d be a1 c4 9c be da b6 b8 3d ef 2e f6 be
       -0.30835664 -0.30618766 0.09019251 -0.48082682
000020 f4 da f1 be 71 c3 6a 3e c9 d6 78 3e b3 17 9f 3e
       -0.4723736 0.22926117 0.24300684 0.3107277
000030 ef 19 d2 be bc 83 bb be 95 e2 33 3c 3b 62 8e 3e
       -0.4103541 -0.36623943 0.010979314 0.2780932

encoder_mean.5.running_var f4 [16]
000000 b8 6e ac 3e d1 19 55 3c cc 0e ca 3c db 48 ea 3e
       0.33678222 0.013006643 0.024665259 0.4575871
000010 86 6b 4e 3e 26 44 5f 3e 72 19 80 3d 4a b9 cc 3e
       0.20158204 0.2180334 0.06254853 0.39985114
000020 f8 54 c5 3e b5 b8 26 3e a9 29 41 3e 1d a8 6a 3e
       0.3854139 0.16281398 0.18863548 0.22915693
000030 56 d2 a8 3e a7 c6 97 3e a8 9d d1 3c 63 be 4d 3e
       0.32972974 0.29643747 0.025587872 0.20092158

encoder_mean.8.weight f4 [14, 16]
000000 58 c4 09 be fc b7 ad 3d bc 60 e6 3d 03 e0 10 3e
       -0.13453805 0.08482358 0.11248919 0.14147954
000010 ee 62 15 be 64 3d 5d be 63 44 dc 3d 8b e1 92 bd
       -0.1458852 -0.2160545 0.10755231 -0.07171925
000020 31 7f cc bd 11 bc ed 3d 35 cb bc 3d 99 5e 61 3d
       -0.09985197 0.116081364 0.09218446 0.055021856
000030 27 b1 2c be 53 57 7e be 32 35 8d 3d 05 27 16 3d
       -0.16864453 -0.24837999 0.06894912 0.036658306
000040 2d 70 0a 3e b4 a8 c8 bd 8b f2 15 bc 7d 9e 47 bd
       0.13519354 -0.097978026 -0.009152065 -0.04873513
000050 83 64 23 3e 0e 98 8b 3c 81 da 84 be 4d a5 40 3e
       0.15956311 0.017040279 -0.25947955 0.18813057
000060 71 63 77 3e c6 59 93 bd 60 cf 06 be 39 28 d9 3c
       0.24159028 -0.07194857 -0.13165045 0.026508437
000070 e4 5c 45 3e ca 16 82 3d ed fb e8 3c e4 7b 78 bc
       0.19273716 0.06352003 0.02844044 -0.015166257
000080 a7 d4 58 3d 7f ef a3 bd 35 b2 20 bd 11 99 1b be
       0.052937176 -0.08004665 -0.03923245 -0.15195109
000090 f1 da ae 3d 86 a9 0d 3e 3d b7 9e bd f2 bb 19 3e
       0.085378535 0.138342 -0.07749794 0.15013102
0000a0 ea 9e 32 3e c1 68 40 be 99 3d e6 bd be 1b 24 bd
       0.17443433 -0.1878996 -0.112422176 -0.04006552
0000b0 58 b9 50 3d 14 8e a4 3d c3 42 25 3c 06 95 96 bd
       0.050958008 0.08034912 0.010086718 -0.07352643
0000c0 b3 bf 5a bd 29 31 7a 3d 8e bb 34 3e 94 e4 d8 be
       -0.053405475 0.06108204 0.17649671 -0.4236189
0000d0 4b 30 f5 bd a8 1a 0c be 36 00 c8 bd 26 c8 2b bd
       -0.11972102 -0.13682044 -0.09765665 -0.041938923
0000e0 9a 07 43 bd 72 2d 46 3e 76 d8 15 3e 73 da 28 3e
       -0.04761467 0.19353274 0.14633355 0.16489582
0000f0 66 d2 be bd 29 aa 65 bd 86 c1 73 3e 9c 61 83 3e
       -0.09317474 -0.05607048 0.23804292 0.25660408
000100 46 4c 60 3c 0f 02 ff 3d 0b 3d 92 3e 4b 12 98 3d
       0.01369006 0.124515645 0.28562197 0.07425364
000110 52 ee c2 bc ad 51 da bd 79 26 7f 3d 42 58 8c 3c
       -0.02379528 -0.1066011 0.06229255 0.017131928
000120 61 3a 94 bb 45 ef a8 3d 9b 76 89 bc 4b af 93 3d
       -0.004523561 0.08248762 -0.016780188 0.07211169
000130 16 ac 3b 3c 76 2b 0d be 9c af 0b 3e 1a ad 51 3e
       0.011454603 -0.1378611 0.13641208 0.2047619
000140 14 44 43 3c 38 8e 9d bd ca 37 21 be d7 60 3a be
       0.011918087 -0.07693142 -0.15743938 -0.18201004
000150 73 a6 3d bd 58 44 19 3e 8e e3 a4 bd 4e 02 25 be
       -0.046301316 0.14967477 -0.08051215 -0.1611416
000160 17 51 fa bd 08 9a 31 be d2 c6 d5 bd 58 80 c5 bd
       -0.12222498 -0.17343915 -0.104383126 -0.0964362
000170 96 09 9d bb a7 e2 f8 3d d7 d3 4b 3d 6c 31 c5 bd
       -0.0047924025 0.121526055 0.049762573 -0.09628567
000180 8e 9f 26 3e b2 00 90 bd 67 0d 5d bd 72 4a d2 bd
       0.16271803 -0.070313826 -0.05396786 -0.102681056
000190 3e 45 9f 3d 0c b9 92 bb 19 f3 4f be 93 25 99 3e
       0.07776879 -0.0044776257 -0.20307578 0.2991148
0001a0 81 a1 b7 3e d5 b0 9c 3b cd c9 ca bd 07 74 80 bc
       0.35865405 0.004781822 -0.09901772 -0.015680326
0001b0 6d 0e f2 3d 20 a7 21 b9 49 22 1c 3d c3 24 29 bd
       0.11819158 -0.00015416415 0.038118634 -0.041294824
0001c0 c5 2d 4d be 08 3c 26 bd f7 8a b0 bd 85 f8 2a bd
       -0.20036991 -0.040584594 -0.086202554 -0.041740913
0001d0 9c 9a b0 be 9f 69 28 be 29 bf a1 bc 3d ae a1 3c
       -0.34492958 -0.16446541 -0.019744473 0.019736404
0001e0 01 33 10 be 2b ff 3a bc 41 1b 87 bc 5d 78 bc bd
       -0.14081956 -0.011413376 -0.016492488 -0.09202645
0001f0 40 dc a3 be f6 6b 4a be 31 e6 c1 bd 5a ba 94 bd
       -0.32003975 -0.19767746 -0.09467734 -0.07262106
000200 d8 99 3f 3b 36 9f fd 3d 09 a7 eb 3d 85 e0 e0 3d
       0.0029235985 0.12383883 0.11506469 0.10980324
000210 95 a1 ab bd 79 2c c9 bd 93 75 31 3e 8b 35 a1 ba
       -0.08380429 -0.098229356 0.17330007 -0.0012299282
000220 fb 44 56 bd f0 a9 08 3d 48 a6 a6 3d cf c8 06 3e
       -0.05231188 0.03336519 0.081371844 0.1316254
000230 03 e2 94 bd 12 46 c3 bd 20 da 65 3e 7f de 2b 3e
       -0.07269671 -0.09534849 0.2244649 0.16784094
000240 3a 45 01 3e 57 0d be bd 16 5c 7f bd 56 a1 a6 bd
       0.12624064 -0.09279888 -0.06234368 -0.08136241
000250 fe 1c a0 3d a5 b4 2c 3d 5b 7c 48 be 7c 9a 7e bb
       0.0781803 0.042164464 -0.19578688 -0.0038849404
000260 5f 29 25 3e 62 52 18 be 44 41 c4 bd 50 36 15 3d
       0.16129063 -0.14875177 -0.09582761 0.03642875
000270 ab 38 e6 3d 10 b2 cc 3d 5a 81 ad 3d 9a 7b fe bc
       0.11241277 0.099949 0.084719375 -0.031064797
000280 19 d4 47 3e c4 af 19 bd ed 13 90 bd 8b 41 35 3b
       0.19514503 -0.03752114 -0.070350505 0.0027657475
000290 ef 2d 1a 3e c7 96 5c bd 47 e7 08 be be 74 95 3e
       0.15056585 -0.05385473 -0.13369475 0.2919063
0002a0 a9 b1 85 3e 19 d4 e8 bd fa 8c 9c bd ae 1a 07 bd
       0.26112106 -0.113685794 -0.07644077 -0.032984428
0002b0 18 55 dc 3d 9c bf 4d bd ce 9d a5 bc 6d e8 59 3d
       0.10758418 -0.05023156 -0.020216849 0.053200174
0002c0 9b e9 2a be ae 44 03 bd bc 52 e6 3d 59 31 01 3e
       -0.16690676 -0.03204792 0.11246249 0.12616481
0002d0 76 02 c2 bd 9a 37 5f be 39 a9 c6 3d 5d 4d 47 bd
       -0.09473126 -0.21798554 0.097002454 -0.048657764
0002e0 22 b1 f0 bd e1 4e d6 3d 34 9b c4 3d 34 5f 08 3e
       -0.117525354 0.10464264 0.09599915 0.13317567
0002f0 31 ca 23 be 6e c3 44 be c3 82 00 3e 9e 60 c2 3d
       -0.15995099 -0.19215176 0.12549882 0.094910845
000300 08 9a 9b 3e d4 b3 4d bc 09 70 15 bd 66 f1 99 3e
       0.30390954 -0.012555081 -0.0364838 0.30066985
000310 79 9f 0c 3d a5 fb 4d 3e 0e 40 b3 3c 38 aa 88 3e
       0.034331772 0.20115526 0.02188113 0.26692367
000320 62 cd c5 3c 20 81 57 bd 6c ba 40 bd f2 2d e3 bd
       0.024145786 -0.052613378 -0.047052786 -0.11092748
000330 b7 9e 41 bc 35 9e 20 3e bf d4 c8 3c af 7b b8 bd
       -0.011817626 0.15685351 0.024515508 -0.09007966
000340 fb 30 bf ba 06 db 07 3e 0b 0f 7b 3e 0d 0b c3 3d
       -0.0014586741 0.13267145 0.24517457 0.09523592
000350 b9 a4 08 bc ec 3b 10 bd 81 d9 3a 3e 09 1a 4c bc
       -0.008340054 -0.035213396 0.18247034 -0.012457379
000360 15 4a 3a bd dc 98 9f bc 51 b4 de 3d 5b e2 8c 3e
       -0.045480806 -0.019482069 0.108742364 0.27516446
000370 7d e1 97 3b c6 0b 22 bc 41 75 32 3e ca 26 0f 3d
       0.0046350346 -0.009890502 0.17427541 0.0349491

encoder_mean.8.bias f4 [14]
000000 3d ea 11 b6 74 8d 86 35 90 96 e6 b4 b4 90 04 b6
       -2.1743028e-06 1.0024946e-06 -4.2950387e-07 -1.975376e-06
000010 4b a0 c9 35 ff e8 2e 36 5c 80 4b 36 80 9c 15 36
       1.5022318e-06 2.6063642e-06 3.0324072e-06 2.2293825e-06
000020 ac 98 8d 35 50 57 7b 37 f3 dd 96 b6 6d 3a 15 37
       1.0549752e-06 1.4981095e-05 -4.4961866e-06 8.894695e-06
000030 2d 8f cb 34 d8 cc 22 37
       3.791587e-07 9.703646e-06

encoder_mean.9.weight f4 [14]
000000 20 bc 2f 3f 13 02 19 3f 2b 33 28 3f 91 85 e2 3e
       0.6864643 0.5976879 0.65703076 0.44242528
000010 6d 44 df 3e 46 49 33 3f a7 d1 1e 3f e1 32 1c 3f
       0.43606892 0.7003368 0.62038654 0.61015135
000020 cb 73 db 3e 2b 7b 18 3f b0 72 f8 3e d3 7d 24 3f
       0.4286178 0.5956294 0.48525 0.6425449
000030 35 99 16 3f 99 f1 f2 3e
       0.58827525 0.4744995

encoder_mean.9.bias f4 [14]
000000 78 f0 28 3e e7 66 82 bd 43 2d 5c bd d7 49 ca bd
       0.16497982 -0.06367283 -0.053754102 -0.09877365
000010 c5 9b f0 3d 88 77 b6 bd 50 35 f5 bd 48 ca 8b be
       0.11748461 -0.089095175 -0.11973059 -0.27302766
000020 dc d0 52 3d 08 5e 7e bd 0f 81 37 bd 2b 00 47 3e
       0.051468715 -0.062101394 -0.044800814 0.19433658
000030 48 95 67 3d f7 61 44 be
       0.05653885 -0.19177996

encoder_mean.9.running_mean f4 [14]
000000 d2 5a 3b 3d 61 12 49 bd a0 ba df bd 18 5b 13 bc
       0.04574091 -0.049089793 -0.10924268 -0.008993886
000010 f8 60 af 3d 43 db 2b be 6d e8 6e bd 7a 79 34 be
       0.08563417 -0.1678286 -0.058327127 -0.17624465
000020 e9 50 00 3e 77 7f 8c bd 5f b0 d4 bc a2 16 82 3d
       0.12530865 -0.068602495 -0.025963007 0.06351973
000030 06 b8 ee 3d f2 57 10 3e
       0.116561934 0.14096048

encoder_mean.9.running_var f4 [14]
000000 5b 10 eb 3d 42 d5 44 3d 05 f9 d9 3d 30 06 f0 3c
       0.11477729 0.04805494 0.106432 0.029299825
000010 72 29 90 3d d4 38 0a 3e eb 6e 3f 3d 40 95 f0 3c
       0.07039155 0.1349824 0.04673664 0.029368043
000020 4a 16 ec 3d 44 4c 41 3d 48 15 a5 3c fa d8 02 3e
       0.11527689 0.047191873 0.02015175 0.12778082
000030 8d 75 97 3c 7e 71 be 3d
       0.01848867 0.09298991

encoder_mean.12.weight f4 [12, 14]
000000 bf 17 40 bc 35 e7 97 bd e5 21 4e be 8a 9b fd 3d
       -0.0117244115 -0.07417146 -0.20130117 0.12383182
000010 95 bb 1f 3e 49 19 5e be 91 b0 0e bd ef 7c 36 bd
       0.155989 -0.21689333 -0.034836356 -0.04455274
000020 bc d6 06 3e 9c 3c cb bd af c5 98 bd 7d b3 b1 3d
       0.13167852 -0.0992367 -0.0745958 0.08676813
000030 f1 8a 1d 3e 98 1c 2e 3e 2e 52 d2 3d 3a 7a 88 be
       0.15385033 0.17003095 0.10269581 -0.2665575
000040 fd 0a 83 be da d1 8a bd 85 bd 07 3d 31 9f 83 be
       -0.2559432 -0.06778307 0.033139724 -0.2570739
000050 e2 8c 00 be b3 8e df bd a8 cb 39 be d5 54 a0 be
       -0.12553743 -0.109158896 -0.18144095 -0.31314722
000060 d6 b9 53 bd f7 1a 8b bb c8 c3 cf 3d c4 42 ba 3c
       -0.0516909 -0.004245158 0.10144764 0.022736914
000070 a9 9c ab bd 26 dd d6 bd 81 9a c6 3d 3d 0f e8 bd
       -0.0837949 -0.104913995 0.09697438 -0.113310315
000080 5e 3c 46 be f0 91 50 3e 39 61 47 be bc c8 27 3e
       -0.19358966 0.2036817 -0.19470681 0.16385168
000090 b6 34 32 be 2d ff 8a 3c 16 01 2e be 57 f9 0b bd
       -0.1740292 0.01696738 -0.16992602 -0.034173336
0000a0 da ab 18 be 90 15 ce 3d 0d 89 0e bc 79 cb 25 be
       -0.14909306 0.100627065 -0.008699668 -0.161909
0000b0 a7 a3 8d be 0c 20 77 3d 44 f5 3d 3d 0a f6 79 be
       -0.2766392 0.060333297 0.04637648 -0.24410263
0000c0 da 80 56 3c 59 19 00 be e4 64 08 3e 40 fd 79 be
       0.013092244 -0.1250967 0.13319737 -0.24413013
0000d0 c2 0a 80 bd b0 5f 20 3c 57 ac c3 3d 43 f9 f8 3d
       -0.06252052 0.009788439 0.095543556 0.12156918
0000e0 60 3c 0f 3c 57 2c 0e bb 5f 51 f7 bd 62 e1 1e 3e
       0.008742422 -0.002169391 -0.12076067 0.15515664
0000f0 03 a2 a7 3d 7d 8c 2f be d0 a1 e2 bd b4 5c e1 bd
       0.08185198 -0.17143436 -0.110660195 -0.1100401
000100 7c a8 42 3e 43 60 6c bd 17 dd 8a bc 04 fa 16 3e
       0.19009584 -0.05770899 -0.016951127 0.14743811
000110 ba 98 9c 3d 4a 71 a2 3e 91 1d ba bc f7 8d 1e be
       0.07646318 0.31727058 -0.022719176 -0.15483843
000120 53 6e a3 bd 67 d2 5a bd d5 57 d1 bd 55 3c e2 bd
       -0.07980027 -0.05342331 -0.10221831 -0.11046664
000130 f2 90 51 be 02 dc c2 3e 3f 1e f1 bd 38 76 1d be
       -0.20465448 0.38058478 -0.11773347 -0.15377128
000140 c3 26 19 be 36 56 04 bd 7f ae a8 bd 20 1a 23 be
       -0.14956193 -0.03230878 -0.082364075 -0.15927935
000150 4c 09 c9 bc b1 93 0e be fc da 86 be 68 d0 7e 3d
       -0.024540566 -0.13923527 -0.26338947 0.06221047
000160 aa 1f a5 3d b3 57 83 be 21 8e 8a bd 32 5d 08 be
       0.0806268 -0.25652847 -0.0676539 -0.13316801
000170 92 f9 3f 3e c3 73 62 be 34 24 5f bd ed f6 1f 3d
       0.18747547 -0.22114472 -0.054477885 0.039053846
000180 e7 9d 3c 3e e7 1b 94 3d 57 fd 5e be e3 8f 4b 3e
       0.1841961 0.072318844 -0.21776329 0.19879107
000190 3f bd cb 3c 49 70 01 bd 89 7f c5 bd 39 f3 3c bc
       0.024870513 -0.031601224 -0.09643466 -0.011532598
0001a0 91 5e 8c 3e 7e ef 1f be a4 da 1a 3d f7 a9 a5 3d
       0.27415898 -0.15618703 0.03780617 0.08089059
0001b0 fe 8c 1c 3e 6e 94 57 be 17 e3 ad 3d c0 6a df bc
       0.15288159 -0.21052715 0.084905796 -0.027272582
0001c0 d4 0d 47 be 6c 50 79 3d 45 e0 d4 3d 9e 78 62 bd
       -0.19438869 0.060867712 0.103943385 -0.05529081
0001d0 5a 31 c8 bd 0a 1c 70 3c c6 36 d0 3d dd 03 63 be
       -0.09775038 0.0146551225 0.10166697 -0.22169442
0001e0 f2 ec e0 bd bb a5 e2 3d fe 86 fa 3d 0c bc 4f be
       -0.10982694 0.11066767 0.12232779 -0.20286578
0001f0 34 a3 20 3d 7e 73 a4 3b 39 7e 53 3e c7 e3 3b 3d
       0.039218143 0.0050186506 0.20653619 0.045871522
000200 c9 98 cb 3d 24 ea 1e 3d f2 51 2d 3d c4 67 a7 3d
       0.09941251 0.038797513 0.042314477 0.081740886
000210 6d a8 3e 3e 01 18 d5 bd ee c5 66 bd 11 0f 91 3d
       0.18618937 -0.10404969 -0.056341104 0.07082952
000220 f5 f6 0a 3e f3 c3 51 bd a4 94 99 3e 56 a1 0f 3e
       0.13570769 -0.051212262 0.29996216 0.14026389
000230 e4 77 4b be 68 6a b3 3d bd eb 7e 3d 48 09 d4 bd
       -0.19869953 0.0876053 0.062236536 -0.10353333
000240 df 67 4c be d8 10 31 3e 78 fc bd 3c 34 ad 20 be
       -0.19961499 0.17291582 0.023191676 -0.15691072
000250 d0 0e 13 be cc 5a 08 3e d1 25 57 bd 16 ba 41 be
       -0.1436112 0.13315886 -0.0525263 -0.18918642
000260 df e6 2e bd f0 fa df 3c 25 12 62 be 50 bd 49 3e
       -0.042700645 0.027341336 -0.22077234 0.19701123
000270 98 04 43 3d 87 de 26 bd b3 e7 9d bd 96 6e ab bc
       0.047611803 -0.040739562 -0.07710209 -0.020926755
000280 36 08 2a 3e d4 1e 40 be 61 a0 db bc d8 02 8b 3d
       0.16604695 -0.1876176 -0.026809873 0.06787652
000290 0c 9d 54 3e 05 a9 60 be 7c ee 1f 3e 66 00 1a bd
       0.20763034 -0.21939476 0.15618318 -0.037598036

encoder_mean.12.bias f4 [12]
000000 0c 0a fc b4 6b 66 0f b6 89 cb 3b b6 c5 28 59 35
       -4.6945968e-07 -2.1368276e-06 -2.7983644e-06 8.0898127e-07
000010 b9 c0 8a b6 49 27 dc 36 88 ec a6 33 06 bf 87 33
       -4.1351564e-06 6.5610843e-06 7.773002e-08 6.321174e-08
000020 7d d7 7a 35 d8 68 32 36 7c d8 99 36 65 ce 22 b6
       9.3445834e-07 2.6585094e-06 4.5849574e-06 -2.4260019e-06

encoder_mean.13.weight f4 [12]
000000 97 33 53 3f a6 2c 85 3f e1 32 a4 3f 5f 1e 79 3f
       0.82500595 1.0404251 1.2828027 0.9731197
000010 db ab 50 3f 5f 3e a4 3f 5f 7f 50 3f fa 37 74 3f
       0.8151223 1.2831534 0.8144435 0.95397913
000020 56 b9 70 3f 51 66 52 3f c5 25 86 3f 8d 4a 74 3f
       0.940328 0.8218737 1.0480276 0.95426255

encoder_mean.13.bias f4 [12]
000000 af 60 2e 3e 94 da 8a 3d 0d 18 93 3d eb b6 98 3d
       0.1702907 0.06779972 0.07182322 0.07456764
000010 db 56 4d 3e e2 36 6d 3d 2b e5 df 3d d9 8b 61 3e
       0.20052664 0.05791367 0.10932382 0.22026004
000020 d2 f1 48 3e 63 0a f9 3e 33 53 2a 3e 0d 81 42 3e
       0.19623497 0.48640737 0.166333 0.18994541

encoder_mean.13.running_mean f4 [12]
000000 38 57 f4 3a 20 f5 7a be 46 8b 00 be 40 0d 1a be
       0.0018641716 -0.2450757 -0.12553129 -0.15044117
000010 9a 9b 91 3d 8b 79 56 be 61 7f e7 bd 78 f8 b0 bc
       0.07109757 -0.20944802 -0.113035925 -0.021602854
000020 bc 8a 85 bd b7 5e 70 3e b2 aa f2 bd 35 2a 17 bd
       -0.06520602 0.23473631 -0.11848964 -0.036905486

encoder_mean.13.running_var f4 [12]
000000 03 18 f9 3d 00 b6 b0 3d f2 e4 a6 3d 6b 33 af 3d
       0.12162783 0.08628464 0.081491366 0.08554729
000010 21 c2 2b 3e a4 cf a6 3d 25 69 c0 3d cc e3 3b 3e
       0.16773273 0.08145073 0.09395055 0.18348616
000020 ec 80 12 3e b2 aa bc 3d a5 39 3c 3e b2 f1 47 3e
       0.14306992 0.09212245 0.18381365 0.19525793

encoder_mean.16.weight f4 [10, 12]
000000 ac 3e ef 3d 80 15 50 bc 4b 79 ae bd 72 8b dc 3d
       0.116818756 -0.0127004385 -0.085192285 0.107687846
000010 88 8e 44 be cc f3 cb 3d 28 83 9d bd d2 0a 57 bc
       -0.19194996 0.0995861 -0.07691032 -0.013125138
000020 22 7d e0 ba 8f 5e 87 3d 76 a1 bd bb f6 f7 1a 3b
       -0.0017127136 0.066098325 -0.00578707 0.0023646331
000030 31 db 22 3c 5c 02 ef 3d 01 e6 6e bd a8 51 6a bc
       0.009939955 0.11670372 -0.058324818 -0.014301695
000040 83 f6 d4 bc c0 67 a5 3d 5d e1 27 3b 74 3a b7 bc
       -0.025996452 0.08076429 0.0025616505 -0.02236674
000050 11 3a 87 3d d8 77 da 3a 74 8b 70 3d 3e c5 cc bc
       0.06602872 0.0016667796 0.058726743 -0.024996396
000060 9f 8a a3 3d 36 f5 2b bd 9f a8 96 bc f9 22 1e bd
       0.07985424 -0.0419819 -0.018390952 -0.03860757
000070 2b 65 42 bc 39 ad 22 bc 2e fd 9c bc 01 4e af 3c
       -0.011864941 -0.009928995 -0.019163694 0.0213995
000080 bc dd b3 3b 54 a3 e3 bc ae c8 89 bc da a1 ff bb
       0.0054890793 -0.027787842 -0.016819324 -0.0078012766
000090 f6 ec e9 bc e3 70 96 3c 57 2e 12 bc 28 2e 0b bd
       -0.028555375 0.018364375 -0.008922181 -0.033979565
0000a0 c5 6d 36 3d 0b 10 06 ba cc ed e4 3b 38 3d 2e bb
       0.044538278 -0.0005114085 0.0069863554 -0.0026586782
0000b0 ed 94 a4 3b 56 fd 0a bc 64 2d 4c 3c 34 14 66 3b
       0.005022636 -0.008483252 0.012461994 0.0035107257
0000c0 f9 73 de 3c e9 21 70 3e 28 22 70 be 8d 2d 6b 3e
       0.02715491 0.23450436 -0.2345053 0.22966595
0000d0 af 28 2f 3c a1 fe 34 3e d0 5f 34 3e 38 ef c3 bd
       0.010690852 0.17675258 0.17614675 -0.09567112
0000e0 82 3c 8c be 05 73 a9 3d 09 b7 9c be 8e 39 7c be
       -0.27389914 0.08273891 -0.30608395 -0.2463133
0000f0 57 2d ff be 8e d1 42 3d a3 b6 56 3f 39 01 3a be
       -0.4983928 0.04756313 0.8387243 -0.18164529
000100 b1 02 db be e1 f7 19 3f da 1a a6 be ba b8 5f bd
       -0.4277549 0.6014386 -0.3244236 -0.05461953
000110 1a d0 35 3d 5f f3 0d bf fb 3a b5 3e 3f 14 e1 bd
       0.044387914 -0.5544948 0.3539656 -0.1099019
000120 ea 08 24 be 2c 9e 83 3e bc 2f 59 3f f4 53 17 be
       -0.16019025 0.25706613 0.8483846 -0.1477812
000130 56 7a 9b be 25 8a 64 3f ee 96 32 be 66 28 9a be
       -0.30366772 0.8927329 -0.17440388 -0.30108947
000140 9a 73 54 be 92 ca 0c bf dc f1 ef 3c 3d fb ba be
       -0.20747223 -0.549966 0.029290132 -0.36519805
000150 3d ee 95 3e 93 7d 0a 3f 3e 68 b9 bd 9d ad cc 3e
       0.29283324 0.5409786 -0.09053086 0.39976206
000160 e1 45 19 3e 33 73 fe 3e cc 69 b8 3e 2c 14 18 bf
       0.14968063 0.49697265 0.36018217 -0.5940578
000170 bc dd 16 bf e3 4a a9 be 54 db 1c bf 67 12 10 bf
       -0.5893209 -0.33064947 -0.6127217 -0.5627808
000180 a8 90 4a be 3e 28 dc be c9 cb c3 3e b6 02 c7 be
       -0.19781744 -0.42999452 0.38241413 -0.38869256
000190 3c 1e 65 be d7 57 0b 3e c7 52 dd be b3 bc a0 3e
       -0.22374815 0.13607727 -0.43227217 0.31393966
0001a0 68 e8 d8 3e e4 2c 52 be 60 59 fd 3e ab ab 85 3e
       0.42364812 -0.20524937 0.4948225 0.26107535
0001b0 8a c6 53 bd f5 ba 8b bd e6 d1 f4 3c 84 c5 c5 3c
       -0.051703013 -0.068227686 0.029885244 0.024142034
0001c0 c7 e2 a7 3d d2 8e 0c bc 9f 29 cb bc a7 1d 4b 3b
       0.08197551 -0.008578973 -0.02480012 0.0030993016
0001d0 1a da dd bb 0b da 0a 3b 37 cd cd 3a 51 7c 3a bc
       -0.0067703845 0.0021187093 0.0015701418 -0.011382178

encoder_mean.16.bias f4 [10]
000000 f2 07 86 bc 5d 3d b3 bd 43 e7 23 3d 20 e5 1f bb
       -0.01636121 -0.087519385 0.04001547 -0.0024398044
000010 c8 82 16 3e a7 a2 66 bd 7b 6b 22 bb 67 15 b8 3e
       0.14698327 -0.05630746 -0.0024783302 0.3595383
000020 2d 2f 53 be b2 b0 03 3c
       -0.20623465 0.008037733

encoder_var.0.weight f4 [20, 30]
000000 0b 55 15 3c 82 50 aa 3b 44 cd 51 3b f9 94 27 3b
       0.009114514 0.0051975856 0.0032013217 0.0025570972
000010 52 d0 2c bb 26 75 ec ba 56 01 7d ba 36 bd 36 39
       -0.0026369286 -0.0018040284 -0.0009651383 0.00017427359
000020 a0 e9 b6 b9 3b 3e 5f ba 6a a5 f9 3a cb b1 f1 39
       -0.0003488781 -0.0008516048 0.001904649 0.00046099568
000030 d3 c3 45 ba a2 90 f0 39 4a 9b 3d 3b d5 b6 8a 3a
       -0.00075441337 0.00045884127 0.002893167 0.0010583053
000040 ce cf 6f ba 54 fc a6 bb f2 bd 1c bb cc 8b bc 3b
       -0.0009148092 -0.005095998 -0.0023916927 0.00575397
000050 a6 50 1f 3b 2b 2a 2c 3a 06 0e 66 3a 9e 2b e4 bb
       0.0024309545 0.0006567563 0.00087758934 -0.0069632074
000060 64 c4 03 bb e2 65 02 ba 52 37 0e 3a 5c ed b2 38
       -0.0020106072 -0.0004974288 0.00054251135 8.531913e-05
000070 aa a3 13 39 81 44 fa 3b e3 eb ba ba 04 27 d1 3b
       0.00014079982 0.007637561 -0.0014260974 0.006382825
000080 25 42 98 bb ba 3c 1b 3a 16 19 1e 3c 64 42 93 ba
       -0.004646557 0.000592183 0.009649536 -0.0011234996
000090 2c cd 94 3a 7a 47 d9 3a 0f 66 06 bb c0 76 cb bb
       0.001135265 0.0016577088 -0.002050761 -0.0062092245
0000a0 06 1e 52 b9 fe d2 a2 b9 1d cf 1b 3c 36 43 f7 bb
       -0.00020038345 -0.0003105625 0.009509829 -0.007545854
0000b0 1e f8 37 3a 07 37 41 bb 39 6c db b9 64 74 26 b9
       0.00070178683 -0.0029482262 -0.00041851567 -0.00015874353
0000c0 a8 bb f9 bb 48 fe 3f bb 27 b4 4f 3a fb 51 b3 ba
       -0.0076212473 -0.002929585 0.0007923268 -0.0013681048
0000d0 4d a3 18 3a 57 b5 a9 ba 45 57 0a 3c 90 0c 5f bb
       0.00058226736 -0.001294772 0.008443658 -0.0034034587
0000e0 b5 23 5e 3b 90 98 2b 3b 2a b4 2c bb 43 b0 a9 bc
       0.0033895795 0.0026183464 -0.0026352503 -0.020713931
0000f0 bd 00 51 bc 7b 56 dd bd 2e bd 45 3b 5d 52 74 3b
       -0.012756524 -0.108075105 0.0030172574 0.0037280538
000100 65 98 8d bb 88 23 ff ba 3a ba 95 ba 87 02 d5 3b
       -0.0043211454 -0.0019465545 -0.0011423298 0.0065005454
000110 f3 18 3a 3c ad da 11 bb 5e 6f 94 3b 65 e5 40 bb
       0.011358487 -0.0022255585 0.0045298776 -0.0029433605
000120 1d 6c 40 ba 9b 54 6a bb 48 8f cc ba 6b ba 40 3b
       -0.0007340329 -0.0035755995 -0.0015606666 0.0029407989
000130 c2 91 ae bb 73 72 e3 3a 7a 09 23 3c 3a 28 ea bb
       -0.0053274343 0.0017352834 0.00995099 -0.0071459087
000140 28 25 82 3a 48 16 7a ba 2b b4 87 3b f2 54 d5 3a
       0.0009929286 -0.00095400633 0.0041413507 0.0016275926
000150 a3 19 90 3b b0 9e a9 ba c4 22 a8 3a 7e 66 6a 3b
       0.0043975874 -0.0012940969 0.0012827744 0.0035766657
000160 5c bb 64 bb 3c a3 84 bc 14 b0 00 3b 48 8f b3 3a
       -0.0034901714 -0.016191117 0.00196362 0.0013699317
000170 46 69 dd b9 57 56 11 3a 62 80 86 ba de 06 2d ba
       -0.0004223084 0.00055441767 -0.001026165 -0.00066004496
000180 14 d0 84 39 6f 7e fa 3a 3c af 18 ba 57 23 e9 ba
       0.00025332032 0.0019111166 -0.0005824452 -0.0017787021
000190 fa a1 a1 b9 a4 4a 9a b9 28 0a 25 ba d3 8b 84 ba
       -0.00030828995 -0.0002942878 -0.0006295764 -0.0010112472
0001a0 a9 c1 24 3b b7 8d 42 3b c5 d4 d6 b8 c5 6b d8 ba
       0.0025139845 0.002968652 -0.000102439466 -0.001651161
0001b0 53 b3 35 bb 18 8d d1 b7 49 6e 23 3a 48 f8 c1 b7
       -0.0027725294 -2.4980443e-05 0.00062343903 -2.3123008e-05
0001c0 ce 1a 7a 3a 1a b6 5d ba 21 9d 00 3b d0 28 51 b9
       0.00095407374 -0.0008457616 0.0019624906 -0.00019946997
0001d0 d3 e0 8b 39 5f 0a 9d 39 d4 c2 e1 b9 62 95 56 bc
       0.00026679653 0.000299531 -0.00043060503 -0.013097139
0001e0 cf ff 20 3a d8 bd 6a bb f5 b4 3f 3a b0 6a 79 38
       0.0006141634 -0.0035818722 0.00073130365 5.9465587e-05
0001f0 de bf 8b b9 da 24 af ba 4b 79 30 b9 8b 10 9f 3a
       -0.00026655098 -0.0013362423 -0.00016829853 0.0012135667
000200 f7 8f 13 3a 7b 7e 46 3b 19 dd 18 3a c2 c6 b3 3a
       0.00056290574 0.003028779 0.0005831286 0.0013715851
000210 08 42 e3 39 6f 02 84 bb 19 72 a3 3b c8 40 0a 3b
       0.0004334601 -0.0040286104 0.0049879667 0.0021095742
000220 00 61 cc 38 99 c1 24 bc 5b 94 b7 3a a9 c4 3a 3b
       9.745546e-05 -0.010055923 0.0014006005 0.0028498566
000230 78 3c 01 3a e6 7c 43 3a c2 31 f1 ba 27 57 83 bb
       0.000492997 0.0007457271 -0.001840167 -0.004008192
000240 9c 8c 9d 3b 1c d5 4f 3b 07 4c 50 bb 40 9f 72 3b
       0.0048080217 0.0031712716 -0.0031783597 0.003702119
000250 04 af 72 bb e9 dc b5 3a 76 fc 20 3b a7 6f 9c 3a
       -0.0037030587 0.001387504 0.002456454 0.001193513
000260 13 29 23 3a a4 39 b4 b8 d1 a0 72 ba 26 28 74 3a
       0.0006224077 -8.593805e-05 -0.0009255531 0.0009313844
000270 71 25 4d b8 1a 2a 91 39 db 79 b4 b8 1b ad 4e 39
       -4.891068e-05 0.00027687923 -8.605766e-05 0.00019710178
000280 c5 50 a0 b9 1c 58 fd b8 b5 74 37 b9 85 e8 f1 b9
       -0.00030577756 -0.00012080392 -0.00017495717 -0.00046140343
000290 c0 25 ce 3a e2 e1 28 39 fb 45 92 39 f2 5e 36 bb
       0.0015727803 0.00016105876 0.0002789943 -0.0027827588
0002a0 cc 6e ad 39 3c 38 6d 3a 21 c0 d5 b8 67 26 be 39
       0.0003307968 0.0009049212 -0.00010192418 0.00036268236
0002b0 7c fd a2 b9 e0 7e 6e b6 27 1d 52 3a 59 5d 89 3a
       -0.00031087908 -3.5538615e-06 0.00080152083 0.001048009
0002c0 47 53 89 ba b5 24 58 3a 72 95 51 ba f8 0f 40 3b
       -0.0010477089 0.0008245216 -0.00079949864 0.0029306393
0002d0 a9 83 f4 bb 01 c5 a8 bb 0a ad 5f ba b4 c7 e4 b8
       -0.007461984 -0.005150438 -0.000853256 -0.00010909085
0002e0 ba ce 5d 3a fe 09 b9 b9 9f 3d ff ba 1d 68 ab 3a
       0.00084612856 -0.00035293394 -0.001947332 0.0013077293
0002f0 12 5a 11 b9 b4 e3 cf ba 34 25 ca ba f2 17 7c b9
       -0.00013861831 -0.0015860707 -0.0015422464 -0.00024041513
000300 b7 3c fe 39 9b fb 9c ba fe 80 57 bb 3c 4e 3d ba
       0.0004849189 -0.001197684 -0.0032883282 -0.00072214357
000310 ff ca c9 ba e7 19 81 3b 2e 2e bb ba af 13 e6 ba
       -0.001539558 0.0039398554 -0.001428073 -0.0017553474
000320 3c fc 5d 38 99 d8 6b 39 2a 3c 5e 3a 12 91 80 b9
       5.2925418e-05 0.00022492035 0.0008477593 -0.00024522148
000330 de c9 42 ba f2 6b 8b ba c5 02 88 3a 68 01 ee b9
       -0.0007430593 -0.0010637029 0.0010376802 -0.00045395945
000340 a7 74 ec 39 ce c8 2a bc 70 1d e6 ba e4 8b 94 b9
       0.0004510034 -0.010423852 -0.001755638 -0.00028332986
000350 c8 d0 db ba fd 5a e2 39 38 08 9c b9 2b 98 5f 3a
       -0.0016770596 0.0004317387 -0.00029760762 0.00085294497
000360 da 3f 3e 39 ee e3 29 3a 1c a3 9f 39 30 91 42 ba
       0.00018143599 0.00064808025 0.0003044837 -0.00074221473
000370 2c 30 6a 38 68 a1 e5 b9 5e 07 74 ba ad 18 a3 3a
       5.583481e-05 -0.0004379854 -0.0009308959 0.0012443267
000380 5f e8 b0 ba 4a 4f 58 ba 8c c5 92 39 3d 4b 82 3b
       -0.0013496986 -0.0008251561 0.00027994474 0.0039762543
000390 00 62 f5 b9 bf 70 b7 ba 3b d7 29 3a 38 8a df 37
       -0.00046803057 -0.0013995393 0.000647891 2.6648035e-05
0003a0 cd c8 1b 3a ed cc 43 b9 9e bb c2 b8 92 0b b4 ba
       0.00059427024 -0.0001867299 -9.285587e-05 -0.0013736358
0003b0 03 88 b2 3a 35 da 9e ba 09 d4 9d 3a 8e 8f c7 bb
       0.0013620857 -0.0012119474 0.0012041341 -0.006090111
0003c0 70 9e 80 bd d4 43 60 bd d7 70 ad 3b 73 29 f3 bb
       -0.062802196 -0.054752186 0.0052929926 -0.0074207126
0003d0 53 c0 2a 3b f4 28 01 3a c7 ef b9 bb 31 98 f9 bb
       0.0026054576 0.0004927062 -0.0056743356 -0.0076170196
0003e0 b9 2f 25 3b 91 e0 77 3b 04 ee 3f ba e2 de 23 3c
       0.0025205447 0.003782306 -0.0007321539 0.01000187
0003f0 6f fa e0 3b eb 0c 3f 3b 90 5f ff ba 83 a9 82 bb
       0.0068657915 0.0029151987 -0.0019483436 -0.0039874925

encoder_var.0.bias f4 [20]
000000 49 bc 51 b4 2b a4 d3 b2 9b ae db b2 55 f5 69 b4
       -1.953314e-07 -2.4638288e-08 -2.5574357e-08 -2.1789067e-07
000010 5c 19 bd b3 6e 10 a8 b3 ee 13 e8 32 45 81 05 33
       -8.805611e-08 -7.826098e-08 2.7017418e-08 3.1084046e-08
000020 a0 da d2 b2 8d eb 8b 34 af 35 ad b4 b3 01 5c b3
       -2.4546637e-08 2.6062153e-07 -3.226282e-07 -5.1224287e-08
000030 80 65 8e 2e 2a d5 52 34 a0 e6 e7 32 11 55 b4 b3
       6.4754424e-11 1.9635323e-07 2.6996815e-08 -8.397377e-08
000040 20 4d 2e 33 f7 02 4b b4 26 c5 d5 b2 d8 e0 c4 33
       4.0582677e-08 -1.8906927e-07 -2.4886116e-08 9.16786e-08

encoder_var.1.weight f4 [20]
000000 b7 69 43 3c 41 4b 6e 3b c2 ad 8e 3d 92 51 e4 3b
       0.01192706 0.0036360773 0.069667354 0.0069677318
000010 f6 b1 34 3c 97 19 70 3b ee b3 11 3c 75 2b 6f 3b
       0.011028757 0.0036636346 0.008892996 0.0036494408
000020 f6 e5 82 3d 97 8d 1e 3c 2c 7b f3 3b 89 e2 59 3c
       0.06391518 0.009677312 0.0074304547 0.013298639
000030 12 b8 a3 3c 63 00 32 3c 28 e1 e9 3b 25 3c 84 3c
       0.019985233 0.01086435 0.0071374364 0.01614196
000040 b6 b6 2a 3d c4 4a 48 3c 1d e8 9f 3b ff bf 2e 3b
       0.041678153 0.012224857 0.004879965 0.0026664732

encoder_var.1.bias f4 [20]
000000 e5 96 55 ba 20 f0 ee b9 be 88 5d bb aa 8a 1e ba
       -0.000814779 -0.00045573805 -0.0033803429 -0.0006047884
000010 f8 49 9b bb ac 63 58 b9 04 e3 02 3c b0 39 67 3a
       -0.0047390424 -0.00020636496 0.007988695 0.0008820547
000020 39 57 95 3c 8c 8f a3 3b 8d 54 d8 bb 11 71 d4 3b
       0.018230068 0.0049914774 -0.006601876 0.006483205
000030 70 de 0c 3c 05 b9 10 3c 85 b7 a5 3b f4 70 d1 3b
       0.008597955 0.008833175 0.0050572776 0.006391639
000040 bc 2d 00 3d 8c 5e 2c 3c a4 b5 a9 3b 15 90 44 3a
       0.031293616 0.010520589 0.005179124 0.00074982765

encoder_var.1.running_mean f4 [20]
000000 8a 45 38 3c 10 9e b8 bc d8 d6 62 bd b3 ac 90 bc
       0.011247048 -0.022536308 -0.055380672 -0.017660474
000010 96 6d 89 3b 66 37 54 3b 9b 60 88 bc f4 81 df bb
       0.004193972 0.0032381653 -0.016647628 -0.0068209115
000020 07 a9 0b bd 76 0b 41 bc be 22 0b bc 2b 6b 8c bc
       -0.034096744 -0.011782518 -0.00849217 -0.017140945
000030 23 e3 8a 3c 76 0f 42 3c 68 03 2e bc aa f8 97 bc
       0.01695401 0.0118445065 -0.010620929 -0.01855119
000040 dd a5 7f bd 8b bf 95 bc 02 45 85 3b 2e 44 80 bb
       -0.06241404 -0.018279811 0.0040670643 -0.0039143777

encoder_var.1.running_var f4 [20]
000000 cd b4 6d 38 1d 6e 7d 39 07 0b d0 39 db 30 0f 39
       5.6673587e-05 0.0002416898 0.00039681068 0.00013655743
000010 cb 97 30 39 b7 48 6b 37 f1 f9 56 38 f7 89 1b 38
       0.00016841215 1.4024022e-05 5.1254352e-05 3.708337e-05
000020 14 6e f9 39 12 22 9a 38 de 8a 68 38 a0 af ac 38
       0.00047574996 7.349638e-05 5.544244e-05 8.234312e-05
000030 34 b8 91 39 3b e9 b3 38 8c 5a f8 37 24 97 53 39
       0.00027793797 8.578828e-05 2.9606068e-05 0.00020178832
000040 85 00 d4 39 d8 71 d3 38 01 cf 3a 37 66 07 79 37
       0.00040436178 0.00010082469 1.1134661e-05 1.4843279e-05
