dice_ml/utils/sample_trained_models/adult.pth (torch_old, 4420 bytes, 3 tensors)

weight f4 [20, 29]
000000 fc 75 72 39 66 66 4f 39 c8 7b 6e 39 80 a6 11 b9
       0.00023122871 0.00019779205 0.00022743561 -0.00013890304
000010 ed b6 a6 b8 21 82 0c b9 38 0e 95 39 ce c9 10 39
       -7.9495694e-05 -0.00013399917 0.00028430088 0.00013808088
000020 90 42 37 b9 2e 15 0e 39 4a bc 3a 38 00 6e 60 39
       -0.00017477036 0.00013550065 4.4521214e-05 0.00021403283
000030 80 2b da b7 ce f0 82 39 99 e4 54 38 ce a6 e8 b8
       -2.6007881e-05 0.00024974946 5.0757637e-05 -0.00011093692
000040 17 05 df 38 2a ce 28 38 e8 0a 92 38 e0 65 0b 37
       0.00010634417 4.0246327e-05 6.963854e-05 8.308765e-06
000050 62 a3 df b8 3c bc 0e b8 c8 d3 ad b6 92 e0 25 39
       -0.00010663901 -3.4030745e-05 -5.1804564e-06 0.00015819285
000060 3d f1 53 b9 eb b8 ce 38 f8 47 09 b7 e0 9b 5f 39
       -0.00020212396 9.857289e-05 -8.182593e-06 0.00021325005
000070 a3 39 89 38 a4 59 84 b8 64 7e e5 38 5a af d2 b8
       6.543405e-05 -6.310947e-05 0.00010943113 -0.00010046242
000080 b5 d3 df 38 1c 73 b3 b7 59 4e 30 39 82 17 b6 b8
       0.00010672902 -2.1392065e-05 0.00016813855 -8.682815e-05
000090 9a 33 31 b9 f7 28 e1 b8 82 7b 16 39 64 2b 9a b8
       -0.00016899258 -0.00010736466 0.00014351125 -7.3513744e-05
0000a0 3a c6 0a b9 d2 6e 89 b9 6b 6c 59 b9 7a 82 ae b8
       -0.0001323455 -0.00026213244 -0.00020735122 -8.32127e-05
0000b0 0d 72 40 39 b0 f5 83 36 16 e1 b3 b9 7b f6 41 b9
       0.00018353034 3.932706e-06 -0.00034309243 -0.00018497735
0000c0 f9 34 89 38 15 a3 a4 b8 1c e2 fe 38 4f 82 1d 39
       6.542536e-05 -7.850506e-05 0.0001215378 0.0001502123
0000d0 9d 30 7a b9 e0 c7 bf 37 50 d1 19 b9 a2 c8 8b b8
       -0.00023859968 2.2862048e-05 -0.00014669192 -6.665407e-05
0000e0 b0 c4 da b6 f0 25 50 b7 d0 f0 5e 38 d6 df 12 39
       -6.5198037e-06 -1.2406599e-05 5.31532e-05 0.0001400703
0000f0 a8 9c f6 38 04 68 92 b9 50 e5 46 39 a0 75 70 b9
       0.000117593736 -0.00027924788 0.00018968177 -0.00022932002
000100 bd a1 25 38 59 d7 49 38 eb 69 28 39 42 27 7c 39
       3.9489696e-05 4.8122693e-05 0.00016061186 0.00024047217
000110 ea 26 18 b9 bc 04 bb b8 d7 12 aa b8 e3 b7 a3 38
       -0.00014510346 -8.917737e-05 -8.109741e-05 7.806697e-05
000120 2c ea 04 b7 64 cc 8b b7 cd 71 e1 38 63 9a 94 39
       -7.9223355e-06 -1.6665268e-05 0.00010750033 0.00028343787
000130 38 90 23 b9 58 b6 3d 39 7c ad 20 38 06 4b d1 38
       -0.00015598617 0.00018092373 3.8308543e-05 9.979871e-05
000140 4e 61 df b8 d4 93 8c b9 20 89 c3 38 fd 70 38 b9
       -0.00010651593 -0.0002681302 9.323866e-05 -0.00017589699
000150 20 a7 03 b7 9d c2 b2 38 0f ee ec b8 dc 4e c8 ba
       -7.84712e-06 8.523951e-05 -0.00011297699 -0.0015282291
000160 79 ac 09 bf b7 c9 48 bc e8 01 75 3e 83 ec ca bd
       -0.537788 -0.012255124 0.23926508 -0.09908392
000170 b7 5a b0 3d e5 a7 86 3e 84 f3 9e bb d5 d2 f7 be
       0.086110525 0.26299968 -0.0048508067 -0.4840304
000180 0d 55 1e 3f 5f c7 58 be 91 9e c5 be dc 49 98 3f
       0.6184853 -0.21169804 -0.3859754 1.189754
000190 c4 c0 ac 3e 95 c2 9c ba cb 5d dc be fb 2f bc 3b
       0.33740819 -0.0011959845 -0.43040308 0.0057430244
0001a0 df 6c c2 3c 44 ba 53 bc f3 da 95 3e 8a 00 36 3c
       0.023733554 -0.012922827 0.29268607 0.011108527
0001b0 e2 85 65 bd 79 09 42 3b fd 7d 22 3e 8f 97 05 bd
       -0.056035884 0.0029607697 0.15868373 -0.03261524
0001c0 53 54 6a 3d 49 3c 29 bc 1b c4 6f 3e 1d a8 23 bc
       0.057209324 -0.0103293145 0.23414652 -0.009988812
0001d0 0e 6d 3d 38 b4 7e 15 b9 76 97 2f 38 50 2c 98 b7
       4.5162677e-05 -0.00014256948 4.186431e-05 -1.8140447e-05
0001e0 81 9b a4 b8 10 30 9b b7 24 75 aa 38 4b 6c cf 38
       -7.849094e-05 -1.849982e-05 8.128051e-05 9.8907e-05
0001f0 f5 0e 84 b9 30 51 c5 b6 78 ae c3 38 16 13 7f b8
       -0.00025188146 -5.880509e-06 9.330822e-05 -6.0814513e-05
000200 5a 2f e5 b8 65 0a 2d b8 e8 71 05 37 f0 ed e7 b6
       -0.00010928391 -4.1256095e-05 7.953939e-06 -6.912036e-06
000210 6a ec e5 39 7d 3b 08 b9 e8 33 96 38 6e 0f 0a b8
       0.00043854426 -0.00012992132 7.162226e-05 -3.2916134e-05
000220 ba c9 14 b9 6c 58 b6 37 99 6c 1f 39 eb 22 8d b9
       -0.00014189529 2.1737265e-05 0.00015203877 -0.00026919632
000230 e8 32 47 37 60 d4 23 38 c6 4a 02 39 a7 f8 82 b8
       1.1873177e-05 3.9060018e-05 0.00012425621 -6.245198e-05
000240 84 6f 07 38 3e e2 97 bb bf 7d 91 bf 01 9b 0a bc
       3.2290365e-05 -0.0046351245 -1.13665 -0.008459807
000250 f1 37 ed bb cd 8a 05 3d 10 95 f9 bd db b5 d8 3b
       -0.0072393348 0.032603074 -0.121866345 0.0066134757
000260 50 43 1b bc cd 72 3c bc 81 36 9a 3c 1e b9 1c ba
       -0.009476498 -0.01150198 0.018824818 -0.00059785123
000270 12 28 99 3b 0c 53 1f 3e 1b 2b 17 3c 5b b3 20 bb
       0.004673966 0.15559024 0.009226586 -0.0024520967
000280 d1 82 85 be df 5f b4 3b ac d9 da 3b b8 ff 36 bc
       -0.26076367 0.005504593 0.0066787805 -0.011169367
000290 e0 b3 4e bc c8 e1 16 bc 46 af a1 bd a7 44 7f 3c
       -0.012616128 -0.009209104 -0.07894759 0.015580333
0002a0 be 99 69 bb b7 6d 72 3c b4 c4 fe 3b 2a 98 38 bc
       -0.0035644616 0.014796666 0.0077749137 -0.0112667475
0002b0 94 a8 d3 3c 7b 34 3b bc f9 ae 54 3b 9a 80 57 3f
       0.02583722 -0.011426087 0.0032452925 0.84180605
0002c0 dd c6 2f 3c 82 a5 03 3b 21 1c a3 3b 2a 18 12 bc
       0.010728565 0.0020087664 0.0049777185 -0.008916894
0002d0 6d 3c 72 bc 58 87 80 3b d8 54 82 3d 6b 08 87 3b
       -0.014784914 0.003922384 0.06363839 0.0041208765
0002e0 21 85 0d bb 98 f6 84 3e 36 77 87 bb 46 13 25 bc
       -0.0021594244 0.25969386 -0.004134084 -0.010075396
0002f0 3f 79 22 3b 18 d6 78 3f 07 16 7a bb 81 d1 53 bc
       0.0024791507 0.9720168 -0.0038160102 -0.012928368
000300 d3 0a 37 3c 44 83 50 3a b7 e5 18 3b 95 7a a3 3d
       0.011172014 0.00079541304 0.002333028 0.07982365
000310 76 0f 94 bb 10 aa 1b 3b ec b4 b9 3e 6a 84 70 bc
       -0.0045184446 0.0023752488 0.36270845 -0.0146800075
000320 2a 10 0b 3d 71 e9 f0 bb e7 99 e7 3c b8 bb 80 b7
       0.033950962 -0.007352047 0.028271629 -1.5346202e-05
000330 b2 7f 5b 39 35 86 0e b9 4a 7a 80 39 f0 30 d4 36
       0.00020933038 -0.00013592171 0.00024505175 6.3237894e-06
000340 e2 3e 89 b9 72 04 cf 38 25 a4 e1 b8 0f bf 38 39
       -0.00026177528 9.871357e-05 -0.0001075941 0.00017618782
000350 04 e3 17 39 6d 77 88 b8 30 70 a3 b6 d5 62 41 b9
       0.00014485052 -6.50723e-05 -4.870839e-06 -0.00018442732
000360 91 05 7e 39 47 6c f8 38 8c e8 98 b8 bd e8 0f 39
       0.00024225401 0.0001184573 -7.29124e-05 0.00013724244
000370 e7 48 5c b9 d6 8f 1c b9 0e f9 3b 39 d2 83 2a 39
       -0.00021007993 -0.00014930902 0.0001792649 0.0001626157
000380 bc 75 bd b7 31 cc 04 ba d0 0d 6b b9 36 69 06 b9
       -2.258538e-05 -0.0005065827 -0.00022416492 -0.0001281843
000390 f4 12 6f b8 40 b7 15 b9 93 19 12 b9 62 cd 05 39
       -5.6999692e-05 -0.00014278013 -0.00013933172 0.0001276038
0003a0 43 ee 29 c0 36 c1 7a be 26 ec 21 3c ec fd 86 3c
       -2.6551673 -0.24487767 0.009882962 0.016478501
0003b0 bb 58 80 3b fb a5 35 be 7d 72 7f 3d a2 c2 86 bd
       0.0039168275 -0.17739098 0.062365044 -0.06580092
0003c0 d7 e9 8d bb 18 a7 fc 3d 34 07 55 3b 10 9a d2 bc
       -0.0043308544 0.12336558 0.0032505514 -0.025708228
0003d0 e4 c6 ac 3d 57 9c 2c 3e e3 9a dc 3b c6 5c 6e be
       0.08436373 0.16856514 0.006732331 -0.23277578
0003e0 ec 14 fb b8 93 ec cd 3d 99 1e b7 3a 79 b2 72 bb
       -0.0001197251 0.100548886 0.0013970911 -0.0037032648
0003f0 1c 05 9d 3c 76 e8 27 bd 2f cb 59 3c 8a c8 68 ba
       0.019167475 -0.040993176 0.013293072 -0.00088799803

bias f4 [20]
000000 14 57 2f be d9 14 54 be 5f 6e 82 bb dd 9f 86 3f
       -0.17123061 -0.20711078 -0.0039804424 1.0517536
000010 92 61 7c 3d f8 6b 43 3f 92 d9 ce 3e 77 ae c2 bd
       0.061616488 0.7633662 0.40400368 -0.09505933
000020 be 08 8d 3f 16 76 3c be 70 eb 5b 3d 6f d8 e4 bc
       1.1018293 -0.18404421 0.053691328 -0.027935235
000030 2d ed 3f bb 11 15 11 be fc f6 c4 bc 76 10 c3 bd
       -0.0029285655 -0.14168192 -0.024043553 -0.09524624
000040 bd 58 51 be 37 80 bc bc 56 f6 53 be f3 d6 14 bb
       -0.20444007 -0.023010356 -0.20699438 -0.0022711128

weight f4 [1, 20]
000000 be 5e d3 38 f0 4e b3 36 7e 8c 10 39 e1 ec 66 c0
       0.00010078911 5.3438052e-06 0.00013785248 -3.608208
000010 e4 27 2d b9 10 6a 01 c0 05 23 0c 40 8c 80 f9 b6
       -0.00016513426 -2.0220985 2.1896374 -7.435743e-06
000020 eb 63 9c c0 dc 26 5b 38 f2 15 91 b9 f5 53 82 39
       -4.887197 5.224986e-05 -0.00027672906 0.00024858085
000030 1d 5a a9 38 0a f3 78 38 c6 94 82 39 a4 5e c3 37
       8.075333e-05 5.9354155e-05 0.00024906377 2.3289882e-05
000040 ce 71 26 39 e1 e9 f2 38 86 db 70 b7 be 2b df b8
       0.00015873389 0.000115830226 -1.43562265e-05 -0.00010641616
