dice_ml/utils/sample_trained_models/adult-margin-0.165-validity_reg-42.0-epoch-25-base-gen.pth (torch_old, 34923 bytes, 78 tensors)

encoder_mean.0.weight f4 [20, 30]
000000 7c 49 56 be 19 4b 0f bf c8 ca 9e 3d 60 7f 90 3b
       -0.2092647 -0.55973965 0.07753521 0.0044097155
000010 b2 87 83 3d 7d 5d 34 3d 5c d6 f4 bb 38 44 2a bd
       0.06422366 0.04403447 -0.0074718427 -0.041568965
000020 72 18 d1 3a c8 b8 81 3c 86 e5 5b bd 92 03 11 bb
       0.001595272 0.01583518 -0.053685687 -0.0022127372
000030 a4 a0 5c 3d b3 42 0b 3d 55 c6 da 3d 5a 10 d4 bb
       0.053864136 0.033999156 0.1068236 -0.006471676
000040 d7 05 45 3d 8a 86 16 3e 28 f8 89 bd 06 90 08 3d
       0.048101272 0.1469976 -0.06736785 0.033340476
000050 79 f9 cd 3c 3d 4b 7b 3c b6 e6 0f 3d 19 12 8a 3c
       0.025143372 0.015337762 0.035132132 0.016854333
000060 26 81 92 3d d7 e9 fa 3c ee 5b 62 3c b1 50 43 bd
       0.07153539 0.030629082 0.013815863 -0.047684375
000070 49 df 8c bd c0 23 53 bd 70 85 e5 3e d6 05 c1 bd
       -0.06878526 -0.051547766 0.44828367 -0.09424941
000080 58 ff 41 3d 98 8f ab 3d 37 db 32 3d 0d 30 84 3d
       0.047362655 0.08376998 0.04366609 0.064544775
000090 e7 82 d2 3c c8 96 d4 3d 5f 94 72 3c 1e a7 97 3d
       0.025697185 0.10380322 0.014805882 0.07404922
0000a0 3c a0 63 3d f0 d1 1b 3d 49 31 cb 3d e1 cf a4 3d
       0.055572733 0.03804201 0.0992151 0.08047462
0000b0 15 e8 f7 3c bc fd 3e 3d 87 c4 ce 3c a8 2c 9c 3c
       0.030262033 0.0466287 0.025240196 0.019064263
0000c0 49 b0 53 3d f5 21 8f 3d ac 69 fb 3d 96 6c aa 3d
       0.05168179 0.06988899 0.12276015 0.083214924
0000d0 40 23 52 3d 83 67 ee 3d 0e 3c a6 3d 01 31 88 bd
       0.05130315 0.11640837 0.08116923 -0.06649972
0000e0 97 11 7d bd 85 b0 f3 3d cf 63 c9 3d a6 dc 8d 3e
       -0.061784353 0.11898903 0.0983349 0.27707404
0000f0 b0 4b 1f bf b6 1e 0f be c1 a4 f6 bc 16 40 24 3d
       -0.62224865 -0.13976559 -0.030107858 0.04010018
000100 7a 63 18 bd 18 27 8e bb d9 95 4f 3d 1b 57 43 3d
       -0.037204243 -0.0043381564 0.050680015 0.047690492
000110 95 ec 14 3d 87 e6 72 3d 1c af 22 3d 58 ef ff ba
       0.036358435 0.05930188 0.03971778 -0.0019526286
000120 78 26 38 3d 1e c7 27 3d b8 02 aa bc a3 78 2d ba
       0.04495856 0.040961377 -0.02075325 -0.00066174025
000130 1e 80 98 3c 8f 4e 5d bc 3c d2 0b 3e 00 23 ab 3d
       0.018615779 -0.013507499 0.13654417 0.08356285
000140 8f c7 be 3c 9d 62 b9 3d f4 b6 84 3d d7 24 a2 3d
       0.023288516 0.09052012 0.06480208 0.07917183
000150 07 96 b4 3d 78 fd 4f bd b7 f9 1b bd 35 1b 14 3e
       0.08817678 -0.050778836 -0.038079944 0.14463504
000160 01 a6 19 3e 41 24 e0 3d 0c 60 e1 bc 41 64 99 3d
       0.15004732 0.10944415 -0.027511619 0.07489825
000170 0c 8e 44 3d a3 5a 00 3c a1 87 c8 3c 0b 1c 80 3d
       0.04798703 0.0078341095 0.024478735 0.06255349
000180 9f 15 46 3d 15 db a8 3d b3 3d 73 3b 05 7d bf ba
       0.048360463 0.082449116 0.0037115633 -0.0014609402
000190 dd 85 ad 3d d1 34 9a 3c 7e 79 1a bd 96 c7 b8 3c
       0.08472798 0.018824013 -0.03771352 0.022556107
0001a0 e4 6f ea bb bd 40 08 3e d0 ae ad bc d8 38 1c bd
       -0.0071544517 0.13305946 -0.021201521 -0.038140148
0001b0 39 a9 c4 3d 7f a1 72 bd 8e 91 0c 3d 34 94 97 3c
       0.09602589 -0.059236046 0.0343185 0.018503286
0001c0 b8 9c c6 bc cc 4d ce 3c 8b 6b 49 3d 3f 5b 68 bc
       -0.024244651 0.02518358 0.049174827 -0.014181911
0001d0 6f da 68 3d 13 8c 57 3b 53 e5 fc bb d4 cf cb be
       0.05684894 0.0032889887 -0.0077177673 -0.39806998
0001e0 0c 92 16 3f c7 68 4d bd 88 0e 30 3d a7 78 be 3d
       0.588166 -0.05014875 0.042982608 0.09300356
0001f0 9b 66 30 3d f8 6f 5d 3d 37 97 39 bd e4 96 3a bd
       0.043066602 0.05406186 -0.045310225 -0.045554057
000200 4a cf eb 3c e5 33 76 bd 90 4f a0 bb f5 da a1 3c
       0.028785367 -0.060108084 -0.004892297 0.019757727
000210 b0 c7 17 bd c3 06 aa bc dd e0 9f 3d d0 a1 8f 3d
       -0.03705567 -0.020755177 0.07806561 0.07013285
000220 e1 d9 49 3d 9b 02 87 bd 18 f5 e4 3c 18 e8 37 bc
       0.04928005 -0.06592294 0.027948901 -0.011224769
000230 12 e5 a9 bd cb b0 e7 bb ef bd 56 bc c1 44 bb bc
       -0.08295645 -0.007070636 -0.013106807 -0.022859933
000240 4a 83 fb bc 2f 9b ba bd a9 58 b4 bd 41 7e bf bc
       -0.030702252 -0.0911163 -0.08805973 -0.023375632
000250 6f 39 c5 bc 72 ed 5f be 9c 07 c5 3c ac e3 39 bf
       -0.024075238 -0.21867922 0.02405148 -0.72613025
000260 ae d1 dc 3a fb 33 09 3d 31 b8 be bc 40 f1 0b bb
       0.0016847157 0.033496838 -0.023281189 -0.0021353513
000270 ae cb 0e bc b3 60 c4 3b d4 2c 5b bc f0 61 d6 38
       -0.008715553 0.0059929728 -0.013377387 0.000102225575
000280 80 48 0b 3d 9c 49 ed 3c 08 f7 b3 bb ec 27 8f 3c
       0.03400469 0.028965764 -0.005492095 0.01747509
000290 2b 55 63 bd 7a 80 b2 bc cf 81 e6 bc 42 a2 4a bd
       -0.055501144 -0.021789778 -0.02813807 -0.049471147
0002a0 31 21 b9 3d e2 5d 0d 3c af 18 a7 bd 26 fa 46 bb
       0.09039534 0.00862834 -0.08159005 -0.0030361502
0002b0 ac ba 17 bc fd 69 e7 3c 0e 82 e0 bb 0c 69 f6 3b
       -0.009260815 0.028248781 -0.006851441 0.007519847
0002c0 ba fc ad 3c 66 23 8f bd 61 b1 48 bd 4b 63 31 3e
       0.021238673 -0.069891736 -0.048997287 0.17323034
0002d0 6f ab 08 3f e1 5c 45 be a8 ff cb 3c b2 c9 4b 3d
       0.53386587 -0.19273712 0.02490218 0.0497529
0002e0 3c e7 df 3c b1 1a 16 3d db 07 20 bd ca 31 43 bd
       0.02733194 0.03664655 -0.03906999 -0.047654904
0002f0 b5 e1 6d bc 02 4a 33 bd a8 14 57 ba a4 87 bb 3c
       -0.014519145 -0.04377175 -0.0008204677 0.022891827
000300 1e af 81 bd a2 ab 3c bd f3 be bf 3d 12 80 c7 3d
       -0.06332229 -0.04606212 0.093625925 0.09741224
000310 c5 44 a3 3d 1c 39 49 3d 01 46 26 3e 1f 50 86 3d
       0.07972101 0.04912673 0.16237642 0.06558251
000320 68 8b 83 3d b7 d6 9b 3d 7a 51 64 3d cc 35 46 3d
       0.06423074 0.07609313 0.055741765 0.04839115
000330 5b b2 85 3d 38 62 37 bc 64 f2 0a bd 85 19 15 3c
       0.06528159 -0.011192851 -0.033922568 0.009100323
000340 b6 7e a4 3d b4 53 9e 3e 7c f0 f6 be 95 9b 2c bf
       0.08031981 0.30923235 -0.4823035 -0.674249
000350 ff 35 95 3d ed 72 c7 3d 5b 2a 96 3d 2a 77 7b 3d
       0.072856896 0.09738717 0.073322974 0.06139294
000360 74 c2 46 3c 05 a0 33 bc c3 fa 64 bd 14 41 4b bc
       0.012131322 -0.010963445 -0.055903208 -0.012405653
000370 08 3c 19 3c eb 43 f2 bc 16 0f d5 bc cc 84 b0 bc
       0.0093526915 -0.029573401 -0.02600817 -0.021547697
000380 7c 38 2a bd 03 06 61 bd 5c 9e 44 bd a4 3b ae bd
       -0.041557774 -0.054937374 -0.048002586 -0.08507469
000390 9f 72 c5 bd 9d 2a 40 3d 2e 32 b0 bc 9f 92 c8 3c
       -0.09641003 0.04691564 -0.021508303 0.024483977
0003a0 0d a9 78 3d b3 08 35 3d 89 28 58 3d 8e 50 a7 3d
       0.060708094 0.04419775 0.052773032 0.081696615
0003b0 2e c2 b4 3d 14 96 a3 bd 3f 59 a4 bd 3a 96 ca bc
       0.08826099 -0.079876095 -0.08024835 -0.024729837
0003c0 b9 e7 c4 be 81 e4 44 bd f0 8d 39 bd 3c 2b c5 3c
       -0.3845804 -0.04806948 -0.045301378 0.024068467
0003d0 87 08 7d 3c 45 02 5c bd bc 92 d6 3b b2 8c b0 3c
       0.015443928 -0.053713102 0.006548254 0.021551464
0003e0 2c 93 92 bb 84 98 4f 3d ca 58 12 bd 08 fc b1 bc
       -0.0044731107 0.05068256 -0.035729207 -0.021726623
0003f0 4f 3b 70 3d dc 9a 83 3d bf 0d 14 3c 94 ff 53 be
       0.05865031 0.064260215 0.00903648 -0.20702964

encoder_mean.0.bias f4 [20]
000000 b8 b4 47 b7 ee 0f d8 b8 a1 07 cb 37 c3 11 b1 b8
       -1.1903401e-05 -0.0001030265 2.4203038e-05 -8.443326e-05
000010 28 1e 69 b8 07 81 e5 b8 d2 23 ab b6 a2 08 8e 39
       -5.5579614e-05 -0.00010943604 -5.100367e-06 0.00027090783
000020 fe 7d a3 39 f9 01 a2 b8 68 e7 35 b9 3e 29 5c 39
       0.00031183654 -7.7251294e-05 -0.0001734771 0.00020996199
000030 59 08 3b b9 28 5f 96 39 be 67 ed b7 22 79 47 b9
       -0.0001783682 0.00028681126 -2.830091e-05 -0.00019023244
000040 4f 7c 19 b9 84 6b 15 38 79 4f be 39 8f 7e a1 39
       -0.00014637526 3.56245e-05 0.00036298836 0.00030802606

encoder_mean.1.weight f4 [20]
000000 a2 8e 04 3f 73 a2 e2 3e b2 55 1c 3f 9f e5 df 3e
       0.5178014 0.44264564 0.6106826 0.43729874
000010 68 26 07 3f 6d ff 10 3f 88 a9 11 3f 97 bc 0c 3f
       0.5279298 0.5663975 0.5689931 0.54975265
000020 06 b8 d8 3e e9 c1 55 3f 00 e0 58 3f 29 f5 28 3f
       0.423279 0.8349901 0.84716797 0.65999085
000030 6c 46 14 3f d0 b1 f3 3e 55 6f fc 3e a2 17 bb 3e
       0.57919955 0.47596598 0.4930369 0.36541468
000040 06 70 b9 3e 68 56 67 3f 5e 9b 1e 3f 4c 80 cd 3e
       0.3621828 0.9036622 0.6195582 0.40136945

encoder_mean.1.bias f4 [20]
000000 5c d5 85 be 0f a3 d3 bd 03 6d 4a be 7f 2d 04 be
       -0.26139343 -0.10333835 -0.19768147 -0.1290798
000010 a1 57 06 3e 0f ca 88 bd c3 62 4f be cf cf cf be
       0.13119365 -0.066791646 -0.20252518 -0.40588233
000020 98 0d db bd 6b 6c 89 be 0d 28 a3 be 09 1e a7 3c
       -0.10695952 -0.2684053 -0.31866494 0.020400064
000030 11 91 5b bd 16 c1 11 bd 10 17 97 3e 48 05 dd 3b
       -0.053605143 -0.03558453 0.29509783 0.0067450143
000040 49 44 ea bd 80 0f 6b 3e 84 d7 03 3e 2c 8c 8e 3c
       -0.114388056 0.22955132 0.12875181 0.017400824

encoder_mean.1.running_mean f4 [20]
000000 1c 7a 19 be 95 1a 1e 3f 91 2a 9b 3d e0 ad 4f be
       -0.14987987 0.6175931 0.07576478 -0.20281172
000010 03 d3 3f be dd e8 2b be e6 2e f7 3e 70 b1 af be
       -0.18732838 -0.16788049 0.48277968 -0.34315062
000020 79 af 64 3c 1d d7 08 3f de 87 0a bf f4 a5 b7 3b
       0.013957852 0.53453237 -0.54113567 0.0056045
000030 cf 27 6b 3e 23 1b 77 3d 2a 4e 1e 3d f4 1b ee 3d
       0.22964405 0.060328614 0.03864876 0.116264254
000040 bc cd f1 bb 1a 39 2e 3f b3 9d 1f 3f 5c 2d 84 be
       -0.007379262 0.6805588 0.62350005 -0.25815856

encoder_mean.1.running_var f4 [20]
000000 aa b6 d0 3c a8 ab 95 3c be 01 89 3c d5 a3 46 3d
       0.025477726 0.018270329 0.016724464 0.048496086
000010 ea f4 27 3d 36 75 92 3c 02 8a aa 3c 8d d3 76 3c
       0.041005053 0.017878156 0.02081776 0.015065086
000020 9a d5 3b 3d 2d d4 b4 3c ec 61 94 3c 27 12 e1 3c
       0.045858003 0.02207383 0.018113099 0.027474476
000030 4c 96 a6 3c 03 1e 01 3d 7c b2 ce 3c 11 05 05 3d
       0.020335339 0.031522762 0.025231592 0.032475535
000040 30 88 86 3c 15 cc ba 3c aa 1d b6 3c c2 8f 23 3d
       0.016422361 0.022802392 0.022230942 0.03993202

encoder_mean.4.weight f4 [16, 20]
000000 b1 84 c0 bd 27 8d a5 3d fc b5 05 be 0f 0d 1f be
       -0.09400309 0.08083563 -0.13057703 -0.15532325
000010 0e a4 10 3d 95 28 1e 3e 56 65 ac 3d 6c 6c 2f bd
       0.035312705 0.15445168 0.08417766 -0.04282801
000020 e8 b0 08 be 78 6f a2 3e f9 a4 11 be a1 02 a1 bd
       -0.13348734 0.3172567 -0.14223088 -0.078618295
000030 fc bb 60 3d 8a 1c 48 bd 4e 59 dc 3b a6 5e f7 bd
       0.054866776 -0.048855342 0.006724513 -0.120786
000040 5e 26 c3 3d 43 1c ba 3d 70 a3 bc 3d 0e 41 d5 3d
       0.09528802 0.09087422 0.09210861 0.10412799
000050 3a 0f c5 3d cb bc d9 bd 98 6b 42 3d 5d f2 51 bd
       0.09622045 -0.106317125 0.04746589 -0.051256526
000060 df 92 51 be ec 96 0c 3e 6a eb 0d be 70 c2 cc 3d
       -0.20466183 0.13729447 -0.13859335 0.099980235
000070 dd 7a 9e bd e8 c4 48 be 82 25 6c 3e 37 e9 b1 3c
       -0.07738278 -0.19606364 0.23061183 0.02171765
000080 e5 55 d3 bd 9a f4 09 be e3 2c 3e be 49 c8 6b 3d
       -0.103191175 -0.13472214 -0.1857181 0.057564054
000090 0e 69 a2 3d 3c dc 62 be 0a db 3c be 75 89 0e be
       0.07930194 -0.22154325 -0.18442932 -0.13919623
0000a0 35 fe c4 3c 2e 79 d1 3d ec f8 ff 3c 4f fd c9 bd
       0.024046997 0.10228191 0.031246625 -0.09862768
0000b0 d3 50 72 3d 1e 33 2d 3e 82 82 f4 3d 46 5f 8a 3c
       0.05915911 0.16914031 0.11938955 0.016891133
0000c0 6a 1a 5f 3d d6 95 42 3e 0c e0 af 3c 48 21 ec 3b
       0.05446855 0.1900247 0.021469139 0.007206116
0000d0 c8 a7 71 3e 0c 5c 18 3d 8d d8 10 3d c1 bb 51 bd
       0.2359916 0.037197158 0.03536277 -0.051204447
0000e0 50 f3 d8 bc 98 27 23 3e 68 df 6a 3e 17 ea d2 3d
       -0.026483208 0.15933073 0.22936785 0.10298555
0000f0 1b 9c be 3d ad 62 09 3e 34 b7 1b be 0a 07 08 be
       0.093071185 0.13416548 -0.15206605 -0.13283935
000100 91 50 b6 bd f4 f0 c9 3c e6 f7 b0 3d ec de 72 bd
       -0.089020856 0.024651028 0.08641033 -0.059294626
000110 f9 bd 80 3b 53 ef 0d 3e c3 75 73 be 3a 74 a6 bd
       0.0039288965 0.13860826 -0.23775391 -0.08127637
000120 c3 87 ec 3d 2a bc e8 bd c8 ed a5 bc 19 72 83 bd
       0.11549332 -0.113640144 -0.020254984 -0.06418247
000130 84 25 15 bc 8c 76 9c 3e 1f 06 8f 3e c1 51 c4 bb
       -0.009103183 0.30559194 0.27934358 -0.005991191
000140 cf 08 0c bd ac 99 37 bc ad e8 3c be fc ca b2 3d
       -0.034188088 -0.011206072 -0.18448134 0.087301224
000150 9b b7 d1 3d 63 99 51 be 6c 95 7d bd 00 ba 0f be
       0.10240098 -0.20468669 -0.061910078 -0.14035797
000160 5b 55 b8 bc 90 8e 76 be 0f ca 3a 3e c5 fa 6b bd
       -0.022501638 -0.24077821 0.18241142 -0.0576122
000170 b8 69 c3 3d b1 8a f4 bc 23 be 01 3e 46 b4 8b bc
       0.095416486 -0.02985129 0.12670188 -0.017053735
000180 13 60 b6 bc b7 1b 9f 3e 18 da 83 bd 04 77 89 3d
       -0.022262609 0.31075832 -0.064380825 0.067121536
000190 30 74 0c bd 76 fd d2 3d 4c ac f6 bd 20 0d cb bd
       -0.034290493 0.1030225 -0.12044582 -0.09914613
0001a0 cf 6c 27 3c 72 8a 16 3e f8 fd 23 3e 18 4f bb bd
       0.010218813 0.1470125 0.1601485 -0.09145945
0001b0 f5 f9 1a be 10 7c 88 3d d4 70 49 be f9 fb 33 be
       -0.15134414 0.06664288 -0.19671947 -0.17576589
0001c0 9f 0a 16 3e 75 5c b0 3d 89 a3 10 3d d2 14 ce bd
       0.14652489 0.08611385 0.03531221 -0.10062565
0001d0 5d 77 4a 3d 6f 8f 55 3e 3b d7 75 bd 51 b5 9a 3d
       0.04943024 0.20855497 -0.060019713 0.075541146
0001e0 52 ff de bc f6 74 81 3d 72 2b 36 be 0a c0 83 bd
       -0.027221356 0.06321137 -0.1779001 -0.06433113
0001f0 40 ed 04 3e 75 ed b6 bd d5 56 6e 3d 8d dd 6f be
       0.12981129 -0.0893201 0.05818828 -0.23424359
000200 49 35 37 bd 08 1a 94 3d 94 99 e0 3d a8 23 8b be
       -0.04472855 0.072315276 0.10966793 -0.2717564
000210 f7 99 5b 3e 60 52 e9 3d eb 4a 51 3e 07 50 33 bd
       0.21445452 0.11392665 0.20438735 -0.043777492
000220 d5 ff bb bd f8 a3 82 bd 99 5c c6 3d 6e 17 11 3d
       -0.091796555 -0.06378931 0.0968563 0.035422735
000230 7d fb 4b 3c 3e 44 b7 bc ca 97 49 3d e3 64 96 bd
       0.012450096 -0.022371408 0.049217023 -0.07343461
000240 08 ab 17 be 74 0f fe 3c 3f d2 14 bd fe bd a3 3e
       -0.14811337 0.031013228 -0.03633332 0.3198089
000250 7f 66 b2 3d 77 17 22 be 8d 1b 3c 3e 6d ad 2d bd
       0.08710956 -0.15829264 0.18369885 -0.04240172
000260 44 5e 66 bd bc fd fa bd 60 91 28 be 62 b7 36 3c
       -0.056242242 -0.12255427 -0.16461706 0.01115212
000270 56 62 17 3d f5 f9 16 be 30 e7 2b be 83 37 2a be
       0.036959015 -0.14743789 -0.1678741 -0.16622739
000280 a9 0d 58 be cd 2c 27 3e 30 37 65 bd ce ac c4 bd
       -0.21098961 0.16325684 -0.055960834 -0.096032724
000290 84 36 b3 3d 03 8e 50 3e be 4d 55 3e 16 60 b5 bd
       0.087506324 0.20366673 0.20830438 -0.088562176
0002a0 56 75 e7 bc 41 57 44 3e 6e 59 00 be 8c fe e2 bb
       -0.028254192 0.1917391 -0.12534115 -0.006927317
0002b0 a7 6d 9c bc d4 1e 40 3c b1 ea d9 3c 91 c6 f0 bd
       -0.019095255 0.0117261 0.026601167 -0.117566235
0002c0 ba 1d 72 3c 1e af 27 3c b4 cb 98 3c a4 6d 7a 3d
       0.014777595 0.010234622 0.01865182 0.061139718
0002d0 c4 c3 e2 bd 24 7a 88 3a 8d c4 65 bd 1d 7e 79 bd
       -0.110724956 0.0010412377 -0.05609565 -0.060911287
0002e0 c0 76 30 be 82 22 bd 3d f6 a7 87 bb 8f 23 bb bd
       -0.172328 0.092350975 -0.0041398956 -0.09137642
0002f0 ae e3 30 bc 68 a4 01 bd db e1 47 be e5 cd 30 3c
       -0.010796471 -0.03165093 -0.19519751 0.010791277
000300 7e 8e bd bd e2 d0 ca bd da f1 17 be a0 4f 83 bc
       -0.09255694 -0.099031225 -0.14838353 -0.01602918
000310 f1 06 dd 3c cb db 28 bd c9 48 18 bd ee c1 7e bd
       0.026980849 -0.041225236 -0.03717879 -0.062196665
000320 65 3a 27 3e 68 00 03 bd a2 77 29 3d 3c 02 a0 bb
       0.1633087 -0.03198281 0.041373856 -0.004883079
000330 23 da cd bd 6f 41 5d 3e ad 71 9c bd d6 f4 6b 3e
       -0.10051372 0.21606992 -0.076388694 0.23042616
000340 94 e2 05 bd 28 d5 15 be 33 5a aa 3e 87 7b 1c 3e
       -0.032686785 -0.14632094 0.33271942 0.15281497
000350 7e ec 59 bd 05 e4 ce bd 30 54 0b be fc c8 1d 3d
       -0.053204052 -0.10102085 -0.13606334 0.03852175
000360 c8 4a e7 3d 6f d1 9c be fb 48 4b be de 47 fe bd
       0.1129356 -0.30628535 -0.19852059 -0.12416051
000370 c9 a6 d5 3d 2e 52 af 3d bf 9f 14 be 44 0e 17 be
       0.10432202 0.085605964 -0.14514063 -0.14751536
000380 13 9f 44 3e c2 be 31 3d 4e 03 8e 3d 32 cd 99 bd
       0.19201307 0.04339481 0.06934224 -0.07509841
000390 80 43 62 3c b1 09 8f 3e c0 4d f8 bc b0 fc e4 bd
       0.013810039 0.2793708 -0.030310512 -0.11181009
0003a0 53 59 57 3d 0d 03 3a 3e 47 f1 13 3e a8 a8 71 3c
       0.05257542 0.18165226 0.14447509 0.014749683
0003b0 c2 5c bc bb f2 28 89 be 09 f1 8b 3d d7 a6 db 3d
       -0.0057483623 -0.2678905 0.06833083 0.107251815
0003c0 82 23 20 3d c3 4e d2 bc 52 fe da 3d ad 61 2a be
       0.039096363 -0.025672322 0.10693039 -0.16638823
0003d0 15 78 24 be 5b 1b 91 3c 01 25 9f bd 73 6c 7d 3e
       -0.16061433 0.01771324 -0.0777073 0.24748401
0003e0 c6 d5 09 3e 75 ae 6c be 53 07 76 3e 4d 5a 80 3d
       0.13460454 -0.23113425 0.24026231 0.062672235
0003f0 75 f4 e6 bd a5 c4 00 be 35 6e 18 be c0 d4 d0 3c
       -0.11277095 -0.12575014 -0.1488579 0.025492072

encoder_mean.4.bias f4 [16]
000000 b0 2e f4 b7 10 b5 56 b9 a5 9d a9 b9 d0 30 de b8
       -2.9108807e-05 -0.00020476081 -0.00032351646 -0.00010594877
000010 f0 8a cb b9 7c db 7f b8 47 e1 fb 39 0c 4e a3 b7
       -0.00038822694 -6.100115e-05 0.00048042295 -1.9467458e-05
000020 39 33 c4 b8 eb dd fc b9 98 54 1b 39 68 20 b4 39
       -9.355549e-05 -0.00048230527 0.00014813466 0.0003435642
000030 20 45 c2 38 2c c2 32 b9 63 47 8c b8 9f 66 d9 b7
       9.2635164e-05 -0.00017047737 -6.689017e-05 -2.5916203e-05

encoder_mean.5.weight f4 [16]
000000 df 27 0a 3f 84 3e 2b 3f 68 61 ff 3e e8 b4 03 3f
       0.5396709 0.66892266 0.49879003 0.51447916
000010 64 4f 29 3f 79 c0 ed 3e cc 36 12 3f e2 4a 1f 3f
       0.66136765 0.46435907 0.57114863 0.6222364
000020 60 2a e8 3e 49 5a db 3e 3d ca 35 3f 04 f5 0e 3f
       0.4534483 0.4284232 0.71011716 0.55842614
000030 68 cc 28 3f 5c dd eb 3e 47 07 02 3f 51 32 00 3f
       0.659369 0.4606732 0.50792354 0.50076777

encoder_mean.5.bias f4 [16]
000000 fd f6 57 3e 6e eb 96 be 9c c6 b0 be 82 8b 80 3e
       0.21090312 -0.29476494 -0.34526527 0.25106436
000010 96 77 ba 3d ef 16 0c be d0 a1 98 3d 47 1a 71 be
       0.091048405 -0.13680623 0.07452738 -0.2354518
000020 41 03 24 3e 96 95 ac bd b4 16 e0 be ff 08 91 be
       0.16016866 -0.08426969 -0.4376732 -0.28327176
000030 f8 b0 8c be d6 d1 c8 3d 41 84 3a be a7 ad 63 3d
       -0.27478766 0.09805648 -0.18214513 0.05558553

encoder_mean.5.running_mean f4 [16]
000000 85 49 65 3d 7e e9 9b be ca 2a b8 3e 84 86 e5 3d
       0.055978317 -0.30451578 0.35970145 0.112072974
000010 dc 84 a1 3d 9a 67 74 3d 7e 62 48 3d a5 05 5b be
       0.07886669 0.059669115 0.048922054 -0.21388872
000020 ca 1f 84 3d d0 c4 79 be 16 99 a9 bd 98 cc 1f 3e
       0.06451376 -0.24391484 -0.08281152 0.1560539
000030 1c de 4e be 17 c5 cf 3c a2 45 8f bb 92 d5 52 bb
       -0.20201916 0.025362534 -0.0043723145 -0.0032170755

encoder_mean.5.running_var f4 [16]
000000 2a 6b 36 3e 34 b1 b1 3e e2 9f 72 3e 1e fa 90 3e
       0.17814317 0.34705508 0.23693803 0.28315824
000010 5b 86 d4 3d 66 c6 52 3e cf 78 4d 3e 13 44 54 3e
       0.10377189 0.20583495 0.20065616 0.20729093
000020 97 1f de 3d cb 66 ce 3d 2b 96 a7 3e 41 37 10 3e
       0.10845869 0.100782 0.32731757 0.14083578
000030 f3 db 94 3e 48 23 bc 3d 33 bb a0 3d 33 e0 09 3e
       0.29074058 0.09186417 0.078482054 0.13464431

encoder_mean.8.weight f4 [14, 16]
000000 19 2b 09 3b 75 da 50 be 6a 33 e9 3d 6b 70 25 3e
       0.002093023 -0.20395835 0.113867596 0.16156165
000010 98 65 30 bd ed 55 b2 3d 02 8d 38 3e 43 f5 0b be
       -0.043065637 0.08707795 0.1802254 -0.13667779
000020 e1 9a 96 3d db 1d a7 bd 5d 36 58 be 7e 66 81 3e
       0.073537596 -0.08159991 -0.21114488 0.25273508
000030 ac c1 65 be 87 47 cf 3d 48 03 1e be d9 9b 62 3d
       -0.22437161 0.10121065 -0.15430939 0.05532441
000040 2f 65 e3 bd 7e 63 70 3e 5d 2d 37 bd df 15 14 be
       -0.111032836 0.23475453 -0.044720996 -0.14461468
000050 51 72 20 be a4 cc 13 be 86 f7 d2 bd 1a 8f fc 3d
       -0.15668608 -0.14433533 -0.103011176 0.12331982
000060 d0 c8 2f be ff bf 63 3d 80 48 31 3e 60 66 27 bc
       -0.17166448 0.055603024 0.17312813 -0.010217279
000070 82 3a 92 3d 4d 8a 28 be ac af 20 be c5 30 fc bd
       0.07140066 -0.16459008 -0.15692014 -0.123139895
000080 93 2a c4 bd 39 cd 6d 3e 37 ee 21 3d 96 25 e1 bd
       -0.09578433 0.23222817 0.03953382 -0.10993497
000090 63 d3 50 be 8b cb 3e bd 91 44 f1 bd 80 5b 99 3d
       -0.20393138 -0.046580832 -0.11780656 0.07488155
0000a0 29 e3 25 be bd 89 dc bd 0d 75 f3 3d 03 7c d4 bd
       -0.16199936 -0.10768459 0.1188756 -0.10375216
0000b0 e0 ea 03 3e 71 24 23 be a0 73 a6 bd f3 a8 bd bd
       0.12882566 -0.1593187 -0.081275225 -0.0926074
0000c0 50 2c 9a bc 40 d9 0c bd 78 87 56 bd 4d 4f 04 3c
       -0.018819958 -0.034386873 -0.052375287 0.008075547
0000d0 92 b6 86 be e5 3e 59 bd 4c 1b 88 be 33 0c 96 3d
       -0.26311165 -0.053038497 -0.26583326 0.073265456
0000e0 50 75 89 bb ad 4b e1 3d 44 34 dd bd ce eb 2b be
       -0.004194893 0.11000762 -0.108009845 -0.16789171
0000f0 ae 71 f4 3a de c7 7d bd b3 6c 0f be c6 2e 26 bd
       0.0018649602 -0.061958186 -0.14006309 -0.04057195
000100 49 4f 0a be cf 6d 39 3e 8d 83 b5 bd 0d e6 c0 bd
       -0.13506807 0.18108295 -0.08862982 -0.09418879
000110 36 5f 2d be dc 56 a9 bd cc 97 34 be 5f cb a5 3c
       -0.16930851 -0.0826852 -0.17636031 0.020238576
000120 5b 15 13 be 96 bd 27 bd a8 3a 8b 3d 16 7a 99 3c
       -0.14363615 -0.040952288 0.06798297 0.018734973
000130 61 88 5e 3e 62 b4 1a be 3f 39 0f be f4 35 de bd
       0.21731712 -0.15107873 -0.13986681 -0.108501345
000140 75 48 fe bd 20 60 93 3d b5 12 a0 3c 55 24 07 be
       -0.12416164 0.07196069 0.01954017 -0.13197453
000150 13 15 81 be e9 7e 7a bd 7f 28 9c be 0e 37 4a 3e
       -0.2521139 -0.061156187 -0.30499646 0.19747564
000160 e8 49 8e bd bb 4d 59 3d b2 82 6c 3e 06 9b 0b bd
       -0.0694769 0.053052645 0.23096731 -0.03408339
000170 a6 5e b0 3d 56 72 46 bd 6a ea 29 be a5 34 db bd
       0.08611803 -0.048448883 -0.16593328 -0.107034005
000180 29 c9 11 3e 2d 51 38 be 98 cd 47 3e 48 c0 0e bc
       0.14236893 -0.17999716 0.19512022 -0.008712836
000190 f7 30 e2 bc 42 e7 45 3e bb 17 21 bd 87 55 4c be
       -0.027611239 0.19326499 -0.03932927 -0.19954501
0001a0 1b 89 a4 3d 11 11 5f bd 0b b2 fb bd 82 ce 46 3e
       0.08033963 -0.054459635 -0.122898184 0.19414714
0001b0 47 fa 5c be fc 21 c7 3b da ad 63 be dc 91 4e 3e
       -0.21579848 0.0060770493 -0.22234288 0.20172828
0001c0 19 07 01 be df f1 e1 3d e5 0c be bd 73 94 28 be
       -0.12600364 0.110324614 -0.09279803 -0.16462879
0001d0 61 27 70 be 00 c2 fb bd 4e 0c 75 bb 83 bc 5a 3e
       -0.23452522 -0.12292862 -0.0037391367 0.21360974
0001e0 2d 43 cb bd f2 c5 06 bd 6a 70 a9 3e 82 4c fe bc
       -0.09924922 -0.03290362 0.33093578 -0.031042341
0001f0 5e f0 07 3e 84 fa 39 bd 9d 8f a0 bd 96 ec 92 bd
       0.13275287 -0.045404926 -0.07839892 -0.071740314
000200 fb 60 9a bd 42 62 38 be 53 8c f7 bd d2 46 6b be
       -0.07538029 -0.18006232 -0.120873116 -0.22976235
000210 1b 11 d0 3d 15 ed 62 bd 73 49 5c 3d 00 da 3f be
       0.101595126 -0.05540188 0.053780984 -0.18735504
000220 23 cd c4 bd 75 89 95 bc 50 7f 44 3c 04 65 31 3d
       -0.09609439 -0.018254021 0.011993244 0.043309227
000230 cb 5c 30 be ea bb 1f 3e 9f 09 0c 3e f5 13 9e 3c
       -0.17222898 0.15599027 0.13675545 0.019296626
000240 10 e5 58 3c 4c c3 9d bd 5d 67 92 3e fa 75 84 3d
       0.0132382065 -0.077032655 0.28594485 0.06467815
000250 3a 38 21 3d 52 29 69 3e ad 75 1f 3c 5c 00 ce bd
       0.039360262 0.22769669 0.009732646 -0.10058662
000260 df 86 24 3e 7a 1a f5 bb e9 eb f0 3d ac 4a f2 3c
       0.16067074 -0.007479963 0.11763746 0.029576622
000270 4a ea b0 bd 53 89 c1 3d a7 1b 30 be fe 2d a3 3b
       -0.08638437 0.09450021 -0.17198049 0.004979848
000280 70 44 1b be 89 86 f0 3d 46 85 9f bd ef b2 5f be
       -0.15162826 0.117444105 -0.07789092 -0.21845601
000290 09 e4 a6 bb c4 d1 6c bd 73 ca 79 bc 48 0c 4a 3e
       -0.005093102 -0.057817236 -0.015246022 0.19731247
0002a0 7d c8 6c be 5e 44 49 bd 4a c1 9e 3e ad 22 ad bc
       -0.23123355 -0.049137466 0.31006843 -0.021134699
0002b0 ef 9f 0e 3e a2 e3 6e bd 65 b1 ff 3b f9 ac 0b be
       0.13928197 -0.058322556 0.0078031295 -0.13640203
0002c0 49 9e 65 3e 72 0f 01 be 30 8e 76 3c 2a a1 e1 3d
       0.22423662 -0.12603548 0.015048549 0.11017068
0002d0 5c 6f 1a 3d aa b2 b2 3d 69 8f 2e 3d 04 03 86 bd
       0.037703857 0.08725484 0.042617235 -0.06543544
0002e0 7f 16 8d 3d 83 d6 02 be 8c df ce bd 68 d3 95 3e
       0.068890564 -0.12777142 -0.10101232 0.29262853
0002f0 0f d8 ba bd a6 28 5e 3d 0f 16 bd bd 53 6b 33 3e
       -0.09123241 0.054237984 -0.09232723 0.1752141
000300 e4 46 f4 bb 7a 42 5f be 91 fc 5c be 19 47 7e bd
       -0.00745474 -0.21802703 -0.21580721 -0.062079523
000310 42 5b 85 3d 3c 99 fc bc 66 3a 58 3e 34 29 55 be
       0.06511547 -0.030834787 0.21116027 -0.20816499
000320 e6 72 dd bc 43 c8 ce bd e0 5b 39 bd 68 eb 0f be
       -0.027032327 -0.10096791 -0.045253634 -0.14054644
000330 43 d9 2c be 87 62 68 3e d0 4b 89 3d a0 27 64 3d
       -0.16879754 0.22693835 0.06703913 0.05570185
000340 d8 c5 48 b8 83 03 4a be 97 d2 cd bd 3d 87 80 3d
       -4.7867972e-05 -0.19727902 -0.100499325 0.06275795
000350 64 3b 37 be 24 06 b7 bd 63 e6 34 be c7 16 68 be
       -0.1789375 -0.08936718 -0.1766601 -0.22664939
000360 40 a4 f6 3b 1d d4 82 3d c8 1e 79 be 22 53 36 be
       0.0075269043 0.06388114 -0.24328148 -0.1780515
000370 c9 0b 7d be b6 6b 6f bd b8 45 67 b9 b3 68 42 bd
       -0.24711527 -0.05845233 -0.00022055849 -0.04746313

encoder_mean.8.bias f4 [14]
000000 74 cd 5c ba 04 6a 1c b7 c4 0d aa 39 2c 67 f3 b9
       -0.0008422949 -9.323008e-06 0.00032435183 -0.0004642544
000010 68 a4 4c 39 90 14 00 b9 86 38 2d 39 37 6f d6 39
       0.00019516202 -0.00012214691 0.00016519622 0.00040900122
000020 9e d8 43 39 19 cb f9 b9 b0 00 da 39 a4 eb 35 39
       0.00018677345 -0.000476443 0.00041580712 0.00017349288
000030 1e 64 50 39 42 6b a4 b9
       0.00019873722 -0.0003136043

encoder_mean.9.weight f4 [14]
000000 c7 70 25 3f ae e9 1e 3f 7e b1 27 3f e4 4b 12 3f
       0.6462521 0.62075317 0.65505207 0.5714705
000010 55 53 1c 3f 6a a3 3c 3f 6c ba 3e 3f e7 a7 24 3f
       0.61064655 0.7368685 0.7450321 0.643187
000020 a0 1e 03 3f 74 ec 21 3f 0d 61 29 3f 91 e4 1c 3f
       0.51218605 0.63251424 0.6616371 0.61286265
000030 11 82 03 3f 18 65 28 3f
       0.5137034 0.65779257

encoder_mean.9.bias f4 [14]
000000 a2 b9 37 3e 0d 3f 37 be 35 07 31 be 73 c8 0e 3e
       0.17941907 -0.17895146 -0.17287906 0.13943653
000010 b1 91 f5 bd 11 f8 80 bd f7 b6 2b 3e 26 e6 01 be
       -0.11990679 -0.06297315 0.16769014 -0.12685451
000020 19 4e a1 bd 23 bb 49 3d d9 4c 91 bd 76 ba b1 3e
       -0.07876224 0.049250733 -0.07094736 0.3471257
000030 1e 85 17 3e ff 27 03 3e
       0.14796874 0.12808226

encoder_mean.9.running_mean f4 [14]
000000 62 46 b3 3d 0a 81 6b be 46 0a 71 be f6 d1 73 be
       0.08753659 -0.22998443 -0.23539075 -0.23810562
000010 86 f2 77 be 27 0b 86 be 07 71 21 3d 48 0e 2c be
       -0.24213609 -0.26180384 0.039414432 -0.16802323
000020 b7 f1 cc bd e1 65 0e 3e 90 e7 28 be 18 bf 46 3e
       -0.10007041 0.13906051 -0.16494584 0.19408834
000030 a7 28 d6 bc e7 b4 74 be
       -0.026142431 -0.23897134

encoder_mean.9.running_var f4 [14]
000000 12 63 4c 3e f0 3c 7d 3e 9e 95 47 3e 74 37 33 3e
       0.19959667 0.24730277 0.19490668 0.17501622
000010 08 3a 57 3e cf 57 8d 3e 43 3c 4e 3e 53 cd 4b 3e
       0.21018231 0.27606055 0.20140176 0.19902544
000020 c9 3c a4 3d b5 69 00 3e f2 d9 72 3e 68 7a 5a 3e
       0.08019406 0.12540324 0.23715952 0.21335757
000030 c7 68 98 3d 05 65 d2 3d
       0.0744186 0.10273174

encoder_mean.12.weight f4 [12, 14]
000000 17 1d 7b 3d 36 a1 f5 3d 7b 10 20 3e 46 bf 26 bd
       0.06130704 0.11993639 0.15631287 -0.040709756
000010 44 24 0c 3d 26 76 a7 3d 1a 4b 36 be 19 93 a0 3e
       0.034214273 0.08176832 -0.17802086 0.31362227
000020 e2 b2 c1 3d d1 5f ed bd 0a 18 8d 3e 48 84 84 be
       0.09457947 -0.11590541 0.27557403 -0.25882173
000030 f4 f9 85 3d 36 6c b0 be 29 3e 13 be 48 82 46 3e
       0.065418154 -0.34457558 -0.14379181 0.19385636
000040 c7 1b 38 3e b9 cc 0d 3d d3 e6 03 3e c5 ec f8 3c
       0.17979346 0.034619067 0.12881021 0.030386338
000050 dc f3 e0 bd ac ac 93 3c cb 7e 94 bd 0c 7e 83 bd
       -0.109840125 0.018026672 -0.07250746 -0.06420526
000060 d2 4c 2a 3d 1e 04 05 be 63 bd 25 be 06 c6 e5 bd
       0.041577168 -0.12989852 -0.16185527 -0.112194106
000070 01 9d 39 be 40 36 2e bd 94 77 79 bc d6 a4 c6 bb
       -0.18126298 -0.042532206 -0.015226264 -0.0060621304
000080 02 0f 61 3e 51 23 73 3e c0 eb f0 bd af c7 b1 3c
       0.21978381 0.23743941 -0.11763716 0.021701662
000090 30 b8 97 bd 2f 8b 3c bd 44 cd 9b bd 73 a4 17 be
       -0.07408178 -0.046031173 -0.07607511 -0.14808826
0000a0 a2 0d 23 be 34 7c 62 3e a0 09 75 3d 7e 8f fa 3d
       -0.1592317 0.22117692 0.059823632 0.122344
0000b0 6e bf a9 3d 23 3e 14 bd 50 60 ba 3d e4 63 a5 bd
       0.082884654 -0.03619207 0.091004014 -0.08075693
0000c0 3e ce e9 bd 9e 63 c8 3e 29 a3 98 3d 2a 46 7e bd
       -0.11416291 0.39138502 0.07452995 -0.062078632
0000d0 25 48 83 3e 07 45 6e be e4 92 b0 3c d2 57 6d be
       0.2564098 -0.2326852 0.021554418 -0.23178032
0000e0 a0 99 dc 3d 6d c5 8b be c5 16 07 be aa 85 fc 3d
       0.10771489 -0.2729906 -0.1319228 0.12330182
0000f0 39 be 83 be 68 dc 44 bd 45 ff 38 3e 34 1b 5a be
       -0.25731066 -0.04806176 0.18066128 -0.2129944
000100 f1 80 01 be de 32 cf bd e3 ee a6 be f5 3f 34 3e
       -0.12646843 -0.10117124 -0.3260413 0.17602523
000110 20 c2 10 be 10 95 6e bd c0 9e fd bd 05 28 49 3e
       -0.14136553 -0.058247626 -0.12383795 0.19644172
000120 a8 68 60 3e 9d b8 e8 bc e3 a7 53 3d 0a 73 a5 3d
       0.21914923 -0.028408343 0.05167378 0.080785826
000130 67 2f 32 be f9 c5 a4 3d e6 b3 3c be 76 39 b0 bd
       -0.17400895 0.08045573 -0.18428001 -0.0860471
000140 03 28 75 3e da d8 0b be 5b 01 70 be da 45 04 be
       0.23941045 -0.13656941 -0.23438017 -0.12917271
000150 ff df 2c 3e 02 6b 47 be a2 bd 3d be ca ca 91 be
       0.16882323 -0.19474414 -0.1852937 -0.28475028
000160 76 3f 84 be 47 0f a6 be 6d 99 72 3e 7f 8b 87 bd
       -0.25829667 -0.3243353 0.2369134 -0.06618404
000170 96 c9 e8 bd 9c 5e 6c 3e 3c 4f 0a 3e 4d ef c8 3d
       -0.113665745 0.23082966 0.13506788 0.09811268
000180 d5 97 fd bc f4 df a8 be 76 75 6f 3e c8 61 58 bb
       -0.030956188 -0.32983363 0.23384652 -0.0033017267
000190 df b7 5c 3c 45 32 ba be e6 b0 8f bd 2c 84 23 be
       0.013471573 -0.36366478 -0.070161626 -0.15968388
0001a0 24 5a 1b 3e 83 87 42 bc c0 7e c2 3c 82 c5 ca 3e
       0.15171105 -0.011873129 0.02374208 0.39603812
0001b0 e9 c7 92 bb 9f a8 1c 3e 15 ef 17 3d 1f be 80 be
       -0.0044793976 0.15298699 0.03709324 -0.2514505
0001c0 f0 0b 5c be 50 93 1a 3e 36 67 02 3d d3 1d 40 3e
       -0.21488929 0.15095258 0.03183671 0.18761377
0001d0 d1 f5 1b 3e 53 20 dc 3d ca 54 36 be 63 10 a3 bd
       0.1523049 0.10748353 -0.17805782 -0.0796211
0001e0 cf f6 3a be 57 c1 eb bd 02 ec cc bc 46 4b 2f be
       -0.18258213 -0.11511486 -0.025014881 -0.17118558
0001f0 af 91 68 be 7b 23 b6 bd 5d 8e 27 be 7a 34 3e 3e
       -0.22711824 -0.08893486 -0.16362901 0.18574706
000200 6d ca a0 3d af dc 8b bd ed 29 03 3e cc d4 14 3e
       0.0785111 -0.068292014 0.12808962 0.145343
000210 bb be ab bd 40 26 cd 3d 96 17 1e be b0 41 50 bd
       -0.08385988 0.10017061 -0.15438685 -0.050843894
000220 ce 06 5e 3e c1 13 35 be 29 4c 1a be 26 04 52 bd
       0.21682283 -0.17683317 -0.15068115 -0.051273488
000230 16 1e 3d be b0 96 19 3e b9 37 0a 3e 99 5e e9 3d
       -0.18468508 0.14998889 0.13497819 0.11394996
000240 7d 8d cf 3d 47 fd f3 bc 16 bd 00 be f8 00 9c 3c
       0.101344086 -0.029783858 -0.1257213 0.01904343
000250 c9 2f 03 be 6d 86 1e be 18 b4 98 bd 24 a9 fd bd
       -0.12811197 -0.15480967 -0.07456225 -0.12385777
000260 4c 27 76 be 56 1f b0 bd 5d d1 51 be b9 2f 0f 3e
       -0.24038428 -0.08599727 -0.20490022 0.13983048
000270 72 23 61 3e 34 8c 35 3d d4 bd e4 3d e8 b5 bb 3d
       0.21986178 0.04432316 0.11169019 0.09165555
000280 fd a8 73 be 00 7c 52 3e 5c 49 63 be 93 b9 11 be
       -0.23794933 0.20555115 -0.22195953 -0.14230947
000290 39 55 82 3d e5 ee 34 be 82 de 01 be a7 a2 55 bd
       0.06363911 -0.17669256 -0.12682536 -0.05215707

encoder_mean.12.bias f4 [12]
000000 6c 19 ee b7 97 0d 92 b9 1f 63 96 b9 df 04 a0 b7
       -2.8383649e-05 -0.00027857415 -0.0002868408 -1.9075755e-05
000010 73 87 a6 b9 2e 69 2c 3a dd b6 a0 b9 0d e7 24 ba
       -0.00031762905 0.00065769523 -0.00030653822 -0.0006290533
000020 ed 96 33 3a db 80 cf 38 4d 41 c2 39 34 fa 2f b9
       0.0006850798 9.8945304e-05 0.00037051216 -0.00016782508

encoder_mean.13.weight f4 [12]
000000 47 eb 6e 3f 4f ea 4d 3f 57 2c 4b 3f 97 0b 61 3f
       0.93327755 0.8043565 0.7936453 0.8790831
000010 70 c7 67 3f 86 d3 68 3f aa 1c 89 3f 67 c6 89 3f
       0.9053869 0.9094776 1.0711873 1.0763673
000020 da 23 63 3f b8 46 56 3f 66 29 55 3f b2 32 78 3f
       0.8872658 0.8370166 0.83266294 0.96952355

encoder_mean.13.bias f4 [12]
000000 59 30 88 3d d7 8c 3c 3e 41 39 68 3e 21 6c 48 3e
       0.066498466 0.18413101 0.2267809 0.19572498
000010 a9 7e ca 3e e5 c5 d9 3d ce 15 8f 3e 2f 2a cc 3d
       0.3954976 0.106334485 0.27946323 0.099689834
000020 0b 4f 46 3e c4 50 08 3e 44 fd 80 3e c0 e3 17 3e
       0.1936609 0.1331206 0.25193226 0.14832973

encoder_mean.13.running_mean f4 [12]
000000 b2 cc 19 be 26 89 e2 bd 11 0b 73 bd 31 5b a9 bd
       -0.15019491 -0.11061315 -0.059336726 -0.082693465
000010 31 85 c6 bd 56 e2 fd bd 66 12 6a be dc e9 95 bb
       -0.09693373 -0.12396686 -0.22858581 -0.0045749974
000020 dc 78 3d be 32 a2 94 bd e0 40 45 be 25 46 0d be
       -0.18503135 -0.07257499 -0.19263029 -0.1379629

encoder_mean.13.running_var f4 [12]
000000 64 49 9e 3e 1d ac 3b 3e 69 1a 51 3e 55 f1 34 3e
       0.30915368 0.18327375 0.20420231 0.17670186
000010 fc 61 6d 3e cb 15 94 3e 82 4a e8 3e ce 79 f2 3e
       0.2318191 0.28922877 0.45369345 0.47358555
000020 7c 02 9f 3e 8f 14 73 3e e1 50 51 3e 03 64 ce 3e
       0.31056583 0.23738311 0.20441009 0.40310678

encoder_mean.16.weight f4 [10, 12]
000000 05 a1 ed be 33 57 82 bd ac be c8 3e df 8f c8 be
       -0.4641191 -0.06364288 0.3920797 -0.39172265
000010 09 6c cc 3e 82 52 96 be 0f ae ff be 50 15 fc be
       0.39926174 -0.29359823 -0.49937484 -0.4923501
000020 ba 03 99 3e 42 fe 6f be f7 fb 85 3e 9f 2a 0e bd
       0.29885656 -0.23436835 0.26168796 -0.034708615
000030 3c d9 c7 3d d0 00 47 be 21 6a 33 be 4c 67 f0 3b
       0.09758231 -0.19433904 -0.17520954 0.0073365327
000040 82 4c 3c 3e 0d d6 f2 bd d2 d6 b1 3e 9a f4 08 bd
       0.1838856 -0.11857233 0.34734207 -0.033436395
000050 0f c1 52 be b2 e5 85 be 22 ce 94 be 46 64 b8 be
       -0.20581459 -0.26151806 -0.29063517 -0.36014003
000060 ea ff 90 3e d9 ea a8 bd 01 77 0a be d0 ca c8 3e
       0.28320247 -0.08247919 -0.13521959 0.39217234
000070 24 f7 51 be 17 3a b2 3c 27 1c bb 3e 9e 6f c1 be
       -0.20504433 0.021756215 0.36544916 -0.3778047
000080 21 e8 4b be dc cf 2d 3c 8a aa 8c bc 77 d8 0d bd
       -0.19912769 0.01060864 -0.017171163 -0.034630265
000090 99 fa 87 be 7c fc 9a bd 0e cc ce 3d 3f 56 41 be
       -0.26558378 -0.07567689 0.10097514 -0.18880557
0000a0 38 8a 82 3e d2 99 02 3d fe ed 82 be e2 88 8a 3e
       0.25496078 0.031884976 -0.255722 0.27057558
0000b0 81 d1 b5 3d 89 69 8c bd 68 a1 c0 3d 67 94 a2 bd
       0.0887785 -0.06856067 0.09405786 -0.07938462
0000c0 aa 79 36 3e 5a f6 8d 3e 4f b8 c5 3d 27 a6 d4 3c
       0.17819849 0.27727014 0.09654295 0.025958134
0000d0 bc 78 80 be 61 60 08 3e eb dd 3e be ed cc be be
       -0.25092113 0.13318016 -0.18639342 -0.3726572
0000e0 cf 2c 51 3e b3 bf 78 3d 11 6f 0a 3e e0 d9 41 3e
       0.2042725 0.060729694 0.13518931 0.18930769
0000f0 b6 e7 24 be d2 46 d0 3c e4 a0 ce 3b d3 07 b8 bd
       -0.16104016 0.025424395 0.0063058008 -0.08985867
000100 8c 96 43 3e 06 f7 4c be df ac 7b be df 8f 4b bb
       0.19100398 -0.20016107 -0.24577664 -0.0031061096
000110 7c 96 f8 bd 76 10 ef bc dc 8c 0c bd 08 05 d0 bd
       -0.121380776 -0.029182654 -0.03431402 -0.1015721
000120 f3 e6 1d be a8 7c ec be 87 df cc be c3 74 53 bd
       -0.15420131 -0.46188855 -0.40014288 -0.051625025
000130 fd 6b 68 3e bb bc b7 be 5a ea 8d 3e 3e cf e1 3e
       0.22697444 -0.35886177 0.2771786 0.44103426
000140 ff da b1 be e9 5c 75 be 53 b1 a5 be be aa b8 be
       -0.34737393 -0.23961224 -0.3236185 -0.36067766
000150 57 2c ca 3d db e9 96 3e 9d 3c da 3e ea d8 66 3e
       0.098717384 0.29475293 0.4262437 0.22543684
000160 dd 64 d2 be c6 44 ba 3e de 5c f4 be 0c 3d b2 be
       -0.41092578 0.36380595 -0.47727102 -0.348122
000170 c7 69 02 3f 9f 36 b4 3e 6a 3e 93 3e 29 55 af 3e
       0.50942653 0.35197923 0.28758556 0.3424466
000180 f1 d6 be bb d6 be b2 3a 75 c5 40 be d2 55 3d 3e
       -0.005823963 0.0013637196 -0.18825324 0.18489769
000190 1a ed 8d be 5d cd e9 3d 57 49 1f 3e 72 62 57 3e
       -0.27719957 0.11416123 0.1555532 0.21033648
0001a0 f5 9f 90 bd cd 4c 28 3e 85 be bb 3c 1c 2b 12 3d
       -0.070617594 0.16435547 0.022917995 0.035685644
0001b0 b9 69 e3 bc e8 ed 12 3e 79 26 41 3e 39 49 b3 bc
       -0.027760373 0.14348567 0.18862332 -0.021885501
0001c0 d6 7c 57 3c 42 52 36 3e 82 e4 0b be d3 14 16 be
       0.013152322 0.17804816 -0.13661388 -0.14656381
0001d0 d0 01 83 3d 3a 0b bc 3e d0 a0 b3 3e b3 43 1e 3d
       0.0639683 0.36727315 0.35083628 0.03863878

encoder_mean.16.bias f4 [10]
000000 21 b2 90 3e 48 de af 3e ea 26 21 bb af 0e 8c 3b
       0.28260902 0.34349275 -0.0024589845 0.0042742114
000010 61 62 07 be 51 e6 a6 3e bb df 21 3f 88 67 06 bf
       -0.13221122 0.32597592 0.6323201 -0.52501726
000020 e0 2a d7 bd 83 88 d6 be
       -0.10506225 -0.41901025

encoder_var.0.weight f4 [20, 30]
000000 0f 29 e3 bb 42 0a ae bb fa 6f 2d 3c 43 0d cd bc
       -0.006932385 -0.0053112814 0.010585779 -0.025030738
000010 9a f9 06 3c 82 9b 75 bb 70 73 2e bc 22 41 f6 bb
       0.008238221 -0.0037476723 -0.01064764 -0.0075150887
000020 20 56 b4 ba 59 7f e3 39 38 8c 03 3c 84 94 02 3b
       -0.0013758577 0.00043391695 0.008029036 0.0019924948
000030 f9 43 1e 3c a8 b5 ba b8 6e c3 56 3b a1 34 79 3b
       0.009659761 -8.903007e-05 0.0032770294 0.0038025754
000040 cf 62 9a 3c e5 2d 85 bc 68 f7 d3 39 d6 f0 df 3b
       0.018845944 -0.016257236 0.00040429388 0.00683413
000050 ab ce ae bc 9d 2d 8b bb d7 46 3d bc 6b 6e 29 bc
       -0.021338781 -0.004247381 -0.011552534 -0.010341267
000060 11 75 f6 3c 80 14 9f 3b 7a 9a 60 bb 55 f6 31 3c
       0.030085118 0.0048547387 -0.0034271763 0.010861953
000070 18 10 3f bc 4e 50 4b 3d f5 65 4c bc 40 91 b8 bb
       -0.011661552 0.04963713 -0.01247548 -0.0056325495
000080 f9 a1 e4 bb ac f9 ce 3a 8c e2 66 3c 5d 0b ec bb
       -0.0069773165 0.0015790961 0.014092099 -0.007203503
000090 1c 15 06 3b 20 24 a5 ba f8 41 00 3c 4b 7b 3f bc
       0.002045936 -0.0012599267 0.007828228 -0.01168711
0000a0 3d 25 a7 b9 be 34 cd 39 16 30 98 3b 8b 22 1d 3c
       -0.00031880467 0.00039139943 0.004644404 0.009590755
0000b0 ae ad f0 3a 15 69 4c 3b 4b 4d 96 bc fa cd 9d 3a
       0.0018362307 0.0031190563 -0.018347403 0.0012039535
0000c0 76 e2 05 3c fa 32 2d bc 15 2c c0 3a c0 30 ef 3b
       0.008171668 -0.010571236 0.0014661575 0.0072995126
0000d0 fc 56 21 3c cc 53 a4 3b 91 47 27 bb 1f 24 45 bc
       0.009847399 0.005014872 -0.0025524835 -0.012032538
0000e0 00 78 5b 3c 14 87 5d 3c 70 b5 5d bc 88 9c 0a b9
       0.013395309 0.013520975 -0.013532028 -0.00013219018
0000f0 f2 04 91 ba bc e9 2d 3c 1a 6e 8f 3b 13 b5 08 bc
       -0.0011064096 0.010614809 0.004377139 -0.008343953
000100 fb a0 55 3c 1c 28 c9 3a ec 0d b5 3b fd 09 64 3c
       0.013038869 0.0015347037 0.0055253413 0.013918397
000110 91 36 3f bb 58 9f c9 3a 4a c4 22 3c 16 35 92 3b
       -0.0029176811 0.0015382571 0.009934494 0.0044618947
000120 12 ad 70 bc 70 d5 62 3a 03 dd 77 bb ff 4d 99 3c
       -0.014689701 0.00086530205 -0.0037820942 0.01871395
000130 5e 31 aa ba e5 db 38 bc 34 52 1f bc 40 b9 15 3b
       -0.0012984683 -0.011282896 -0.009724189 0.0022846013
000140 44 67 ff bb 1a b1 f0 3a 6f 6d e8 3a 36 e4 47 bc
       -0.0077942926 0.0018363327 0.0017732809 -0.012200406
000150 af a5 f6 3b 4f 25 10 3c 6e 65 15 bc 88 d4 57 bc
       0.0075270752 0.008797958 -0.009118421 -0.01317323
000160 57 fd 5c 3c 73 5d 87 bd 56 83 35 3b ba 0d 6a 3c
       0.013488135 -0.06609621 0.002769669 0.014285499
000170 df 3a b4 3b d2 0e 12 bc 52 08 80 bb 60 29 b4 3b
       0.005500182 -0.008914666 -0.003907242 0.0054980963
000180 d8 77 f0 3b 5a fd cc 3b d4 c7 2c 3a e5 65 6c bc
       0.0073385052 0.006255788 0.0006591056 -0.01442859
000190 12 be d3 3b cf 41 c5 3a fd fd 19 bc 78 65 be 3b
       0.006461867 0.001504952 -0.009398934 0.005810436
0001a0 5d 0f 43 bc 44 50 92 3c 4c d2 d2 bb 91 b6 48 3b
       -0.011905518 0.01786054 -0.0064337607 0.0030626396
0001b0 e0 d7 95 ba ec 73 c9 3b c3 f5 3e bc fb 42 14 3c
       -0.0011432134 0.006147852 -0.011655274 0.0090491725
0001c0 a0 d1 bb bb 2c 82 82 bc 7b 09 a9 3c c2 ed 52 3b
       -0.0057317764 -0.015931211 0.020634403 0.0032185172
0001d0 0d 40 18 bb 32 4e 4c bc 94 1d 4b 3c ef 23 34 bd
       -0.0023231537 -0.012469815 0.012397189 -0.04397958
0001e0 6c aa 05 bd 64 47 ba bb dc 69 b2 39 cf 8f a8 3b
       -0.03263323 -0.00568478 0.00034029677 0.0051440964
0001f0 2e 39 0c 3c fb 83 b0 bb 90 14 f1 bb 5e 19 0e 3b
       0.008558555 -0.005386827 -0.0073571876 0.00216826
000200 6c 66 ff b9 19 1c 6e 3c f2 82 01 bc 26 8a 8d b9
       -0.000487137 0.014533066 -0.007904755 -0.00026996544
000210 83 f5 0c 3c 50 6a bd bc 68 74 1f 3c b5 b7 58 3c
       0.008603456 -0.023121983 0.009732343 0.013227393
000220 f4 d7 7a bb 49 36 70 bc 8f 5f 87 3b 1e f1 e7 3b
       -0.003827569 -0.01466138 0.0041312645 0.007078304
000230 79 d2 a1 3b b3 76 19 bb 28 19 f5 bb 13 c2 31 bc
       0.0049384204 -0.0023416698 -0.0074798055 -0.010849494
000240 f7 93 59 3c 3b c5 5c bb d6 2e 23 3b 8b 11 b6 ba
       0.0132799065 -0.0033686894 0.0024899743 -0.0013890726
000250 a6 3c 23 b9 40 c5 23 3d 48 c9 9b 3b ef e0 26 bc
       -0.00015567485 0.039983034 0.004754219 -0.010185464
000260 4f 23 a4 3b 8d d4 f3 3b 6a 6f 98 3b 82 f6 ce bb
       0.005009092 0.0074411095 0.0046519535 -0.006316007
000270 36 60 db bb d3 ed 96 bc aa 0e e3 b9 94 09 b3 3c
       -0.006694819 -0.01842395 -0.0004330774 0.021855153
000280 61 7e 1b bc 70 c7 51 39 30 d4 57 3c 3a c9 4c bc
       -0.00949058 0.0002000609 0.013173148 -0.012499148
000290 4d 6b 04 3c 8c 34 48 bc 4a 17 1b bc c1 64 5f 3b
       0.008082223 -0.012219559 -0.009466002 0.0034087154
0002a0 03 bf e5 3b a0 ee e1 3b a0 1c e6 3b f8 c6 f2 3a
       0.0070112958 0.0068949014 0.0070224553 0.0018522432
0002b0 e5 d1 1f bc ea 5b 68 3c e0 44 ae bc 90 e4 9d b9
       -0.009754633 0.01418207 -0.021273077 -0.00030115666
0002c0 43 1f 9b b9 1a f8 dd 3b 54 b6 d9 bb 70 f1 a7 3c
       -0.00029587196 0.006773961 -0.0066440497 0.020500869
0002d0 b9 ec 62 bc 82 cd 18 be ba 92 ea 3a f2 ed 84 3c
       -0.013850384 -0.14922145 0.0017896511 0.016226742
0002e0 51 18 10 bc 0b 75 05 bc e9 bb 2e 3c 73 50 c4 3b
       -0.00879486 -0.008145581 0.010664918 0.0059910356
0002f0 fa 6b 93 bb 94 f3 55 ba ae 3b 86 bc 40 36 99 bb
       -0.004498956 -0.0008161601 -0.01638588 -0.0046756566
000300 a7 59 1d bb 97 9c 43 bb d2 95 0d 3c 27 51 0c bb
       -0.0024009736 -0.0029847973 0.008641677 -0.0021410675
000310 36 e6 8d bc 16 83 33 3c 84 a2 56 ba d0 e0 1e 3c
       -0.017321687 0.010956546 -0.0008187669 0.009697154
000320 1f ac 6f 3c c2 af 84 bb 76 d3 1c 3a f7 a2 ef bb
       0.014628439 -0.0040492723 0.0005982438 -0.007313128
000330 b3 4e 32 bc 5c 5a 29 bc 3c bf 2f 3c d3 c7 b2 bb
       -0.010883021 -0.010336485 0.010726746 -0.00545595
000340 cb 78 80 3c 48 46 f9 bb 38 3f 90 bc f5 60 4e 3c
       0.015682599 -0.007607255 -0.01760827 0.012596359
000350 fa 0c 10 bc f0 fa 51 39 f1 cf 04 3c cb 95 2d 3b
       -0.008792156 0.00020025275 0.008106218 0.0026486989
000360 fd 4b fa bb 98 4d c6 b9 eb f8 96 3b 40 c5 25 3c
       -0.007638453 -0.00037823315 0.00460731 0.010117829
000370 c2 bb cb ba 71 5b 3e 3b b4 f6 1e bc 84 29 57 3a
       -0.0015543627 0.0029046203 -0.009702373 0.00082077854
000380 65 17 d9 bb e2 56 d2 3c a3 0e 0b bc c0 01 90 bc
       -0.0066251033 0.025676195 -0.008487376 -0.01757896
000390 57 5e 97 bc a8 8d 72 3a 60 cd da 39 59 8c fb 3a
       -0.018477602 0.0009252676 0.00041733216 0.0019191607
0003a0 44 34 95 bc 7e 61 13 3c e4 16 04 bc f3 5e 91 bc
       -0.018213399 0.008995412 -0.008062098 -0.01774547
0003b0 a7 d2 7f 3c eb 74 ea bc a3 14 e3 3c 8a 5f c5 3c
       0.015614188 -0.028620204 0.027719801 0.024093408
0003c0 9a 58 5a bd a8 8f aa bd 42 c7 83 3c 3d 43 ad 3a
       -0.053307153 -0.083281815 0.016086224 0.0013218891
0003d0 9a 97 28 3a dd 8a d2 bc 22 e3 8e 3a ba 00 c3 3b
       0.0006431282 -0.02570098 0.0010901431 0.0059510143
0003e0 d2 51 e8 bc a0 07 29 bc b5 32 20 bb b4 42 bc 3b
       -0.028359327 -0.010316759 -0.0024444286 0.0057452563
0003f0 79 db aa bb b0 db 50 3c ed d4 b9 bb 12 85 51 3c
       -0.0052141515 0.01274769 -0.0056711347 0.012788074

encoder_var.0.bias f4 [20]
000000 e5 58 ba b7 9b 7a 94 39 d9 07 69 39 52 c9 ac b9
       -2.2214323e-05 0.00028320108 0.00022223535 -0.00032956392
000010 70 e1 e4 36 23 a6 75 38 31 83 5e b9 08 5b ce b9
       6.821174e-06 5.856728e-05 -0.00021220442 -0.00039359205
000020 fb 84 a1 38 f2 07 db 39 44 40 3a b8 93 b9 9a 37
       7.701848e-05 0.00041776855 -4.4405708e-05 1.8444645e-05
000030 8e bf 5d 38 50 e6 97 b8 01 4a 8f 37 c8 aa 86 38
       5.2868905e-05 -7.24314e-05 1.708139e-05 6.4214284e-05
000040 47 ad af b8 04 09 c2 b8 f0 ec a9 b7 f6 8a 85 38
       -8.376926e-05 -9.25232e-05 -2.0256703e-05 6.367818e-05

encoder_var.1.weight f4 [20]
000000 7c 8c 3c 3e 1a 4d 41 3e 26 18 39 3e 8a 53 59 3e
       0.18412966 0.18877068 0.18075618 0.21223274
000010 ac 7f 30 3e 55 7a 31 3e 21 fa 3f 3e 7c 88 38 3e
       0.17236203 0.17331822 0.1874776 0.18020815
000020 57 99 38 3e ea 11 3b 3e 68 58 3e 3e fe 20 3c 3e
       0.18027245 0.18268552 0.18588412 0.1837196
000030 8a 90 46 3e 81 91 37 3e d2 a6 2f 3e 03 fa 38 3e
       0.19391075 0.17926599 0.1715348 0.18064122
000040 cd 98 4c 3e be 05 31 3e 4b 0b 42 3e 7d 26 44 3e
       0.19980164 0.17287347 0.1894962 0.19155307

encoder_var.1.bias f4 [20]
000000 9c cd 38 3a c5 06 af 3b 74 d3 b0 bb 3e 38 8c bb
       0.0007049681 0.005341383 -0.005396301 -0.0042791655
000010 cc 71 87 3b 19 5b 1c 3c b3 bc 87 bc df 39 d4 bb
       0.0041334387 0.009543204 -0.016569471 -0.0064766253
000020 2a 50 41 3c 26 79 f7 bc 96 b1 28 3b ba 8f b7 ba
       0.011798898 -0.030209135 0.0025740615 -0.0014004626
000030 8c e8 45 3c e4 c6 a0 bc 55 e7 e4 bc eb f7 11 bd
       0.012079369 -0.019626088 -0.027942339 -0.035636824
000040 2c 0c 1a bc f4 ad 67 bc 3e 7d f7 bc 8a 2c 66 bb
       -0.009402316 -0.014140595 -0.030211087 -0.0035121762

encoder_var.1.running_mean f4 [20]
000000 69 e4 ff 3c 4e 44 78 bb ab 0e 23 bd 48 13 60 bc
       0.031236844 -0.003788251 -0.03980891 -0.013676472
000010 2e 4d 2a 3d 07 8e 0c 3d 7d c9 7e bd fd 62 07 3d
       0.04157751 0.034315135 -0.062203873 0.033053387
000020 e4 cb c3 bd 34 a2 89 bd b6 bc ca bd 0a 59 17 3d
       -0.095603734 -0.06720391 -0.09899275 0.03695015
000030 4f 13 a5 bd 15 75 ca 3c 6b a4 7f bd 47 56 82 bc
       -0.080603234 0.024714032 -0.06241266 -0.01591028
000040 96 18 cd bd dd 19 33 bc c0 06 93 3c 52 29 06 bc
       -0.10014455 -0.010931459 0.017947555 -0.0081885625

encoder_var.1.running_var f4 [20]
000000 0b 53 5a 3a 02 ff 0b 3b 79 71 1f 3b 7c 1a 0f 3b
       0.00083284144 0.0021361713 0.002432911 0.0021835854
000010 23 f3 95 3a fc 0f aa 3a 31 b9 4e 3a 35 2c ca 3a
       0.0011440258 0.0012974734 0.0007885872 0.0015424552
000020 b9 61 94 3a 46 a4 68 3a c9 ef 59 3b 30 b2 bc 3a
       0.0011320628 0.00088745763 0.0033254495 0.0014396366
000030 37 b9 38 3b e8 8e e5 3a bd 7c 5c 3a 6a 0c 6f 3a
       0.0028186569 0.0017513903 0.00084109214 0.00091189763
000040 52 54 5f 3b e9 ee b7 3a 06 16 83 3a dc 48 01 3b
       0.0034077358 0.0014032993 0.001000107 0.0019727265
