dice_ml/utils/sample_trained_models/adult-pytorch.pth (torch_old, 3431 bytes, 4 tensors)

ann_model.0.weight f4 [20, 29]
000000 36 c2 70 be 81 b1 bd be f3 c3 49 bc a9 80 95 3e
       -0.23511586 -0.37049487 -0.012314784 0.29199722
000010 a1 1f 39 3e 2c 16 69 3e 33 a3 1b 3d 5a 0c a0 bd
       0.18078472 0.22762364 0.037997436 -0.07814856
000020 d1 ab a6 be ea 07 8b 3e d4 68 b2 bd d4 bd 65 be
       -0.3255296 0.27154475 -0.08711401 -0.22435695
000030 a7 8b fe 3e 2f 01 4c 3e 69 a8 84 3e 99 8e 0b bc
       0.4971592 0.19922327 0.25909737 -0.008517885
000040 69 ed 12 3e b4 b6 91 3e f8 a9 6f 3e 40 ba 7f 3e
       0.14348377 0.28459704 0.23404682 0.24973392
000050 0f aa 26 3e 2e 85 79 bd 62 91 3d 3c eb 40 15 3e
       0.1627581 -0.060918026 0.0115703065 0.14575545
000060 15 20 d4 3d 75 64 d9 3d 3e 36 34 3d 7d ec 30 3e
       0.10357682 0.10614864 0.043997042 0.17277713
000070 39 7f ac 3c d5 93 2e be 5b fa 30 be 10 54 1d bd
       0.021056758 -0.17048581 -0.17283003 -0.038410246
000080 9b ce 6a 3e 2c 2e c1 3d af 69 3f 3e 49 5a c0 3d
       0.22930376 0.09432635 0.18692659 0.093922205
000090 bc 4a df bd cb 2a 9e be d9 1d 4a 3e 00 8a fc bd
       -0.10902926 -0.30892023 0.19737948 -0.12331009
0000a0 68 26 60 be c7 16 bf 3e 79 df 4d 3e b6 37 09 3e
       -0.21889651 0.37322065 0.2010478 0.13400158
0000b0 ad 70 49 be 63 28 d0 3d 7c a6 8e 3e 63 65 29 3e
       -0.19671889 0.10163953 0.27861392 0.16542582
0000c0 c4 75 7d 3e a2 e7 58 3e 5e 17 d4 bd 29 99 6b bd
       0.24751955 0.21182111 -0.103560194 -0.05751911
0000d0 8d 30 97 3d 87 13 80 bd 45 f8 3a 3e e6 9f 81 3e
       0.07382307 -0.062537245 0.1825877 0.25317305
0000e0 91 96 48 3e 72 9d 2a 3d 37 88 3f 3e 12 bd 88 3e
       0.19588687 0.041654058 0.18704306 0.2670675
0000f0 dd 59 1b 3c 18 84 99 bd b4 21 f6 3c c5 85 88 bd
       0.009481874 -0.07495898 0.030045368 -0.066661395
000100 5e a2 aa bd 43 03 c7 3c f5 7a 0f 3e fa 66 aa bd
       -0.0833175 0.024293547 0.14011748 -0.083204225
000110 70 2d ad 3d 55 ea 0d 3e 76 f4 23 be cc 63 88 bd
       0.08455932 0.13858922 -0.16011223 -0.0665966
000120 63 ae 37 bd 19 d7 2a 3e 24 6c 08 bd 7a b4 38 bd
       -0.044844043 0.16683616 -0.033306256 -0.04509399
000130 e1 fa 6d bd d9 62 0a be e5 9a 94 bd 92 c5 cb 3c
       -0.058100585 -0.1351427 -0.07256106 0.024874482
000140 b9 21 e9 3c e8 81 34 bd 0b a4 0f 3b aa b2 10 bd
       0.028458463 -0.0440692 0.0021917846 -0.035326637
000150 ce ba 1d 3d e2 c2 b2 3b c7 60 f6 3c 8b 92 5b b2
       0.03850823 0.0054553607 0.030075444 -1.2780798e-08
000160 0d cc b8 b2 b6 af 6b 2a 3a 03 8c 97 b2 f1 84 34
       -2.151321e-08 2.0933155e-13 -9.048102e-25 2.4762772e-07
000170 25 fb 08 1f 23 6b 98 b1 58 d7 3a b2 b1 0d ef ac
       2.9006862e-20 -4.4359623e-09 -1.0875588e-08 -6.7943086e-12
000180 8b 1d 15 b3 59 f2 a5 b0 a6 95 6e ab 66 3e 86 2f
       -3.4718635e-08 -1.2074209e-09 -8.4762264e-13 2.4418795e-10
000190 d7 3e cf b1 4f 5c 97 30 02 38 80 b3 a1 13 32 2f
       -6.031637e-09 1.1012932e-09 -5.970652e-08 1.6195979e-10
0001a0 f8 5b 51 b2 32 16 80 2f 5e 5f b6 b2 ab 9a 7f 99
       -1.2186312e-08 2.3298835e-10 -2.1230957e-08 -1.3214426e-23
0001b0 5b 97 1c b2 c0 f5 96 b1 80 e8 59 b1 29 c5 4a b3
       -9.114809e-09 -4.393513e-09 -3.1709817e-09 -4.7211106e-08
0001c0 ad 1a 72 b3 e8 90 e8 b4 e0 aa 13 b3 15 b0 ff b3
       -5.6369277e-08 -4.33188e-07 -3.4381515e-08 -1.1906392e-07
0001d0 0e 2d 03 37 dd 54 01 37 20 16 9b 37 59 07 87 33
       7.818699e-06 7.708758e-06 1.8487743e-05 6.287764e-08
0001e0 6e 41 c5 b6 d0 0e a9 34 6d 4b a9 36 1f 6f 80 37
       -5.8786745e-06 3.148948e-07 5.045373e-06 1.5310534e-05
0001f0 dd 3e 10 1c 84 b8 f8 34 36 43 5f a5 29 44 92 28
       4.772685e-22 4.6327852e-07 -1.9364939e-16 1.6238816e-14
000200 32 ef 1c 33 6a 98 14 36 26 6e 29 38 c9 7a 72 b8
       3.6539127e-08 2.2142435e-06 4.0395324e-05 -5.781165e-05
000210 f6 81 a3 36 07 b0 2c 36 2b a8 5f 36 3a 6c 67 b4
       4.872908e-06 2.5732459e-06 3.3327476e-06 -2.1552924e-07
000220 62 f4 86 33 fc 85 5b 37 93 b2 54 33 40 b5 1b 34
       6.284314e-08 1.3084613e-05 4.952251e-08 1.4501438e-07
000230 16 07 17 37 dd 4d 8d 37 71 ae 55 b8 20 10 af 37
       9.001951e-06 1.6844768e-05 -5.094562e-05 2.0869134e-05
000240 3c cb 15 b8 7c 9c 90 be 80 72 b7 be e9 7a 20 3e
       -3.5713645e-05 -0.28244388 -0.35829544 0.15671887
000250 61 3a 2a 3e 8c c5 d1 3d 9b 38 2f 3e 6f b4 00 3e
       0.16623832 0.10242757 0.17111437 0.1256883
000260 b8 f3 0e 3c 62 fd 8c be c7 15 07 3e 97 a5 ca bd
       0.008725099 -0.27537066 0.13191901 -0.09894865
000270 7b 20 4c be 27 ea b4 3e 2d 8b 8c 3e bf 8c b1 3d
       -0.19934265 0.35334894 0.27449933 0.08669423
000280 80 81 be bc 99 d3 df 3d 22 49 50 3e 62 27 f0 3d
       -0.02325511 0.10929031 0.20340398 0.11726262
000290 03 1b 4e 3e 5b 7f 14 3e d8 59 27 bb 42 3b 00 3e
       0.20127492 0.14501707 -0.0025535729 0.12522605
0002a0 42 86 15 3e ea b0 39 bc 74 85 09 3e a5 b1 a5 3c
       0.14601997 -0.0113336835 0.13429815 0.02022631
0002b0 05 a0 12 3e 11 47 3a 3e 7a 9c 89 3e 3f 96 98 3e
       0.14318855 0.18191172 0.26877195 0.2980213
0002c0 df 57 f4 bb bf f0 f5 bd 29 dc db 3c 44 84 14 bd
       -0.007456764 -0.12008809 0.026838379 -0.03625895
0002d0 ee b2 89 bc 4e 7c 76 3d 68 83 68 3e fa 6b 89 bd
       -0.016808953 0.06017714 0.22706378 -0.06710048
0002e0 cb d8 14 3e be dc 5d 3e f4 94 73 be b0 5a 12 bd
       0.14535825 0.21666238 -0.2378729 -0.035731018
0002f0 a5 73 9e bd 5a 1a 9d 3e e1 9a 64 bd ee 0b 01 be
       -0.07736901 0.30684167 -0.055811767 -0.12602207
000300 ca 51 b2 bd 0c b6 cc bd ca 82 ae bd 7e f6 b3 3d
       -0.08707006 -0.0999566 -0.0852104 0.08787249
000310 0a 5e 81 3d 75 37 30 3d 09 d0 29 3e 25 89 8f bd
       0.06316765 0.043021638 0.16583265 -0.0700858
000320 6c e1 04 bd 90 35 b6 bc 2e cb a4 3b 71 37 ec be
       -0.03244154 -0.022242337 0.0050291037 -0.46136048
000330 3a 67 a3 be 86 9a b5 3c 3b 1b 03 3e 72 ba 95 3c
       -0.31914693 0.02216841 0.12803356 0.01827738
000340 f6 39 90 3d 8b 3d 0b 3e 2e 45 45 3d 1a 6c d9 bd
       0.07042305 0.13597696 0.048161678 -0.10616322
000350 18 04 30 3d 6d c8 5f bd f1 24 6a be 82 e3 c1 3e
       0.042972654 -0.0546345 -0.22865655 0.37868887
000360 62 9e 59 3d bd 13 f1 3b 12 99 c7 bb 7a ed 7e 3a
       0.05312956 0.0073570893 -0.0060912455 0.0009724718
000370 db 9c 82 3e 82 2b 8c bd cc 03 01 3d 9d 7e d1 3d
       0.25510296 -0.06844236 0.03149776 0.10229228
000380 09 12 f9 3d 95 12 5d bc 87 6d 99 bd da 06 c4 3d
       0.12161643 -0.0134932 -0.07491594 0.09571619
000390 db 11 a8 3d 51 ee 5c 3d f0 ff 27 bd 25 1c 17 3e
       0.08206531 0.053938214 -0.041015565 0.1475683
0003a0 09 61 81 be d3 87 97 be da 11 15 3e da 07 5d 3e
       -0.25269344 -0.29595813 0.14557591 0.21585026
0003b0 12 88 d3 3c 12 3d 16 3e 99 ad 16 3e bc 65 50 bd
       0.02582172 0.14671734 0.1471466 -0.05087827
0003c0 45 37 a5 be e0 11 ba 3e b3 ce e1 bd 7f fd 86 be
       -0.3226873 0.36341763 -0.11025753 -0.26365277
0003d0 57 f6 db 3e 20 e3 4b 3e a3 30 6b 3e 43 f2 92 be
       0.4296138 0.1991086 0.22967772 -0.28700456
0003e0 dc 60 f1 3d a5 ae 85 3e b8 70 1c 3e d1 46 8b 3e
       0.117860526 0.26109806 0.15277374 0.27202466
0003f0 14 99 0e 3e 4f 1a c4 bc f4 90 95 3b 20 1a f1 3d
       0.13925582 -0.023938326 0.004564399 0.11772561

ann_model.0.bias f4 [20]
000000 43 01 f5 3d eb 31 0b 3e 2d 15 32 bc ba 66 57 b1
       0.11963131 0.13593261 -0.0108693065 -3.134501e-09
000010 e0 c9 d8 36 70 fd b3 3d 46 7d 36 bb 55 78 19 3d
       6.460803e-06 0.08788574 -0.0027845665 0.037468273
000020 a7 26 05 3e 31 71 fa 3d 70 fe 1d bb 0b 43 6c 3b
       0.13003026 0.12228621 -0.0024107955 0.0036050703
000030 f7 26 2f 3e 59 64 13 3d 1a 91 ad 3d 1b 2c a1 2a
       0.17104708 0.03598437 0.084749416 2.862995e-13
000040 2b cd 9d 3a 6e df b2 3d de 59 31 bd 83 d4 a9 3d
       0.0012039294 0.08734022 -0.043298595 0.082924865

ann_model.2.weight f4 [2, 20]
000000 cc 0a ef 3e 68 b8 e2 3e 94 19 11 be ae 63 47 32
       0.46687925 0.44281316 -0.14169914 1.1605989e-08
000010 9e a3 ad 38 be bc 85 3e 41 23 b3 be 6f 1c f1 3e
       8.279759e-05 0.2612056 -0.34987834 0.47092006
000020 e8 23 ba 3e c6 24 f2 3e fe 34 df bc e3 24 90 be
       0.3635552 0.4729368 -0.027246948 -0.28153142
000030 89 df 10 3f d2 29 c9 be 37 97 1c 3f b6 16 22 30
       0.5659109 -0.3928972 0.61168236 5.896753e-10
000040 83 6f 05 bf 17 b8 10 3f 5e eb dc be e3 5d d5 3e
       -0.5212328 0.565309 -0.4314832 0.41673192
000050 4a c3 13 bf cc 60 b4 be 50 94 49 3e 87 ac 47 b2
       -0.5771986 -0.352301 0.19685483 -1.1622553e-08
000060 83 cc 9e b8 85 41 01 bf 12 43 1a 3e cb 55 f0 be
       -7.5721204e-05 -0.504906 0.15064648 -0.46940455
000070 81 90 0f bf 79 63 18 bf df 3c ed 3c b9 36 dd 3e
       -0.5607987 -0.59526783 0.02895969 0.43205813
000080 b4 0c 01 bf 60 93 c7 3e 20 b7 0a bf 24 ba 32 30
       -0.5041001 0.38979626 -0.54185677 6.5020545e-10
000090 2a 7f e6 3e 40 ca 16 bf c3 e8 db 3e f9 6f a4 be
       0.45018893 -0.5890236 0.4295102 -0.32116678

ann_model.2.bias f4 [2]
000000 74 c4 9e 39 e6 cb 9e b9
       0.00030282477 -0.00030288025
