dice_ml/utils/sample_trained_models/adult-margin-0.344-validity_reg-76.0-epoch-25-ae-gen.pth (torch_old, 35011 bytes, 78 tensors)

encoder_mean.0.weight f4 [20, 30]
000000 9a d1 dc bd a2 ac b2 bd 88 53 20 bd 3a 9c 17 3d
       -0.10782166 -0.08724333 -0.03914216 0.037014224
000010 a1 22 76 bc dc 1d a1 bc 51 99 a4 3c 7d 2d a9 3b
       -0.015022905 -0.019667558 0.020092638 0.0051628933
000020 ab 46 22 bb aa 14 c4 bc ab 9a 5b bc b0 10 21 3b
       -0.002476136 -0.023935635 -0.013403575 0.0024576597
000030 63 dc ee 3c a7 8c 56 3d 07 5e ee 3c 0c 98 e7 bc
       0.029157823 0.05238023 0.02909757 -0.028270744
000040 dc 0c e9 3a 45 a1 d0 3d 71 cb 23 bd 30 5f ca bc
       0.0017780322 0.1018701 -0.03998894 -0.024703592
000050 99 56 fb 3c 12 7b 77 3b 32 7e 60 bc d7 71 a3 3c
       0.030680941 0.0037762565 -0.013701962 0.019951744
000060 aa d5 01 3b 28 5c 6b bc 8e d4 4d bb 71 7a ab 3c
       0.0019811192 -0.0143652335 -0.003140721 0.020932408
000070 fe 47 3e bc f4 6c fe 3c 83 12 7f 3d dc 4e 12 bc
       -0.011613844 0.031057812 0.062273514 -0.008929934
000080 58 28 7c 3c e4 6a e3 bb 74 29 2c bd d3 cf 39 bd
       0.015390478 -0.0069402326 -0.04203172 -0.045364212
000090 42 ca 62 3d cb cc cd bb 5b 4b e0 3b b7 bd a2 3c
       0.05536867 -0.0062805167 0.0068449206 0.019865854
0000a0 7a ba e3 3b 3f 8f 69 3c 6e ee ab 3c 05 04 8a 3d
       0.00694972 0.014255344 0.020987716 0.06739048
0000b0 3e 13 d7 bb 74 49 c3 bc c3 d4 34 3b 7e ae 78 bd
       -0.006563573 -0.023838736 0.0027592636 -0.060713284
0000c0 9d f1 d8 bb e3 cf b2 3b d5 77 20 bb e4 69 7e bc
       -0.0066205994 0.005456911 -0.0024485488 -0.015528176
0000d0 e0 4e 8e 3a 8b f4 94 bc 7f 2b e5 bc ca 25 29 bb
       0.0010857247 -0.018183013 -0.027974842 -0.0025809878
0000e0 3a aa bf bb a7 eb 4f bd 9f ca 90 3d 13 a2 7a be
       -0.00584915 -0.050761845 0.07069897 -0.24475889
0000f0 c8 61 35 bf 29 24 e8 bc 58 64 4f 3d 4e eb 94 3d
       -0.7085233 -0.028337555 0.050632805 0.07271443
000100 3c 71 1d 3d 1f 42 2d 3d aa 98 2e bc 40 d4 7d bb
       0.038438067 0.042299386 -0.010656515 -0.0038731247
000110 2c 24 87 3c 3a d6 ea bb 14 b8 32 ba 76 39 20 bc
       0.01649674 -0.007166651 -0.0006817591 -0.009779325
000120 18 cf 0f bc b7 4a 9d bb 4e bd d3 3d f6 a6 d3 3d
       -0.008777402 -0.0048001665 0.103388414 0.1033458
000130 f4 60 ba 3d ba 87 de 3d 40 0b ac 3d 24 3f bc 3c
       0.091005236 0.108657315 0.08400583 0.022979327
000140 cc 1b 03 3b ec 2d 56 3c dd ca 62 3c 89 fb 20 bb
       0.0020005582 0.013072472 0.013842312 -0.002456399
000150 05 3b d2 3c 56 18 4f bb 8a b2 2f bb c3 98 8e 3b
       0.025662908 -0.0031600199 -0.0026809298 0.0043517067
000160 84 15 06 bc 12 ab ce bd ad 00 63 bf 88 9d 91 bc
       -0.008183841 -0.10091223 -0.88672906 -0.017775312
000170 14 af ee 3c 80 af 15 3c 0d 5b cc 3c 7d a7 b6 3c
       0.029136218 0.009136081 0.02494576 0.022296662
000180 16 50 a6 3b 21 48 1f 3b eb db 10 bb eb 76 b5 3b
       0.005075465 0.0024304467 -0.0022103738 0.005537858
000190 0c 73 90 3c ab 3f 2a 3c 8c 8f 53 3c a3 b1 da 3b
       0.017632984 0.010391156 0.012912642 0.006674008
0001a0 a8 53 be bd 88 2a c2 bd 83 ab bf bd 91 30 bd bd
       -0.092933 -0.094807684 -0.09358885 -0.09237779
0001b0 45 d3 a8 bd ea 49 48 3d 32 5f 60 3d 5a 77 4b 3d
       -0.082434215 0.048898615 0.054778285 0.04967437
0001c0 15 7f 54 3d 03 61 64 3d d6 d4 43 3d af 85 5a 3c
       0.051879007 0.05575658 0.047810398 0.013337537
0001d0 ac d4 3f 3c 98 f1 be 3d a7 d3 bc 3d 46 56 e6 bd
       0.01170842 0.09323424 0.09220057 -0.11246924
0001e0 03 29 ab 3e 29 a5 ac bd a5 99 9d 3d c5 28 cc 3d
       0.33429727 -0.08429939 0.07695321 0.09968714
0001f0 af 0b 88 3d e2 4e 8e bd 9c 6b f9 3a b1 45 d8 bc
       0.066428535 -0.069486395 0.0019029262 -0.026400419
000200 13 e0 f8 3b 9d 81 5e 3d 40 f2 2b bc 57 a2 34 ba
       0.007595071 0.054322828 -0.010494769 -0.00068906456
000210 02 37 22 3c fe 94 2e 3d ed 60 15 3d 06 78 4a 3c
       0.00990081 0.04262256 0.03646939 0.012357717
000220 7a 90 ae 3c e7 c7 83 3c dc 01 66 3d d6 b6 d4 3c
       0.021309126 0.016086532 0.056154117 0.02596609
000230 88 ea c7 39 58 95 92 bd 32 89 2e 3c ca ab 2a 3d
       0.00038130977 -0.07157391 0.010652827 0.041667737
000240 90 c5 6f bb 29 c5 bf 3c 29 67 84 3c ea b0 cb bc
       -0.0036586262 0.023409443 0.016162472 -0.024864633
000250 e4 c0 0e bd 4a 3d cd bc c7 8c 5f 3f 05 48 54 bd
       -0.034851924 -0.025053639 0.87324184 -0.051826496
000260 4a 7a 71 3d 89 7d 6d 3d a0 6a 76 3d d9 dc 4a 3d
       0.058954515 0.057981048 0.06016028 0.049527023
000270 a8 d3 7f bb 62 fe 02 bc 1c 9b 20 3c b2 cf 2a bc
       -0.003903607 -0.00799522 0.009802606 -0.010425495
000280 b9 49 81 bc fa e9 26 bc 03 ba 45 bb eb d8 69 bc
       -0.015782224 -0.01018762 -0.0030170686 -0.014272909
000290 e7 36 bd 3c f6 1a 9a 3c 90 9d 05 3d dd e3 a4 3c
       0.023097469 0.018811684 0.032620966 0.020128185
0002a0 21 6e 97 3c ff 93 a7 3c 85 bb 87 3c ef 9e 4b 3b
       0.01848513 0.020456312 0.016568908 0.0031070074
0002b0 35 cd 9f 3c f0 d6 96 3c 18 04 8a 3c b1 a4 b5 3c
       0.01950703 0.018413037 0.016847655 0.022173258
0002c0 42 ae e8 3c 91 d9 0b 3d 93 20 13 3d e8 a0 b1 3d
       0.028403405 0.034143034 0.035919737 0.086732686
0002d0 b9 1a 59 bf dc fa 17 3c 84 0c 75 3d 53 e0 fa bc
       -0.848064 0.009276118 0.05982639 -0.030624544
0002e0 3f 15 8c 3d df 28 3a 3d a1 62 21 3d c7 ea ea 3c
       0.0683999 0.045449134 0.0394007 0.028676404
0002f0 03 37 8b 3c 16 4b 08 3d 29 1c 09 3c e4 de 5f 3c
       0.016994005 0.033274733 0.00836853 0.013663981
000300 60 ea f0 3c f9 7d dc 3c 04 b1 4b 3d 11 67 31 3d
       0.029408634 0.026915537 0.049729362 0.043311182
000310 cf f5 4f 3d 00 e6 2f 3d 22 6f 5f 3d ee ca 4d bd
       0.05077153 0.042943954 0.054549344 -0.050242357
000320 94 64 4e 3d 22 1a 22 bd 56 c3 6a bd 63 66 72 bd
       0.050388888 -0.039575703 -0.057315193 -0.059179675
000330 d1 23 62 bd 53 24 75 3d 84 6e 77 3d 74 d4 44 3d
       -0.05520994 0.059849095 0.06040813 0.048054174
000340 18 90 28 3d 48 fb ea bd b0 c6 59 bf a9 13 26 bd
       0.041153044 -0.11473709 -0.850688 -0.040546093
000350 7d fc 2f 3c 18 c2 42 3d 5e 87 5e 3c d8 4a 61 3c
       0.01074135 0.047548383 0.013582079 0.013750754
000360 b2 5b 7b 3d a9 5f 7f 3d 01 12 28 3d 82 42 74 3d
       0.061366744 0.062347088 0.041032795 0.05963374
000370 e8 22 41 3d bf 7b bb 3c 43 17 87 3d b0 90 76 3d
       0.04715243 0.022886155 0.06596234 0.06019658
000380 26 4d 46 3c 3b 49 84 ba 10 e3 6c 3b 42 bb 70 ba
       0.012103355 -0.0010092625 0.0036146082 -0.0009183177
000390 46 3d df 3b f3 7f a3 3b c9 84 19 bc b5 f2 a9 3a
       0.0068127243 0.004989618 -0.009370037 0.0012966009
0003a0 6e f5 3c 3b 9c f8 b1 3b 30 06 e1 3b 3e 10 8f 3c
       0.002883281 0.005431248 0.0068671927 0.0174638
0003b0 ac 38 ac 3c 44 41 ab bd 91 d1 ae bd 78 fd 01 be
       0.021023117 -0.08362058 -0.08536065 -0.12694347
0003c0 87 13 4d be 56 8b 86 be 19 ca cf 3c 4e 8d 96 3c
       -0.2002698 -0.2627818 0.025364922 0.018377926
0003d0 ac 4c 56 ba 58 ec de 3b 79 6d 19 bd 5e 15 48 bd
       -0.0008174877 0.0068030767 -0.037457917 -0.048848502
0003e0 9d cb db bb a7 60 26 3d 2d 56 35 3c 6d c4 b7 bb
       -0.006707622 0.04061952 0.011067909 -0.0056081326
0003f0 c0 4a 86 3d 51 ad 04 3d 0e 0b 09 bc fe ef d7 3c
       0.06557226 0.03239185 -0.008364452 0.026359554

encoder_mean.0.bias f4 [20]
000000 90 92 0c 34 3c c8 e9 b4 b4 f7 3c b6 b8 0e 34 b6
       1.3091835e-07 -4.3545322e-07 -2.8158365e-06 -2.6830658e-06
000010 f4 14 89 b5 70 76 8a b4 d4 e8 fa b6 0d c1 29 37
       -1.0213394e-06 -2.5790678e-07 -7.4776854e-06 1.0118133e-05
000020 3d 97 10 35 da 2d 04 35 bb 8f 17 b7 7c cf 10 38
       5.386426e-07 4.9240555e-07 -9.033766e-06 3.452551e-05
000030 18 88 8e 32 fb 26 e2 37 6d 45 4e b5 94 76 f6 34
       1.6592864e-08 2.6959451e-05 -7.684201e-07 4.5907348e-07
000040 db 18 88 b3 f5 40 05 b4 92 62 43 b6 bc 07 dd 35
       -6.337515e-08 -1.2410221e-07 -2.911464e-06 1.6468034e-06

encoder_mean.1.weight f4 [20]
000000 b0 b0 fd 3d f8 b8 19 3e 5a 97 23 3f 21 d1 63 3f
       0.12387216 0.15011966 0.6390282 0.8899098
000010 4a 4a 6b 3e 0b 23 53 3f 94 58 1e 3f 1b 13 38 3f
       0.22977558 0.82475346 0.6185391 0.7190415
000020 30 bc 2f 3e 9d f1 9a 3e b8 8d 36 3f 3d 98 31 3f
       0.17161632 0.3026246 0.71309996 0.6937292
000030 dd 01 7b 3e bc ee 50 3f 2e c1 51 3e 7c de be 3e
       0.2451243 0.8161428 0.20483848 0.37279117
000040 48 0d dd 3d b5 33 db 3d fe 18 68 3e 65 00 25 3f
       0.10793549 0.10703222 0.22665784 0.64453727

encoder_mean.1.bias f4 [20]
000000 0a 0a f7 bc a9 35 ca bd df 06 26 be cb 5e 31 be
       -0.030156154 -0.09873516 -0.16213559 -0.17321317
000010 0b 59 b6 bd dd 0d 03 3e 1b 64 42 be 1d ca 49 be
       -0.08903702 0.12798257 -0.189835 -0.19706006
000020 66 13 2d be 53 b9 43 be 3a 15 f5 3d 62 41 91 3d
       -0.16901931 -0.19113664 0.11966939 0.07092549
000030 50 e2 c5 bd f3 91 9e 3d 10 a6 8b bd 76 0e 18 be
       -0.09662306 0.07742681 -0.06818783 -0.14849266
000040 e4 7d 28 be 3d df b6 bd d2 a8 04 be c0 89 f8 bd
       -0.16454273 -0.08929298 -0.12955025 -0.12135649

encoder_mean.1.running_mean f4 [20]
000000 26 35 bb 3b 04 e3 79 be 1d ce fb bd 35 3d 7f be
       0.005713123 -0.24403006 -0.12295172 -0.24925692
000010 ae f5 0d 3e 21 df e2 3e 4a 19 05 be 78 56 a6 be
       0.1386325 0.4431086 -0.12997928 -0.32487845
000020 d3 bb c9 bd 67 fa 88 3c 1b 48 b4 3e d9 dc a2 3e
       -0.09850278 0.016720964 0.35211262 0.31809118
000030 56 9a a0 bd 30 f6 f5 3e cd ac 39 bd de b6 6c bd
       -0.07841937 0.4803939 -0.04533081 -0.057791583
000040 96 3a 9d be 6e 48 62 3c 18 ff 96 bd 18 ad a8 3e
       -0.3070876 0.013811214 -0.07372874 0.3294456

encoder_mean.1.running_var f4 [20]
000000 e6 f9 2e 3c cd f8 89 3c 96 36 96 3c 8a 2d d9 3c
       0.010679698 0.01684227 0.018336575 0.026510973
000010 28 81 0e 3c c1 2b d3 3c 3b af c2 3c 3d 05 c6 3c
       0.008697785 0.0257777 0.023765197 0.02417242
000020 aa 7e c6 3b 21 80 10 3c 50 95 03 3d 52 57 3d 3c
       0.00605758 0.008819611 0.032124817 0.011556463
000030 a3 e0 20 3c 4b 34 56 3c 31 10 35 3c 4f 2d 45 3c
       0.009819183 0.013073991 0.011051224 0.012034728
000040 da a4 09 3d b1 cd 1a 3c eb e7 27 3c 39 d7 4c 3c
       0.03360448 0.009448455 0.010248165 0.012502485

encoder_mean.4.weight f4 [16, 20]
000000 b8 11 6a 3d e7 a4 77 3d 76 d5 77 3e ec d3 e2 3d
       0.057145804 0.060459998 0.24202523 0.11075577
000010 7c 49 1b bd a5 56 f0 bd ad 0f 27 3e fa 91 08 3e
       -0.037911877 -0.11735276 0.16314574 0.13336936
000020 a5 ee 44 3b 09 15 1b 3c ba 71 33 bd 22 bd 05 be
       0.003004947 0.009465464 -0.04380963 -0.1306043
000030 eb 98 39 3c 40 db 2e be d2 ea 59 3b 79 96 0a 3e
       0.011327962 -0.17075825 0.0033251536 0.13533963
000040 c5 ce 4c 3c 99 e0 52 3c 7d 5e 69 3d 5b 6b ac bd
       0.01250047 0.012870931 0.056974877 -0.08418914
000050 56 c3 9a bd dc 1b 87 bd c4 b3 c9 bd 1b 95 14 be
       -0.075567886 -0.06597111 -0.09848741 -0.14510004
000060 6d 7d 74 3d 19 37 3b 3d e8 04 f3 bd 32 7e db bd
       0.059689928 0.045706842 -0.1186617 -0.10717429
000070 86 38 b3 3c aa 31 d2 3d 6c ee 0a 3e 72 6a 23 3e
       0.021877538 0.10263379 0.13567513 0.15958574
000080 96 1a 30 3c 29 c6 2a 3e 1b 57 23 3c dc f8 c2 bd
       0.010748526 0.16677155 0.009969498 -0.095201224
000090 4e 5e b9 3c 14 f2 61 bd 25 3e e5 bd fb 6d 6b 3e
       0.022627976 -0.055162504 -0.11193494 0.22991173
0000a0 b3 27 13 bc 2f de 6c bc 8f 0f 0e be 58 1b ef bd
       -0.008981633 -0.01445727 -0.13873123 -0.11675137
0000b0 7a 86 23 3d 59 5e 9e be 12 ad 0b be 06 43 2d be
       0.03992317 -0.30931357 -0.1364024 -0.16920099
0000c0 07 fb 53 3b 8a 52 01 3e 2f 9c 8c bd be ba 44 3d
       0.003234567 0.12629142 -0.06865727 0.048029654
0000d0 2d 4a 8b 3d 38 53 a3 3a 24 63 43 3d 21 2b a6 bd
       0.06801257 0.0012460714 0.04770197 -0.08113695
0000e0 df 20 2f bc 01 f7 07 bd 34 74 02 bd 6f c0 e8 3d
       -0.010688989 -0.033194546 -0.0318491 0.11364829
0000f0 64 9e 03 3d 3a 1f 48 3d a0 55 aa bd 8f 1c 0e 3f
       0.032133475 0.048857905 -0.08317113 0.55512327
000100 6e 43 a6 3c c0 cf 4b 3e 71 da bd bd 57 08 03 be
       0.020295825 0.19903469 -0.0927018 -0.1279615
000110 3f e7 91 3d 12 ef 1e 3c 13 82 89 bc 28 d2 1b bd
       0.07124185 0.0097005535 -0.016785657 -0.038042217
000120 30 48 1f ba 70 56 c5 bc ae b2 07 3d 2e 21 51 bc
       -0.00060761254 -0.024089068 0.033129387 -0.012764258
000130 44 10 91 3b 5a 77 01 3d 8d 9f 3c 3d 38 aa b4 bc
       0.004426988 0.031607963 0.046050597 -0.022053823
000140 74 8b ef 3b 2b 67 7c 3c 08 66 00 bd 37 f2 87 bc
       0.0073103253 0.015405457 -0.031347305 -0.01659499
000150 a9 95 0c bc ab 44 d9 bd cb 3a 1c bc 3e 3b 3d bc
       -0.008580604 -0.106088005 -0.009535502 -0.011549769
000160 ee ec 99 bc 34 b5 dc bb c2 76 1f 3f ce ea f1 bd
       -0.018789735 -0.0067354683 0.62290585 -0.118123636
000170 b4 e8 39 3b 13 bc 11 be 30 1d b8 bc 78 24 44 bc
       0.0028367462 -0.14231901 -0.022474855 -0.011971585
000180 80 86 43 bc 9c ec 87 3c 8b f6 76 bb 03 67 db bd
       -0.011933923 0.016592316 -0.0037683572 -0.10713007
000190 06 0b 67 bc 18 f8 3f bc 31 b0 1b be fe cb cc bd
       -0.014101749 -0.011716865 -0.1520393 -0.09999846
0001a0 47 89 2c 3d 05 18 9b 3e cb fc 10 be fe 8e fd bd
       0.042123105 0.30291763 -0.14158933 -0.12380789
0001b0 af 97 5a bd 28 95 15 3e a6 aa 91 3d 76 87 e7 3d
       -0.053367313 0.1460768 0.07112627 0.11305134
0001c0 25 3b 95 3d 53 10 13 3e 05 ce b7 3d 66 38 d9 bd
       0.072866715 0.14361696 0.08974842 -0.1060646
0001d0 cb d4 61 3c 30 9c 06 bd 53 1c 71 bd 2a 67 46 3e
       0.013783644 -0.032863796 -0.058864903 0.19375291
0001e0 a5 0d 4f bc 72 5e ee bc 02 d9 61 3d 6e eb a5 3d
       -0.01263753 -0.02909777 0.055138595 0.08101545
0001f0 59 8e 93 3b 0e b8 57 be 5e 22 8a 3e ab 20 06 3e
       0.004503053 -0.21066305 0.26979345 0.130984
000200 70 41 11 3d 81 b0 0c bd a8 87 14 be a8 86 fe bd
       0.035462797 -0.034348015 -0.14504874 -0.124280274
000210 b3 4b f7 bb 32 99 2c be 5c f5 40 bc eb f3 de 3b
       -0.007546866 -0.16855314 -0.011777248 0.0068039796
000220 1d 54 88 3d 33 39 a0 3b e4 a6 d7 3c 27 91 b8 bd
       0.06656668 0.004889631 0.026324697 -0.090120606
000230 c1 a4 51 3c ed d7 22 3c 6a ec 06 3e 28 9c 92 3e
       0.012795628 0.009939176 0.13176122 0.28634763
000240 4c 6f 09 bd 59 74 00 be 0a 23 0e 3e 46 3e 82 3e
       -0.033553407 -0.12544383 0.13880554 0.25438136
000250 35 d2 95 3b 0c 83 e8 bc e8 3a b3 bd d3 9d 45 be
       0.004572178 -0.0283828 -0.0875147 -0.19298486
000260 ce 40 a3 bc 39 14 2c be 9b 99 56 3b 9b 14 bb 3c
       -0.019928362 -0.1680459 0.0032745365 0.022836974
000270 3e 5a 44 bd 47 7a e9 3c 4c 73 25 3d aa b7 6a bd
       -0.047937624 0.02850069 0.04039316 -0.057304062
000280 30 15 66 3d d1 63 e6 3c e8 4a 81 3d fa 65 40 3e
       0.05617255 0.028123768 0.06313115 0.18788901
000290 b7 c6 3e 3b 20 aa 70 be 88 0f 2c 3e 1c fe 64 3e
       0.0029110142 -0.23502398 0.168028 0.2236256
0002a0 04 b4 24 3d 39 ca 8e bd a0 7a 94 bd ed 94 6f bd
       0.04021074 -0.06972165 -0.07249951 -0.058491636
0002b0 24 15 6b 3c dd 35 51 be e7 44 ef 3c a3 a5 5d 3d
       0.014348302 -0.20430703 0.02920766 0.05411304
0002c0 32 87 cf bc 59 6a 31 3d 4f 9d 77 3b aa 4d 79 bd
       -0.02533302 0.04331431 0.0037782972 -0.06086508
0002d0 30 77 18 3d 91 b8 5a 3a 7e 01 8b 3e 18 d9 55 be
       0.03722304 0.00083435426 0.27149576 -0.20883596
0002e0 03 5e 50 bd 02 97 c7 3e 46 95 9d 3e 43 cc 40 bb
       -0.050870907 0.38982397 0.3077795 -0.0029418624
0002f0 d3 40 dc 3d 38 e5 b4 bd 0c db a9 bd 8c a7 b2 bd
       0.10754552 -0.088327825 -0.08293733 -0.08723363
000300 9d 74 41 bd ff 44 da bd f8 c9 67 bd 92 4d 20 3d
       -0.04723035 -0.10657691 -0.056589097 0.039136477
000310 d7 81 c2 3c ff 1c 35 ba bf fc 96 3d af ee 03 be
       0.023743553 -0.0006908923 0.07372426 -0.1288402
000320 fe 5b 1b bd 44 29 32 3d 11 74 18 be d1 e1 61 bd
       -0.037929527 0.043496385 -0.14888026 -0.055146996
000330 79 b5 eb 3b 46 9a e9 3d e7 d7 93 bc b0 1c 31 bd
       0.007193264 0.114063784 -0.018047286 -0.04324025
000340 c6 fe 12 bc a1 ef 44 3e 55 ce 60 bd 01 26 01 3e
       -0.0089718755 0.19232036 -0.054884274 0.12612154
000350 5b ac 27 3e 3b 13 20 3e 06 23 13 3d 9b 9c 53 3c
       0.16374342 0.15632336 0.035922073 0.012915756
000360 a0 4d 89 bd bf b4 94 bc f3 c0 06 3c ae 37 f1 3d
       -0.06704259 -0.018152593 0.008224714 0.11778198
000370 8f ac 03 bd e9 62 33 3d 59 63 0b bd 25 9c 29 bd
       -0.032146987 0.0437955 -0.034030292 -0.041408677
000380 9c 39 a9 3d 4c de ae 3c be 30 8c bd 08 0c 92 bc
       0.08262941 0.021346234 -0.06845234 -0.017828003
000390 9d da a2 3c 0d 3b 0e 3e 1a 4f 7c 3d aa 1d 4a 3e
       0.019879634 0.13889714 0.061598875 0.19737878
0003a0 47 1d 3d 3d 07 99 fb 3d 66 ca 8f 3d 19 d9 ab bc
       0.0461705 0.12285047 0.07021026 -0.020977544
0003b0 92 f4 bc 3c 08 0f d1 3c b4 0d 0e bd 20 ee 1c 3e
       0.023065839 0.025519863 -0.034681037 0.15325212
0003c0 62 c2 38 3d 3e 4b 12 bd 79 0b 2d bd ca 88 83 bd
       0.045107253 -0.035716288 -0.04224727 -0.06422575
0003d0 6a 51 35 bd 38 40 98 3c 26 6a 40 bd f7 83 fb 3e
       -0.044267096 0.01858531 -0.04697623 0.4912412
0003e0 38 27 be 3d 19 c6 34 bd 20 76 85 3d 5e 25 43 bd
       0.09284824 -0.044134233 0.06516671 -0.047643058
0003f0 31 09 fc bb 34 61 8a bc b9 da 10 bd de de 5d 3d
       -0.0076915254 -0.016892053 -0.03536484 0.05416762

encoder_mean.4.bias f4 [16]
000000 c4 26 35 b6 97 a4 00 b5 5c 94 e3 36 40 70 ce b4
       -2.6993666e-06 -4.7923226e-07 6.7823985e-06 -3.8452163e-07
000010 aa 25 03 35 b2 d4 a6 b6 ba fd c2 35 74 4e f7 35
       4.885611e-07 -4.9719465e-06 1.452797e-06 1.8425767e-06
000020 35 82 8a b5 60 b8 8f 35 89 51 ee 34 48 e1 dd 34
       -1.0319696e-06 1.070799e-06 4.439028e-07 4.1328371e-07
000030 db a6 bd b6 1e 47 c4 b5 46 59 6b b4 d9 f5 2f 35
       -5.6520635e-06 -1.4623836e-06 -2.1918558e-07 6.5550336e-07

encoder_mean.5.weight f4 [16]
000000 45 ea e8 3e fd a2 13 3f d4 e0 d9 3e af 2e 08 3f
       0.45491233 0.57670575 0.42554343 0.53196234
000010 b0 f4 f5 3e 18 cc 2e 3f fe ac 04 3f bf 50 35 3f
       0.48038244 0.6828017 0.51826465 0.70826334
000020 da f3 10 3f 91 03 ea 3e 11 56 d5 3e 1c 19 dd 3e
       0.5662209 0.45705846 0.41667226 0.4318322
000030 9c 35 fa 3e f2 16 00 3f e7 8a 13 3f dc 6e 1b 3f
       0.48869026 0.5003501 0.57633823 0.60716033

encoder_mean.5.bias f4 [16]
000000 8b f5 02 bd 78 87 1e 3e 63 31 56 be 06 5e 4d be
       -0.03197245 0.15481365 -0.20917277 -0.20055398
000010 b3 a4 4c be ff c3 83 3e 0d 63 d9 bd 66 71 63 bd
       -0.19984703 0.2573547 -0.106145956 -0.055528067
000020 6a 84 bf bd e4 3c 60 bc 57 48 87 be 71 fe c4 bd
       -0.09351428 -0.013686392 -0.26422378 -0.09618843
000030 81 57 e1 be bf 18 37 3e 30 53 b9 3c 13 25 cd bd
       -0.44012073 0.17880534 0.022622675 -0.10016837

encoder_mean.5.running_mean f4 [16]
000000 dd 50 52 bd c2 bb 06 3e 18 05 4a be 09 6c 22 3e
       -0.05134665 0.13157561 -0.19728506 0.15861525
000010 fc 78 f7 3c 19 86 42 3e bc c8 2e be 9b cc 5b bd
       0.030209057 0.18996467 -0.17068762 -0.053661924
000020 df 60 d3 bd 84 f3 9c 3d 62 d0 09 3e fb 66 3c 3e
       -0.10321211 0.076636344 0.13458398 0.18398659
000030 fb a3 99 3d 32 d0 3c 3e c2 c7 ce 3d 51 b7 ba bd
       0.0750198 0.18438795 0.100966945 -0.09116996

encoder_mean.5.running_var f4 [16]
000000 a7 35 3c 3e c3 8a 79 3e e3 e8 cb 3c b2 e9 bc 3c
       0.18379842 0.2436934 0.024891322 0.023060653
000010 f0 6d d1 3c e0 4c ac 3e 8b 80 81 3e fc 1c 89 3e
       0.025565118 0.336524 0.25293383 0.26779926
000020 8c 1d 7c 3e 61 a5 8c 3c c7 82 f4 3d 0f f7 04 3e
       0.24620646 0.017168703 0.11939006 0.1298487
000030 43 0a 57 3c 76 e4 43 3e e9 62 43 3e 5a 9e 87 3e
       0.013125005 0.1913012 0.190807 0.26488

encoder_mean.8.weight f4 [14, 16]
000000 76 87 e0 3c a3 11 df bd 21 5b 9f 3e ed 07 fb 3c
       0.027408343 -0.10892036 0.31124213 0.030643428
000010 9c 1c 71 bd 5c a0 0b 3f f8 48 39 3b a4 ca 8c 3c
       -0.058865175 0.54541564 0.0028272253 0.01718647
000020 02 46 3f 3b 1e 91 00 bd f6 7b dd bd 9e 5a ff bd
       0.0029186015 -0.031388395 -0.10814659 -0.12468456
000030 64 24 da 3d 51 be 0f be aa 7f 2b be 61 fe 83 3c
       0.10651472 -0.14037444 -0.16747919 0.016112508
000040 1a df 7f bb f9 e0 51 be 0d 1d bb 3d fb 48 25 be
       -0.003904289 -0.20495977 0.091364 -0.16141121
000050 e2 fb 13 be fb 66 16 be 41 c6 47 3d 14 58 db bc
       -0.14451554 -0.14687721 0.048773054 -0.026775397
000060 92 83 0e bd ae 7d c0 bd 4e bd 7a 3d 83 42 95 3c
       -0.034793444 -0.093989715 0.06121569 0.018220192
000070 52 b5 67 be c0 da 4a be 1d f8 03 be 2b 90 dc bc
       -0.22627762 -0.19810009 -0.12887616 -0.026924213
000080 ca d0 46 be 2d 29 08 3e ef 6a 96 3c 21 b2 0d bd
       -0.19415584 0.13296957 0.018361537 -0.034593705
000090 a1 c0 a6 3d 25 f9 a1 3d 75 ee fd bd d0 76 70 be
       0.0814221 0.07908849 -0.12398998 -0.23482823
0000a0 97 bb 70 bd 85 32 60 3d c3 f2 fe 3d e3 85 0b 3e
       -0.05877265 0.05473568 0.12448647 0.13625292
0000b0 51 7c ea bc 23 6b 03 3d cc 80 cc 3d 45 2d 42 be
       -0.028623732 0.032084595 0.099855036 -0.18962581
0000c0 2a e0 06 be a5 3c b4 3d 7a 15 a4 bd 0e cf 9e 3d
       -0.1317145 0.088006295 -0.08011909 0.07754336
0000d0 c6 2f 42 3e 4b f2 f3 bc 81 8c 2f be f4 ab 08 be
       0.18963537 -0.02977862 -0.17143442 -0.13346845
0000e0 51 f8 10 be 2b 0d d3 3d 2c d3 0b 3e 46 8d 76 3d
       -0.14157225 0.10305246 0.13654774 0.060193323
0000f0 a4 29 f4 3c 11 23 a3 3d d0 89 b8 3d 0d c0 d9 bd
       0.029805012 0.07965673 0.09010661 -0.10632334
000100 1c f7 1f be 5d b3 92 3d 66 31 44 bd 02 cf bd 3d
       -0.15621608 0.07163117 -0.047898673 0.09267999
000110 17 6e 27 3e d6 85 a1 bc 26 b2 1f be 36 73 08 be
       0.1635059 -0.019717138 -0.15595302 -0.133252
000120 b1 e6 3d be c1 78 fb 3d 55 35 a0 3c 8d 5b e9 3d
       -0.18545033 0.12278891 0.01955668 0.11394415
000130 f6 bc 63 3c 6f 11 bd 3d 19 47 b9 3d 26 73 38 be
       0.013900032 0.09231841 0.09046764 -0.18012676
000140 c9 eb 10 be d5 ad cc bd fa 59 98 3d af f6 02 be
       -0.14152445 -0.09994093 0.07439037 -0.12789415
000150 5c 12 1a be 94 70 96 bc 33 b3 fe bd cc 0f cb bd
       -0.15046066 -0.018364228 -0.12436523 -0.099151224
000160 4a b7 08 be dc 38 5e be 55 21 a5 bd 3b c6 1c be
       -0.13351169 -0.21701378 -0.08062998 -0.15309994
000170 1a 7f 82 bd fb cc f1 bd a0 b4 00 be 18 a7 06 be
       -0.06371899 -0.11806675 -0.12568903 -0.13149679
000180 3a e1 bc 3d 09 4c 51 be ad 35 d2 bc ab 2a 2b 3e
       0.09222646 -0.20439161 -0.02566036 0.16715495
000190 58 29 dc bd 05 08 ae bd d0 a9 a9 3d a3 31 38 3e
       -0.10750073 -0.08497623 0.08284342 0.17987685
0001a0 b6 31 39 3e b6 b5 84 3d 7c 58 30 bd 70 ec 43 bd
       0.1808537 0.06479971 -0.043053135 -0.047832906
0001b0 68 0e 40 3e a6 c4 19 be 4a 49 27 be 8a a6 23 3e
       0.18755496 -0.15016422 -0.16336551 0.15981498
0001c0 60 4a 95 3d 4a f4 1d be 54 3e db bd be c1 21 3e
       0.072895765 -0.1542522 -0.107052475 0.15796563
0001d0 ab 29 37 bd 54 e0 1e be 5c 93 ba 3d 23 33 01 3d
       -0.044717472 -0.15515262 0.09110138 0.03154291
0001e0 e3 af ac 3d 13 3a 04 3e 2f a3 7a bd 49 5d 4f bd
       0.08431985 0.12912779 -0.06119078 -0.050626073
0001f0 4d 97 89 3e 1b 61 1c be 42 d4 2c bd 2e a2 5e 3d
       0.26873246 -0.15271418 -0.042194612 0.054353885
000200 9a d5 1d be b5 1d 91 3d 65 05 31 bb 5c c1 10 3d
       -0.15413514 0.07085744 -0.0027011272 0.035340652
000210 67 af dc 3d 25 62 52 3d c6 b4 5f be 29 6c 4f be
       0.10775643 0.05136313 -0.21846303 -0.20256104
000220 89 cb 2f be c0 dd b9 3d 9d df 9b 3c a5 8b a3 bd
       -0.17167486 0.090754986 0.019027526 -0.079856195
000230 dc 2a 07 3d 7c e8 9e 3d 9d 1d 30 3e e2 d6 3d be
       0.03299986 0.077591866 0.17198797 -0.18539003
000240 7b 93 c7 3d de 59 f3 bd 9c 9f e7 bd eb d8 14 3e
       0.097449265 -0.11882375 -0.1130974 0.14535873
000250 1d ae 48 bc 0d 8c 24 be a7 28 a4 3d b1 5a 43 3d
       -0.012248543 -0.1606905 0.08015566 0.047693912
000260 2b 1e 79 3d 92 77 05 3e 3c a7 88 bd 54 47 e9 bd
       0.060819786 0.13033894 -0.066725224 -0.11390558
000270 a8 b2 51 3e 57 db 2c be 6a 31 85 bd 28 30 5d 3d
       0.20478308 -0.16880547 -0.065035656 0.054001004
000280 82 82 2c 3d 88 04 da 3c af 72 0f 3e 19 ce 92 3e
       0.04211665 0.026613489 0.14008592 0.28672865
000290 37 21 df 3d d2 42 33 3c 25 7d 08 3e 74 32 c6 3c
       0.10895007 0.010941224 0.13328989 0.02419398
0002a0 de 5b 88 3c 11 a0 de 3d a1 22 27 3e ff a8 88 3d
       0.016645368 0.10870374 0.16321804 0.066728584
0002b0 7a 3d 08 3e 7a b4 0e 3e cd 53 3b bd 84 6b c9 bc
       0.13304701 0.13936034 -0.045734216 -0.0245874
0002c0 5e cd df bb f2 03 c2 3d d0 e4 04 3d c9 94 99 3e
       -0.0068299016 0.09473409 0.032444775 0.29996327
0002d0 63 9f 48 3e ef e8 94 3c 9b 39 f6 3c 5d a3 20 3c
       0.19592051 0.018177478 0.030056765 0.009804574
0002e0 f3 cd 34 3c a9 03 01 3e 28 6c 10 3e b9 ac 3a 3e
       0.01103543 0.12599052 0.14103758 0.18229951
0002f0 19 4d 99 3d a6 a8 69 3d de b9 c4 3d 22 b3 7e 3d
       0.07485408 0.0570456 0.09605764 0.062182553
000300 f2 dd ef bd 0a a3 4a 3d 82 eb c5 3d a7 06 e8 3d
       -0.117122546 0.049471892 0.0966406 0.11329394
000310 7c 96 ce 3d 3b 48 17 be 16 4f 2b bd d4 9a 07 be
       0.10087296 -0.14773647 -0.04182347 -0.13242656
000320 43 a5 b4 bd c2 f8 7d 3e e3 c7 86 3d eb 29 a4 3d
       -0.08820584 0.24801925 0.06581094 0.08015808
000330 7a 8c a5 3d 69 16 5a 3b da 62 87 3e 93 bb a8 bd
       0.080834344 0.0033277518 0.26442605 -0.08238902
000340 05 9e 14 be 73 d6 a1 3d d0 49 3f bd 9f be bd 3d
       -0.14513405 0.07902231 -0.046701252 0.09264874
000350 4d 41 9b 3d 41 e4 b0 bc fb e7 45 be 20 2f 1a be
       0.075808145 -0.021593215 -0.19326775 -0.1505704
000360 1e fb 2c be 94 5d a1 3d 98 a4 ed 3d a4 09 1b 3e
       -0.16892669 0.07879177 0.116036594 0.15140396
000370 a8 f8 de bb 8b 77 2e 3e ac df 23 bc 0a d9 0e be
       -0.0068045445 0.1703779 -0.010002058 -0.13949981

encoder_mean.8.bias f4 [14]
000000 eb 53 a7 b5 f1 b9 c7 36 92 a1 d7 34 e6 49 0e b5
       -1.2466893e-06 5.9523086e-06 4.016443e-07 -5.300666e-07
000010 a6 bc 51 33 e5 e1 07 b7 1b b6 13 35 61 4e 34 b5
       4.883318e-08 -8.099222e-06 5.5026766e-07 -6.716928e-07
000020 f0 df d9 b5 f0 c3 41 b6 ba ed b4 34 00 e9 5a b2
       -1.6232934e-06 -2.8873292e-06 3.3700582e-07 -1.2742248e-08
000030 55 90 91 b6 6c e9 ce b5
       -4.338139e-06 -1.5416131e-06

encoder_mean.9.weight f4 [14]
000000 5c 55 f4 3e 9e eb 30 3f e5 1f 02 3f 2e 85 e5 3e
       0.47721374 0.69109523 0.5082992 0.4482817
000010 56 73 ec 3e f3 7c 14 3f 6c 98 25 3f 15 7b 27 3f
       0.46181744 0.5800316 0.646857 0.65422183
000020 3d f6 e8 3e e3 c8 11 3f cd a1 c5 3e 61 3a f2 3e
       0.45500365 0.56947154 0.38600007 0.47310165
000030 f0 a0 bd 3e 00 25 f4 3e
       0.37036848 0.4768448

encoder_mean.9.bias f4 [14]
000000 11 58 50 be bd 32 a9 be 72 81 71 3d 7b 2a b1 3d
       -0.20346095 -0.33046523 0.05896134 0.08650681
000010 df 13 26 3d e1 3c 5d be 4d f5 d6 3c bc 4d 00 bd
       0.040546294 -0.21605255 0.026240015 -0.031324133
000020 0d 4f 3c 3d 00 8c 59 bc e3 84 16 3e d5 5c 50 bb
       0.045973826 -0.0132780075 0.1469913 -0.0031793613
000030 5c 61 dc bc c8 82 72 3d
       -0.026901893 0.059206754

encoder_mean.9.running_mean f4 [14]
000000 ef 46 d8 3d 91 12 86 be b8 4d 96 bc f8 0f b1 bb
       0.105604045 -0.2618604 -0.018347606 -0.005403515
000010 0a 4f c6 bc 9e 4a 9b be f1 d6 32 bc fc cf 87 bd
       -0.02420761 -0.30330366 -0.010915504 -0.06631467
000020 79 ee 45 bd 4d fe 86 bd a3 db 33 3e 82 3a 56 3e
       -0.04832313 -0.06591473 0.17564254 0.20920756
000030 6f 18 3e 3c f5 66 08 bd
       0.011602505 -0.033301312

encoder_mean.9.running_var f4 [14]
000000 bb 45 cc 3c 59 37 eb 3d fc 8a 20 3e 00 a5 99 3d
       0.024935594 0.11485166 0.15678018 0.075021744
000010 ec 07 af 3d e5 4e ab 3d db 4a 6e 3e ae e8 12 3e
       0.08546433 0.08364657 0.23270743 0.14346573
000020 0f ef e0 3d 15 a3 13 3e e7 59 15 3d be f9 8b 3d
       0.10983097 0.1441768 0.03646269 0.06834744
000030 21 d7 03 3d 8f df b8 3d
       0.032187585 0.090270154

encoder_mean.12.weight f4 [12, 14]
000000 0e 17 bb 3c 17 61 a0 be 84 0e 44 3d a2 19 fd 3c
       0.022838142 -0.31324074 0.047865406 0.030896012
000010 00 4b 41 3d 98 59 15 bd 17 6f 4e be 71 48 65 be
       0.047190666 -0.036462396 -0.20159565 -0.22390915
000020 9b 57 22 3d 04 1c 85 be 93 b0 18 bd 71 8c b6 bd
       0.03963433 -0.25997937 -0.03727777 -0.08913506
000030 c7 bb 19 3d 8a 31 7e 3d fd f2 39 3e a0 82 bb bd
       0.037532594 0.062058963 0.18159099 -0.09155774
000040 8b 2a d6 bb 54 d4 db 3d d4 4e 7a 3d 4b 9a 32 be
       -0.0065358332 0.10733858 0.061110333 -0.1744167
000050 8c fe a7 bd f0 14 ba bd a1 aa ab bc d9 89 87 bd
       -0.08202848 -0.09086025 -0.020955386 -0.06618089
000060 72 86 ba 3d d1 de 36 3e 96 24 f9 3d 59 23 c1 3d
       0.09107675 0.17858435 0.12165181 0.0943057
000070 25 57 17 3e fa be 24 bd 67 ae d5 3b 24 6a 85 3b
       0.14779337 -0.040221192 0.0065210345 0.004071491
000080 b9 5f 98 3d fc 56 29 be b1 12 09 be c2 67 da bd
       0.07440133 -0.16537088 -0.13386036 -0.106643215
000090 29 12 3a 3d 42 52 7b bd df 8f 2b 3e 69 88 05 3e
       0.045427475 -0.061357744 0.16754101 0.13040318
0000a0 9c f7 18 3e 04 06 24 3d 5b 9a cc 3d 80 c8 43 3c
       0.14938205 0.0400448 0.099903785 0.011949658
0000b0 7a d3 84 3d b6 71 1f 3d 8e 1d 7e 3d 62 c0 44 be
       0.064856485 0.038926803 0.062039904 -0.19214013
0000c0 f8 b1 fb bd ad 30 ae 3e da b9 4a bc a1 f8 96 3d
       -0.12289804 0.34021512 -0.012373412 0.07371641
0000d0 13 7c da 3d 5f c1 f2 3c 09 cd 8b 3d 30 86 46 3d
       0.106681965 0.029633222 0.06826217 0.048467815
0000e0 84 31 a3 3c c8 2d ab be 43 dc 36 3d f6 ec c5 3d
       0.019921072 -0.33433366 0.04464365 0.09664337
0000f0 f2 83 59 3d 4e e4 5f bd 0a 54 2c be 82 71 48 be
       0.05310435 -0.054661088 -0.16828933 -0.1957455
000100 79 06 bc 3d 1b d1 53 be 4a 36 a7 bd be 3a e5 bd
       0.09180922 -0.20685236 -0.08164652 -0.11192845
000110 cb ce 11 bd 07 db 47 3d cc 4a 94 bd b1 10 1a be
       -0.035597604 0.048792865 -0.07240829 -0.1504543
000120 b5 4c 41 be 0a 66 34 be 17 f0 55 be c4 06 5b be
       -0.18876918 -0.1761705 -0.20892368 -0.213893
000130 28 2b 62 3d 65 bf 2f 3d 4f 76 42 be 41 f8 a4 3d
       0.05521694 0.042907137 -0.18990444 0.08055163
000140 f7 52 b7 3d 27 94 ec 3d 40 fc 52 3d 40 35 3f be
       0.08951371 0.11551695 0.051510096 -0.18672657
000150 80 77 39 bd 48 97 58 be 01 27 ff bd 91 dd 0e be
       -0.04527998 -0.21151459 -0.12458611 -0.13951708
000160 e2 e7 0c be 2a 67 15 be 70 40 d4 3d 51 16 7b 3d
       -0.13760331 -0.14590135 0.10363853 0.06130058
000170 11 47 27 be 8f 3c 17 3e 95 4b 57 3d 03 dc 05 3e
       -0.16335703 0.14769195 0.052562315 0.13072209
000180 f3 bd 8a 3c af 9f 1f be 9b 1b 2f 3e 46 d7 a7 bd
       0.016936278 -0.15588258 0.17100374 -0.08195357
000190 18 b6 9f 3d 41 ed f1 3c 24 cd 82 ba 75 05 3b be
       0.077984035 0.029532077 -0.000997935 -0.182638
0001a0 7c 90 05 3d 45 54 07 bd 7f 02 f3 3d e7 96 ce 3c
       0.032608494 -0.03303935 0.118657105 0.02521844
0001b0 b6 ba 41 3e 54 7c 35 3e 80 62 0f 3e 5e 52 ed bc
       0.18918881 0.17723209 0.14002419 -0.02896994
0001c0 ca ba 5f be 2d 53 c2 3e 3a ef 48 bd 9f 23 9a bd
       -0.21848598 0.37954083 -0.04905627 -0.075263254
0001d0 f1 d4 b7 bd f0 40 23 3e 91 a4 b3 bd 93 b8 bf bd
       -0.08976162 0.1594274 -0.08771623 -0.093613766
0001e0 11 65 3d bd 01 74 d4 bd c6 b6 73 bd 21 a0 df 3d
       -0.046238963 -0.103736885 -0.05950048 0.10919214
0001f0 e8 1a 10 be a5 41 21 bd 01 6b 17 3e c4 2a ba bd
       -0.14072764 -0.039369244 0.14786913 -0.09090188
000200 d3 a9 c5 3d 75 62 ca 3d b0 4d 86 3d 69 82 35 be
       0.09651532 0.098820604 0.065577865 -0.17725529
000210 35 06 03 be d4 e4 fb bd b2 78 96 3b ff 50 10 be
       -0.12795337 -0.12299505 0.0045920247 -0.14093398
000220 0e ac e2 3d ee 58 d5 3d 26 1e 7c 3d ac 23 75 3c
       0.11067973 0.104173526 0.06155219 0.014962118
000230 8d 59 69 bd b8 d0 04 be 25 b6 35 be 0f d3 2f be
       -0.056970168 -0.12970245 -0.17745264 -0.17170356
000240 f6 26 5b be cf 40 5a be 08 bf 7e 3d 4d c5 15 3d
       -0.21401581 -0.21313785 0.0621939 0.036565114
000250 a7 fb 39 be 6e 0e 6a 3c cb 7a a6 3d 06 db 11 3e
       -0.18162404 0.014285667 0.0812889 0.14243707
000260 fe 13 66 3b 35 34 32 be fd 8a 39 3d 78 fe 8a be
       0.003510713 -0.17402728 0.045298565 -0.2714727
000270 0e ed 61 3d 9f b1 71 3b 2c 96 98 3d b1 90 dc bd
       0.055157714 0.0036879552 0.07450518 -0.10769785
000280 3d 26 51 be de 1b 77 be ff 9c 8a 3d 60 95 7e be
       -0.20424743 -0.24131724 0.06768226 -0.2486167
000290 99 68 05 bd 9e 12 41 bb 40 85 3c 3c 04 0b 68 3d
       -0.032570455 -0.002946056 0.011506379 0.05665113

encoder_mean.12.bias f4 [12]
000000 59 3b 86 36 ae 40 f0 b5 c0 bc 67 34 e0 82 a7 35
       4.00042e-06 -1.7900218e-06 2.1582218e-07 1.2480559e-06
000010 ac 16 ad b6 ad 31 e5 b5 74 f7 7f b5 47 bc 20 35
       -5.158441e-06 -1.7076287e-06 -9.5354994e-07 5.9878624e-07
000020 9d f7 8a 37 96 ea 05 34 68 50 ad b6 90 42 0f 34
       1.6566186e-05 1.2471932e-07 -5.1651623e-06 1.3342128e-07

encoder_mean.13.weight f4 [12]
000000 58 54 70 3f 23 7c 35 3f ce 64 3e 3f b8 f8 4d 3f
       0.938787 0.7089254 0.74372566 0.8045764
000010 a5 aa 6b 3f 3a 2b 89 3f 60 0a 71 3f d4 7b 36 3f
       0.9205726 1.0716317 0.94156456 0.71282697
000020 85 66 ac 3f df 37 3b 3f d9 88 7e 3f 01 25 67 3f
       1.3468786 0.7313213 0.9942756 0.9029084

encoder_mean.13.bias f4 [12]
000000 30 86 14 3e 4b 74 66 3e 76 fc 57 3e 8f 8c ba 3e
       0.14504313 0.225053 0.210924 0.36435363
000010 f0 10 48 3e 47 77 0b 3e 7c 2d 5d 3e 3e 76 8c 3e
       0.19537711 0.1361972 0.21599382 0.27433962
000020 ac c3 d3 3d 9c 9b 7f 3e 9b e8 ea 3d 09 ab 25 3e
       0.10340056 0.24961704 0.11470147 0.16178526

encoder_mean.13.running_mean f4 [12]
000000 46 06 13 be ca b4 4d 3d 47 c8 04 3d db 41 ee 3d
       -0.14357862 0.050221242 0.03241756 0.11633655
000010 ab 78 ef bd 2e ff 1f be ed bd 92 bd 2a 05 ea 3d
       -0.116929375 -0.15624687 -0.07165132 0.11426766
000020 c1 1b e3 bd 15 3f 5d 3c e6 4a 28 be 7d 9b 06 be
       -0.11089278 0.013503809 -0.16434821 -0.13145252

encoder_mean.13.running_var f4 [12]
000000 b0 6b 8f 3d 0d bb a2 3d cf fd 8b 3d 3e c8 0e 3d
       0.07002962 0.07945833 0.068355195 0.034858935
000010 58 12 82 3d a1 85 c5 3d a6 40 a2 3d 98 69 94 3d
       0.06351155 0.09644628 0.07922487 0.07246703
000020 72 a8 21 3d 2a 2f ab 3d d9 e8 aa 3d b0 10 a1 3d
       0.039467283 0.08358605 0.083451934 0.07864511

encoder_mean.16.weight f4 [10, 12]
000000 6d 68 c2 3c f4 76 bf 3b 95 ca 3e 3d 4c a4 10 bd
       0.023731435 0.0058430377 0.046579916 -0.035312936
000010 0b 43 fb 3d ed 97 7d bd 7a 88 01 bc dd 14 8b bd
       0.12268647 -0.061912466 -0.007906074 -0.06791089
000020 ae 7d 61 3c 16 76 17 bd 95 2a a0 3d 4c a7 3e 3b
       0.0137628745 -0.03697785 0.07820622 0.0029091416
000030 41 75 10 3f ee 4e db 3d 34 80 81 3d 8a fd 8d be
       0.56428915 0.10708414 0.06323281 -0.27732497
000040 4e 4a 17 3f 29 9f 06 bf 62 c8 f8 be 1e a2 ff bc
       0.59097755 -0.5258661 -0.4859038 -0.031205233
000050 e2 88 8c be 9a 2b 83 3e a0 6d 22 bf b5 9c 15 3f
       -0.27448183 0.25619203 -0.63448524 0.5844224
000060 c6 06 21 be 6b cd fd 3c ce 01 6b 3c 47 3f 12 3e
       -0.1572524 0.03098174 0.014343692 0.14281951
000070 5a 29 1f be 34 03 63 3b f3 45 6f bd 1b 3e 03 3e
       -0.15543118 0.003463936 -0.05841632 0.1281666
000080 c4 6f 06 3e 8a 78 9e 3c dc 31 37 bb 7e 58 e4 bd
       0.13128573 0.019344587 -0.0027953302 -0.11149691
000090 47 17 cc 3c cf 77 08 bb 83 70 a1 bc 6e b5 e1 ba
       0.024913443 -0.0020823365 -0.01970697 -0.0017220208
0000a0 a3 2b 03 3d e7 40 6f 3c 9b c7 66 bb 9a b6 ec bb
       0.032024037 0.014602876 -0.003521419 -0.0072239162
0000b0 d3 30 8f bc 7d 8c 92 3c 0c cd 2d bb 40 58 22 3b
       -0.017479336 0.017889256 -0.0026519923 0.002477184
0000c0 8d 2c a3 3e 68 16 00 3f 7a 9d 02 3f 38 77 a7 3e
       0.31869927 0.5003419 0.5102154 0.32708144
0000d0 df 32 61 3e c8 22 c3 be 77 5b c4 be 8e f8 d5 3e
       0.21992062 -0.38112473 -0.38351032 0.41791195
0000e0 40 19 9d be bc 3a ff 3e d9 70 e7 be 2d 5e b3 3e
       -0.30683327 0.49849498 -0.45203283 0.35032788
0000f0 86 3e a2 3e 0c ca 85 be a1 a3 93 be ff 5c 2c bf
       0.31688327 -0.26130712 -0.28835776 -0.673294
000100 23 8c 80 3e 78 f2 99 be 17 a4 ce be 8a e1 e0 be
       0.25106916 -0.300678 -0.40359566 -0.43922073
000110 55 0f 71 3f 85 79 25 be 1e 4b 73 be 37 ac 5e 3e
       0.9416402 -0.16159637 -0.23759124 0.21745382
000120 0a 1d b3 be c4 4c 63 3d ba 25 84 bc 9d d6 56 3e
       -0.34983093 0.05549313 -0.01613127 0.20980306
000130 a5 22 8e be 34 0b ed 3e b0 d6 ba 3e b1 6f cd 3d
       -0.27760807 0.4629761 0.3649192 0.10031069
000140 a1 2f be be 7b f5 f9 bd 2d e6 d6 3e 68 71 90 be
       -0.37145713 -0.12205025 0.41972485 -0.28211522
000150 f0 16 1e 3c 1d 78 cd bc 35 1e b1 bd 05 29 68 3d
       0.009649023 -0.025081689 -0.0864834 0.056679744
000160 14 63 8f bd 6c 62 8e 3c e5 83 73 bc 54 8b 00 bd
       -0.070013195 0.017380916 -0.014862989 -0.031382874
000170 c6 32 6f bd bd 04 2d 3d ed dc 88 bc 30 aa 3a 3d
       -0.05839803 0.042240847 -0.016706908 0.04557246
000180 bc 10 9a bd 32 22 2d 3c a5 32 11 3d ac aa 4b 3d
       -0.07522723 0.010567235 0.03544869 0.049723312
000190 62 f1 8d bd db 0a 45 3d ca 29 89 bc f5 2c 93 3d
       -0.06930806 0.048106056 -0.01674356 0.07186309
0001a0 a3 62 6e 3c 60 d0 fa bc 75 fa 57 bd 14 59 2f bd
       0.014549884 -0.030616939 -0.05272909 -0.04280956
0001b0 d9 ce e4 3d 14 58 0d 3e 62 4e 38 3d ee 69 e7 3d
       0.111722656 0.1380313 0.044996627 0.11299501
0001c0 51 6b 3c 3e 2e 20 23 bd 29 15 4c 3e 06 4d 8d 3d
       0.18400313 -0.03982561 0.19929947 0.06899457
0001d0 73 35 56 bf 51 13 ce 3d db 6e 26 3b a3 46 a1 3d
       -0.8367531 0.10062278 0.0025395665 0.07874801

encoder_mean.16.bias f4 [10]
000000 d6 49 0d bd c0 ed d1 3d f1 f8 8e 3b da da 91 bc
       -0.034494244 0.10250425 0.004363172 -0.017804552
000010 2f 63 d9 be 9d 88 5f 3e bc 96 18 bd 2f e1 5c 3d
       -0.42458484 0.21829458 -0.037253127 0.05392569
000020 b6 1d ea 3c e4 61 57 3d
       0.02857862 0.05258359

encoder_var.0.weight f4 [20, 30]
000000 41 ce 92 ba b0 df 12 3a a7 41 57 b9 bd 9f 36 ba
       -0.0011200384 0.000560279 -0.00020528455 -0.0006966552
000010 a6 87 a4 3a 46 9a c8 ba e2 ad 42 39 56 3c 43 3a
       0.0012552633 -0.0015304766 0.00018566058 0.00074476504
000020 17 b8 0e ba 89 4f 70 ba 47 19 85 3a 97 bb ff b8
       -0.00054443016 -0.0009167125 0.0010154628 -0.00012194289
000030 70 ce bf b7 0b 76 34 ba 64 64 7d ba 6b 83 b1 3a
       -2.2865104e-05 -0.0006884045 -0.00096661435 0.0013543194
000040 7c 38 6e b9 1d 8d 64 38 23 59 6e ba e0 46 70 b7
       -0.00022718491 5.4490858e-05 -0.0009092262 -1.4321617e-05
000050 f0 3c 4d ba 39 ab f2 39 e8 9b 61 ba 34 60 7c 3a
       -0.000782921 0.00046285408 -0.00086063007 0.00096273725
000060 1d 6d d9 39 e0 fa b6 39 04 2e c4 b9 a3 1f cf 39
       0.0004147076 0.00034900662 -0.00037418318 0.00039505688
000070 e0 65 d1 b9 29 cc 68 bb 65 77 12 bc 4b 2f 05 ba
       -0.0003993949 -0.003552208 -0.008939599 -0.00050805946
000080 dd e9 11 b9 0a d9 e9 3a 12 4a 91 39 d8 a5 54 ba
       -0.00013915398 0.0017841172 0.00027711742 -0.0008111871
000090 0d 29 90 3a f6 56 fd ba fa 6a 6c ba fc 63 22 ba
       0.0010998562 -0.0019328285 -0.00090186263 -0.00061947084
0000a0 9e c2 30 ba 63 59 bd ba d0 23 de 3a a2 e3 14 3b
       -0.00067428674 -0.0014446195 0.0016947929 0.0022718688
0000b0 30 35 6c ba f8 ff 0c bb 7b 77 20 3a 53 34 56 3b
       -0.0009010611 -0.0021514874 0.00061213196 0.0032684996
0000c0 54 d9 4b 39 4c 86 54 bb b4 e4 e7 3a b7 3e 26 bb
       0.0001944055 -0.003242868 0.001769206 -0.002536697
0000d0 ea 0b 0e ba c8 aa 44 3b ce 2e 17 3b f0 bd aa ba
       -0.00054186455 0.003000902 0.002306867 -0.0013026576
0000e0 88 22 ab 3a 24 cd bd 3a 88 1f bc ba d4 bf 06 bb
       0.0013056556 0.0014480692 -0.0014352659 -0.0020561116
0000f0 ce 67 5d 38 94 a2 93 37 6e 29 16 39 48 e9 69 38
       5.278718e-05 1.7599472e-05 0.00014320549 5.576879e-05
000100 02 e1 5b b9 17 0f 7b b7 94 ec 32 b8 04 f9 77 b9
       -0.0002096929 -1.4964279e-05 -4.2658838e-05 -0.00023648521
000110 9c 66 12 b8 2e 7e bf b8 81 e5 22 38 4e 11 70 37
       -3.4904675e-05 -9.1310925e-05 3.8837552e-05 1.4309144e-05
000120 45 0c a3 b7 73 9c c9 b7 6b 66 b7 b6 87 d5 10 b7
       -1.9436828e-05 -2.403392e-05 -5.465748e-06 -8.632785e-06
000130 be 6b 70 b6 2e 71 ca b6 00 4f 11 b8 20 33 12 39
       -3.58255e-06 -6.033245e-06 -3.464427e-05 0.0001394269
000140 d5 a3 1e 38 12 3d 70 b8 9e f0 54 b8 c4 02 97 36
       3.7822716e-05 -5.7277335e-05 -5.076883e-05 4.5004726e-06
000150 e4 f7 71 b7 84 57 81 39 ce 37 84 b9 dc f0 de 38
       -1.4422436e-05 0.00024670002 -0.0002521858 0.000106306485
000160 a2 92 dc b8 56 72 f8 38 b7 ca ae bd fd 3d a0 bc
       -0.0001051773 0.00011846858 -0.085347585 -0.019560808
000170 31 e5 9f bb 65 94 b1 3b 62 aa fa 3a 81 c0 71 bb
       -0.0048796167 0.0054193013 0.0019124264 -0.0036888423
000180 a1 7b 6d bb ea 9b a9 bb 3c 3f ba bb 1e 44 75 3b
       -0.0036237019 -0.005176057 -0.0056838077 0.0037424634
000190 f8 f0 72 bb be 70 bc bc e2 96 75 3b 36 9e 03 3c
       -0.0037069898 -0.023002978 0.0037473966 0.008033326
0001a0 5c a6 23 3a a5 e3 b8 bb 3c 5b 61 3b 69 57 3b 3b
       0.0006242746 -0.0056423717 0.0034386655 0.0028586036
0001b0 d6 ba f8 3b 01 d7 33 ba 75 34 a7 3b 60 39 8c bb
       0.007590632 -0.0006860346 0.005102689 -0.0042793006
0001c0 60 65 79 b8 14 36 89 3b df a9 87 bb bb 6f cd 3a
       -5.946064e-05 0.004187355 -0.0041401233 0.0015673557
0001d0 84 a8 cd ba 9b 0d 80 3a 97 0b 80 ba f4 10 51 bc
       -0.001569048 0.000976968 -0.0009769079 -0.01276039
0001e0 ec 60 9e 3a 5b c1 02 3a 6d cf 08 ba 2a 0f 07 b9
       0.0012083328 0.00049879187 -0.0005218897 -0.00012880252
0001f0 12 c1 9b 3a b9 47 0e ba a3 66 c3 b9 09 8d 41 b9
       0.0011883101 -0.00054275576 -0.0003726977 -0.00018458454
000200 6c fa 10 39 68 f9 2c 3a 6a 97 63 ba 28 57 92 38
       0.000138262 0.0006598444 -0.0008681925 6.9780566e-05
000210 1b 59 79 b9 63 1e 77 39 82 94 49 3a f2 4d 08 b9
       -0.00023779685 0.00023567076 0.0007689671 -0.00012999008
000220 75 6a d0 39 82 5d cd ba 3e 94 9c b8 83 b4 c9 3a
       0.00039752168 -0.0015668126 -7.466272e-05 0.001538888
000230 97 e2 0b b9 c1 79 3d 39 cc 62 c1 b9 d4 55 d9 38
       -0.00013340484 0.00018069801 -0.00036885438 0.00010363353
000240 a8 10 5d ba 19 e0 bb b9 be 42 c7 39 42 94 2b 3a
       -0.0008432963 -0.00035834385 0.00038005965 0.00065452245
000250 8b b6 2b ba 53 01 dd 39 31 65 ab bd 8d dc be bc
       -0.00065503333 0.0004215339 -0.0836891 -0.023298526
000260 ac ee f8 39 06 b2 6f 3b 38 8b 29 39 94 42 88 bb
       0.0004748007 0.0036574616 0.00016168959 -0.0041583274
000270 8e 09 a4 3b 6c 17 a4 ba ea 33 ea bb 09 a9 22 ba
       0.005006022 -0.0012519187 -0.007147302 -0.0006204998
000280 b8 8d 3d bb e3 2c 81 bc 70 bf 88 3b 5a 52 5b 3b
       -0.0028923582 -0.015768474 0.0041732118 0.0033465833
000290 b9 15 59 bb 79 a2 cc bb ac 3d e7 ba 90 b4 b6 3b
       -0.003312452 -0.006244954 -0.0017642281 0.005575724
0002a0 2f e8 02 bb 46 28 c5 3a 1b fe 1d 3b ab 3c df bb
       -0.0019974818 0.001504191 0.0024107757 -0.006812652
0002b0 ee 4c 63 3a 61 3f 16 3a 77 8e c9 ba 6d 76 1c bb
       0.0008670826 0.000573149 -0.0015377541 -0.0023874298
0002c0 2c 93 1c 3b d5 a4 f3 39 fd 45 e2 b9 aa d0 b6 bc
       0.0023891432 0.0004647138 -0.00043158224 -0.022316296
0002d0 9b 76 12 3a 43 07 6c 3a c5 88 12 ba 14 b1 06 3b
       0.00055871316 0.00090037676 -0.0005589838 0.0020552324
0002e0 80 8b 25 3a bd 20 af bb cc 82 88 3a b7 24 06 39
       0.00063150376 -0.005344479 0.0010414957 0.00012792913
0002f0 55 e3 0f ba ce 1d 74 3a d9 4b db 39 00 b9 90 39
       -0.0005488892 0.00093123026 0.00041827446 0.00027603656
000300 5b a6 01 3a a7 52 9d b9 6e 50 d5 ba e7 21 05 bb
       0.00049457484 -0.00030006954 -0.001627458 -0.0020314397
000310 ec 81 e7 b9 af f9 96 3b d5 16 87 ba de 18 62 ba
       -0.00044156553 0.0046074013 -0.0010306487 -0.00086249213
000320 46 6c 9c 3a 5b 8b f5 ba 5e f8 8f ba 54 46 b6 3a
       0.0011934123 -0.0018733548 -0.0010984053 0.0013906457
000330 a4 ab 0e b9 44 3d ba ba 6a 38 be 3a 2f f7 da ba
       -0.00013606116 -0.0014208932 0.0014512662 -0.0016705747
000340 b4 74 da 3a 96 8f eb 39 1c 28 f9 b7 24 9e 6d 39
       0.001666686 0.00044929673 -2.970179e-05 0.00022660993
000350 b8 38 1c ba 78 0d 5e b8 b1 d9 6e 3a da aa c0 b9
       -0.00059593795 -5.294147e-05 0.0009111418 -0.00036748388
000360 cf ae c1 37 96 d9 f7 b9 4a 49 1d 38 c4 35 aa b8
       2.3088794e-05 -0.00047273625 3.7499973e-05 -8.116246e-05
000370 a3 cf f3 b8 0c 43 8d 37 fe ed 3c b9 9c 19 94 39
       -0.00011625818 1.6839731e-05 -0.00018017736 0.0002824784
000380 9e 9c 3d ba a6 a9 33 38 8f be 68 39 e2 ac e3 39
       -0.00072331156 4.2834923e-05 0.00022196233 0.00043425622
000390 b1 a8 9f b9 03 d5 d5 38 fa c3 fc b8 f8 a0 b7 39
       -0.00030452528 0.00010196308 -0.000120528 0.0003502441
0003a0 70 08 83 39 9a c8 79 39 80 5c 98 b9 4f 16 32 3a
       0.00024992554 0.0002382122 -0.00029060617 0.00067934854
0003b0 65 10 32 ba 52 2e d7 39 bd b4 d9 b9 72 0b 22 ba
       -0.0006792604 0.00041042507 -0.00041524126 -0.0006181515
0003c0 30 62 97 3a 4e a5 21 b9 77 5b ce b9 31 5b a6 39
       0.0011549648 -0.00015415737 -0.00039359528 0.0003172993
0003d0 db 91 2e 37 79 37 c6 39 03 1c de 39 9d 5c 6f 39
       1.0405168e-05 0.00037806833 0.0004236401 0.00022827317
0003e0 16 e7 2e 39 27 8f e8 39 7f 77 49 b9 ba ae 1e b9
       0.0001668002 0.00044357145 -0.0001921337 -0.00015133145
0003f0 5a a9 b9 b8 1c 79 97 b9 31 ee 9c 3a b7 49 80 b9
       -8.8530316e-05 -0.00028891198 0.0011972842 -0.00024468984

encoder_var.0.bias f4 [20]
000000 b4 44 62 b3 71 7b 8c b4 37 19 98 34 9a db f7 32
       -5.268221e-08 -2.6166848e-07 2.8330552e-07 2.8854448e-08
000010 dd ee de b3 b8 ac f4 b3 6c 8e c6 b2 72 9e 9a 33
       -1.03811296e-07 -1.1393553e-07 -2.3115e-08 7.200005e-08
000020 0a 64 bc b4 ba c8 4f b3 af 23 d1 34 52 a4 56 32
       -3.5090517e-07 -4.8378503e-08 3.8955247e-07 1.24938015e-08
000030 9b fe b5 33 60 49 53 b0 33 e9 49 33 f9 93 2e 34
       8.474782e-08 -7.6865625e-10 4.7011053e-08 1.6258845e-07
000040 20 2b 35 b3 16 9e bb 32 e4 65 bd b2 48 e9 75 b4
       -4.218157e-08 2.1841554e-08 -2.204883e-08 -2.290227e-07

encoder_var.1.weight f4 [20]
000000 9e 89 a9 3b 0c 83 5f 3c 9f 05 fa 39 7e 72 8c 3d
       0.005173876 0.013642084 0.00047687904 0.06857775
000010 c3 b8 6d 3b 04 6f 7b 3d b9 13 2f 3c bf fe 0a 3b
       0.0036273457 0.06138517 0.010685855 0.002120897
000020 bd af 28 3b da df 04 3c 91 64 50 3d fa 46 97 3a
       0.0025739514 0.008110011 0.050877158 0.0011541538
000030 9a 21 8a 3b 2b 6d 17 3b cd 5c 03 3d ad 66 23 3d
       0.0042154314 0.002310584 0.032070924 0.03989284
000040 fd af c5 3b 08 ed 9b 3c db 41 27 3c 66 84 9a 3a
       0.0060329423 0.019033924 0.010208572 0.0011788725

encoder_var.1.bias f4 [20]
000000 4e 90 85 b9 8d 5a 9e bb 00 37 a3 b9 ed 69 19 bd
       -0.00025475252 -0.004832572 -0.0003113076 -0.037454534
000010 16 c4 cc b9 01 ef 8c bc 81 ef f4 3b 16 c3 c2 39
       -0.00039056008 -0.01720381 0.00747484 0.00037147914
000020 29 9c ca ba 30 b8 64 ba 07 94 eb bb 14 38 20 3a
       -0.0015457916 -0.0008724956 -0.007189277 0.0006111872
000030 1a d7 66 3a 13 a9 eb b9 b5 91 d5 3c e0 80 ae bc
       0.00088058563 -0.00044948663 0.026070455 -0.021301687
000040 b9 86 79 3b c1 98 a3 bb ec eb 40 3b 48 f2 34 39
       0.0038074686 -0.004992575 0.0029437495 0.00017256394

encoder_var.1.running_mean f4 [20]
000000 07 ad c7 bb d9 99 61 bb 17 69 e3 b6 c0 f9 28 bd
       -0.0060936245 -0.0034423976 -6.7773612e-06 -0.041253805
000010 f4 92 0a 3b c3 ba 56 bd 33 d9 23 bb 01 b4 a8 ba
       0.002114472 -0.052424204 -0.0025001287 -0.0012871028
000020 32 4a 17 3b 97 bd 89 ba a2 2a e8 bc 72 01 33 ba
       0.0023084995 -0.0010508773 -0.028340641 -0.00068285235
000030 8e 51 96 bb 60 fa 9d ba 7e 5a d1 3c 85 5e 48 bd
       -0.004587359 -0.0012052767 0.025555845 -0.048918266
000040 11 51 11 3b a6 18 9c bc a0 33 50 bb 2d 7c 0b b9
       0.0022173563 -0.019054722 -0.0031769052 -0.00013302332

encoder_var.1.running_var f4 [20]
000000 2f cc 75 37 31 99 37 38 9b 13 83 35 d1 9d b8 39
       1.4650678e-05 4.377327e-05 9.765967e-07 0.00035212797
000010 84 ae f9 36 fe 50 96 39 42 a5 57 38 ee 4a a1 36
       7.4410946e-06 0.00028670573 5.1413903e-05 4.806897e-06
000020 5a ff 9e 36 6c 15 18 38 13 82 dc 39 d9 e3 72 35
       4.7384938e-06 3.6259575e-05 0.00042058583 9.048359e-07
000030 df 32 47 37 fe 28 e0 36 b8 62 eb 39 ea 2f a6 39
       1.1873169e-05 6.6804923e-06 0.00044896244 0.00031697686
000040 11 1b a2 37 2f 47 d0 38 d7 f8 48 38 17 93 8b 35
       1.9324509e-05 9.931472e-05 4.7915466e-05 1.0399116e-06
